best_model.pth (torch, 89385 bytes, 5 tensors)

lstm.weight_ih_l0 f4 [256, 19]
0	0xbf939325	-1.152928
1	0xbf279ed1	-0.6547671
2	0xbdb61c5c	-0.08892128
3	0xbd2b0734	-0.041754916
4	0x3cddfe38	0.02709876
5	0xbd8b38aa	-0.06797917
6	0x3cad0f68	0.02112551
7	0xbf2d8a30	-0.6778898
8	0xbf261c05	-0.64886504
9	0xbf9dde9e	-1.2333562
10	0xbf924d9a	-1.1429932
11	0xbf85b295	-1.0445124
12	0xbf89b1b4	-1.0757356
13	0xbf8b61af	-1.0889186
14	0xbf8e5631	-1.1120054
15	0xbf972fc3	-1.1811451
16	0xbf72470f	-0.94639677
17	0xbf590511	-0.84773356
18	0xbf781fd4	-0.96923566
19	0xbf7a6349	-0.9780775
20	0xbe14cb1c	-0.14530605
21	0x3df95f64	0.121763974
22	0x3dda3bfc	0.10655972
23	0x3df9472e	0.121717796
24	0x3db76a2e	0.08955799
25	0xbd3ca314	-0.04605396
26	0xbf40d090	-0.7531824
27	0x3de58400	0.112068176
28	0xbf5985aa	-0.8496958
29	0xbf6923b9	-0.91070133
30	0xbf5e09f0	-0.86733913
31	0xbf8c7f5d	-1.0976368
32	0xbf70b5b8	-0.9402728
33	0xbf741999	-0.9535156
34	0xbf8b3481	-1.0875398
35	0xbf7ea890	-0.99475956
36	0xbef486e0	-0.4775915
37	0xbf069428	-0.5256982
38	0x3e5c0732	0.2148712
39	0x3e8b848c	0.27249563
40	0x3cafe228	0.021470144
41	0x3cba34c0	0.022730231
42	0x3d40bc54	0.047054604
43	0x3dc7a99c	0.09749147
44	0xbdde790e	-0.10862933
45	0xbf87c3dc	-1.0606647
46	0xbfc2bf1b	-1.5214571
47	0xbfc51c1b	-1.5399202
48	0x3e1a74fd	0.1508369
49	0x3e319800	0.1734314
50	0x3e87abde	0.26498312
51	0x3e977949	0.2958472
52	0x3e9ece38	0.31016707
53	0x3e8d4a9d	0.27595988
54	0x3dda0054	0.10644594
55	0x3dfa8bd6	0.12233703
56	0x3df18b1a	0.1179411
57	0x3e966d6e	0.29380363
58	0x3e98516a	0.29749614
59	0x3cfbd798	0.030742452
60	0x3d722da0	0.059125543
61	0xbde2795e	-0.11058305
62	0x3da71176	0.08157627
63	0x3cfb9ad0	0.030713469
64	0xbdc333af	-0.09531342
65	0x3ea1110b	0.31458315
66	0x3eb2887f	0.34869763
67	0x3de9e669	0.114209004
68	0x3e9999ff	0.30000302
69	0x3e3420c2	0.17590621
70	0x3e5dfe4d	0.2167904
71	0x3e069d53	0.13145952
72	0x3e9d956c	0.30778062
73	0x3dcb02c1	0.09912635
74	0x3e3da34b	0.18519323
75	0x3e4e23b2	0.20130804
76	0xbf5777d9	-0.8416725
77	0xbf2ff2a6	-0.6872963
78	0x3dbc67ee	0.091995105
79	0x3dc19b54	0.094534546
80	0x3df344f6	0.11878388
81	0x3d681478	0.056660146
82	0x3d94dd44	0.072687656
83	0xbea0ff23	-0.31444654
84	0x3f52ce69	0.82346207
85	0xbb562c7e	-0.0032680328
86	0xbf2f60be	-0.6850699
87	0xbf5149fe	-0.8175353
88	0xbf3e0b6b	-0.7423617
89	0xbf35555c	-0.70833373
90	0xbf35b842	-0.7098428
91	0xbf46cbb9	-0.77654606
92	0xbf46f336	-0.7771486
93	0x3de4ac9c	0.11165735
94	0xbea5dd4e	-0.32395405
95	0x3f088cd5	0.5333989
96	0x3ee1396e	0.43989128
97	0x3dff5842	0.12468006
98	0x3de1ff62	0.110350385
99	0x3d3dc050	0.04632598
100	0xbc732020	-0.014839202
101	0x3dd07e1e	0.10180305
102	0x3eb37d77	0.3505666
103	0x3d050163	0.032472026
104	0xbdcd29c1	-0.100177296
105	0x3ed4de29	0.41575745
106	0x3f2f38be	0.68445957
107	0x3f0d395a	0.55165637
108	0x3f2cd830	0.67517376
109	0x3f2bb97a	0.6707989
110	0x3f1dd691	0.6165553
111	0x3f0fb78b	0.5613944
112	0x3ea1b3c1	0.31582454
113	0x3e8bfbe3	0.27340612
114	0xbfa26b6a	-1.268903
115	0xbe640cb2	-0.22270468
116	0x3bf17b60	0.007369444
117	0x3d635a8c	0.055506274
118	0x3df56592	0.119822636
119	0xbd8c4ab4	-0.06850186
120	0x3cb316a0	0.021861374
121	0xbf249f50	-0.6430559
122	0xbe90631d	-0.28200617
123	0xbf7e2c51	-0.9928637
124	0xbf9133ff	-1.1343993
125	0xbf9cf88f	-1.2263354
126	0xbf8b37b8	-1.0876379
127	0xbf8dc628	-1.1076097
128	0xbf9dde1f	-1.2333411
129	0xbfa5e523	-1.2960552
130	0xbf8ffc27	-1.1248826
131	0xbf46b6da	-0.7762276
132	0xbf669fab	-0.90087384
133	0xbf4b34c2	-0.7937738
134	0xbebcdb99	-0.3688629
135	0xbcd586d8	-0.026065275
136	0xbc01b790	-0.0079173
137	0xbcd11ea8	-0.025527313
138	0xbd628b78	-0.05530879
139	0x3d494c84	0.049145237
140	0xbf0be5f3	-0.5464775
141	0xbed77c29	-0.42086914
142	0xbf244e3e	-0.6418189
143	0xbf8089b5	-1.0042025
144	0xbf72c142	-0.9482614
145	0xbf6078f8	-0.87684584
146	0xbf58d503	-0.8470003
147	0xbf3d51f2	-0.73953164
148	0xbf4c492f	-0.7979917
149	0xbf60d271	-0.8782111
150	0xbee44201	-0.44581607
151	0xbefecd84	-0.4976617
152	0xbee7d514	-0.45279753
153	0x3d836ffa	0.06417842
154	0xbd2d3fac	-0.04229705
155	0x3dae21ee	0.08502565
156	0x3daf660c	0.08564386
157	0x3d98dce4	0.074640065
158	0x3de83282	0.113377586
159	0xbfa058ec	-1.2527137
160	0x3f2e0513	0.6797649
161	0xbe0d52ac	-0.13801068
162	0xbec58f46	-0.3858587
163	0xbf1cf868	-0.6131654
164	0xbf1820b8	-0.59424925
165	0xbf0e52bd	-0.55595
166	0xbef1ed07	-0.4725115
167	0xbf2d3809	-0.6766363
168	0xbf119e64	-0.5688231
169	0x3f6adee1	0.91746336
170	0x3e89fa3d	0.2694873
171	0x3f1de17a	0.61672175
172	0x3f539c78	0.8266063
173	0xbd324070	-0.043518484
174	0xbcfa0b18	-0.030522868
175	0xbdc699a2	-0.09697272
176	0xbbbfbea0	-0.0058515817
177	0xbc605500	-0.013692141
178	0x3ec5b218	0.38612437
179	0x3eb020a8	0.34399915
180	0x3ee18589	0.44047192
181	0x3f4b265b	0.793554
182	0x3f3f0bea	0.74627554
183	0x3f441d2d	0.7660702
184	0x3f4ceb73	0.80046767
185	0x3f56395f	0.8368129
186	0x3f58fb29	0.8475824
187	0x3f47e0bd	0.780773
188	0x3e7972d2	0.24360207
189	0x3f2d11f7	0.6760554
190	0xbfa2ee35	-1.2728945
191	0xbea04778	-0.31304526
192	0xbd9c93d0	-0.076453805
193	0x3dfd5e90	0.12371552
194	0xbcb25dd8	-0.021773264
195	0xbd6dd1c0	-0.05806136
196	0xbd670384	-0.056399837
197	0xbf20f84b	-0.62878865
198	0xbf1486a1	-0.5801793
199	0xbf72e084	-0.94873834
200	0xbfa7da8b	-1.3113569
201	0xbfac9999	-1.3484374
202	0xbfa61e91	-1.2978078
203	0xbfa80bca	-1.3128598
204	0xbfaa7504	-1.331696
205	0xbfa96d21	-1.3236428
206	0xbfb04197	-1.3770016
207	0xbf8466c0	-1.0343857
208	0xbf9ad3a3	-1.2095836
209	0xbf488796	-0.7833189
210	0xbf868ffc	-1.051269
211	0x3cd76d48	0.026297227
212	0xbd8dc21e	-0.069217905
213	0x3ca71660	0.020396411
214	0x3dbbd554	0.091715485
215	0x3ca1b738	0.019740686
216	0xbefcdaf1	-0.4938579
217	0xbf447a73	-0.7674934
218	0xbf1c22ca	-0.60990584
219	0xbf3994c7	-0.7249264
220	0xbf481171	-0.78151613
221	0xbf45eae9	-0.7731157
222	0xbf2fa5a7	-0.6861214
223	0xbf143d27	-0.5790581
224	0xbf3fcd9e	-0.7492312
225	0xbf355a97	-0.70841354
226	0xbf64832c	-0.8926265
227	0xbf2e36c3	-0.6805231
228	0xbe25a709	-0.16177
229	0x3dd6c05d	0.10485909
230	0x3dc2ca84	0.09511283
231	0xbd67dfa0	-0.05660975
232	0x3dde322e	0.10849415
233	0xbd0effdc	-0.034911975
234	0xbd240738	-0.040045947
235	0x3f150319	0.5820785
236	0x3f56d990	0.83925724
237	0x3b085111	0.0020800272
238	0xbdb3b043	-0.08773854
239	0xbe294259	-0.16529216
240	0xbe0fbc7a	-0.14036742
241	0xbdc5505c	-0.09634468
242	0xbe064e66	-0.13115844
243	0x3df9f2c0	0.12204504
244	0xbe22e997	-0.1590942
245	0xbed9d343	-0.42543992
246	0xbe20d94b	-0.1570789
247	0x3f2b4751	0.66905695
248	0x3f0fc3ca	0.56158125
249	0x3d322434	0.043491557
250	0xbd64649c	-0.05576001
251	0x3c9dd3d0	0.01926604
252	0xbdd4e99c	-0.1039612
253	0x3d29f900	0.04149723
254	0x3f0a36af	0.5398969
255	0x3f1a50ec	0.60279727

lstm.weight_hh_l0 f4 [256, 64]
0	0x3a5b4c2e	0.00083655387
1	0xbe0b4df2	-0.13603953
2	0x3ea05b6e	0.31319755
3	0x3c8e712a	0.017387945
4	0xbd439dd5	-0.047757942
5	0xbe66d0ec	-0.22540635
6	0xbe24b5d4	-0.16084987
7	0xbc2ff168	-0.010738708
8	0xbe1aab54	-0.15104419
9	0xbdb6c026	-0.08923368
10	0xbae925aa	-0.0017787714
11	0x3dabfd55	0.083979286
12	0x3de73fd8	0.11291474
13	0x3d24af06	0.040205978
14	0xbd555608	-0.052084
15	0x3d6bbefd	0.057555187
16	0x3df35b0f	0.118826024
17	0x3ef172dd	0.47157946
18	0xbd29af55	-0.041426975
19	0xbd8a4a05	-0.06752399
20	0xbe6d2062	-0.23156884
21	0xbe0a0edb	-0.1348223
22	0xbf1e34b3	-0.6179916
23	0xbde5f754	-0.11228815
24	0xbf2b9a07	-0.670319
25	0x3da3c3b1	0.079963095
26	0x3c6bea24	0.014399085
27	0x3da739ca	0.08165319
28	0xbef90d6b	-0.4864305
29	0x3d306e5a	0.04307399
30	0xbdc93376	-0.098242685
31	0x3f40f78e	0.7537774
32	0x3cca8c71	0.02472517
33	0x3e4b6ac8	0.19864953
34	0x3dba5cf6	0.09099762
35	0x3e4de612	0.20107296
36	0x3dade184	0.08490279
37	0x3dda46af	0.10658013
38	0x3d52a7a1	0.051429395
39	0xbe4e2755	-0.20132191
40	0xbee30845	-0.44342247
41	0xbe2c10bc	-0.16803259
42	0xbe300c28	-0.17192137
43	0xbeff4440	-0.49856758
44	0xbd31386e	-0.043266706
45	0xbe87d8bd	-0.26532546
46	0xbe3e397f	-0.1857662
47	0xbd819182	-0.063265815
48	0x3e0bc225	0.13648279
49	0x3db0bc76	0.08629696
50	0xbab1861f	-0.0013544
51	0xbe4b3bb8	-0.19847
52	0x3ea0205c	0.31274688
53	0xbd5d4a78	-0.054026097
54	0xbc479fad	-0.012184066
55	0x3e52ce07	0.20586406
56	0xbe331725	-0.17489298
57	0xbd222992	-0.039590426
58	0xbe070a3e	-0.13187501
59	0x3de8cffe	0.11367796
60	0x3eb0caaf	0.34529635
61	0xbf351f81	-0.70751196
62	0x3c098c97	0.008395336
63	0xbcc523f3	-0.024064993
64	0x3e16dc51	0.14732482
65	0xbe547879	-0.20749082
66	0x3dc25c1f	0.09490227
67	0xbcaa0bfe	-0.020757671
68	0xbe326a8f	-0.17423461
69	0xbe3e16ec	-0.18563432
70	0xbe388875	-0.18020804
71	0x3d0e2196	0.0347
72	0x3df83ab9	0.121205755
73	0xbd29a281	-0.04141474
74	0x3d89ded3	0.067319535
75	0x3cba734c	0.022760056
76	0x3e5f0a59	0.21781291
77	0xbdafb594	-0.08579555
78	0xbd9427d8	-0.07234162
79	0xbe1ca132	-0.15295866
80	0xbe17fe94	-0.14843208
81	0xbdc4fdc2	-0.09618713
82	0xbd9f81fd	-0.07788465
83	0xbe5bf135	-0.21478732
84	0xbe43b90f	-0.19113563
85	0x3e3ed556	0.18636069
86	0x3d84fb30	0.06493223
87	0xbe36893d	-0.1782579
88	0xbe173dc3	-0.14769654
89	0x3e2a7ac3	0.16648392
90	0xbe294ee2	-0.16533998
91	0xbe1819dc	-0.14853615
92	0x3df6edce	0.120570764
93	0x3e1e76bc	0.15474981
94	0xbe3dca0e	-0.18534109
95	0x3da2c91a	0.07948513
96	0x3c2f332a	0.010693351
97	0xbcfd96ef	-0.03095576
98	0x3e61339f	0.21992348
99	0x3d470ea7	0.048597958
100	0x3dde0d84	0.10842422
101	0xbe4d84a8	-0.20070136
102	0xbe2fa180	-0.17151451
103	0xbc505cc4	-0.01271743
104	0xbc87471c	-0.0165134
105	0xbde234de	-0.1104524
106	0x3e458cf6	0.19292054
107	0xbc9e7123	-0.019341057
108	0xbbb49345	-0.00551072
109	0x3e16bf8e	0.1472151
110	0x3da97201	0.08273698
111	0x3e239b87	0.15977298
112	0xbc363f70	-0.011123523
113	0x3de787c9	0.11305196
114	0x3e5af9a5	0.21384294
115	0x3ab9d492	0.0014177731
116	0xbce7d370	-0.028299063
117	0x3e69b83e	0.22824189
118	0xbe021643	-0.12703805
119	0x3de57d12	0.11205496
120	0x3e439b1d	0.1910214
121	0xbe152883	-0.14566235
122	0xbdf654b3	-0.12027874
123	0x3de5094b	0.11183413
124	0xbc744f38	-0.014911465
125	0xbd43c3ba	-0.04779408
126	0xbdda57ba	-0.10661264
127	0x3d21d365	0.039508242
128	0xbb35edc0	-0.0027760118
129	0xbccd0663	-0.02502746
130	0xbd3e66f2	-0.046484895
131	0xbdfda8f9	-0.123857446
132	0x3d5a233c	0.05325626
133	0xbccf1cd5	-0.025282303
134	0xbd39d76e	-0.045371465
135	0xbc1eab3a	-0.009684378
136	0x3f4dc3cf	0.80376905
137	0x3f590c01	0.8478394
138	0x3c9407da	0.01807015
139	0x3d60cf80	0.054885387
140	0x3f1cd8fe	0.61268604
141	0xbf4fcb00	-0.8116913
142	0xbe0991a0	-0.13434458
143	0x3d9bec23	0.07613399
144	0xbf68283d	-0.906864
145	0xbfa81b57	-1.3133343
146	0x3ca60343	0.020265227
147	0xbe115e1c	-0.14196056
148	0xbe479ebc	-0.19494146
149	0x3f324945	0.6964305
150	0x3fd8e639	1.6945258
151	0xbe5c967e	-0.21541783
152	0x3fc2fc53	1.5233253
153	0x39b743e1	0.00034955054
154	0xbf4fa120	-0.8110523
155	0xbf95951b	-1.1686128
156	0x3fbce801	1.4758302
157	0xbdcc0410	-0.09961712
158	0xbf4128bc	-0.7545278
159	0xbfb892f6	-1.4419849
160	0x3c42c2a0	0.0118872225
161	0x3d11484b	0.035469335
162	0x3e3f457a	0.18678847
163	0xbf5446ca	-0.82920516
164	0x3f32deab	0.69871014
165	0xbf602389	-0.8755422
166	0xbeaefd44	-0.341776
167	0xbdcb20b6	-0.099183485
168	0x3fc27ab3	1.5193695
169	0xbd61f84f	-0.055168446
170	0x3f9800f4	1.1875291
171	0x3e62f75e	0.22164676
172	0x3f15318d	0.58278733
173	0x3f998e12	1.1996481
174	0x3fd0ce51	1.6312963
175	0xbcdc62d1	-0.026902588
176	0x3ef9f767	0.48821566
177	0xbe23ded4	-0.16002971
178	0x3edd156b	0.43180403
179	0x3f8e3108	1.1108713
180	0xbf9f7ff7	-1.2460927
181	0x3ebe4ed6	0.37169522
182	0xbd3e8a01	-0.04651833
183	0xbf02d743	-0.51109713
184	0x3f09ddc3	0.53854007
185	0xbe089ecc	-0.13341826
186	0xbddc4731	-0.10755766
187	0x3e7071bc	0.23480886
188	0xbf4bc7d4	-0.7960179
189	0x3fa944b8	1.3224096
190	0xbe79a7fd	-0.24380489
191	0x3d7d2731	0.061804954
192	0x3d511507	0.051045444
193	0x3bddd570	0.0067698285
194	0x3e12031f	0.14259003
195	0xbee23418	-0.4418037
196	0xbe901112	-0.28138024
197	0xbd8b2974	-0.06795016
198	0xbe4fa8cc	-0.20279235
199	0x3d0052a6	0.03132882
200	0x3eb491ae	0.35267395
201	0x3d4b7033	0.04966755
202	0xbd465bfd	-0.04842757
203	0x3eea867d	0.4580573
204	0x3d960139	0.07324452
205	0xbdf9cd43	-0.12197354
206	0xbea4e4af	-0.32205722
207	0x3dda028f	0.10645019
208	0xbed14834	-0.408754
209	0xbe4e7419	-0.20161475
210	0x3e637346	0.22211942
211	0xbed8354e	-0.42228168
212	0x3d11bf77	0.035582986
213	0xbd0ba25d	-0.03409039
214	0x3edd4645	0.43217674
215	0xbc007170	-0.007839546
216	0xbe7bc202	-0.24585727
217	0x3d990937	0.07472461
218	0xbe9afc4b	-0.3027061
219	0xbea4297e	-0.32062906
220	0x3eb66143	0.3562108
221	0x3e12d6c0	0.14339733
222	0xbe792776	-0.2433146
223	0xbe3d99f3	-0.18515758
224	0xbecc7216	-0.3993079
225	0x3df26902	0.11836435
226	0x3ed96657	0.42460892
227	0xbee4a669	-0.4465821
228	0xbd0d229b	-0.03445683
229	0xbecea405	-0.40359512
230	0xbe4ff34b	-0.20307653
231	0xbe1e0a0e	-0.15433523
232	0x3ec7fb27	0.39058802
233	0xbcf42fca	-0.029807944
234	0x3e8bf10c	0.27332342
235	0xbcf60dfc	-0.030035965
236	0xbeb96740	-0.36211586
237	0x3eda6f96	0.42663258
238	0x3e7464a4	0.23866516
239	0x3ec239cb	0.37934718
240	0x3e1d95a3	0.15389113
241	0x3dd6b25c	0.10483238
242	0x3ead7d86	0.3388483
243	0x3e8e6500	0.27811432
244	0xbe952378	-0.29128623
245	0x3ebcb91f	0.36859986
246	0xbdedcbe2	-0.11611153
247	0x3eaccabe	0.3374843
248	0x3e60ad0c	0.21941012
249	0xbed25b25	-0.41085163
250	0xbdb8a6c8	-0.09016186
251	0xbcd9fd89	-0.026610153
252	0xbe24d1f8	-0.16095722
253	0x3f136d00	0.57588196
254	0xbea39aac	-0.31953943
255	0x3ebee9d8	0.37287784

lstm.bias_ih_l0 f4 [256]
0	0xbf8d0935	-1.1018435
1	0xbf327504	-0.697098
2	0x3e4ef828	0.20211852
3	0x3e759f43	0.23986535
4	0xbf59b4ee	-0.850417
5	0x3ebcf020	0.3690195
6	0xbf63903a	-0.8889195
7	0xbf01f8e4	-0.507704
8	0xbe956ad4	-0.29183066
9	0x3f28d057	0.659429
10	0xbfa48a4d	-1.2854706
11	0xbf452e7c	-0.77024055
12	0xbde27543	-0.11057522
13	0x3f2c1e52	0.67233765
14	0xbf2c93b8	-0.674129
15	0xbef18e97	-0.471791
16	0x3f1a17cd	0.6019257
17	0x3f896586	1.0734107
18	0xbf8fef50	-1.1244907
19	0xbf4ade52	-0.79245484
20	0xbf6ee442	-0.93317044
21	0x3e1a79b9	0.15085496
22	0xbe0a88c0	-0.13528728
23	0xbf0388b3	-0.5138046
24	0x3f2b7f03	0.6699068
25	0xbf3a9728	-0.72886896
26	0x3f6ec3a3	0.9326727
27	0x3e4c8019	0.1997074
28	0xbe843b0a	-0.25826293
29	0xbeaaa1fd	-0.33326712
30	0xbd8a8d71	-0.06765259
31	0x3f5e625d	0.8686884
32	0xbf0066a8	-0.5015664
33	0xbea7c19d	-0.32764903
34	0xbf15cc72	-0.58515084
35	0xbf098e49	-0.53732735
36	0x3efd1934	0.4943329
37	0xbe3cdce9	-0.18443646
38	0xbed25602	-0.41081244
39	0xbf3bc1df	-0.733427
40	0x3f036634	0.51327825
41	0xbf32312b	-0.69606274
42	0x3f57935d	0.84209234
43	0x3f6d63e2	0.92730534
44	0x3f4a9f5c	0.79149413
45	0x3f49e0a1	0.7885838
46	0x3c370c32	0.011172341
47	0x3e67084d	0.2256176
48	0x3eff787c	0.4989661
49	0x3f9b45be	1.2130659
50	0xbf096c55	-0.53680927
51	0x3ea94330	0.33059072
52	0x3ea453b9	0.32095125
53	0xbf006cf9	-0.5016628
54	0xbf4964cb	-0.7866942
55	0x3f0b0e75	0.54318935
56	0xbe92d9a7	-0.2868168
57	0xbf8043a5	-1.0020643
58	0xbf38e1b5	-0.722194
59	0x3c25d89e	0.010122446
60	0xbea2ed80	-0.31821823
61	0x3f0797af	0.52965826
62	0xbf1563fc	-0.5835569
63	0xbf24f8ab	-0.6444194
64	0x3d939f42	0.072081104
65	0xbb1af82d	-0.002364646
66	0x3f0c97ae	0.54918945
67	0x3ec962c0	0.39333153
68	0x3e9df66d	0.3085207
69	0x3ece1e8c	0.4025768
70	0x3e227174	0.15863591
71	0xbe69e642	-0.22841743
72	0x3eebc01c	0.46045005
73	0xbe7499fd	-0.23886867
74	0xbd964027	-0.07336455
75	0xbf0455c0	-0.51693344
76	0xbd9f723c	-0.0778546
77	0x3e928589	0.28617504
78	0x3eb84811	0.35992482
79	0xbe16ab46	-0.14713773
80	0x3e80352b	0.25040564
81	0x3f01ceb8	0.5070605
82	0x3e93d282	0.28871542
83	0x3f0e3ba9	0.55559784
84	0x3e5758c2	0.21029952
85	0xbddc8b89	-0.10768802
86	0x3e82f308	0.25576043
87	0x3e9ea125	0.3098232
88	0x3e20ad42	0.15691093
89	0x3d28fb50	0.041255295
90	0x3e5144a3	0.20436339
91	0x3f24fe6b	0.6445071
92	0x3eb97e6c	0.36229265
93	0x3ebb7a83	0.36616907
94	0x3ea5503b	0.32287773
95	0x3f3982ae	0.72465026
96	0x3ece4b39	0.40291765
97	0xbde86e6c	-0.11349186
98	0x3da84526	0.08216314
99	0x3f19fd55	0.6015218
100	0x3e983bbb	0.2973307
101	0x3efea574	0.49735606
102	0x3f2236d1	0.63364893
103	0x3e6bd569	0.23030628
104	0x3ea8166c	0.32829607
105	0x3dcfb487	0.10141855
106	0x3ee992d9	0.45619848
107	0x3eaa9b68	0.3332169
108	0xbef52d03	-0.47885904
109	0x3eb7d18b	0.35902056
110	0x3f0c59f9	0.5482479
111	0x3f413aad	0.7548016
112	0xbe513d5d	-0.20433564
113	0x3ee5b723	0.44866285
114	0x3eaa6ef1	0.33287767
115	0x3f2cfac1	0.6757012
116	0x3f0c5d68	0.54830027
117	0x3ef19e82	0.47191244
118	0x3df66a30	0.120319724
119	0x3f241a4f	0.64102644
120	0x3ecef4de	0.40421194
121	0x3ec6d67e	0.3883552
122	0xb9b8554b	-0.00035158763
123	0xbdcf23fa	-0.10114284
124	0xbdc957d7	-0.09831207
125	0x3e733a64	0.23752743
126	0x3ef61721	0.4806452
127	0x3eb531c6	0.35389537
128	0x3d063b0d	0.03277116
129	0xbedb472d	-0.4282774
130	0xbe8843ea	-0.26614314
131	0x3e35aa25	0.17740686
132	0x3eb76165	0.35816494
133	0x3eb726db	0.35771832
134	0xbe40f463	-0.18843226
135	0xbe52b4d3	-0.20576791
136	0x3e2e2552	0.17006424
137	0x3f22b1fa	0.6355282
138	0xbe94d269	-0.2906678
139	0xbe750f53	-0.23931627
140	0x3ea90bd5	0.3301684
141	0xbf19ba46	-0.60049856
142	0xbf2be9a6	-0.67153394
143	0x3cb9535c	0.022622757
144	0xbf0ec664	-0.5577147
145	0xbef06c08	-0.4695742
146	0x3dce3714	0.10069099
147	0xbea26569	-0.31717995
148	0x3c3512ae	0.011051817
149	0x3eef4c67	0.46737978
150	0x3ef07d6f	0.46970698
151	0x3e988eba	0.29796392
152	0x3ef61b50	0.48067713
153	0x3ebd39da	0.369582
154	0xbf23e27e	-0.64017475
155	0xbf2c0831	-0.672
156	0x3e1d7d9b	0.15379946
157	0xbd57b40b	-0.052661937
158	0xbf3464b6	-0.7046617
159	0xbf430bc6	-0.7618984
160	0x3e1ced8f	0.15324996
161	0x3dc8bd7c	0.09801766
162	0x3e95a065	0.29223934
163	0xbf0ccbb7	-0.54998344
164	0x3f22556c	0.63411593
165	0xbeb08df9	-0.34483317
166	0xbee32c11	-0.44369557
167	0xbe38b721	-0.18038608
168	0x3e834414	0.25637877
169	0xbea612a5	-0.324361
170	0x3ecf9051	0.40539792
171	0x3f026821	0.5094014
172	0x3f15af3b	0.58470505
173	0x3f337ec7	0.7011532
174	0x3f3027b4	0.6881058
175	0xbed45e0c	-0.41478002
176	0x3eeccad2	0.4624849
177	0xbf5fb5b1	-0.87386614
178	0x3f25e683	0.6480486
179	0x3f13c819	0.577272
180	0xbefd0277	-0.49415943
181	0x3f2487f5	0.64269954
182	0xbe81e2cd	-0.25368348
183	0xbe9f28e5	-0.31085888
184	0x3f3671b0	0.71267223
185	0xbe87f376	-0.26552933
186	0xbddea704	-0.108716995
187	0x3ee93086	0.45544833
188	0x3dd84779	0.10560507
189	0x3e8c77aa	0.27435046
190	0xbec2a034	-0.3801285
191	0x3ebd9eb8	0.37035155
192	0xbebfce88	-0.37462258
193	0xbf2be140	-0.6714058
194	0xbea8f0bd	-0.3299617
195	0xbf4b01be	-0.79299533
196	0x3f4c3e30	0.7978239
197	0xbf3ea8bd	-0.74476224
198	0xbee0a9c6	-0.43879527
199	0xbef832d0	-0.48476267
200	0x3ef1d52a	0.47232944
201	0xbf30296e	-0.68813217
202	0xbf0de4f5	-0.55427486
203	0x3f0fb127	0.5612969
204	0xbf11f875	-0.5701974
205	0xbf1a4437	-0.6026034
206	0x3f562c1f	0.83661073
207	0xbf1d2e5b	-0.6139886
208	0xbf0ec229	-0.55765015
209	0x3e9b0a45	0.30281273
210	0xbf4d7f8c	-0.80272746
211	0x3f66af88	0.9011159
212	0xbecf71b7	-0.40516445
213	0xbf022a20	-0.5084553
214	0x3f286e3f	0.6579322
215	0xbf49ac71	-0.7877875
216	0x3f1bf8d1	0.6092654
217	0xbf3ecef2	-0.74534523
218	0xbee0f2e4	-0.4393531
219	0x3e170668	0.14748538
220	0x3eeac700	0.4585495
221	0xbf38bf09	-0.72166497
222	0x3e8b71e2	0.27235323
223	0x3de683fa	0.11255641
224	0x3f37fbbd	0.718685
225	0xbf1cf330	-0.61308575
226	0x3f35e4c7	0.7105221
227	0x3f6a6b22	0.9156972
228	0xbf19050a	-0.59773314
229	0xbe8c84e5	-0.2744514
230	0x3f363c7c	0.7118604
231	0xbf427ff8	-0.75976515
232	0x3e319140	0.17340565
233	0xbedd8a86	-0.43269747
234	0x3ef31ac4	0.47481358
235	0xbe84a2eb	-0.25905547
236	0x3f86d3ef	1.0533427
237	0xbe00ddea	-0.12584653
238	0x3eff51a6	0.4986698
239	0x3f4bb38e	0.79570854
240	0xbf678c25	-0.9044822
241	0x3dcbe143	0.09955075
242	0x3f116d35	0.5680726
243	0x3f2bb9c4	0.6708033
244	0x3f53463b	0.8252904
245	0x3f39ddf7	0.72604316
246	0xbf2f7864	-0.68543077
247	0x3f86c45f	1.0528678
248	0x3ef94420	0.48684788
249	0x3f51b774	0.8192055
250	0xbf2a0676	-0.6641611
251	0xbf31148e	-0.6917199
252	0x3eafb961	0.3432112
253	0x3e8ff734	0.2811829
254	0x3f2827d2	0.6568576
255	0x3f34aa2a	0.7057215

lstm.bias_hh_l0 f4 [256]
0	0xbf804c0b	-1.0023206
1	0xbf4dbd99	-0.8036743
2	0x3e1ebd40	0.1550188
3	0x3e0a0f47	0.1348239
4	0xbf3adb5e	-0.7299098
5	0x3eccc765	0.39995876
6	0xbf815f0e	-1.0107133
7	0xbf013a30	-0.5047941
8	0xbe50fb68	-0.20408404
9	0x3f2aac73	0.66669387
10	0xbf86df06	-1.0536811
11	0xbf42edbb	-0.76144
12	0x3d7ca825	0.061683793
13	0x3f15774e	0.5838517
14	0xbef11750	-0.470881
15	0xbf1c9da8	-0.61178064
16	0x3f263d03	0.64936846
17	0x3f66edf7	0.90206856
18	0xbf902f74	-1.1264482
19	0xbf4840a4	-0.78223634
20	0xbf8b0f79	-1.0864097
21	0x3e940ea7	0.2891743
22	0x3d0f09e4	0.03492154
23	0xbeec6740	-0.46172523
24	0x3f20eb2b	0.6285884
25	0xbf335f21	-0.7006703
26	0x3f6bc7d7	0.92101806
27	0x3eaf564c	0.34245527
28	0xbe336db0	-0.17522311
29	0xbed9130c	-0.42397344
30	0xbe47e409	-0.19520582
31	0x3f8163f5	1.010863
32	0xbed39585	-0.41325012
33	0xbf0ce080	-0.5503006
34	0xbf0583e3	-0.5215437
35	0xbf031b0d	-0.5121315
36	0x3ee9cd8d	0.45664635
37	0xbe515bef	-0.20445226
38	0xbf02ce2c	-0.51095843
39	0xbf427025	-0.7595237
40	0x3ecfd467	0.40591738
41	0xbf43f27f	-0.76541895
42	0x3f751b00	0.95744324
43	0x3f675a8b	0.9037253
44	0x3f552dc0	0.83272934
45	0x3f5e4d58	0.8683677
46	0xbd943136	-0.07235949
47	0x3e7b934a	0.24567905
48	0x3f26eb8a	0.65203154
49	0x3faeaea7	1.364705
50	0xbecbf14b	-0.3983253
51	0x3ebc52a5	0.36781803
52	0x3eadd754	0.33953345
53	0xbede3e35	-0.43406835
54	0xbf61c4db	-0.88191
55	0x3f0643ec	0.5244739
56	0xbef79cbc	-0.48361766
57	0xbf6f62d7	-0.9351019
58	0xbf62907a	-0.88501704
59	0x3d8e6af7	0.06953996
60	0xbebe2478	-0.37137198
61	0x3ef7e92a	0.48420078
62	0xbf2a0e7d	-0.6642836
63	0xbf41cb08	-0.75700426
64	0x3dda1674	0.10648814
65	0x3e30c231	0.17261578
66	0x3e9caeba	0.30602056
67	0x3e9065de	0.28202718
68	0x3ed32642	0.41240126
69	0x3f0c7741	0.5486947
70	0x3dc014c9	0.093789645
71	0xbe498188	-0.19678319
72	0x3f288738	0.6583133
73	0xbe64a5c1	-0.22328855
74	0xbdf41154	-0.119173676
75	0xbefc0f5a	-0.49230462
76	0xbddf5e11	-0.109066136
77	0x3e25a91f	0.16177796
78	0x3ed06083	0.40698633
79	0xbe5d7391	-0.21626116
80	0x3ec4c268	0.3842957
81	0x3eea078a	0.45708877
82	0x3eab4f6a	0.33459026
83	0x3eb5388a	0.35394698
84	0x3d9b7274	0.075901896
85	0xbe5cbf5f	-0.21557377
86	0x3ec47d4e	0.3837685
87	0x3e67725d	0.2260222
88	0x3e1f5596	0.15559992
89	0x3db6ba7b	0.08922287
90	0x3e806211	0.2507482
91	0x3f2a866c	0.6661136
92	0x3ea015f6	0.31266755
93	0x3ec7ca61	0.3902159
94	0x3ea8666c	0.32890642
95	0x3f1726cf	0.5904359
96	0x3eec07bd	0.46099654
97	0xbd73be10	-0.05950743
98	0x3dc96d65	0.098353185
99	0x3f0996ef	0.5374593
100	0x3e9090c2	0.2823544
101	0x3efa1435	0.48843542
102	0x3f018f87	0.5060963
103	0x3e5f501c	0.21807903
104	0x3ec08566	0.37601775
105	0x3e01edce	0.12688372
106	0x3ee33e5f	0.44383523
107	0x3ec92381	0.392849
108	0xbf033223	-0.5124838
109	0x3e680d14	0.22661239
110	0x3ec3639b	0.3816193
111	0x3f4137dc	0.7547586
112	0xbe219294	-0.15778571
113	0x3f0ccfc6	0.5500454
114	0x3e528bbd	0.20561118
115	0x3f0198c5	0.5062373
116	0x3f00c896	0.5030607
117	0x3f10632c	0.56401324
118	0x3e121891	0.14267184
119	0x3f3e7dfa	0.74410975
120	0x3eafc5ef	0.343307
121	0x3ed81bdb	0.42208752
122	0x3d028a4d	0.031870175
123	0xbba8ba4b	-0.005149161
124	0xbde0a02c	-0.1096805
125	0x3e4f01a6	0.20215473
126	0x3f1828d7	0.59437317
127	0x3e52ae4d	0.20574303
128	0x3dd54646	0.10413794
129	0xbef8bb79	-0.4858053
130	0xbe6a34cf	-0.22871707
131	0x3e55e5b3	0.20888405
132	0x3ed95137	0.42444775
133	0x3e9a07da	0.30084115
134	0xbe2a9d86	-0.16661653
135	0xbe2d6149	-0.16931643
136	0x3e7923dd	0.24330087
137	0x3ee7ad04	0.45249188
138	0xbe2bc918	-0.1677593
139	0xbd874084	-0.06604102
140	0x3ed18d2e	0.40928024
141	0xbee43804	-0.44573987
142	0xbf2c7794	-0.6736996
143	0xbd98e681	-0.0746584
144	0xbf1fb59e	-0.623865
145	0xbeda7ee8	-0.42674947
146	0x3e5dcd63	0.2166038
147	0xbeb6ffef	-0.35742137
148	0x3ca3b863	0.019985383
149	0x3f1bda01	0.6087952
150	0x3e98f53b	0.29874596
151	0x3e7f210a	0.24914947
152	0x3ef48f70	0.47765684
153	0x3e866d4f	0.2625527
154	0xbf0a5d40	-0.5404854
155	0xbf34e9ac	-0.70669055
156	0x3ea56872	0.32306248
157	0xbe3191d1	-0.17340781
158	0xbf2e5680	-0.6810074
159	0xbf2dc673	-0.67880934
160	0x3ea1e088	0.31616616
161	0xbd816d77	-0.06319707
162	0x3ee8be6f	0.4545779
163	0xbf2b874a	-0.6700331
164	0x3f3b5bd1	0.73186976
165	0xbe3f2296	-0.18665537
166	0xbef2aaf9	-0.47396067
167	0xbea40ab0	-0.32039404
168	0x3e87c094	0.26514113
169	0xbe07d030	-0.13263011
170	0x3ecf5fb2	0.40502697
171	0x3f14c582	0.58113873
172	0x3ed9176e	0.42400688
173	0x3f3953c2	0.7239343
174	0x3f2552a4	0.64579225
175	0xbecf2b10	-0.40462542
176	0x3ee5aa33	0.44856414
177	0xbf6c587f	-0.92322534
178	0x3f4c53cf	0.7981538
179	0x3f1d5a72	0.61466134
180	0xbeb28c7b	-0.34872803
181	0x3f5d685e	0.86487377
182	0xbe174c75	-0.1477526
183	0xbf0561ac	-0.5210216
184	0x3f2c3b79	0.6727825
185	0xbebae926	-0.36506003
186	0xbde79ca3	-0.11309173
187	0x3eb4f508	0.35343194
188	0x3e80f4f1	0.25186875
189	0x3ee446b3	0.4458519
190	0xbe8a9929	-0.27069977
191	0x3ece0e76	0.40245408
192	0xbed5af4f	-0.41735312
193	0xbefac594	-0.48978865
194	0xbec83e71	-0.3911014
195	0xbf296bd4	-0.6618016
196	0x3f1b29cf	0.6061067
197	0xbf507cb5	-0.8144029
198	0xbf037bf4	-0.5136101
199	0xbf1e48bc	-0.61829734
200	0x3ecb5eb3	0.39720687
201	0xbf14a464	-0.5806334
202	0xbf1d557b	-0.6145856
203	0x3f2f603b	0.6850621
204	0xbf27693f	-0.6539497
205	0xbf1253e1	-0.5715924
206	0x3f4b49e9	0.7940965
207	0xbefbf2b3	-0.49208602
208	0xbf1ee265	-0.620642
209	0x3f009a3b	0.50235337
210	0xbf320788	-0.6954274
211	0x3f81154c	1.0084624
212	0xbeebe5ed	-0.46073857
213	0xbeff5071	-0.4986606
214	0x3f0f9261	0.5608273
215	0xbf3b6c85	-0.7321246
216	0x3f11d77f	0.56969446
217	0xbf13ee30	-0.5778532
218	0xbec8affc	-0.39196765
219	0x3d896fa6	0.067107484
220	0x3e81e2c6	0.25368327
221	0xbf6260f0	-0.88429165
222	0x3ed6d4cf	0.41959235
223	0x3e203926	0.156468
224	0x3f2df7f8	0.67956495
225	0xbf2f7cb5	-0.6854966
226	0x3f3b9b74	0.7328408
227	0x3f626f7c	0.8845136
228	0xbf4d9a61	-0.8031369
229	0xbe457d9d	-0.19286199
230	0x3f371d1d	0.715288
231	0xbf2b3e36	-0.668918
232	0x3d9cf43e	0.07663773
233	0xbefc0c4e	-0.49228138
234	0x3f0bb656	0.545751
235	0xbe944eef	-0.28966472
236	0x3f68a46f	0.90875906
237	0xbe381a42	-0.17978767
238	0x3ec8d683	0.3922616
239	0x3f3cb914	0.73719907
240	0xbf7bf14f	-0.9841508
241	0x3e1dd698	0.15413892
242	0x3f3c01cb	0.73440236
243	0x3f35ea85	0.71060973
244	0x3f471ba4	0.7777655
245	0x3f473ba8	0.77825403
246	0xbf23c201	-0.639679
247	0x3f7ebdb7	0.9950823
248	0x3ef5f135	0.4803559
249	0x3f234013	0.63769644
250	0xbf08b980	-0.5340805
251	0xbf5c15e6	-0.85970914
252	0x3e616eef	0.22014974
253	0x3e913031	0.2835708
254	0x3f2ba741	0.67052084
255	0x3f294cf6	0.6613306

fc.weight f4 [1, 64]
0	0x422f77b0	43.866882
1	0xc2057e40	-33.37329
2	0x423c176e	47.02288
3	0xc26232c5	-56.54958
4	0xc2709031	-60.140812
5	0xc1ef4160	-29.906921
6	0xc2038c54	-32.88704
7	0xbe43cf94	-0.19122154
8	0x425d59f4	55.337845
9	0x424bc644	50.94362
10	0x420df374	35.487747
11	0x42620ff9	56.5156
12	0x4236d934	45.712112
13	0xc24bdd0a	-50.96586
14	0xc27013e5	-60.01943
15	0x3cc3894d	0.023869181
16	0xc2550f98	-53.26523
17	0xc234f7d6	-45.242027
18	0x4222785f	40.61755
19	0xc26f9ee2	-59.90516
20	0xc2415f75	-48.34322
21	0x422678c5	41.61794
22	0x426fd5ba	59.958717
23	0xc1f8740f	-31.05667
24	0xc2739ad7	-60.90121
25	0x422b2089	42.781773
26	0xc259c7aa	-54.444984
27	0xc26fcf0d	-59.952198
28	0x4246e39a	49.722267
29	0x42273ca9	41.80924
30	0xc26fdbe0	-59.96472
31	0xc27a7a7d	-62.619617
32	0xc26ef3dc	-59.738144
33	0x42128629	36.631016
34	0x426fa77b	59.913555
35	0xc27031bf	-60.04858
36	0x42467cb7	49.62179
37	0xc26d2f0e	-59.29595
38	0xc26f82f4	-59.877884
39	0xc21878d8	-38.11801
40	0x422b8ae1	42.885624
41	0x425151df	52.329952
42	0x42544565	53.06777
43	0x4139d47b	11.614375
44	0xc1e11ad4	-28.1381
45	0x425f9b67	55.90176
46	0x426fd851	59.961246
47	0x426fc61e	59.943474
48	0x422e717b	43.61082
49	0x423d84a9	47.37955
50	0x426fca45	59.94753
51	0x426fc498	59.941986
52	0xc26feacd	-59.979298
53	0x426fcd20	59.950317
54	0xc2104dd4	-36.076004
55	0x426fb1e7	59.923733
56	0x42702a42	60.041267
57	0xc2703dcd	-60.060352
58	0xc1fd6aaa	-31.677082
59	0x420a37d9	34.55454
60	0xc25df540	-55.489502
61	0x421fa01a	39.90635
62	0xc26fc5f7	-59.943325
63	0x426fb44d	59.926075
