best_gru_model_LTIM.pth (torch, 67653 bytes, 5 tensors)

gru.weight_ih_l0 f4 [192, 19]
0	0x3c8bed67	0.017080976
1	0x3f8528b6	1.0403049
2	0xbcefe520	-0.02928406
3	0x3deb2a1c	0.11482641
4	0xbce05cb0	-0.027387947
5	0x3ccea238	0.025223836
6	0xbd794510	-0.06085688
7	0xbdfd42ed	-0.12366281
8	0x3ebde337	0.37087414
9	0xbe1e039d	-0.15431066
10	0x3d452b64	0.048137084
11	0xbe8a6d0a	-0.27036315
12	0xbeb05ecd	-0.34447327
13	0xbe6a0e18	-0.22856939
14	0xbe6dd799	-0.23226775
15	0xbe9b3379	-0.30312708
16	0xbe5aacda	-0.21355
17	0x3f0fc89b	0.56165475
18	0x3c2b1367	0.010441638
19	0xbf99102c	-1.195806
20	0xbf56084a	-0.836064
21	0xbc702cc0	-0.014659107
22	0xbd4ff3fc	-0.05076979
23	0x3da9d2ae	0.08292137
24	0xbdca142a	-0.09867127
25	0xbd6c098c	-0.057626292
26	0x3f553562	0.8328458
27	0x3e85125c	0.2599057
28	0xbcdf01b4	-0.027222492
29	0xbfefab4f	-1.8724154
30	0xbf70738f	-0.9392633
31	0xbf9595aa	-1.1686299
32	0xbf8083a0	-1.0040169
33	0xbf8c5e69	-1.0966312
34	0xbf4c4b37	-0.7980227
35	0xbfa4e39c	-1.2881961
36	0xbf09492f	-0.53627294
37	0xbe37c75d	-0.17947145
38	0x3f1b8e85	0.6076434
39	0x3f86b628	1.052434
40	0x3d0990e8	0.03358546
41	0xbd0ad808	-0.03389743
42	0x3d577aa4	0.052607194
43	0x3de48ffe	0.11160277
44	0x3d93fbb6	0.072257444
45	0x3f87eaba	1.0618508
46	0x3fc7f2bc	1.5620952
47	0x3fb89475	1.4420305
48	0x3f8b09fb	1.0862421
49	0x3ea3a1dc	0.31959426
50	0x3f0734e3	0.52815074
51	0x3eda1755	0.42595926
52	0x3f1268ef	0.57191366
53	0x3efd4f49	0.49474552
54	0x3f156c99	0.5836883
55	0x401347e8	2.3012638
56	0x3fcc2bd5	1.5950876
57	0xbec6e74b	-0.38848338
58	0xbf91ac00	-1.1380615
59	0xbdb5e438	-0.0888142
60	0x3c00f320	0.0078704655
61	0xbdaebaf4	-0.08531752
62	0x3d1de050	0.038544
63	0xbd3052e0	-0.043047786
64	0x3f5cf55b	0.8631188
65	0xbe94d083	-0.29065332
66	0xbf9d6ba1	-1.2298471
67	0xbf074db8	-0.52852964
68	0xbf14ad52	-0.58076966
69	0xbf2010a0	-0.6252537
70	0xbeb9cb3f	-0.36287877
71	0xbf07caee	-0.5304402
72	0xbf07de23	-0.5307333
73	0xbf0735b5	-0.52816325
74	0xbf64db1a	-0.8939682
75	0xbf90e6f7	-1.1320485
76	0xbf8b915c	-1.0903735
77	0xbfb7ae0e	-1.4349992
78	0x3d3755b8	0.044759482
79	0x3dd4b776	0.10386555
80	0xbd843474	-0.06455317
81	0xbdae84aa	-0.085213974
82	0x3d87d3f8	0.06632227
83	0xc006f434	-2.108655
84	0xbf93f4fc	-1.1559138
85	0xbdb95e72	-0.09051217
86	0xbfa8b786	-1.3181007
87	0xbf88a2d3	-1.067469
88	0xbfa874b0	-1.316061
89	0xbf809b81	-1.0047456
90	0xbfa5737b	-1.2925867
91	0xbf72a8ba	-0.94788706
92	0xbf5b4cc7	-0.8566403
93	0xbedc002a	-0.42968875
94	0xbed51061	-0.4161406
95	0xbf1d8afc	-0.615402
96	0x3e838fab	0.25695547
97	0xbd2cc3f4	-0.042179063
98	0xbd35832c	-0.04431455
99	0xbdf7b448	-0.12094933
100	0xbd929a84	-0.07158378
101	0x3cffcc88	0.031225458
102	0xbfe091af	-1.7544459
103	0xbf732528	-0.9497857
104	0xbd4f1ae1	-0.050562743
105	0xbf131a58	-0.5746207
106	0xbf19d484	-0.600899
107	0xbf0a183f	-0.53943247
108	0xbf1f5555	-0.6223958
109	0xbf0a4bde	-0.54022014
110	0xbea9a4d5	-0.3313357
111	0xbeeb6cd4	-0.45981467
112	0xbed411cc	-0.41419828
113	0xbe1da4a8	-0.15394843
114	0xbf5d4589	-0.8643423
115	0xbf9b2cdb	-1.2123064
116	0x3ca01fc0	0.01954639
117	0xbde14286	-0.109990165
118	0xbd5c9b64	-0.05385913
119	0xbd994258	-0.07483357
120	0x39b59e00	0.0003464073
121	0x404366d3	3.053151
122	0x3fcde169	1.6084415
123	0xc024eecd	-2.5770752
124	0xbf5396de	-0.8265208
125	0xbf6b6d3e	-0.91963565
126	0xbf220e77	-0.6330332
127	0xbf684543	-0.90730685
128	0xbef58725	-0.4795467
129	0xbf7e9f9d	-0.994623
130	0xbf16b00e	-0.5886239
131	0xbf5a3670	-0.85239315
132	0xbfd60bba	-1.6722329
133	0x3f4be4f0	0.79646206
134	0x3ff2ea22	1.8977702
135	0xbd444350	-0.047915757
136	0xbdd47f80	-0.10375881
137	0xbdfe8150	-0.12427008
138	0x3d127d18	0.03576383
139	0xbcdfafc0	-0.027305484
140	0x3f66127e	0.89871967
141	0xbdf3c50c	-0.11902818
142	0x3f71520f	0.94265836
143	0x3f7052f2	0.93876565
144	0x3f177b2e	0.5917233
145	0x3f5cc4c5	0.86237746
146	0x3f3a75c3	0.7283594
147	0x3f7afd9f	0.98043245
148	0x3f34c099	0.7060638
149	0x3f1694ed	0.5882099
150	0x3f84e8ea	1.038358
151	0x3f2984f0	0.6621847
152	0xbf46844c	-0.7754562
153	0xbf41d22b	-0.75711316
154	0x3de92e08	0.11385733
155	0xbdbbe42e	-0.09174381
156	0x3d88d1cc	0.066806406
157	0x3d33efe4	0.04392995
158	0x3d2660a0	0.040619493
159	0xbff0b203	-1.8804325
160	0x3fc232d1	1.5171758
161	0xbf288771	-0.6583167
162	0xbf3bb0d2	-0.7331668
163	0xbf64ae0f	-0.8932809
164	0xbf3f9511	-0.7483683
165	0xbf486b83	-0.7828905
166	0xbf4b35e6	-0.7937912
167	0xbf20ff7d	-0.62889844
168	0xbf54ffe5	-0.83202964
169	0xbf51ab1e	-0.8190173
170	0xbf8faa4e	-1.1223848
171	0xc0096580	-2.14682
172	0x3f83a7b3	1.0285553
173	0xbd02d554	-0.031941727
174	0xbd921132	-0.07132186
175	0xbd2f54ac	-0.04280536
176	0xbdbf404c	-0.093384355
177	0x3d369888	0.04457906
178	0xbcf9418a	-0.03042676
179	0x3ffd2cd3	1.9779304
180	0xc005c738	-2.0902843
181	0x3e7ea982	0.2486935
182	0xc02fa3b2	-2.7443662
183	0xbf935f7a	-1.1513512
184	0xc018b330	-2.3859367
185	0xbf5ea9c4	-0.8697779
186	0xc00314bd	-2.0481408
187	0xc03cc541	-2.9495394
188	0x3f541e60	0.8285885
189	0xbfd6d231	-1.6782895
190	0xbdbcf721	-0.092268236
191	0xc04fb88d	-3.245639
192	0x3da3a310	0.07990086
193	0x3ddc019c	0.107424945
194	0xbc4abf20	-0.012374669
195	0xbce54538	-0.027987108
196	0x3aef1480	0.0018240362
197	0xbf1ba42f	-0.607974
198	0x40892771	4.2860646
199	0x3f07a83c	0.5299108
200	0xbf74fed5	-0.9570134
201	0xbf02fc05	-0.511658
202	0xbf6db890	-0.92859745
203	0xbec45b51	-0.3835092
204	0xbf7105f6	-0.9414972
205	0xbf8b4b61	-1.0882379
206	0xbbd5fdcc	-0.006530499
207	0xbf4cf556	-0.8006185
208	0x3e4d0490	0.20021272
209	0x3f2e89e9	0.68179184
210	0xbeca8d48	-0.39560914
211	0x3d6c6398	0.057712168
212	0xbde24a28	-0.110493004
213	0xbd99f2e4	-0.07517031
214	0xbca19ab0	-0.019727081
215	0x3df7a438	0.12091869
216	0xbfe89d32	-1.8172972
217	0x3f867123	1.0503277
218	0x3e870b39	0.2637575
219	0xbf8aa3e4	-1.0831265
220	0x3f0673bb	0.5252034
221	0xbe60bd98	-0.21947324
222	0x3f095a95	0.5365384
223	0xbe451698	-0.192469
224	0x3e9cfde5	0.30662456
225	0x3f2c7f01	0.6738129
226	0x3f3615ad	0.71126825
227	0x3f1081f0	0.5644827
228	0xbe18b550	-0.14912915
229	0xc033f603	-2.8118904
230	0xbdcfeaf6	-0.10152237
231	0x3dbee636	0.09321253
232	0x3d75d06c	0.06001322
233	0x3dd76cd6	0.10518806
234	0x3d861c56	0.065483734
235	0xbe180a2a	-0.14847627
236	0x3ec2132f	0.3790526
237	0xbf6973f0	-0.9119253
238	0xbf256ea9	-0.6462198
239	0xbe209f11	-0.15685679
240	0xbe4e48c1	-0.20144941
241	0xbde0f2a6	-0.109837815
242	0xbe828f30	-0.25499868
243	0xbebf3898	-0.37347865
244	0x3d07870d	0.03308778
245	0xbf5ff1b0	-0.8747816
246	0xbf63df5f	-0.8901271
247	0xbf0104be	-0.5039786
248	0xbe9e4b4f	-0.3091683
249	0x3d9e0a34	0.0771679
250	0xbd24410c	-0.040101096
251	0xbdbbcb10	-0.091695905
252	0xbcb4ac68	-0.022054866
253	0xbd7830d0	-0.060593426
254	0x3d83756d	0.064188816
255	0xbef81c49	-0.4845908

gru.weight_hh_l0 f4 [192, 64]
0	0xbf6e1dc9	-0.930142
1	0x3e96cbe8	0.29452443
2	0x3fa824cf	1.3136233
3	0xbc866fc3	-0.016410714
4	0xbee05e9f	-0.4382219
5	0x3f63ff76	0.8906168
6	0x3ceb82f0	0.02874896
7	0xbfafb3e8	-1.3726778
8	0xbf1b676d	-0.6070469
9	0xbf19e0bd	-0.6010855
10	0x3f92366f	1.1422862
11	0x3fcb35ec	1.5875831
12	0xbf1d9e0a	-0.61569273
13	0xbf5b61f7	-0.8569636
14	0x3f233cc5	0.637646
15	0xbf0c946a	-0.5491396
16	0xbdb09027	-0.08621245
17	0xbdb6b443	-0.08921101
18	0x3f93ecff	1.15567
19	0x3fc4600c	1.5341811
20	0xbe4e01b1	-0.20117833
21	0x3f1f4df2	0.6222831
22	0xbfb09cff	-1.3797911
23	0xbf73a8fb	-0.9517972
24	0xbf9e08d9	-1.234645
25	0xbfd25ed7	-1.6435193
26	0xbd6e8d5d	-0.058240283
27	0x3f75102b	0.95727795
28	0xbceee9f3	-0.02916429
29	0x3f258b5e	0.6466578
30	0x3f4207ce	0.7579316
31	0xbf9a40b0	-1.2050991
32	0xbf4cffa9	-0.80077606
33	0x3fed7c85	1.8553625
34	0xbfa366f4	-1.2765794
35	0xbfada6bc	-1.3566508
36	0xbf01c021	-0.5068379
37	0xbebf8361	-0.37404922
38	0x3fcd2d32	1.6029418
39	0x3ca13221	0.019677224
40	0x3f2627c2	0.64904416
41	0xbeaed0b8	-0.34143615
42	0xbf5d582b	-0.8646266
43	0xbecdcdf5	-0.40196195
44	0x3fa57202	1.2925417
45	0xbf0a532c	-0.5403316
46	0x3f9274ee	1.1441934
47	0x3d28dab9	0.041224215
48	0x3f0d9479	0.55304676
49	0x3f8c1955	1.0945231
50	0xbf4b9aec	-0.7953327
51	0xbe1898b9	-0.14902009
52	0xbf3afbaf	-0.7304029
53	0x3ffb6acb	1.9641966
54	0xbf387ac0	-0.720623
55	0x3ea19da1	0.31565574
56	0xbfb0e44c	-1.3819671
57	0x3ea0357d	0.31290808
58	0x3eb61ad7	0.35567352
59	0xbf4608f8	-0.77357435
60	0x3e86e60a	0.2634738
61	0x3f26a8f0	0.6510153
62	0xbf296abd	-0.66178495
63	0x3e7ccb41	0.2468691
64	0xbecde528	-0.40213895
65	0xbeaec272	-0.34132725
66	0xbc0ed4a5	-0.008717691
67	0xbfa1c799	-1.2639037
68	0xbf02a9f0	-0.51040554
69	0xbfbf8af8	-1.4964285
70	0x3f8b8f44	1.0903096
71	0xbf0b17e0	-0.54333305
72	0xbeec9f89	-0.46215466
73	0xbf82c1ea	-1.0215428
74	0x3fa4fe67	1.2890137
75	0x3f0f4a8b	0.5597312
76	0x3f17f939	0.5936466
77	0x3e917377	0.28408405
78	0x3faf76a6	1.3708084
79	0x3f1eb008	0.6198735
80	0xbf910e83	-1.1332554
81	0xbf6bcd59	-0.9211021
82	0xbf9e112a	-1.2348988
83	0xbfae1398	-1.359973
84	0xbf99de9f	-1.2021064
85	0xbf708d90	-0.9396601
86	0x3f311c3b	0.691837
87	0xbd8820a8	-0.06646854
88	0xbf6a1982	-0.9144517
89	0xbee455d3	-0.4459673
90	0x3f4bf219	0.79666287
91	0xbf7e643b	-0.9937169
92	0x3f7a7e9f	0.9784946
93	0x3f3d5b5f	0.73967546
94	0xbd6a6dc0	-0.057233572
95	0x3f3615cb	0.71127003
96	0xbf6ec516	-0.9326948
97	0x3e0eb30d	0.1393549
98	0xbe1e89a8	-0.15482199
99	0x3e9a386c	0.3012117
100	0xbfd93ad4	-1.6971078
101	0xbf692f75	-0.9108804
102	0x3e918a2d	0.28425732
103	0x3f9a7d61	1.2069513
104	0x3f4e7d71	0.8066016
105	0x3f535342	0.82548916
106	0x3f14318e	0.57888114
107	0x3f57a6ca	0.84238875
108	0xbedc7482	-0.43057638
109	0x3f752b79	0.9576946
110	0x3f4e0133	0.8047058
111	0x3fab43be	1.3380048
112	0xbfaf73ae	-1.3707178
113	0xbd7b127c	-0.061296925
114	0xbd6213fa	-0.055194832
115	0x3fa596f7	1.2936696
116	0x3e949f5c	0.29027832
117	0x3f7ba289	0.98294884
118	0xbfaa8107	-1.3320626
119	0xbf8999ec	-1.0750098
120	0x3fdf3aef	1.743986
121	0x3f4a6951	0.7906695
122	0xbf13ffc5	-0.5781215
123	0xbec59e16	-0.38597172
124	0xbf1c4574	-0.6104348
125	0x3edaf538	0.42765212
126	0x3f582bd7	0.84441894
127	0xbf59ab3c	-0.8502691
128	0x3f3e7fad	0.7441357
129	0x3e9612f5	0.29311338
130	0xbf17ac78	-0.5924754
131	0x3f5cc9d7	0.86245483
132	0x3f44834d	0.7676285
133	0x3f51e8b5	0.8199571
134	0xbf42a630	-0.7603483
135	0x3f1d4676	0.6143564
136	0xbe065bd6	-0.1312097
137	0xbe0a0ccd	-0.13481446
138	0xbf25e3dc	-0.6480081
139	0xbf137dda	-0.5761391
140	0xbf97a1d9	-1.1846267
141	0xbea0a2c5	-0.31374183
142	0xbebdf4b0	-0.37100744
143	0x3ef0b8db	0.47016034
144	0x3f7ba18e	0.9829339
145	0x3f5e9c8c	0.8695762
146	0x3f7182b4	0.9434006
147	0x3e859a60	0.2609434
148	0x3f779c2d	0.9672268
149	0xbe66e91d	-0.22549863
150	0xbeec2e08	-0.4612887
151	0x3e04824b	0.12940328
152	0x3d297c10	0.04137808
153	0x3f0cc788	0.5499196
154	0x3e267d82	0.16258815
155	0x3e3143ff	0.17311095
156	0xbf5807b1	-0.84386736
157	0xbee5b4b5	-0.4486443
158	0x3e531c49	0.20616259
159	0xbf9483bd	-1.1602703
160	0xbc99d633	-0.018778896
161	0xbf12c2be	-0.57328403
162	0x3e9e4b56	0.30916852
163	0x3e0a4f5c	0.13506836
164	0x3fad556f	1.3541697
165	0x3d8125c1	0.06306029
166	0xbf20792a	-0.6268488
167	0xbf4989ad	-0.787257
168	0x3e66cafe	0.22538373
169	0xbf80ffd3	-1.0078071
170	0x3e037035	0.12835772
171	0x3e1bf010	0.15228295
172	0x3e655cf3	0.22398739
173	0xbf73adfa	-0.9518734
174	0xbe43f646	-0.19136915
175	0xbf6e97e2	-0.93200505
176	0x3f7603f0	0.9609976
177	0xbe347853	-0.17624025
178	0xbd2203e1	-0.03955448
179	0xbf63cc0f	-0.88983244
180	0x3f031da8	0.51217127
181	0x3ec29cb8	0.38010192
182	0x3f47cf07	0.78050274
183	0x3f9a6966	1.2063415
184	0xbf7c1b31	-0.9847899
185	0xbd9ab4b6	-0.07553999
186	0x3d9a3821	0.07530237
187	0x3c873f22	0.016509596
188	0x3f20d35f	0.62822527
189	0xbe17f017	-0.14837681
190	0x3b148cfb	0.0022667039
191	0x3f0b07cb	0.54308766
192	0xbf1bc3eb	-0.6084582
193	0x3f84189b	1.0320009
194	0x3f84a1ed	1.0361916
195	0x3e0d4474	0.13795644
196	0x3e9e805a	0.309573
197	0x3edde6a6	0.43340033
198	0xbe842b1b	-0.25814137
199	0xbf854aba	-1.041343
200	0xbf27d23b	-0.6555516
201	0xbf21250f	-0.6294717
202	0x3f8052c1	1.0025254
203	0x3f3c4b27	0.73552173
204	0xbe82a015	-0.25512758
205	0xbecfb747	-0.40569517
206	0x3f2572b1	0.6462813
207	0x3e497d70	0.19676757
208	0x3e79bad5	0.24387677
209	0x3e240f20	0.16021395
210	0x3f5b516c	0.85671115
211	0x3e90e827	0.28302118
212	0xbeab798b	-0.33491167
213	0x3f049f20	0.51805305
214	0xbe68467d	-0.22683139
215	0xbe959d48	-0.2922156
216	0xbf180f43	-0.5939829
217	0xbf4003fe	-0.7500609
218	0xbe136268	-0.14393008
219	0x3ed633c1	0.4183636
220	0xbe889f6c	-0.2668413
221	0x3f741e5e	0.95358837
222	0x3f73b0e0	0.95191765
223	0x3eb9605c	0.3620633
224	0xbf2293ae	-0.6350659
225	0x3f16d514	0.5891888
226	0xbf2bff5b	-0.67186517
227	0xbf885944	-1.0652242
228	0xbf38ddb3	-0.72213286
229	0xbef815da	-0.4845417
230	0x3f02360d	0.50863725
231	0xbed08563	-0.40726766
232	0x3e6fe36c	0.23426598
233	0xbce11237	-0.027474506
234	0xbe292785	-0.16518982
235	0xbec004a7	-0.3750355
236	0x3f5e6a78	0.8688121
237	0xbe5edc8d	-0.21763821
238	0xbe52030a	-0.20508972
239	0xbe230828	-0.1592108
240	0x3ebc0771	0.36724427
241	0x3f60f581	0.8787461
242	0xbf39628a	-0.72415984
243	0xbe84e6d5	-0.2595736
244	0x3e87e733	0.26543579
245	0xbb86f5dd	-0.0041186647
246	0xbf35996f	-0.70937246
247	0x3e26978f	0.16268753
248	0xbf1b8f71	-0.6076575
249	0xbc423649	-0.011853763
250	0x3de4c00f	0.11169445
251	0xbf1e407a	-0.61817133
252	0x3edafbc4	0.42770207
253	0x3f5584aa	0.83405554
254	0xbf98f06f	-1.1948375
255	0xbe8428dd	-0.25812426

gru.bias_ih_l0 f4 [192]
0	0x3e9412e5	0.28920665
1	0xbea918a2	-0.33026606
2	0x3fa7e73e	1.3117445
3	0xbf93a6c7	-1.1535271
4	0xbefffc1f	-0.4999704
5	0x3d66c7a0	0.05634272
6	0xbfb620ce	-1.4228761
7	0x3f800fdf	1.0004843
8	0xbf81fd54	-1.0155435
9	0x3dcba5e0	0.099437475
10	0xbf3bdadb	-0.7338082
11	0x3db52ba0	0.088462114
12	0xbf982304	-1.1885686
13	0x3d332993	0.04374082
14	0xbe99c393	-0.30032024
15	0xbecb30d6	-0.39685696
16	0xbe0d8f16	-0.13824114
17	0xbfee5778	-1.8620443
18	0x3db159fb	0.086597405
19	0xbec5d7e7	-0.38641283
20	0xbf1e4a21	-0.6183186
21	0x3f28aad5	0.6588567
22	0xbdddbc38	-0.108269155
23	0xbf402203	-0.750519
24	0x3efd4dd9	0.49473456
25	0x3f41b8e0	0.7567272
26	0xbeabb23a	-0.33534414
27	0xbf9d2431	-1.227667
28	0xbfb1d7bd	-1.3893963
29	0xbf8fba28	-1.1228685
30	0xbebf8cbc	-0.3741206
31	0xbf25f790	-0.64830875
32	0x3ee9aac8	0.45638108
33	0x3e4096ab	0.18807475
34	0xbf70e31b	-0.94096535
35	0x3deb3e80	0.1148653
36	0xbef90dc6	-0.4864332
37	0xbe252124	-0.16125923
38	0x3f2a4ee8	0.6652665
39	0xbefc39d1	-0.4926286
40	0x3ecc23f6	0.39871186
41	0xbe191a3b	-0.14951412
42	0xbf6503c1	-0.89458853
43	0x3fec7409	1.8472911
44	0xbdc34b05	-0.09535793
45	0xbf8321fa	-1.0244744
46	0xbf413959	-0.7547813
47	0xbfaf9ce4	-1.3719754
48	0x3f41a1f9	0.75637776
49	0x3f9ba00b	1.2158216
50	0x3f0f7ea3	0.5605261
51	0xbf84dcf1	-1.0379926
52	0x3fb8ac12	1.4427512
53	0xbd6b06a4	-0.05737938
54	0xbe9c42f1	-0.30519822
55	0xbecc500f	-0.3990483
56	0x3ee5cf23	0.44884595
57	0x3f064a9b	0.5245759
58	0x3cb76652	0.022387657
59	0xbe76eeae	-0.24114487
60	0xbeac2687	-0.33623144
61	0xbb81e251	-0.0039637466
62	0xbf8bf450	-1.0933933
63	0xbf6545aa	-0.89559424
64	0x3f0694b7	0.5257067
65	0xbecaf5ba	-0.396406
66	0x3ecb1600	0.39665222
67	0x3d6bda59	0.05758128
68	0x3eab3c44	0.33444417
69	0x3eecba58	0.4623592
70	0xbe0e0a4e	-0.13871118
71	0xbebad368	-0.36489415
72	0xbede9e1a	-0.43479997
73	0x3ee405b6	0.44535607
74	0xbe862bad	-0.26205197
75	0xbfa52221	-1.290104
76	0xbd848ae9	-0.064718075
77	0x3e5e15df	0.2168803
78	0x3e2e831c	0.17042202
79	0x3f9512d6	1.1646373
80	0xbed9dfcd	-0.4255356
81	0x3eb90e7b	0.3614386
82	0x3e124797	0.14285122
83	0x3f61960a	0.88119566
84	0xbe0190f1	-0.12652947
85	0xbf1c388b	-0.6102378
86	0x3f4b7bfe	0.7948607
87	0xbe58a9e5	-0.2115856
88	0xbfc582a9	-1.5430499
89	0xc01fefbb	-2.499007
90	0xbefe80dc	-0.49707687
91	0xbc1570d0	-0.009121135
92	0xbeba64a5	-0.3640491
93	0xbf31c5d6	-0.694425
94	0x3dd01421	0.10160089
95	0xbe4175e4	-0.18892628
96	0x3ddd1f0c	0.10796937
97	0xbee989b6	-0.45612878
98	0xbefda1f2	-0.49537617
99	0x3f0fad17	0.5612349
100	0xc0e43863	-7.131883
101	0x3fa04fa8	1.2524309
102	0x3f1695bc	0.58822227
103	0x3eda28d0	0.42609262
104	0x3e370d2a	0.17876115
105	0x3e950e24	0.2911235
106	0x3dd36072	0.1032113
107	0xbfcf3255	-1.6187235
108	0x3f94f48c	1.163713
109	0x3f021dc6	0.5082668
110	0x3ef58913	0.47956142
111	0xbea6b41e	-0.32559294
112	0x3f64ecbe	0.8942374
113	0x3f242d04	0.6413119
114	0x3e5dda72	0.21665362
115	0xbd198401	-0.037479404
116	0x3ed48a8b	0.4151195
117	0xbf8d67d9	-1.1047317
118	0xbf6377a8	-0.88854456
119	0xbe6b4c7a	-0.22978392
120	0xbd0e9154	-0.034806564
121	0x3f127efa	0.57225
122	0x3e2c6332	0.16834715
123	0x3f4bcf57	0.7961325
124	0x3ea9ad08	0.33139825
125	0xbf7233f7	-0.9461054
126	0xbfe8cc84	-1.8187413
127	0x3ed05675	0.4069096
128	0x3ddad779	0.106856294
129	0xbf2e2c43	-0.6803629
130	0xbf3f40db	-0.74708337
131	0x3f7704c3	0.9649164
132	0x3f0fc280	0.5615616
133	0x3f7ae62a	0.9800745
134	0xbf431d3b	-0.7621648
135	0x3e67896b	0.22611015
136	0x401b0653	2.422261
137	0x3e790a93	0.2432044
138	0x3ed42d64	0.4144088
139	0x3e7d87ab	0.24758784
140	0xbea8e91d	-0.3299035
141	0xbef1d225	-0.4723064
142	0x3f2b7a50	0.6698351
143	0x3ed7847a	0.4209326
144	0x3ea99c6e	0.3312716
145	0x3f638501	0.8887482
146	0x3f2ba6bc	0.6705129
147	0xbde11712	-0.109907284
148	0x3f8beb8f	1.0931262
149	0xbe88d0c6	-0.26721781
150	0xbe97e554	-0.2966715
151	0x3ea8da70	0.32979155
152	0xbf17dff6	-0.5932611
153	0x3f86fb39	1.0545417
154	0x3dea4335	0.114386
155	0xbe385240	-0.18000126
156	0xbf6fde99	-0.9369903
157	0xbebdcc02	-0.37069708
158	0x3f5f3ccf	0.8720216
159	0xbf36f059	-0.7146049
160	0x3ce256ec	0.027629338
161	0x3f1a3a55	0.6024526
162	0xbf24a696	-0.6431669
163	0xbeb36b27	-0.35042688
164	0x3f4321bd	0.76223356
165	0x3e3f3cc1	0.1867552
166	0x3d43bcb5	0.047787387
167	0xbef9e456	-0.4880702
168	0xbe3a2f15	-0.18182023
169	0x3df491d4	0.11941877
170	0x3eb16a04	0.34651196
171	0x3f768c93	0.9630825
172	0xbf5cefa9	-0.8630319
173	0xbf010162	-0.50392735
174	0x3e79f3bb	0.24409382
175	0xbe24a08d	-0.1607687
176	0x3f288428	0.65826654
177	0xbf140e4b	-0.5783431
178	0xbe575e43	-0.21032052
179	0xbf5285c5	-0.82235366
180	0xbe342fad	-0.17596312
181	0x3f4e58c9	0.80604225
182	0xbeeeba56	-0.46626538
183	0x3f22b4a1	0.6355687
184	0xbf88ae51	-1.0678197
185	0xbf109ffe	-0.5649413
186	0xbf23bb3b	-0.63957566
187	0x3e062b82	0.13102534
188	0x3f5d516e	0.86452377
189	0xbfbc820c	-1.4727187
190	0x3fa347f1	1.275633
191	0x3d4a2d20	0.04935944

gru.bias_hh_l0 f4 [192]
0	0x3e421839	0.18954553
1	0xbed7fb0d	-0.42183724
2	0x3fbcf1ef	1.4761332
3	0xbf9ff51b	-1.2496675
4	0xbf190113	-0.59767264
5	0x3e1265d8	0.14296663
6	0xbfaddf56	-1.3583782
7	0x3f944715	1.1584193
8	0xbf5dcf86	-0.8664478
9	0x3d0dfe4f	0.034666356
10	0xbf6f85b6	-0.935634
11	0x3e547ecc	0.20751494
12	0xbf8ce488	-1.1007242
13	0x3d66df0b	0.056365054
14	0xbeae1eb9	-0.34007815
15	0xbec6a81d	-0.38800135
16	0xbe70133f	-0.23444842
17	0xbfdd03a2	-1.7266734
18	0x3b98ad9e	0.0046593687
19	0xbebacfd2	-0.3648668
20	0xbf1e3b65	-0.6180938
21	0x3f2ce5c4	0.67538095
22	0x3ac9d32f	0.0015398021
23	0xbf3906ca	-0.72275984
24	0x3edd9987	0.43281195
25	0x3f5ca8ac	0.8619487
26	0xbe0c9b22	-0.13731053
27	0xbfaec9cb	-1.3655332
28	0xbfa37278	-1.2769308
29	0xbf94565f	-1.1588858
30	0xbea84a8f	-0.32869384
31	0xbf142270	-0.5786505
32	0x3eed494e	0.4634499
33	0x3e302338	0.17200935
34	0xbf693a00	-0.91104126
35	0xbd246600	-0.040136337
36	0xbef3c5ae	-0.47611755
37	0xbea4ecc1	-0.3221188
38	0x3f28cd89	0.6593862
39	0xbec9bc34	-0.394014
40	0x3ed47beb	0.41500792
41	0xbe52f044	-0.20599467
42	0xbf83d190	-1.0298328
43	0x4001f6f4	2.0306978
44	0xbe2616af	-0.1621959
45	0xbf8feb7a	-1.1243737
46	0xbf2cb39e	-0.67461574
47	0xbfb3138e	-1.3990343
48	0x3f4cf166	0.80055845
49	0x3f9bd553	1.2174476
50	0x3f009c41	0.50238425
51	0xbf838069	-1.0273563
52	0x3fb6d90e	1.428499
53	0x3ce38ebc	0.027778022
54	0xbed46f30	-0.4149108
55	0xbe9ef840	-0.31048775
56	0x3f08ec0b	0.53485173
57	0x3f115a41	0.5677834
58	0x3dcd89cb	0.100360475
59	0xbeb19049	-0.34680393
60	0xbed14829	-0.40875366
61	0x3dc9603b	0.09832808
62	0xbf8b75ef	-1.0895365
63	0xbf40c9d2	-0.75307953
64	0x3efc6fbc	0.49303997
65	0xbec26c92	-0.37973458
66	0x3ec6958d	0.38785973
67	0x3dbd7e1d	0.0925257
68	0x3ed43845	0.4144918
69	0x3e97b7a1	0.29632285
70	0xbc11facd	-0.008909893
71	0xbe9769e2	-0.2957297
72	0xbea828ea	-0.32843715
73	0x3eefb709	0.46819332
74	0xbd2ad9ac	-0.041711494
75	0xbfba43f0	-1.4551983
76	0xbdc60608	-0.09669119
77	0x3ec380f2	0.38184315
78	0xbc861794	-0.016368665
79	0x3f8afef9	1.0859061
80	0xbf090236	-0.53519
81	0x3e8321ff	0.25611874
82	0x3e903b00	0.28170013
83	0x3f5a7f4d	0.85350496
84	0xbe114e68	-0.14190066
85	0xbf0952c8	-0.5364194
86	0x3f47ec41	0.7809487
87	0xbe8e26cc	-0.27763975
88	0xbfe44b6c	-1.7835517
89	0xc01ab720	-2.417427
90	0xbf19959e	-0.5999392
91	0xbdcc4103	-0.099733375
92	0xbe627f3f	-0.22118853
93	0xbf5d64f5	-0.86482173
94	0xbd1bd58a	-0.038045444
95	0xbeababc1	-0.33529475
96	0x3e1141b5	0.14185221
97	0xbeeb136b	-0.45913252
98	0xbea63e0d	-0.32469216
99	0x3f0c3537	0.547687
100	0xc0e6b48c	-7.2095394
101	0x3fb5a4da	1.4190934
102	0x3f10e6be	0.56602085
103	0x3eb7bea2	0.3588763
104	0x3dd88625	0.10572461
105	0x3d898e6e	0.067166194
106	0x3e68a666	0.22719726
107	0xbfbe4850	-1.4865818
108	0x3faeed7e	1.3666227
109	0x3ec2317f	0.37928388
110	0x3f1ddae7	0.61662143
111	0xbeb2ea7b	-0.3494452
112	0x3f3a5fe1	0.7280255
113	0x3f0514a4	0.5198462
114	0x3e68c832	0.22732618
115	0x3c2986e6	0.010347104
116	0x3eabaa1a	0.33528215
117	0xbfa01ed1	-1.2509404
118	0xbf4a71a2	-0.7907964
119	0xbeaaf9fd	-0.3339385
120	0x3d0413f7	0.032245602
121	0x3f20addb	0.6276528
122	0x3dbfe76e	0.093703136
123	0x3f645ad5	0.892011
124	0x3eaa5de0	0.33274746
125	0xbf80da97	-1.0066708
126	0xbff59a70	-1.9187756
127	0x3ec7efb4	0.39050066
128	0xbc3ddc26	-0.011588132
129	0xc004d022	-2.0752034
130	0xbf406cda	-0.75166094
131	0x3eb42308	0.35182977
132	0x3e420637	0.18947683
133	0x3e4c5ac6	0.19956502
134	0xbef1ca1e	-0.47224516
135	0x3dba6045	0.09100393
136	0xbd21f568	-0.03954068
137	0x3f270fc5	0.6525844
138	0x3de900f8	0.11377138
139	0x3e66e131	0.22546841
140	0xbdfe5638	-0.12418789
141	0xbe9bae00	-0.3040619
142	0xbf87605a	-1.0576279
143	0x3ecf57b8	0.40496612
144	0xbf969cc6	-1.1766593
145	0x3ec45180	0.3834343
146	0x3f1e881d	0.6192644
147	0x3e09f5c5	0.1347266
148	0x3f836048	1.0263758
149	0xbf6c7c32	-0.92377007
150	0xbeeabe67	-0.4584839
151	0x3fe648f0	1.7991009
152	0x3f3005c5	0.68758804
153	0x3f5e3e28	0.8681359
154	0x3e31502e	0.17315742
155	0xbe53e5a9	-0.20693077
156	0xbf042745	-0.5162242
157	0x3ebaa522	0.3645411
158	0x3f17d1b7	0.59304374
159	0xbf72293d	-0.94594175
160	0xbe425f9f	-0.18981789
161	0x3eeefc89	0.46677044
162	0xbe007660	-0.12545156
163	0xbda21346	-0.07913832
164	0xbfdf0206	-1.7422493
165	0x3e6f6302	0.23377612
166	0x3e10758a	0.14107338
167	0x3f67f26f	0.906043
168	0xbe9fd715	-0.31218782
169	0x3dca0398	0.09863967
170	0x3dc76c8e	0.09737502
171	0x3fd41c7d	1.6571194
172	0xbde53c8b	-0.11193188
173	0xbc950c76	-0.018194418
174	0x3ed3d886	0.41376132
175	0xbe040fb8	-0.12896621
176	0x3f6dd115	0.9289716
177	0xbf496579	-0.7867046
178	0xbe26b625	-0.1628042
179	0xbe67353a	-0.22578898
180	0x3f5c2e77	0.860084
181	0xbf1b9af6	-0.60783327
182	0x3e804902	0.250557
183	0xbe90c4d8	-0.2827518
184	0xbf5ad440	-0.8548012
185	0xbd909a3b	-0.07060667
186	0xbfd8739a	-1.6910279
187	0x3e9308da	0.2871769
188	0x3ee24342	0.4419194
189	0xc00d2462	-2.2053456
190	0xbe9da733	-0.30791625
191	0xbd83966d	-0.06425176

fc.weight f4 [1, 64]
0	0xc2c089ea	-96.26936
1	0x42b2b51e	89.353745
2	0x42c08e6d	96.278175
3	0x42c0d3c2	96.41359
4	0x42c0bdd6	96.37077
5	0x42c0c94c	96.39316
6	0xc2c0d445	-96.41459
7	0xc2c0b6d1	-96.35706
8	0xc2c4cddb	-98.40206
9	0xc2c0a32d	-96.3187
10	0x42c0db1e	96.42796
11	0x42c0e400	96.44531
12	0xc2c0b036	-96.34416
13	0xc2c0af97	-96.34295
14	0x42c065ba	96.198685
15	0x42c09ba3	96.30398
16	0x42c0c67d	96.38767
17	0x42c0ae26	96.34013
18	0x42c0cbf6	96.39836
19	0x42c08c68	96.27423
20	0x42c0cb42	96.39699
21	0x42c0a6c1	96.32569
22	0xc2c0adcb	-96.33944
23	0xc2c16a9f	-96.708244
24	0xc2c08593	-96.26089
25	0xc2c0c3df	-96.38256
26	0x42c0bd03	96.36916
27	0x42c0b871	96.36024
28	0xc2c0bd6b	-96.36996
29	0x42c0c256	96.37956
30	0x42c0c4ce	96.384384
31	0xc2c0b5ca	-96.35506
32	0xc2c0b043	-96.34426
33	0x42c09ba2	96.30397
34	0xc2c0bd1b	-96.36935
35	0xc2c0aa91	-96.33314
36	0xc2c9dae0	-100.92749
37	0xc2c08394	-96.25699
38	0x42c07353	96.22524
39	0xc2c0bd4d	-96.36973
40	0x42c0c02c	96.375336
41	0xc2c090c3	-96.28274
42	0xc2c0cf73	-96.405174
43	0xc2c0ce00	-96.40234
44	0x42c0b6da	96.35713
45	0xc2c0c2d1	-96.3805
46	0x42c0cc4f	96.39904
47	0xc2c0d3d0	-96.4137
48	0x42c0bb1d	96.365456
49	0x42c0a6c6	96.32573
50	0xc2c0a19d	-96.31565
51	0xc2c0ddf7	-96.433525
52	0xc2c0d296	-96.4113
53	0x42c08cb5	96.27482
54	0xc2c05a30	-96.17615
55	0x42c0bd62	96.36989
56	0xc2c0b2b9	-96.34907
57	0x42c0ab43	96.334496
58	0x42c08151	96.25257
59	0xc2c0903f	-96.28173
60	0x42c0b059	96.34443
61	0x42c0a82a	96.328445
62	0xc2c0e55e	-96.44798
63	0x42c0c739	96.38911
