best_gru_model_PERSISTENT.pth (torch, 67653 bytes, 5 tensors)

gru.weight_ih_l0 f4 [192, 19]
00000000: c67b c4be 3b6d 2fbf b467 0c3d 0037 d1bb
00000010: 58b8 5a3d 58c9 f33c e062 6bbc f683 73bf
00000020: d560 1dbf 58e1 80bf 6aee 05bf 83e8 a3be
00000030: b36d dabe f09b 8fbe c2f3 e6be 1523 81be
00000040: 5f69 a3be ffff 96bf d5cc 5ebf ef49 a8bf
00000050: 3fe0 803f c018 0bbc b04d 22bc 4e95 b53d
00000060: d0b3 42bc 98d1 063d 5f65 b1bf 96d1 9e3f
00000070: a7ee 87c0 5f74 2a3f e913 e8be 8bb3 483e
00000080: 34d7 00bf b551 9b3e 8bac a33f 6208 06c0
00000090: ae91 4dc0 2055 20c1 fa4a aabf 5049 483f
000000a0: f0c4 20bd a435 edbd 1877 5a3d 7c15 473d
000000b0: 9866 cb3c 291a 493e b788 3e3d d973 9fc0
000000c0: 8c9b b7c0 d1b5 97bf 4d39 58be 686b 81bf
000000d0: e170 83bf 55be 623f a664 49c0 d5e1 86bd
000000e0: 8840 9d3f 2684 65be d625 35bf feef ec3d
000000f0: 5cd7 813d f0ca dabd c8c6 153d dafb f53d
00000100: 9902 27bf adba 29bf 2ad6 22bf f888 1bbf
00000110: 3129 84be cb0f 5fbe c01e c4be c4f5 6fbe
00000120: 4a68 8cbe b5c6 60be f78b 58bf 0291 17bf
00000130: 22f7 e3be 0725 5cbf 90f4 dbbc 08d2 a1bd
00000140: b4a3 d93d 2064 7bbc 5ae7 febd 4339 45bf
00000150: 1be8 0abf dc76 5cbf 1176 2bbf b92f a5be
00000160: 66fa 08bf 8bba ffbe 8d94 09bf 75ba dabe
00000170: 7d26 bebe 3f93 54bf 65a4 16bf bcf2 23bf
00000180: e0fc 63bf 3690 9fbd 7419 afbd a88e 24bd
00000190: e818 3bbd 68ff a4bc 5db3 f0be afbb f6be
000001a0: 8f56 5abf 2581 57bf f0cc 02bf 04d9 04bf
000001b0: 8ac4 45bf 6b47 2fbf 95d3 e8be c0b6 3abf
000001c0: 2319 83bf 4c54 58bf 503a 2abf 22e3 4ebf
000001d0: 3051 97bc ae16 e43d a0c6 00bc 56d2 8a3d
000001e0: 6876 bb3d 65e4 01bf f546 4abf 5af1 2dbf
000001f0: 521d 1bbf 972a 1ebf 45ce 1bbf e4e6 f2be
00000200: 9b5b 39bf 6eb6 1cbf 99be 25bf 0957 54bf
00000210: 8f94 50bf 4dc2 66be 2ada ca3b a07d 813d
00000220: a0c6 3f3d 7455 dbbd 9445 f93d b085 1abc
00000230: 78b3 1dbe c6a1 183e 2191 82bc 7357 acbd
00000240: 0131 f2bd 2070 abbd 3b8a 73be c078 86bd
00000250: a52a b5bc 4d55 2ebe dcea 373d 7d1c 75bc
00000260: 2e5c 1dbf 49d4 15bf 3c95 2bbd 38a9 dabd
00000270: 0c8a babd c0bf 323b 3654 ed3d 5411 babe
00000280: 2d9c 28bf e4dc 19bf 35f1 1dbf 8e82 16bf
00000290: d2a1 01bf 511f d3be ea19 1dbf ef38 debe
000002a0: 4ada 12bf 6f68 4dbf 11dc 1fbf ce33 debe
000002b0: cd16 2fbf 3848 bebc 5c39 e6bd 803f 8cba
000002c0: 62a6 debd 609b f03b c7d1 2ebf 650a 2bbf
000002d0: ad1b 55bf fa76 2abf b4ee a0be 45d4 cdbe
000002e0: 8826 09bf a5a8 12bf 04d1 c2be 7bdc bdbe
000002f0: c24a 40bf b87d 17bf dcad 6cbf ca8d 86bf
00000300: 40a6 a53d dc5d 373d c0a3 24bd aca9 75bd
00000310: ac8e 113d 6e7d 7bbf 3b01 4bbf 6d9b 8cbf
00000320: b12a 95bf 8551 77bf 7b8a 77bf 1c31 85bf
00000330: 6f43 7fbf 1834 3dbf c76c 6fbf c569 a5bf
00000340: cfb7 8fbf 1c16 70be 883d b0be a0be 0bbd
00000350: f056 0d3c ead2 81bd fec9 bfbd ac8e 153d
00000360: e3d5 e5bd c107 e2be 4196 85be 0293 11be
00000370: 5353 06be b513 80be 1545 3ebd 1139 d9bd
00000380: fb6d 92bd 94ce 8bbe e7e4 c2be 2667 4abd
00000390: 5426 e1be 69ae 00bf 007a a33b 5009 d23c
000003a0: c058 073d 80bb e7bb d4fb 85bd c0bf 2abf
000003b0: 7d33 5cbf 74ef 58bf a7fe 4bbf cc82 fbbe
000003c0: 4dd1 0dbf 324f e0be 40fb 2cbf a92b d6be
000003d0: 06cc fbbe e737 51bf ce4d 10bf aa70 c3be
000003e0: 3914 59bf 0ac8 a0bd 4c81 aebd c03d 01bc
000003f0: 40f9 fd3c 34cd efbd 1dd1 79bf b185 52bf
-0.38375682 -0.6852605 0.034278587 -0.0063847303 0.05339846 0.029759094 -0.014366835 -0.9512323
-0.6147588 -1.006877 -0.52316916 -0.3201333 -0.4266182 -0.28048658 -0.45107847 -0.25222078
-0.3191633 -1.1796874 -0.870313 -1.3147563 1.0068434 -0.008489788 -0.009906217 0.08866368
-0.011883691 0.032914728 -1.3859061 1.240771 -4.2478824 0.6658382 -0.4532769 0.1959974
-0.50328374 0.30335775 1.2787031 -2.0942616 -3.2120166 -10.020782 -1.3304131 0.78236866
-0.039250314 -0.11582497 0.053336233 0.048604473 0.024829194 0.19638886 0.0465171 -4.9828916
-5.7377377 -1.1852361 -0.21115609 -1.0110903 -1.0268823 0.88571674 -3.146768 -0.06586043
1.2285318 -0.22413692 -0.7076086 0.115692124 0.06339905 -0.106832385 0.036566526 0.120109275
-0.6523834 -0.6630047 -0.6360804 -0.6075587 -0.25812677 -0.21783368 -0.3830471 -0.23433596
-0.27423316 -0.219508 -0.8458857 -0.5920564 -0.44524485 -0.85994 -0.026850015 -0.079013884
0.10626927 -0.015343696 -0.124464706 -0.770405 -0.54260415 -0.86118865 -0.6697703 -0.32262972
-0.5350708 -0.49947008 -0.53742296 -0.4272038 -0.3713874 -0.8303718 -0.58844596 -0.6404226
-0.8905773 -0.07791178 -0.08549777 -0.04017511 -0.04567805 -0.020141318 -0.47011843 -0.48190066
-0.8528833 -0.84181434 -0.5109396 -0.5189364 -0.7725302 -0.6846835 -0.45473924 -0.72935104
-1.0242046 -0.84503627 -0.6649523 -0.8081533 -0.01847133 0.11137138 -0.007859856 0.067784
0.091534436 -0.5073913 -0.7901452 -0.679464 -0.60591614 -0.61783737 -0.6086162 -0.4744178
-0.72405404 -0.61215866 -0.64743954 -0.82945305 -0.8147668 -0.22535057 0.006190558 0.06322789
0.046820283 -0.10709658 0.12171474 -0.009431288 -0.15400493 0.14905462 -0.015938343 -0.08415117
-0.11825753 -0.083709955 -0.237832 -0.06566 -0.022115061 -0.17024727 0.044901714 -0.014960405
-0.6146878 -0.58527046 -0.041890368 -0.10676807 -0.091083616 0.0027274936 0.115883276 -0.36341345
-0.65863305 -0.6010268 -0.6169618 -0.5879296 -0.50637543 -0.4123483 -0.61367667 -0.43402812
-0.5736433 -0.8023748 -0.6244517 -0.433989 -0.68394166 -0.023227796 -0.11241409 -0.0010700077
-0.10871579 0.007342741 -0.68288845 -0.66812736 -0.83245355 -0.66587794 -0.31432116 -0.4020101
-0.5357442 -0.5728858 -0.3805009 -0.37082276 -0.7511407 -0.59176207 -0.9245279 -1.051202
0.0808835 0.044767246 -0.040195227 -0.059976265 0.035536453 -0.98238266 -0.7929875 -1.0984932
-1.1653653 -0.96608764 -0.9669568 -1.0405612 -0.9971227 -0.73907614 -0.93525356 -1.2922903
-1.1227969 -0.23445934 -0.34421945 -0.03411734 0.008626685 -0.06339057 -0.09364699 0.036513016
-0.11222436 -0.4414654 -0.26091197 -0.14216235 -0.13117723 -0.25015035 -0.0464526 -0.10606588
-0.07149883 -0.27306044 -0.38065264 -0.049414776 -0.43974555 -0.5026613 0.004988909 0.025639206
0.033043623 -0.0070719123 -0.06542173 -0.6669884 -0.86016065 -0.84740376 -0.79685444 -0.49123228
-0.5539749 -0.4381042 -0.6757088 -0.41830185 -0.49179095 -0.81725925 -0.5636872 -0.38171893
-0.8479648 -0.078506544 -0.08520755 -0.0078882575 0.03100264 -0.11709061 -0.97584707 -0.82235247

gru.weight_hh_l0 f4 [192, 64]
00000000: fd60 4b3f f2ca 5a3f 3f09 05be 9657 64bf
00000010: df23 3b3f cb6e d03d d40e 5a3f d1db 483e
00000020: c1a6 6ebf 83a0 73bf bd51 68bf bc7c 353f
00000030: f5f0 5c3f 8aff 6ebf 3316 7dbe 98f4 6fbf
00000040: e834 673f c7c4 403f dbd9 013e 8931 1bbe
00000050: 5aef 653f 1925 d2bc 6517 583c 0ff0 5fbf
00000060: a1e9 f1bc 1963 0fbe 5f02 56bf b532 5cbe
00000070: f841 6a3f d801 2e3e 8c1d 4bbf 8af0 f3bd
00000080: e187 7b3f 703f f83d d1de 53be 6d54 033e
00000090: 143a 3abf b43f 513f aac7 1d3f 3b8b 75be
000000a0: a474 743f 9c31 79be 91a0 6abf 47e4 cb3b
000000b0: 944b 6e3f 0ee7 4c3f 6e36 263e 3610 44bf
000000c0: aa30 44bf 2b73 02be 88d8 60bf 8129 423f
000000d0: 26de 3abf 8fdb 6f3e 52cc 8dbe 7708 643f
000000e0: 5ca7 4d3f ad98 60bf f4e5 3d3f 6a3e 6b3f
000000f0: 6861 68bf 1422 893e 6e4a 303e c66e 6cbf
00000100: 60f0 4a3f 25a7 253f 9b85 4cbe efee 23bf
00000110: 1a1d 403f 0282 b63d 0b9c 5b3f b3e4 783e
00000120: d0c0 25bf 8613 28bf 9d3c 7fbf 3cd5 733f
00000130: 1557 7f3f be84 49bf 8d87 a8be 1dcd 38bf
00000140: e593 3a3f 0797 2e3f f27c 463e 2957 3dbe
00000150: 8332 3b3f 8423 56bc 7957 133d 319d 43bf
00000160: 9048 9fbe ed3d 45bd 95d1 41bf 3883 4ebe
00000170: 2cd2 403f 866e 023e 629c 25bf f5a6 bcbd
00000180: 58e7 303f d341 463d 0051 81bd 828f 993e
00000190: 485b 3abf 274e 583f 4187 4c3f 44e1 683b
000001a0: 744a 613f 5e07 34be d817 2bbf 599f 2f3e
000001b0: 81ff 493f 66c6 4f3f a534 b73e dacf 48bf
000001c0: 037b 42bf acce 82be eb39 6bbf b07a 5a3f
000001d0: 8cf3 36bf c390 d33e 4bcb 4bbe 58f5 5a3f
000001e0: 73a2 2d3f d9d1 64bf 664b 3d3f c905 6a3f
000001f0: 65ef 50bf 7521 183e 4cbf 8e3e 6095 30bf
00000200: 6d5f ac3d e757 673e d561 b2be 702c b2bd
00000210: 2bef 983e 07c9 a5bd 481b af3d cd83 d23e
00000220: 363e 34be c612 a6bd 5d5c a2bd a060 063e
00000230: 008e 723d d6d6 5cbe 0171 47bf f454 e2bd
00000240: bd2a b73d 4c8c 143e 22fb 8b3e 7ee3 b2be
00000250: 7045 4a3e e5df 04be 791a 963c 5e8c a3bd
00000260: 71ea eabe 8494 3b3d 267d 82be 1628 59bf
00000270: 3d21 7d3e 393c e03e 4299 1dbe eaa9 b23d
00000280: fd14 353e 19a7 1cbe 1e2e a9be 6ce0 ac3e
00000290: 43b7 a6bd f384 193f 700d a9be bef6 66be
000002a0: a9d5 0b3e b584 f9be a96e 82be 8daf 253f
000002b0: 98a4 b83e b188 a23d 6de5 853e 0e5c 8dbe
000002c0: c817 82be 8299 5b3e ecb1 63be 0e41 573e
000002d0: d7f9 14bd 996e b8bd fcbc 59bf c90e 7d3d
000002e0: 191c 1b3e fb81 38be 2568 823d 517e 023e
000002f0: 7896 28be 460d 0e3f 3e30 e13e a983 10be
00000300: 18ad 413f 0c2c 383f de93 063d f9a0 3ebf
00000310: 61e1 663f be97 28bd 903a 6e3f 5bd8 373d
00000320: 7092 7abf 07bc 44bf bbe9 6dbf 7de3 3d3f
00000330: 5b57 473f b6e7 6dbf 6641 5cbd ee40 52bf
00000340: c93a 663f 9e83 813f 611d 7d3e caf4 9e3b
00000350: eda0 693f 9225 5fbd 6869 1b3e 9b73 4ebf
00000360: e2b4 81bd f48f 4ebd cf22 46bf 1e11 85be
00000370: 72ff 763f b12a 513e 0f59 64bf 04c1 033e
00000380: e918 713f b2f3 8f3d 3a1f 42be 916b b13d
00000390: c9c6 39bf d2b9 5e3f 864b 343f 2961 1ebe
000003a0: 0b56 513f 57eb 2cbd 7475 63bf 94ec 093e
000003b0: 7cb3 403f c997 363f 3f8a 7d3e e858 6dbf
000003c0: 8486 53bf 9dae 383d 9055 54bf 35e7 793f
000003d0: c65a 65bf 0c80 843e 378b 61be 826d 523f
000003e0: 322c 773f df94 3fbf 92ec 443f c004 463f
000003f0: 16ae 37bf 9f30 143e 7bf0 1e3e 8b6d 44bf
0.7944487 0.8546592 -0.12991808 -0.89196146 0.7310161 0.10177382 0.85178876 0.19615103
-0.93223196 -0.95166796 -0.9074972 0.70893455 0.8630517 -0.9335867 -0.247155 -0.93732595
0.90315104 0.7530026 0.12680762 -0.15155615 0.89818347 -0.025652455 0.013189171 -0.87475675
-0.029530348 -0.14002647 -0.8359737 -0.21503718 0.9150691 0.16992891 -0.7934196 -0.119111136
0.9825421 0.12121475 -0.20690466 0.12825175 -0.7274487 0.8173783 0.6163279 -0.23978893
0.9549048 -0.2433533 -0.91651255 0.006222281 0.93084073 0.8004006 0.16231701 -0.76587236
-0.76636755 -0.12739246 -0.878304 0.7584458 -0.7299522 0.23423599 -0.27694947 0.89075416
0.80333495 -0.87732965 0.74179006 0.9189211 -0.9077363 0.26783812 0.17215893 -0.92356527
0.79273033 0.6470817 -0.19972841 -0.6403646 0.75044405 0.08911516 0.8578498 0.24305992
-0.64747334 -0.6565479 -0.99701864 0.95247245 0.9974225 -0.78718174 -0.32915917 -0.7218798
0.7288192 0.681992 0.193836 -0.1849028 0.7312395 -0.013069991 0.035972092 -0.7641173
-0.31110048 -0.04815476 -0.7571042 -0.20167243 0.75320697 0.12737474 -0.64691746 -0.09211532
0.69103 0.04840262 -0.06314278 0.299923 -0.72795534 0.8449425 0.7989388 0.003553466
0.8800423 -0.17580935 -0.6683326 0.1715063 0.78905493 0.81162107 0.35782352 -0.78442156
-0.7596895 -0.25548303 -0.9188525 0.85343456 -0.71465373 0.41321382 -0.19901769 0.85530615
0.67826 -0.893827 0.73943174 0.9141508 -0.8161529 0.14856513 0.27880323 -0.6897793
0.084166385 0.22592126 -0.34840265 -0.08699882 0.2986997 -0.080949835 0.08550125 0.4111618
-0.17601857 -0.081090495 -0.07927773 0.13122797 0.059217453 -0.21566328 -0.77906805 -0.1105136
0.089436986 0.14506644 0.27340037 -0.34939188 0.19753051 -0.12976034 0.01832317 -0.07985757
-0.4588199 0.045795932 -0.25486106 -0.8482679 0.2471971 0.43795946 -0.15390494 0.08723815
0.17683788 -0.15298118 -0.33042997 0.3376497 -0.08140423 0.5996849 -0.33018064 -0.22555062
0.13655724 -0.4873406 -0.25475052 0.64720994 0.36063075 0.07936228 0.261516 -0.27609295
-0.2540877 0.21445277 -0.2223584 0.2102091 -0.03637108 -0.0900547 -0.8505399 0.06178168
0.15147437 -0.18018334 0.0636752 0.12743498 -0.1646365 0.55489004 0.43982118 -0.14112724
0.75654745 0.7194221 0.03285586 -0.74464375 0.9018765 -0.041160338 0.9305811 0.044884067
-0.97879696 -0.76849407 -0.9293477 0.74175245 0.7786767 -0.9293169 -0.053773306 -0.82130325
0.8993345 1.0118291 0.24718238 0.0048509585 0.9126118 -0.05447919 0.15176928 -0.8064515
-0.06333329 -0.050430253 -0.77396864 -0.25989622 0.9648353 0.20426442 -0.8919839 0.12866598
0.94178635 0.07028903 -0.18957224 0.08663095 -0.7256895 0.8700229 0.7042774 -0.15466751
0.81771916 -0.042216625 -0.88851094 0.13469154 0.7527387 0.71325356 0.24759768 -0.92713785
-0.8262713 0.0450884 -0.8294306 0.9761842 -0.89591634 0.25878942 -0.22025762 0.82198346
0.9655181 -0.74836534 0.7692348 0.77351 -0.7175001 0.14471672 0.15521424 -0.7672965

gru.bias_ih_l0 f4 [192]
00000000: 134a 86bf fa4e a53f 11a0 fb3f 1d39 51bf
00000010: 8f94 3ebf da6e 81bf 5032 61bf c8ae 9bbd
00000020: a769 1cbf 10a4 40bf 9de1 9fbf 4d59 0abe
00000030: 76b9 5dbf 92fb 8cbf cba7 66be 889c f8bd
00000040: 7d39 39bf d953 99bf 7189 0c3f bce4 28be
00000050: 55b8 82bf eeb5 b23b 1d94 38bc bd83 8dbf
00000060: 60a7 b03e 637f 8a3e afc9 48bf 20b9 343f
00000070: e370 71bf b4ce 5dbd 6240 50bf 23c8 6ebf
00000080: 804e 1dbf 9753 73bd 2f98 69be b438 753a
00000090: 38d1 27bf a346 3b3f 5068 6dbf c8a6 47bf
000000a0: 90c8 ccbd 7c8c b1bd 1a95 80bf 21eb 013f
000000b0: 2e17 50bf 2c01 37bf 3a53 4dbf f346 20bf
000000c0: 1dee 14bf 392f c8be 0f4e 2abf 7c42 52bf
000000d0: 36c4 1abf 5cef 33bf e5c1 d53e 28e3 823e
000000e0: f90a 5fbf c49b d2be c9f4 a73e bb2e 38bf
000000f0: e87a c1be b562 9bbe ecff 163f 2920 1ebf
00000100: a1e9 72bf 81e7 f140 eeee 20bf 8deb 72bf
00000110: 4244 d93e 6b5d 88bd 17e3 5fbf 470b 433e
00000120: 0014 543d b8f3 8ebf 3e8f 85bf 2025 96bf
00000130: 4e09 45bf 58dd 71bf 8771 5dbc a1e6 793e
00000140: 8840 673e f83e 74bf d54c d4be 1352 f1bd
00000150: 1f3b 53bf d683 27bf bce9 d2be d18f 8cbf
00000160: 588f 69be 31a7 e9bd 4ad7 80bf 3734 60bf
00000170: 627d 39bf c69a 40bc 5f2a 7cbf 9cbb 0cbf
00000180: 47ce bb3e 60eb a33e da8c 513e 4975 41bf
00000190: ca19 89bf f0b1 58bf 2f12 01be 34e4 cabe
000001a0: 6036 b13e 53fe 4cbe 5158 6ebf 6ef5 ebbe
000001b0: c24b 43bf 3bc8 0dbf f94c c13d 2ef8 85bf
000001c0: 9b46 ac3e 0992 463d 7aca b63e aed5 5bbf
000001d0: 6836 7dbf 7f11 e23d ade4 37bf 17f2 9ebf
000001e0: ac87 53bf 9037 98bf ceb3 a83e c308 9bbf
000001f0: 0a91 86bf 0ede ba3e be49 e8be 1377 db3e
00000200: 5912 2d3f 55b7 66c0 1765 09c0 b5f3 2fbf
00000210: e845 cf3e 8324 7fbe ad50 373f 6718 23bf
00000220: bd2a ddbe 314f 07bf 701f 43bf e995 863f
00000230: 60eb 3e3f 2663 76bf 5522 133f 2e7f 1abf
00000240: c11e 1c3f 7fde 5e3f df81 5abf e6db ac3e
00000250: 6c9a 1e3f 1914 19be 2429 15bf 05bc 22bf
00000260: bf28 0e3f b055 013f 6c73 46bf 0595 523f
00000270: f505 1c3f af6f 18bf 9945 28bf 3668 333f
00000280: 2360 ca3e c15d 68bd cb61 e93e fd7e 2040
00000290: 9f12 59bf 7188 42bf 88dd 093f ea7d 1b3f
000002a0: b8de f83e 2456 163f 3d7a 87bf 5be1 80bf
000002b0: 2661 263f ac13 183f 0ec2 68be fad8 85bf
000002c0: a1c5 1abf 6917 f33d 5809 88be c893 ee3e
000002d0: 343f 4bbf 3e2f 71be 45d6 313f 6a69 2b3f
000002e0: 17df 453f ca6d 61bf 844f ff3e 215e 283e
000002f0: 0895 13bf c335 46be 83e7 7cbf d813 09bf
-1.0491356 1.2914727 1.9658223 -0.8172777 -0.7444543 -1.0111954 -0.87967396 -0.07601696
-0.6109871 -0.7525034 -1.2490727 -0.13510628 -0.86611116 -1.1014273 -0.22524945 -0.12139231
-0.72353345 -1.1978713 0.5489722 -0.16493505 -1.0212504 0.0054538166 -0.011265782 -1.1055828
0.34502697 0.27050313 -0.78432745 0.7059498 -0.94312876 -0.054152206 -0.8134824 -0.93274134
-0.61447906 -0.05940589 -0.2281196 0.0009354458 -0.6555362 0.7315466 -0.92737293 -0.77988863
-0.09999192 -0.086693734 -1.0045502 0.50749403 -0.8128537 -0.71486163 -0.8020512 -0.6260826
-0.5817583 -0.39098528 -0.6652536 -0.821327 -0.60455644 -0.7028711 0.41749492 0.2556393
-0.8712612 -0.41134465 0.32803944 -0.71946305 -0.37789083 -0.30348745 0.58984256 -0.6176782
-0.9488774 7.5595098 -0.6286458 -0.9489067 0.4243489 -0.06658443 -0.87455887 0.1904727
0.051776886 -1.1168127 -1.0434339 -1.173008 -0.7696732 -0.9447837 -0.013515837 0.24404384
0.2258321 -0.9540858 -0.41464868 -0.117832325 -0.82512087 -0.6543554 -0.4119395 -1.0981389
-0.22808588 -0.11408842 -1.0065701 -0.87579674 -0.72456944 -0.011755651 -0.98502153 -0.5497377
0.36680815 0.32015514 0.20463887 -0.7556959 -1.0710995 -0.8464651 -0.12604593 -0.3962723
0.34611797 -0.20018892 -0.9310351 -0.46085685 -0.7628747 -0.5538365 0.094385095 -1.0466363
0.33647618 0.048479114 0.35701352 -0.85872924 -0.9891114 0.11038493 -0.71833307 -1.241763
-0.82628894 -1.1891956 0.3294968 -1.2112049 -1.0513012 0.3649754 -0.4536876 0.42864284
0.6760612 -3.6049397 -2.146795 -0.6873124 0.40483022 -0.24916272 0.71607476 -0.6370911
-0.4319667 -0.5285521 -0.76219845 1.0514499 0.74577904 -0.9624504 0.5747426 -0.6035031
0.60984427 0.8705825 -0.8535442 0.3376152 0.6195438 -0.14949073 -0.582659 -0.63568145
0.55530924 0.50521374 -0.7751987 0.82258636 0.6094659 -0.59545416 -0.657312 0.7008089
0.39526471 -0.056730036 0.45582423 2.5077507 -0.8479404 -0.75989443 0.53853655 0.60739005
0.4860742 0.5872519 -1.0584179 -1.0068773 0.64991987 0.59405017 -0.22730276 -1.0456841
-0.6045781 0.118696995 -0.2656963 0.46597123 -0.79393315 -0.23553178 0.69467574 0.66957724
0.77293533 -0.8805815 0.49865353 0.16442157 -0.5764928 -0.19356446 -0.9879076 -0.53545904

gru.bias_hh_l0 f4 [192]
00000000: fe74 90bf 761f b93f 3cdf 0140 29d3 61bf
00000010: 6f43 4dbf 3cac 58bf 50af 64bf c9a3 19bd
00000020: 750a 13bf 91aa 30bf cb91 8abf 7549 aabe
00000030: 8ce6 33bf 0821 99bf a425 87be add8 83be
00000040: 8549 35bf b77f 89bf b093 093f f8ff 08be
00000050: 8700 8dbf 4155 44be 3ae1 ec3b 2c4b 8dbf
00000060: 7a7e 573e 8d41 fa3e 7de8 4bbf fd63 523f
00000070: 3cf4 5bbf a09a 8fbd 4a2d 41bf e877 3bbf
00000080: a2ef 2fbf b0e0 4bbe c6a4 86be 9106 be3d
00000090: 086e 0fbf b991 1a3f c116 54bf 6cae 56bf
000000a0: 53b0 34be a4e5 043e 6431 5dbf b3d4 083f
000000b0: 75a5 5dbf d9a0 26bf b51a 2ebf c1f2 e4be
000000c0: c59c 13bf e4d4 9ebe 984e 31bf 4847 58bf
000000d0: 2a42 33bf 8c33 54bf 1844 b83e f4f1 8d3e
000000e0: e6c2 3abf 2bd7 c2be bd7e 493e 03e2 60bf
000000f0: a31f 9fbe b8a6 6abe 85e7 fa3e 3f84 1abf
00000100: 8f96 57bf 3d43 f140 36e9 0abf 1445 85bf
00000110: 33f2 963e b6a1 c5bd e418 74bf b5de e23d
00000120: 6bab a13d 066a 92bf 3855 69bf b5b2 84bf
00000130: 44fa 55bf 133d 80bf 329a d0bd 67e6 e43e
00000140: 8e66 a33e bc56 71bf 1178 ecbe ac72 92be
00000150: a8c7 85bf bafb 2ebf 9894 97be 53e8 80bf
00000160: e7d3 ddbe edc4 90be c883 86bf ba02 81bf
00000170: 94b8 3bbf 2c1b 77bd 9f52 62bf 5b70 0cbf
00000180: 874c 923e 90b1 a93e 0cdf 443d 6dd6 37bf
00000190: fd22 83bf 4f1a 5fbf a67e d7bc 68b3 aebe
000001a0: b2ca 833e 0383 d1bd 2d88 6ebf dafd 9dbe
000001b0: 5910 57bf 139a 03bf 6dce 773d 40ff 90bf
000001c0: 7fe0 ac3e 1277 723d 4192 f03e 1c8a 1fbf
000001d0: fa7d 5bbf e95f d4bb de1c 44bf 712f a0bf
000001e0: 4d95 47bf b818 90bf 4818 8c3e e30e a6bf
000001f0: aa2e 87bf cd33 a23e d185 abbe 71b9 c93e
00000200: 383c 28bd 598f 85c0 84fc 9dc0 877b 2f3e
00000210: a362 cb3d 491e 47bd 4b47 31bd 38fe f9be
00000220: 5b9d bdbb c7f4 c3bb 328a 1bbe 6bc8 0a3f
00000230: e299 413e 4db2 45be 78ce 4e3e eb4a cbbe
00000240: aae4 853c a148 a7bd 768a 59bf 2a2f da3e
00000250: ec57 183e c06f f33e cccc 0fbf f0d5 e9bd
00000260: 8c58 1a3f 88d4 0f3f 2658 fb3d 82e5 683f
00000270: b7b1 7c3d 4887 f3be 4643 273e b96d 0bbe
00000280: c722 063e aaf4 fc3e 6e41 813e ff44 1840
00000290: c746 abbe a7c9 69bf 13ff 4c3e a7cb 90bd
000002a0: faf6 813e ebcf db3e b447 f03d feb1 64bf
000002b0: a730 7d3d f1a6 1b3d e2c1 723e c27c f8be
000002c0: 1cb7 8ebe 1c31 8f3d da64 773d 1181 e3bd
000002d0: 1946 c5be 0f7a d23d 4cea 373f 5d8c 743f
000002e0: abcd 1ebe e2fb 01bf 1688 9f3e e2c5 d1bf
000002f0: a0dd 9fbe 1e01 bdbd 1eb7 82bf d7da 6ebe
-1.1285703 1.4462726 2.0292501 -0.8821283 -0.8018102 -0.8463781 -0.89330006 -0.037509713
-0.5743783 -0.69010264 -1.0825742 -0.33259168 -0.7027366 -1.1963205 -0.26395905 -0.25751248
-0.70815307 -1.07421 0.5374098 -0.13378894 -1.1015786 -0.19173147 0.0072289975 -1.1038566
0.2104434 0.48878136 -0.79651624 0.8218382 -0.8591955 -0.07011914 -0.7545973 -0.7322984
-0.68725026 -0.1990993 -0.26297587 0.09278596 -0.5602727 0.60378605 -0.8284722 -0.83859897
-0.17645387 0.12978226 -0.8640349 0.53449553 -0.8658059 -0.65089184 -0.680095 -0.44716457
-0.57661086 -0.31021798 -0.6926055 -0.84483767 -0.70022833 -0.82891154 0.3598945 0.27723658
-0.7295364 -0.38054785 0.19677253 -0.87844867 -0.31078824 -0.2291516 0.4900476 -0.6035804
-0.8421411 7.539458 -0.542621 -1.0411706 0.29481658 -0.096499845 -0.9535048 0.11077634
0.078940235 -1.1438606 -0.9114566 -1.0367037 -0.83585 -1.0018638 -0.101856604 0.44707033
0.3191418 -0.9427297 -0.46185353 -0.28603113 -1.0451555 -0.68352854 -0.29605556 -1.00709
-0.4332573 -0.28275242 -1.0508966 -1.0078957 -0.7332852 -0.060328647 -0.8840732 -0.5485894
0.2857401 0.33143282 0.048064277 -0.7181156 -1.0245053 -0.8714952 -0.026305508 -0.3412125
0.25740582 -0.102300666 -0.9317654 -0.30857736 -0.8400932 -0.51406974 0.060499597 -1.1327896
0.33765027 0.059195586 0.46986583 -0.62320113 -0.857391 -0.00648116 -0.7660655 -1.2514478
-0.7796219 -1.1257544 0.27362275 -1.2973293 -1.0561116 0.31680146 -0.3350053 0.39399293
-0.041073054 -4.1737485 -4.9370747 0.17136966 0.09930923 -0.048612867 -0.04328088 -0.48826766
-0.0057865805 -0.0059801075 -0.15189436 0.54212064 0.18906358 -0.19306298 0.20195949 -0.39705595
0.016344387 -0.0816815 -0.849769 0.42614108 0.1487729 0.47546196 -0.5617187 -0.114177585
0.6029136 0.5618367 0.12272672 0.909752 0.06169292 -0.4756415 0.16334257 -0.13616075
0.13099204 0.49405414 0.2524523 2.3792112 -0.33452436 -0.9132332 0.20019178 -0.070700936
0.2538374 0.42932066 0.11732426 -0.89334095 0.061813977 0.038001005 0.23706773 -0.48532683
-0.27874076 0.06991789 0.060398914 -0.11108602 -0.38530043 0.10277187 0.71841884 0.9552668
-0.15508144 -0.5077497 0.31158513 -1.6388514 -0.31223774 -0.09228729 -1.0212133 -0.23325668

fc.weight f4 [1, 64]
00000000: 58e5 b542 71a5 dc42 4b02 b542 91e6 b5c2
00000010: 8cec b542 caf7 b5c2 0cc4 b542 c80e b6c2
00000020: 9ee5 b5c2 9a08 b6c2 e6e1 b5c2 71ce b542
00000030: 2dc8 b542 2ef7 b5c2 89ef b542 39ed b5c2
00000040: c705 b642 0aef b542 4cdb b5c2 f9d9 b542
00000050: aaea b542 bff0 b5c2 a4df b5c2 21d0 b5c2
00000060: 8dee b542 5af4 b542 49ed b5c2 83c8 b542
00000070: 3fcf b542 3bd1 b5c2 16bf b5c2 dded b542
00000080: 23e2 b542 fe03 b6c2 4cfb b542 7c5f acc2
00000090: 1dd9 b5c2 ebf8 b542 ecfd b542 2ce7 b542
000000a0: 53fe b542 99b5 b542 ebd2 b5c2 1101 b6c2
000000b0: 7ad6 b542 6901 b642 7edb b5c2 07d6 b5c2
000000c0: 4cf5 b5c2 b3dc b542 a194 b6c2 d5de b542
000000d0: 8efe b5c2 93f8 b5c2 fbe0 b542 7bed b542
000000e0: 7be0 b542 2edc b5c2 e6dd b542 f7f0 b142
000000f0: fee7 b5c2 21d9 b5c2 b6fd b5c2 36ec b5c2
90.94794 110.32313 90.50448 -90.950325 90.962006 -90.98396 90.882904 -91.02887
-90.94847 -91.0168 -90.94121 90.903206 90.89097 -90.98277 90.96784 -90.963326
91.011284 90.96687 -90.928314 90.92573 90.95833 -90.97021 -90.9368 -90.9065
90.96592 90.97725 -90.96345 90.891624 90.90478 -90.90865 -90.873215 90.96458
90.94167 -91.0078 90.990814 -86.18649 -90.92405 90.98617 90.99594 90.95151
90.99673 90.85468 -90.91195 -91.00208 90.9189 91.002754 -90.928696 -90.91802
-90.979095 90.93105 -91.29029 90.93522 -90.99718 -90.9855 90.939415 90.96383
90.93844 -90.93004 90.933395 88.970634 -90.95311 -90.92408 -90.99553 -90.96135
