best_gru_model_5.pth (torch, 67653 bytes, 5 tensors)

gru.weight_ih_l0 f4 [192, 19]
00000000: 23ec a13f a428 8f3f 90f8 1ebc d0ce 00bd
00000010: 20d9 593d 8215 a5bd 68e8 fb3d 516b 253f
00000020: 90fa abbe c489 c23f dc69 9c3f 0f95 bd3f
00000030: 85af a93f 4601 bf3f b2d6 c33f ff77 c23f
00000040: 523c a03f 9eab cf3f 2b07 bd3f 6b71 2bc0
00000050: 6b8f 1a3e 0c29 193d 5078 173d 703c 2dbd
00000060: 46f4 cbbd 84de 98bd 240a 55be fbf8 79be
00000070: 890c 01c0 dd49 f4bf 438f 2ec0 ad71 2dc0
00000080: 1907 40c0 4a07 59c0 a6ae 24c0 7c2e 12c0
00000090: c101 07c0 b886 36bf 19fc c23f f04a 1f40
000000a0: e0cc c0bc ba91 e03d 0c0a 90bd 3c9e 603d
000000b0: 988c 11bd 9286 ab3f c0a9 963f 7b45 cd3f
000000c0: 2e66 d63f a6d3 d83f 87ef dd3f 09fc 0140
000000d0: 8179 fb3f b242 f43f d4f3 d43f a517 aa3f
000000e0: f176 f13f e9ac e4bf ffb0 8bbf 28d4 c23c
000000f0: ac46 6bbd 5281 95bd 68f8 e73d 4452 493d
00000100: 35bc a140 b437 6640 7b13 dd3e 3afa e7bf
00000110: 1a46 53c0 542b 60c0 6241 75c0 9517 34c0
00000120: 2ffb 92bf cb2f 57c0 eef6 c53f 5c9a 493f
00000130: d6c6 4040 4ff6 4440 1406 e73d 42a0 d8bd
00000140: b8a4 f03d 5c99 963d d811 f4bc 2a34 e73e
00000150: 3e2b bdbc dfb6 e73e bbeb 8040 ea93 3f40
00000160: 19d4 3f40 6646 4640 33dd 6740 b310 4640
00000170: 3e55 2640 292d 4d3f 9cf1 413f 4ceb 5abf
00000180: 71e5 bdc0 10e1 aabd d037 183c a45b fc3d
00000190: 0284 e5bd c001 383c 835d d3bf 5617 a3bf
000001a0: 1d9d bac0 ddcb d93e 486c 2cbf b226 5cbf
000001b0: 4cb8 00bf 92f9 84be 863f c4bf 078d ac3d
000001c0: c113 e7bf 5810 d0be 99cc 77bf 80c4 98bf
000001d0: 1c02 d5bd 5882 9f3c e00b 513c 809c 983a
000001e0: 40af b03c 490d 03bf 3e4c 8cbf 1046 2fc0
000001f0: 3a45 9abf 5c00 30bf 9f32 35bf 6d32 2dbf
00000200: 3e51 35bf c1b7 28bf 681d 8abf bc5a 50c0
00000210: 6adc 35c0 d985 10bc 907d 383f f8cf 7cbd
00000220: 9c4a 6bbd b811 843d 70f5 9cbd 5001 e83d
00000230: 14fb 04c1 f189 823f 9b2e ba3f fdd1 d2be
00000240: 3597 723f f1ab 9e3f 3f06 4d3f 17f0 773e
00000250: f0c7 733e 9c11 df3f 0113 acbf 414b fb3f
00000260: 6817 14c0 a8ad 9340 363a f3bd 30b3 b9bc
00000270: e059 553c 14e5 32bd 8037 debb 6605 5d3d
00000280: a4ab 3a3f 6c9f 8840 975b 31bf c5ee 03c0
00000290: 283e 6b3f 7a0c eebf cf78 613f 87d6 1dbf
000002a0: 804b 65c0 12b4 adbf 8029 dcc0 27c2 cabf
000002b0: 352e f1bf 40ca 893b 80b1 253c 1426 8abd
000002c0: 807c c1bd 8034 30bb 21eb 4ebf b59f 13c0
000002d0: 7189 a0bf 252b c2bf a749 e6bf 845d dbbf
000002e0: ae48 d1bf 5280 d4bf 77fc 01c0 e732 ddbf
000002f0: 6724 14c0 820f bebf 0e0d bfbe 83d9 cebf
00000300: 9091 423d b869 abbc 604d a03b c868 a0bc
00000310: 84a3 af3d 05bf f3bf 6c38 17c0 75ce cbbf
00000320: 6a31 33bf 8dc3 6cbf c715 c6bf c7fe 1bbf
00000330: f332 96bf c452 60bf 79c7 6cbf b513 51bf
00000340: 9155 c1bf 1fe4 35bf 1233 eebf 1878 a63d
00000350: 9425 30bd 0833 b43c fe89 9fbd bee0 ebbd
00000360: 4e39 81bd 0f8a 1ec0 6d85 86bf d645 22bf
00000370: bd95 8dbe cbaa 55be e84b aabe 5b04 05bf
00000380: cd2e 7bbe ffff 44bf a5c8 b6bf fcc3 bdbf
00000390: e616 d9bf a943 a4bf 447e 87bd 58f4 db3c
000003a0: 22a6 d1bd 3821 9cbc 78ad 01bd 2285 33bf
000003b0: 119b 9abd eaa8 cd3e 7644 12c0 6cf5 33c0
000003c0: 4aa2 30c0 7719 2dc0 2c2a 21c0 8b0f 0bc0
000003d0: 7ee0 44c0 3f90 1a3f 06d2 3ebd 844d 753d
000003e0: 02ed 9f3d b099 dcbd b0cb 483d f8e2 9e3c
000003f0: fc2f 4f3d 0051 38bb 50e8 d7bf eb4c 853e
1.2650188 1.1184278 -0.009702817 -0.03144723 0.053185582 -0.08060743 0.12300187 0.64616877
-0.33589602 1.5198293 1.2219806 1.4811114 1.3256689 1.4922264 1.5299895 1.519287
1.2518408 1.6224248 1.4767812 -2.6787975 0.15093772 0.03739266 0.036979973 -0.042293966
-0.09958701 -0.074643165 -0.2080465 -0.24411385 -2.01639 -1.9085041 -2.727494 -2.7100632
-3.0004332 -3.39107 -2.5731597 -2.2840872 -2.109482 -0.71299314 1.5233184 2.4889488
-0.023535192 0.10965295 -0.07033166 0.054838404 -0.03553447 1.3400443 1.1770554 1.6036829
1.6749933 1.693959 1.7338723 2.031008 1.9646455 1.9082854 1.663691 1.3288466
1.8864423 -1.7865268 -1.091339 0.023782805 -0.057440445 -0.073000565 0.113266766 0.04915072
5.0542245 3.5971498 0.43178925 -1.8123238 -3.3011537 -3.5026445 -3.8321157 -2.8139393
-1.1482905 -3.362292 1.5465982 0.7875116 3.012136 3.0775335 0.11280456 -0.10577442
0.117501676 0.0735347 -0.029793665 0.45156986 -0.023091909 0.45256707 4.0287757 2.993403
2.9973204 3.0980468 3.622876 3.0947692 2.5989528 0.80147034 0.7575929 -0.85515285
-5.934258 -0.083437085 0.0092906505 0.123221666 -0.11206819 0.011230886 -1.6512913 -1.2741497
-5.831679 0.42538348 -0.67352724 -0.85996544 -0.50281215 -0.25971657 -1.5331886 0.08425336
-1.8052903 -0.4063747 -0.96796566 -1.1934967 -0.10400793 0.019471332 0.012759179 0.001164332
0.02156794 -0.51192147 -1.0960767 -2.7386513 -1.2052376 -0.6875055 -0.70780367 -0.6765507
-0.7082709 -0.65905386 -1.0790224 -3.255538 -2.841578 -0.008820974 0.72066593 -0.061721772
-0.0574442 0.06448692 -0.07664001 0.11328375 -8.311298 1.0198346 1.4545473 -0.41175833
0.94761974 1.2396222 0.80087656 0.24212681 0.23806739 1.7427249 -1.34433 1.9632341
-2.3139286 4.6149483 -0.11876337 -0.022668451 0.013021916 -0.043675497 -0.0067815185 0.053960226
0.7291815 4.2694607 -0.6928038 -2.0614483 0.9189172 -1.8597558 0.88074964 -0.6165547
-3.5827332 -1.3570578 -6.880066 -1.58405 -1.8842226 0.0042050183 0.01011312 -0.06745544
-0.094475746 -0.0026886761 -0.8082753 -2.3066227 -1.2541944 -1.5169417 -1.7991227 -1.7137914
-1.6350305 -1.660166 -2.0310342 -1.7281159 -2.3147218 -1.4848483 -0.37314647 -1.6160129
0.0475021 -0.020924434 0.0048920363 -0.019581214 0.0857611 -1.904267 -2.3628187 -1.5922381
-0.69997275 -0.92485887 -1.5475396 -0.60935634 -1.1734298 -0.8762629 -0.9249187 -0.81670696
-1.5104238 -0.7105121 -1.8609335 0.08128375 -0.043004587 0.02199699 -0.07789992 -0.115174755
-0.06309758 -2.4771764 -1.0509468 -0.6338781 -0.27653304 -0.20865934 -0.33261037 -0.5195977
-0.24529572 -0.7695312 -1.4279982 -1.4825435 -1.6960113 -1.2833148 -0.0661588 0.02684991
-0.102367654 -0.019058809 -0.031659573 -0.7012502 -0.07549108 0.40167934 -2.2854285 -2.8118544
-2.7599053 -2.7046793 -2.518199 -2.1728237 -3.076202 0.6037635 -0.046587013 0.059888378
0.078088775 -0.10771501 0.049022377 0.019395337 0.05058287 -0.0028124452 -1.6867771 0.26035246

gru.weight_hh_l0 f4 [192, 64]
00000000: 3db1 08bf a3d6 893e 58f9 7c3e aa29 6bbe
00000010: 5cb3 1cbd 06d3 ccbd 7eee cebe 15d4 533f
00000020: 4a27 0ebf 2656 e83e 761c 383f 945e ffbd
00000030: 9444 76bf d76d 833e 9716 e3bc 7d97 0dbf
00000040: cc1d 0abd 90a2 b93e e716 0c3f 61d7 973c
00000050: 8291 07be af9a d43e b194 22be d0ef c8be
00000060: 6a4e 833d 1da2 b1be abe0 ef3d bbfc d33e
00000070: 4417 92ba a2c0 943c 2b0b f1bd 81ab e7be
00000080: c057 78be d7e2 4e3e 6634 a33e b3f5 34be
00000090: 3978 113e 8166 bebe 4f71 863e 19a8 a4be
000000a0: 236a 113e 2aae a6bd 2a3b 6c3e 0d18 23bf
000000b0: 079a 733d cd0c 9fbe 956f ac3e 7d27 5dbd
000000c0: 7916 c7be d4ac c93e e922 96be 9786 4d3e
000000d0: 1088 223e 3fc8 023f 1514 db3d 2a76 513f
000000e0: 332f b1be dffb 7ebe 3a27 023e fc7d 833d
000000f0: f85b 313f f57e 313f feca bbbe ccb5 903d
00000100: 8bd0 233f 498c 903f c1e0 a3bf 6e17 2840
00000110: ed76 c03f 283f 00c0 c9ef a03e 41de b4be
00000120: 2866 afbc 40c7 b5be b2a8 1cbf 2d39 133e
00000130: 083f dc3e 62de 7fbf 5819 30bf 31b6 563f
00000140: b33a d2bf 743e 0abf ab5e 51bd 5fbb 7bbf
00000150: 6de6 1cbf 5ab6 243f afc0 d93d a4dd 583f
00000160: 7d6a 013e 7b34 6b3f b8c5 9b3e 53dc f93d
00000170: 3d9e 0d3f 4228 a1be 36cd 463e b617 5bbf
00000180: e5ff 743f dccb dfbf d5bd aa3d 76b7 9e3e
00000190: 8317 573f 1bb7 a13e 3c23 32bf 253e 5e3f
000001a0: d483 3a3e 3cdf 933e 3fc5 41bf 2bc7 393f
000001b0: 209d 573f ad70 453f 6a6e 92bf f294 813f
000001c0: 9c93 bdba 4211 7ebd 0314 51bf d127 b5be
000001d0: b500 ac3c cc3a 45bf c2cc 5f3f 1a78 d83c
000001e0: 38b0 4d3e 1b6f 823c d002 833f da7d f3bd
000001f0: 793c 2f3f 2c18 eabe 7b64 413f 8dfc 55bf
00000200: d278 2cbd ebbb 943f 08b1 65bf d778 bf3f
00000210: 7d74 4940 a851 e93e 6902 153f 97ad 9e3f
00000220: e061 c1bf 12f5 553f 7c32 18be d2b1 903d
00000230: 9323 8ebf fdf7 763f 2440 18c0 6f0b 173e
00000240: 3fc4 a2be 4e97 34bf fdea 253e 71ac f9be
00000250: e1ff f4bf b37f 2c3f 649d 82b9 d58f 093f
00000260: 75b3 413f 0b3e ee3e 3fb7 f4bd 3376 49bf
00000270: 916f be3e a62a f8bc 9806 0d40 ade6 273f
00000280: 92d9 cebb e6ef 0dbf 4cdb e7be 27c6 1f3e
00000290: ed11 0940 5bb7 02c0 fee6 953e 1efb 4f3f
000002a0: fc1c c43f 27c3 853f 781a 20bf c3ef bebf
000002b0: 46e4 9e3e 7635 cfbc 55b6 d63d 6e43 e63f
000002c0: 46ac 23bf 00fb b83e ac1f 173f 18b2 9fbe
000002d0: 08d9 b03e c474 833f 82dd 04be 4499 d23f
000002e0: 7868 28c0 6545 0e3f 7415 af3c f6cd 70bc
000002f0: bf7f 523f 32d5 5dbe 8c0a 6a3d 0d51 fa3e
00000300: 4de5 1cbf 4a13 893f 8b2c 313e 1fe2 2fbf
00000310: ebf2 a5bf 378d a0bf 9fb0 5cbf e150 21be
00000320: 9ae0 5abe 3fd4 193f 24ef 943f 721d 1c3d
00000330: b6f0 0b3f 634e 493f 0a76 14bf d98e 13bf
00000340: 1b67 863c 53cd 233f d497 f0be 5a77 7b3f
00000350: 8402 60be 964d 523f f58b 73bf 395b 02c0
00000360: b7a9 923e 2d08 8abd 13c1 8fbe e819 623f
00000370: 3fde cc3e ca6c dc3d 088e 7b3f 78d9 c8be
00000380: 789e 7fbf ae1a f83f e54d 163e c650 78be
00000390: 54e8 2a3e 6075 75bd fe23 8e3f a91f 88bd
000003a0: 12c6 4cbf 6405 5e3f abb2 2c3f e6f6 903e
000003b0: 36fa 91bf 143b 90be ca8b 1b3f 8107 9a3f
000003c0: 2fe4 5bbf 5e27 233f a452 f93e f01d 3e3e
000003d0: 0924 073f 20bf 753f 47cb ba3e a763 323f
000003e0: 1fce 7bbf a797 373f faa7 973e e6d6 0ebf
000003f0: d5e7 6f3f 95bc 843e 9993 7dbf c0ed 77bf
-0.53395444 0.26921567 0.24704492 -0.22965112 -0.038256988 -0.10001187 -0.4041633 0.82745486
-0.555287 0.45378226 0.7191843 -0.12469211 -0.9619839 0.2566974 -0.027720733 -0.5530928
-0.033719823 0.36256838 0.54722446 0.018535318 -0.132391 0.41524264 -0.15877034 -0.39245462
0.06411441 -0.34693995 0.11712774 0.41403756 -0.001114585 0.01815826 -0.11769708 -0.45248035
-0.24252224 0.2020372 0.31875914 -0.17671852 0.14206018 -0.3718758 0.26258323 -0.32159498
0.14200644 -0.08138688 0.23069444 -0.63708574 0.059473064 -0.31064454 0.3367888 -0.053992737
-0.38884333 0.3938967 -0.2932351 0.20070873 0.15872216 0.510868 0.1069719 0.8182093
-0.34606323 -0.24900769 0.12710276 0.06420514 0.6928096 0.69334346 -0.36678308 0.07065925
0.63990086 1.1292812 -1.2802964 2.62643 1.5036293 -2.0038548 0.31432942 -0.35325816
-0.021411017 -0.35503578 -0.6119491 0.1437728 0.4301684 -0.99948704 -0.6878867 0.8387175
-1.6424164 -0.54001546 -0.051115673 -0.9833278 -0.612891 0.64340746 0.106324546 0.84713197
0.12638278 0.91876954 0.30424285 0.12200227 0.5531958 -0.31476027 0.1941422 -0.85583055
0.95702964 -1.7484088 0.08336989 0.30999345 0.8402025 0.3158501 -0.69585013 0.86813575
0.18214351 0.28881252 -0.756916 0.7256953 0.8422413 0.77125055 -1.1439946 1.012358
-0.0014463547 -0.062028177 -0.8167116 -0.3538194 0.02099643 -0.7704284 0.8742181 0.026424456
0.20086753 0.01592212 1.0235233 -0.11889239 0.6845165 -0.45721567 0.75543946 -0.83588487
-0.04210741 1.1619848 -0.89723253 1.4958752 3.1477349 0.4557011 0.582068 1.2396725
-1.5107994 0.8357707 -0.14863008 0.070651665 -1.1104606 0.9647215 -2.3789148 0.14750455
-0.3179035 -0.7054337 0.16202922 -0.48764375 -1.9140588 0.67382354 -0.00024912797 0.53735095
0.75664455 0.4653171 -0.11949014 -0.7869598 0.37194493 -0.030293774 2.2035275 0.6558636
-0.0063125575 -0.5544418 -0.45284498 0.15602933 2.141719 -2.0424411 0.29277796 0.8124255
1.5321345 1.0450181 -0.6254039 -1.491692 0.31033534 -0.025294047 0.10483996 1.7989328
-0.63934743 0.36128998 0.590327 -0.31190562 0.34540582 1.0270009 -0.12975124 1.6453023
-2.6313763 0.5557464 0.021372534 -0.014697542 0.82226175 -0.21663359 0.057138965 0.48889962
-0.61287385 1.0709012 0.17302148 -0.6870441 -1.2964758 -1.2543095 -0.86207 -0.15753509
-0.21374741 0.60089487 1.163548 0.03811402 0.5466417 0.78635234 -0.57992613 -0.57639843
0.016406586 0.63985175 -0.46990836 0.9822899 -0.2187596 0.82149637 -0.9513543 -2.0368178
0.28645107 -0.06739841 -0.2807699 0.8832078 0.4001331 0.10762937 0.982636 -0.39228415
-0.9985118 1.9383142 0.14678152 -0.24249563 0.16690189 -0.05992639 1.1104734 -0.06646664
-0.7998973 0.86726975 0.67460126 0.2831337 -1.1404483 -0.28170073 0.60760176 1.203354
-0.85895056 0.63731945 0.48695862 0.18566108 0.5278936 0.9599476 0.36483213 0.6968331
-0.9836139 0.7171578 0.29620343 -0.5579666 0.9371312 0.25925127 -0.9905334 -0.9684715

gru.bias_ih_l0 f4 [192]
00000000: 58a4 c83f 4842 c4bf 9460 cc3f de99 373f
00000010: 5193 593f f849 483f 7050 21c0 7f7a 5cbd
00000020: 75e5 853f 216d e1bf 4091 fbbf 6db4 b7bf
00000030: 74f9 0f3f 1838 2ac0 3df4 09bf 044a 82bf
00000040: 8c1b 9dbf 8013 f53e 31e3 a2bf 433d 903f
00000050: 1f24 1040 dd84 81be 1dce abbe 333f 11c0
00000060: 0cd6 d9bf 16a3 24bf 35eb 10c0 f0e9 0dbf
00000070: 0cf1 10c0 f63b 3ec0 8c97 aa3e d8cb 1ac0
00000080: 2873 e63e fcac 973f 3120 4dbf eca7 90bf
00000090: b00e 4abe d995 673e ee77 583e fd08 bf3f
000000a0: 5122 31bf 52d9 0bc0 56c4 26bf d4de 91bf
000000b0: de10 7f3f 2057 35be d04c 98bf a1b7 0abf
000000c0: 5f8e 0540 fcee 0a3f 8ccf 093f 076b eabf
000000d0: 82fc 07c0 0456 47bf 1eb2 5c3e 3767 b0bf
000000e0: d98e 98be 0dca 3abe 004a 843f 1cac 663f
000000f0: 4a91 38c0 78be 753e 97fa 04c0 1278 e3bf
00000100: c17b 0940 3f4d 3640 285a 84c0 01f9 f43f
00000110: 027a 25c0 8143 0440 f5cd 4640 9eb0 d73f
00000120: cd0a 9c3f c125 7940 1dc1 0640 6578 efbe
00000130: f984 7e40 0c7c 95be b7ba 5e40 7525 553e
00000140: 9b02 3840 e9b3 4a40 f2fe 7940 e6ef a4be
00000150: eab3 3140 270b 5a3f 40b9 0440 b5f2 fd3f
00000160: 73a2 d9bf 2259 3040 dd37 1740 006d 6b3f
00000170: b93d 3740 6eda 1b40 418b 6cbf 83cb 5b40
00000180: 14c4 c4bf d01b 993e f59a 4240 bfe0 2e3e
00000190: 8350 52bf 121d 0bc0 15c8 313f 4425 17c0
000001a0: b10f d83f af99 1840 7abf 5f3f c2c2 d23f
000001b0: cd65 3f40 0e4a 043e 8579 ff3f e3ac 5f40
000001c0: 33a3 bfbf 6c6f 3f40 3739 443d 96c1 1240
000001d0: 8bcb 0140 a8f1 863e 0957 40c0 0372 47c0
000001e0: 6cb0 12c0 591b 2440 efa8 663e ad33 df3f
000001f0: c9b1 723f d0b0 a7be 1c3c 7440 60ee 7640
00000200: 8052 82bf 5bc2 fbbe fc34 7a3f ae86 ba3f
00000210: 298a 803f e3bb 33c0 9e9b 0abf 888f 013e
00000220: 1ea1 a1bf c606 51be 8a2e 523f 7271 95be
00000230: 0bc0 70c0 c099 f13f e7fd e73e 02ef 82bf
00000240: 166a 923e 33c8 dabe 43ff c7bf 983a 833f
00000250: 6f21 283f 4a38 2ebf 4b3d 1a3f 2ad5 db3e
00000260: 2fa5 bdc0 ce3c a8bf 427b 403f 3e8d 42be
00000270: 6d40 c5be 92f8 003f 3cef 1941 0690 35bf
00000280: 9a23 8cbf cca3 ea3e ff2d 0d3f 25e3 6dc0
00000290: 2310 7abe 9df3 10c0 696c 873e 9808 c9bf
000002a0: 1a42 4cbd 5c04 4a3f ce74 00be 70d4 2ebf
000002b0: 6c35 823f fa5d 9ebe f8ce 553f 368f 7a3d
000002c0: ea77 4340 e1f5 653f 3ee4 b5bf 3573 b53e
000002d0: 7a41 713e 939d f6bf e1f8 e63f 6681 4e40
000002e0: ae56 57be b3dc b9be 058b a93e 9fd6 a23f
000002f0: 25fd 5e3e f4b4 c73f 4760 1a3f 0885 3c3f
1.5675154 -1.5332727 1.5966973 0.7171916 0.8499041 0.7823787 -2.5205345 -0.05382776
1.046065 -1.7611428 -1.9653702 -1.4351937 0.5624001 -2.6596737 -0.53888303 -1.0178838
-1.2274032 0.4786644 -1.2725583 1.1268696 2.2522047 -0.2529668 -0.3355569 -2.2694824
-1.7018447 -0.6431135 -2.264356 -0.55435085 -2.2647123 -2.9724097 0.33318746 -2.4186916
0.45009732 1.1849666 -0.80127245 -1.1301246 -0.19732165 0.22615756 0.211395 1.4924618
-0.6919299 -2.1851392 -0.65143335 -1.1396127 0.9963511 -0.17709017 -1.1898441 -0.54186445
2.0868146 0.5427091 0.53832316 -1.8313912 -2.1247869 -0.77865624 0.21552321 -1.3781499
-0.29796484 -0.18241139 1.0335083 0.9010637 -2.8838677 0.2399844 -2.0777948 -1.7771018
2.1481783 2.8484647 -4.1360054 1.913849 -2.5855718 2.06662 3.1063206 1.6850774
1.2190796 3.8929293 2.1055367 -0.4677154 3.976866 -0.29196203 3.4801462 0.2081507
2.875159 3.1672308 3.9061856 -0.32214278 2.776606 0.8517327 2.0738068 1.9839693
-1.70027 2.7554402 2.3627846 0.91963196 2.8631423 2.435207 -0.92399985 3.4342964
-1.5372338 0.29904032 3.0407078 0.17077921 -0.821541 -2.1736493 0.69445926 -2.3616495
1.6879789 2.38438 0.87401545 1.6465685 2.9905884 0.12918875 1.995896 3.4949272
-1.497168 2.9911757 0.047906127 2.2930655 2.0280483 0.26356244 -3.0053122 -3.1163337
-2.292018 2.5641692 0.2252538 1.7437645 0.9480253 -0.32752085 3.8161688 3.8582993
-1.0181427 -0.4917172 0.977371 1.4572351 1.0042163 -2.8083427 -0.54143703 0.12652409
-1.2627294 -0.2041274 0.8210226 -0.29188114 -3.7617214 1.8875046 0.453109 -1.0229189
0.28596562 -0.42730865 -1.5624775 1.0252256 0.65676016 -0.6805464 0.60249776 0.4293607
-5.926414 -1.3143556 0.75188076 -0.18999192 -0.38525715 0.5037929 9.620907 -0.7092289
-1.0948365 0.45828092 0.5514831 -3.7169888 -0.24420218 -2.264869 0.26449898 -1.5705748
-0.049867727 0.789129 -0.12544557 -0.68292904 1.0172553 -0.30931073 0.83518934 0.061171733
3.054194 0.89828306 -1.4210279 0.35439458 0.23560134 -1.9266838 1.8044702 3.2266479
-0.2102916 -0.36301193 0.33113876 1.2721747 0.21776254 1.5602098 0.6030316 0.7364049

gru.bias_hh_l0 f4 [192]
00000000: f8e7 ba3f 5395 c6bf fb75 d93f 8ac3 413f
00000010: b7ae 6a3f 0727 293f 694b 1ac0 8619 5abe
00000020: 6109 a43f 7105 eabf 90b2 0bc0 592c aebf
00000030: ce40 3f3f 71fd 27c0 1d8d e5be 517f 88bf
00000040: ffe6 a3bf 7d3b bb3e bbb8 a2bf b43e 893f
00000050: f7dc 0c40 0a29 abbe a55d 81be 8519 0fc0
00000060: c3ee d4bf 058f 07bf 865c 0ec0 2084 07bf
00000070: bb8b 1bc0 7182 37c0 3aa8 903e dd14 1ec0
00000080: 9df0 733e d237 933f ea7f 57bf 1535 9bbf
00000090: d355 68be 9ad0 7d3e e880 8d3e 8bea ba3f
000000a0: c1a0 09bf ebf3 0bc0 5f56 f9be d77e 96bf
000000b0: 4b77 6b3f 9761 113d 8e01 b3bf 1eef 3cbf
000000c0: f7be f33f a0ba 1d3f d142 f13e 7069 ecbf
000000d0: cffe 08c0 be41 60bf 44e4 3d3e cb03 c8bf
000000e0: a959 0cbe 5e17 aabe 92c4 7a3f f389 6a3f
000000f0: 3f35 3ac0 469d 5d3d 4bcb 0bc0 7bc9 efbf
00000100: 9bed 0d40 d106 3040 2964 85c0 d3f0 db3f
00000110: 3b9e 21c0 ebe2 f53f 8e10 3940 6d00 e63f
00000120: df31 ae3f 7624 7140 4c83 0340 c6ae 1fbf
00000130: d411 7840 f375 28be 1c1a 5640 3423 443e
00000140: e4cc 3240 a2de 5940 98f4 7b40 df59 61be
00000150: 8b67 3840 323b 4a3f 547d 0640 5593 f43f
00000160: 4287 e7bf 6ceb 2f40 79d6 1540 9626 4d3f
00000170: 145e 3040 d27b 1740 e457 63bf 659e 5a40
00000180: b127 abbf e5f0 ce3e f29a 3e40 9898 903e
00000190: 07f1 61bf a822 03c0 b99d 303f 2fe4 10c0
000001a0: 0557 d23f 6d43 0a40 6e5f 623f b858 e63f
000001b0: b8df 3e40 e0cf d63c dd42 ff3f a94a 5c40
000001c0: 7e7b bbbf 6482 3940 6a8f ed3d ba7b 1640
000001d0: cddc f73f a940 913e 7abf 4bc0 b6e3 4dc0
000001e0: b10b 13c0 fe88 1640 670f 513e aa8f e73f
000001f0: 2bdb 683f b40b afbe 30c0 7140 8102 7640
00000200: 2d93 35bf 3db0 78bf d4a2 0240 5728 6240
00000210: 7ca9 2c40 da57 8fc0 5d76 2f3e d5aa 35c0
00000220: fab9 95c0 023f 80bf 1b3f b43c d623 f2bc
00000230: f8b6 2240 83ab 143f da5e 423e 3356 f33e
00000240: 0c92 2fbf 0d98 58bf 398c 85bf 7182 6f3f
00000250: e130 533f 186e fa3d 8d3e 96bf f161 633f
00000260: 541c 75bf 49b4 a6bf 464f 173e 8dac 3abf
00000270: aa62 42bf 6128 39be 57f2 623e 3daa 10be
00000280: 2c04 70c0 5070 2e40 ce76 d23f 03c3 acbe
00000290: 809e 463f f70b acbf ada6 06c0 e270 edbf
000002a0: 404b 80bf be24 ecbc 8705 eabd 814d c4bf
000002b0: 6496 693f 4d7b 363e 005e ebbd e3e3 ebbd
000002c0: 72b3 17c0 1dc7 a73f e3a5 c2bf 805b 59bf
000002d0: 757f 25bf 8494 d8be 6a0a a03f 8989 e33f
000002e0: 782b 50bf 148d 0340 b67c 4140 2c69 d03f
000002f0: d4c6 6c3f f4ad 933f a4c6 ee3e 57d0 a73e
1.4602041 -1.551432 1.698913 0.75688994 0.91672844 0.66075176 -2.4108527 -0.21298799
1.2815362 -1.828291 -2.1827736 -1.3607284 0.7470826 -2.6248438 -0.44834223 -1.0663854
-1.280487 0.36568823 -1.2712625 1.072226 2.2009866 -0.33429748 -0.25266758 -2.2359326
-1.6635364 -0.52952605 -2.2243972 -0.5293598 -2.4304035 -2.8673365 0.28253347 -2.4700234
0.23822255 1.150141 -0.84179556 -1.2125574 -0.2268899 0.24786606 0.2763741 1.4602827
-0.53760916 -2.1867626 -0.48698708 -1.1757458 0.919789 0.03549346 -1.398485 -0.73802364
1.9042653 0.6161289 0.4712129 -1.8469677 -2.1405523 -0.87600315 0.18544108 -1.5626158
-0.13706078 -0.33220953 0.9795619 0.91616744 -2.9095 0.054105066 -2.184283 -1.8733362
2.2176273 2.750416 -4.1684766 1.7182869 -2.5252826 1.9209875 2.8916354 1.796888
1.360897 3.7678504 2.0548887 -0.6237606 3.8760881 -0.16451244 3.3453436 0.19154054
2.7937555 3.4042134 3.9368038 -0.2200694 2.8813198 0.78996575 2.1013994 1.9107462
-1.8088152 2.748744 2.3412154 0.80137 2.755742 2.3669324 -0.88805985 3.4159176
-1.3371488 0.40418163 2.978207 0.2824142 -0.88258404 -2.0489902 0.68990666 -2.2639272
1.6432806 2.1603653 0.88426864 1.7995825 2.9824047 0.02622217 1.994228 3.442057
-1.4647062 2.8985834 0.1159962 2.3513017 1.9364258 0.28369644 -3.1835618 -3.2170234
-2.2975886 2.3521113 0.20416032 1.8090718 0.90959424 -0.34188616 3.7773552 3.8439028
-0.709277 -0.9714392 2.0411882 3.5337121 2.6978445 -4.479474 0.17134996 -2.8385518
-4.678952 -1.0019228 0.022002747 -0.029558104 2.5424175 0.58074206 0.18981495 0.47526702
-0.68582225 -0.8460701 -1.0433418 0.9355841 0.8249646 0.1222803 -1.1737839 0.8882132
-0.9574635 -1.3023769 0.14776334 -0.7291954 -0.759318 -0.1808181 0.22162758 -0.14127441
-3.7502546 2.725605 1.6442506 -0.33742532 0.775856 -1.3441151 -2.103923 -1.8550074
-1.0022964 -0.028826114 -0.114268355 -1.5336152 0.912451 0.17820473 -0.114925385 -0.11518075
-2.3703275 1.310764 -1.5206875 -0.8490524 -0.6464761 -0.42300808 1.2503178 1.7776347
-0.8131633 2.0554857 3.0232368 1.6282096 0.9249089 1.1537461 0.46635926 0.32776138

fc.weight f4 [1, 64]
00000000: 944a a9c2 c04f b842 ae39 b1c2 f674 bd42
00000010: a964 bd42 ef29 b7c2 294d b8c2 cc58 bb42
00000020: f5d2 bac2 4bd0 b642 8c76 b542 c7b5 b8c2
00000030: 260c a842 186e 8b42 6fea b6c2 0cea b7c2
00000040: aff7 b9c2 bb99 b642 79d7 bd42 c45a bfc2
00000050: 88b3 b2c2 d9c4 9742 ea8b ba42 50f7 b7c2
00000060: 00be ac42 57b5 98c2 27c0 b842 b724 b742
00000070: 0028 ba42 0c28 b642 c931 b9c2 8d49 b9c2
00000080: df38 bdc2 7a0d bbc2 f1dd b542 9d5d bdc2
00000090: 6f03 bd42 f335 bdc2 11a6 b7c2 0086 b742
000000a0: 6f0e b742 ff62 b742 0514 bdc2 59ae bac2
000000b0: d4a0 bb42 51f1 b642 de32 b742 4c75 ad42
000000c0: dc1a c6c2 5434 b742 2288 bac2 c17a b842
000000d0: a5ca ba42 9409 b442 a873 9ec2 a6cd bc42
000000e0: 7d26 bdc2 e9f9 b742 15d4 ba42 b8a7 b842
000000f0: bc3d bd42 bf6b bd42 b393 b4c2 c39d b6c2
-84.64566 92.15576 -88.612656 94.72844 94.6966 -91.5819 -92.1507 93.67343
-93.412025 91.40682 90.73154 -92.355034 84.02373 69.71503 -91.45788 -91.95712
-92.98376 91.300255 94.920845 -95.67728 -89.35065 75.88447 93.27327 -91.98303
86.37109 -76.35418 92.3753 91.57171 93.078125 91.07822 -92.59724 -92.643654
-94.61108 -93.52632 90.93348 -94.68284 94.50671 -94.60537 -91.82435 91.76172
91.52819 91.69335 -94.5391 -93.34052 93.81412 91.47132 91.59935 86.729095
-99.05246 91.6022 -93.265884 92.23975 93.39579 90.01871 -79.22589 94.40166
-94.57517 91.988106 93.41422 92.327576 94.620575 94.71044 -90.288475 -91.30813
