best_gru_model_WIPRO.pth (torch, 67653 bytes, 5 tensors)

gru.weight_ih_l0 f4 [192, 19]
2.0633295 -3.3043458 0.034278587 -0.0063847303 0.05339846 0.029759094 -0.014366835 -0.4634721
-0.08419798 -1.0429178 2.738356 4.2335143 7.996984 4.741768 5.699405 0.85122526
7.0535793 -3.5722797 -1.628325 0.59622335 0.40315482 -0.008489788 -0.009906217 0.08866368
-0.011883691 0.032914728 0.30750945 0.35311738 0.46462354 0.30483085 0.34161472 0.34305888
0.47833505 0.5056749 0.48887154 0.39199775 0.6041339 0.48574442 0.7054812 0.2824737
-0.039250314 -0.11582497 0.053336233 0.048604473 0.024829194 0.13530523 0.32680815 0.29471898
0.3908286 0.81698304 1.0036511 0.90930456 1.0888107 0.90981025 0.6730997 0.32779422
0.20839095 0.07016464 0.18795471 0.115692124 0.06339905 -0.106832385 0.036566526 0.120109275
0.4619136 0.2761998 0.3265713 0.15676586 -0.17072229 -0.31375426 -0.26600328 -0.24367069
-0.16051652 -0.053686555 0.31745523 0.36755934 0.32506695 0.25889918 -0.026850015 -0.079013884
0.10626927 -0.015343696 -0.124464706 0.50912803 0.53770953 0.47866437 0.3068453 0.322674
0.14586638 0.19928747 0.21785243 0.18835703 0.36899403 0.60096526 0.5803506 0.44554004
0.33114016 -0.07791178 -0.08549777 -0.04017511 -0.04567805 -0.020141318 0.43595403 0.5680054
0.5597527 0.4504694 0.4126081 0.37368813 0.20561436 0.3040195 0.44974637 0.27222872
0.5671273 0.5241567 0.5789907 0.8942196 -0.01847133 0.11137138 -0.007859856 0.067784
0.091534436 0.38730276 0.4452345 0.5778876 0.56992763 0.5851342 0.66430694 0.7548174
0.59915525 0.6345079 0.53569454 0.62714195 0.39022323 0.0070653707 -0.03368027 0.06322789
0.046820283 -0.10709658 0.12171474 -0.009431288 -0.04513951 0.01855709 0.19416246 0.1555658
0.06972408 0.066177085 -0.04544192 0.06699609 0.1665129 0.038339972 0.21316166 0.18353823
0.9740059 0.498918 -0.041890368 -0.10676807 -0.091083616 0.0027274936 0.115883276 0.035350654
0.35936242 0.3929785 0.39256403 1.0696527 1.3142915 1.2879139 1.3058116 1.2364513
0.9647011 0.23639728 0.13152303 0.036449682 0.17635475 -0.023227796 -0.11241409 -0.0010700077
-0.10871579 0.007342741 0.3420849 0.2637631 0.21843669 0.1816949 -0.011738341 -0.20203978
-0.19763288 -0.3310797 -0.1006544 0.04729141 0.4037225 0.40968168 0.61345935 0.34478137
0.0808835 0.044767246 -0.040195227 -0.059976265 0.035536453 0.118234545 0.47107354 0.5502927
0.29162169 0.49883956 0.52472544 0.46646738 0.58002526 0.693871 0.5885045 0.44515702
0.36454642 -0.55670786 -0.37038016 -0.03411734 0.008626685 -0.06339057 -0.09364699 0.036513016
-0.21571413 -0.56243616 -0.454779 -0.3555869 -0.5107757 -0.65597236 -0.40585795 -0.47476068
-0.5468827 -0.5519167 -0.6150766 -0.29195395 0.9025014 0.20697564 0.004988909 0.025639206
0.033043623 -0.0070719123 -0.06542173 0.097728945 0.4878 0.3742663 0.36159912 0.7899507
0.82507 0.8992187 0.8026126 0.7873524 0.8956089 0.5125382 0.41751394 -0.24710825
-0.17557098 -0.078506544 -0.08520755 -0.0078882575 0.03100264 -0.11709061 0.15351827 0.1488067
00000000: 970d 0440 677a 53c0 b467 0c3d 0037 d1bb
00000010: 58b8 5a3d 58c9 f33c e062 6bbc 374c edbe
00000020: fe6f acbd 557e 85bf 3a41 2f40 f378 8740
00000030: 4be7 ff40 90bc 9740 8761 b640 e6e9 593f
00000040: ecb6 e140 3ba0 64c0 f46c d0bf 18a2 183f
00000050: 4f6a ce3e c018 0bbc b04d 22bc 4e95 b53d
00000060: d0b3 42bc 98d1 063d e171 9d3e cdcb b43e
00000070: 23e3 ed3e ca12 9c3e 20e8 ae3e 6aa5 af3e
00000080: 55e8 f43e e973 013f 5f4d fa3e eeb3 c83e
00000090: 85a8 1a3f 7eb3 f83e 6a9a 343f 65a0 903e
000000a0: f0c4 20bd a435 edbd 1877 5a3d 7c15 473d
000000b0: 9866 cb3c 748d 0a3e 6653 a73e 68e5 963e
000000c0: b01a c83e cd25 513f a477 803f 2fc8 683f
000000d0: 265e 8b3f 53e9 683f 4350 2c3f a5d4 a73e
000000e0: 7064 553e 7bb2 8f3d 3377 403e feef ec3d
000000f0: 5cd7 813d f0ca dabd c8c6 153d dafb f53d
00000100: f07f ec3e 0f6a 8d3e 5a34 a73e 3b87 203e
00000110: d3d1 2ebe 66a4 a0be 9531 88be cf84 79be
00000120: 715e 24be 6fe6 5bbd 7e89 a23e bd30 bc3e
00000130: 2d6f a63e 6f8e 843e 90f4 dbbc 08d2 a1bd
00000140: b4a3 d93d 2064 7bbc 5ae7 febd 3756 023f
00000150: 55a7 093f 7f13 f53e d41a 9d3e 8735 a53e
00000160: ff5d 153e 0412 4c3e b514 5f3e aae0 403e
00000170: c9ec bc3e dcd8 193f db91 143f d31d e43e
00000180: 348b a93e 3690 9fbd 7419 afbd a88e 24bd
00000190: e818 3bbd 68ff a4bc 5e35 df3e cd68 113f
000001a0: f44b 0f3f eda3 e63e 5e41 d33e 0d54 bf3e
000001b0: 928c 523e 72a8 9b3e 2845 e63e 9061 8b3e
000001c0: 412f 113f 222f 063f bc38 143f 93eb 643f
000001d0: 3051 97bc ae16 e43d a0c6 00bc 56d2 8a3d
000001e0: 6876 bb3d 8c4c c63e c7f5 e33e 71f0 133f
000001f0: c7e6 113f 5bcb 153f 0510 2a3f b73b 413f
00000200: 3d62 193f 1c6f 223f 4723 093f 608c 203f
00000210: 57cb c73e a084 e73b 53f4 09bd a07d 813d
00000220: a0c6 3f3d 7455 dbbd 9445 f93d b085 1abc
00000230: 35e4 38bd 0a05 983c 86d2 463e a44c 1f3e
00000240: 80cb 8e3d da87 873d 4f21 3abd 3f35 893d
00000250: 5c82 2a3e 600a 1d3d 0d47 5a3e 72f1 3b3e
00000260: 7358 793f 2e72 ff3e 3c95 2bbd 38a9 dabd
00000270: 0c8a babd c0bf 323b 3654 ed3d d9cb 103d
00000280: 5afe b73e 7a34 c93e 27fe c83e 61ea 883f
00000290: b43a a83f 5dda a43f d624 a73f 0944 9e3f
000002a0: a7f6 763f 2112 723e f9ad 063e 434c 153d
000002b0: 5796 343e 3848 bebc 5c39 e6bd 803f 8cba
000002c0: 62a6 debd 609b f03b c125 af3e f50b 873e
000002d0: dead 5f3e 3a0e 3a3e 2c52 40bc 84e3 4ebe
000002e0: 4660 4abe 4783 a9be e523 cebd a3b4 413d
000002f0: b7b4 ce3e ccc1 d13e ac0b 1d3f 2f87 b03e
00000300: 40a6 a53d dc5d 373d c0a3 24bd aca9 75bd
00000310: ac8e 113d f424 f23d 8d30 f13e fbdf 0c3f
00000320: 704f 953e e667 ff3e 6854 063f d0d4 ee3e
00000330: 897c 143f 88a1 313f 3ba8 163f 9feb e33e
00000340: d4a5 ba3e 6884 0ebf 78a2 bdbe a0be 0bbd
00000350: f056 0d3c ead2 81bd fec9 bfbd ac8e 153d
00000360: 2ae4 5cbe d1fb 0fbf cbd8 e8be 7c0f b6be
00000370: 32c2 02bf ceed 27bf 9dcc cfbe d513 f3be
00000380: 8100 0cbf 6a4a 0dbf a975 1dbf fd7a 95be
00000390: 550a 673f 6cf1 533e 007a a33b 5009 d23c
000003a0: c058 073d 80bb e7bb d4fb 85bd 1d26 c83d
000003b0: ecc0 f93e d59f bf3e 8523 b93e 363a 4a3f
000003c0: ca37 533f 3233 663f 0578 4d3f ed8f 493f
000003d0: a046 653f b435 033f 63c4 d53e f209 7dbe
000003e0: e1c8 33be 0ac8 a0bd 4c81 aebd c03d 01bc
000003f0: 40f9 fd3c 34cd efbd e533 1d3e c960 183e

gru.weight_hh_l0 f4 [192, 64]
0.014390245 0.24414317 0.339467 -0.047193754 -0.046989597 -0.11416919 0.33301196 -0.23131932
-0.4632921 -0.14849205 -0.45312628 -0.19665381 0.3686242 -0.3585957 -0.03352946 -0.46887723
0.44153526 -0.16874078 -0.08530165 0.22745948 0.43914214 -0.26682836 -0.16135332 -0.37249643
0.2946502 0.35494205 -0.37741843 -0.16892795 0.44548586 -0.30244035 -0.3429731 0.28152686
0.24092093 -0.3138356 0.30709723 -0.05424355 -0.23524882 0.24506448 -0.40489316 0.28998482
0.370035 0.22511303 -0.44824094 -0.10251623 0.07800484 0.30128494 -0.026386838 -0.13357906
-0.21475066 0.13065785 -0.37360677 -0.55711794 -0.25914037 0.010161018 -0.010196852 0.3949416
0.27644587 -0.18556932 0.17852743 0.4397535 -0.45040444 -0.008082732 -0.17269038 -0.19949025
0.27459562 -0.12406317 0.45007652 0.042934354 0.27418476 -0.36540192 0.45144945 -0.046999842
-0.2618729 0.08875616 -0.40409228 -0.075397976 0.46128473 0.06597264 -0.23126577 -0.4317897
0.32647276 -0.33688825 -0.033541553 0.0031406062 0.331953 -0.23164639 -0.37623614 -0.08141298
-0.081213675 0.4980984 -0.3839741 -0.3005388 0.022203248 -0.16280922 -0.28932887 0.19755639
-0.08254398 -0.39854053 0.5164115 0.36118096 -0.1467608 -0.3749353 -0.23657146 0.43462119
0.13786298 0.28084558 -0.30390453 0.29303867 -0.057572357 0.365528 -0.07336701 0.19592568
-0.3580653 0.075921975 -0.31479377 -0.31422442 -0.23821919 0.113829374 0.16014774 0.5046685
-0.06850659 0.015266035 -0.06081008 0.2578174 -0.42956516 -0.09120984 -0.015143524 0.112961866
0.03197222 0.15086728 0.1420887 -0.0026103305 0.20077953 -0.049626566 0.03102357 -0.041469254
-0.04955275 -0.06782508 -0.027806612 0.062127534 -0.02411911 -0.16455133 0.045018993 -0.02235751
-0.028565625 0.07249837 -0.15290955 0.09731308 0.11887307 -0.19729698 -0.14418536 -0.003950875
0.081804745 0.17303884 -0.19170734 -0.091577835 0.12474593 -0.02287409 -0.07242139 0.018099474
0.06401921 -0.13369875 0.14393625 -0.22268043 -0.02312348 -0.06350987 0.06918317 0.13244505
0.061298206 0.046687886 -0.16470775 -0.24434783 0.22378495 -0.021391457 0.0060411952 -0.17325662
-0.14485137 0.22643654 -0.18296118 -0.062248487 0.017715003 -0.2552377 0.003917763 0.03003793
0.03334375 -0.12805183 -0.025120622 0.082129754 -0.15911683 -0.0047216536 -0.008885559 -0.063937806
-0.31898192 0.30979794 0.46377695 0.014981766 0.47346 -0.47222674 0.48051926 -0.23429087
-0.5242797 -0.01715433 -0.37348256 -0.13768342 0.25847918 -0.16188739 0.5056698 -0.3930728
0.4594547 0.6177648 0.031548306 0.23278986 0.4599739 -0.3252089 -0.35586128 -0.3845981
0.1916069 0.443876 -0.3153731 -0.49701345 0.5450825 -0.32543114 -0.44614458 0.45665666
0.24747726 -0.34899533 0.31977868 -0.1414185 -0.21981718 0.042324204 0.5471819 0.334218
0.06708599 -0.09721125 -0.43118137 0.028585719 0.3233406 0.28187722 0.050629497 -0.43946975
0.23326327 0.49298796 -0.23897316 -0.22635783 -0.42820987 -0.062215123 0.03663035 0.35702184
0.540045 0.065362595 0.35721412 0.30995443 -0.2962032 -0.05712843 -0.3152499 -0.041452803
00000000: 10c5 6b3c ab00 7a3e 9ece ad3e 3d4e 41bd
00000010: 2a78 40bd 89d1 e9bd 8b80 aa3e f9de 6cbe
00000020: 9f34 edbe 4d0e 18be 2b00 e8be 9e5f 49be
00000030: 50bc bc3e db99 b7be 3056 09bd ad10 f0be
00000040: e910 e23e 62ca 2cbe a2b2 aebd 23eb 683e
00000050: 3dd7 e03e ba9d 88be ce39 25be dab7 bebe
00000060: 64dc 963e f7ba b53e fd3c c1be 73fb 2cbe
00000070: b916 e43e 76d9 9abe 2c9a afbe 4a24 903e
00000080: fab3 763e 0faf a0be d93b 9d3e 7c2e 5ebd
00000090: 11e5 70be 2ff2 7a3e 284e cfbe e478 943e
000000a0: 3a75 bd3e 0884 663e d67f e5be 07f4 d1bd
000000b0: 00c1 9f3d 0542 9a3e 3629 d8bc f3c8 08be
000000c0: 99e7 5bbe 2ccb 053e 6349 bfbe 489f 0ebf
000000d0: 0cae 84be 667a 263c b210 27bc c935 ca3e
000000e0: 508a 8d3e e205 3ebe e5cf 363e 5f27 e13e
000000f0: 699b e6be 6f6d 04bc bfd5 30be 2c47 4cbe
00000100: cc97 8c3e d514 febd 6e70 e63e efdb 2f3d
00000110: f261 8c3e f615 bbbe 6224 e73e e882 40bd
00000120: 3414 86be cac5 b53d 2fe5 cebe 416a 9abd
00000130: 832d ec3e aa1c 873d efd0 6cbe 8a13 ddbe
00000140: 7027 a73e 9e7c acbe de62 09bd a1d2 4d3b
00000150: bef5 a93e b634 6dbe 06a2 c0be d9bb a6bd
00000160: 5b53 a6bd c106 ff3e 4198 c4be 39e0 99be
00000170: 96e3 b53c 76b7 26be ea22 94be 394c 4a3e
00000180: d10c a9bd 810d ccbe 8b33 043f b6ec b83e
00000190: 7748 16be 85f7 bfbe ca3f 72be ab86 de3e
000001a0: f42b 0d3e feca 8f3e 6099 9bbe 2a09 963e
000001b0: fed0 6bbd 7c26 bb3e 7141 96bd bea0 483e
000001c0: 5654 b7be fb7c 9b3d a62c a1be 06e2 a0be
000001d0: bbef 73be 601f e93d c5fd 233e f431 013f
000001e0: 2f4d 8cbd 641e 7a3c fe13 79bd a400 843e
000001f0: f7ef dbbe 39cc babd 8b1c 78bc 8d58 e73d
00000200: 4df5 023d f47c 1a3e b37f 113e 1412 2bbb
00000210: 2699 4d3e 3a45 4bbd 2425 fe3c aadb 29bd
00000220: d3f7 4abd e0e7 8abd b1ca e3bc 7179 7e3d
00000230: 7195 c5bc 2580 28be d665 383d 1927 b7bc
00000240: 7502 eabc 077a 943d 5294 1cbe 154c c73d
00000250: b973 f33d 3808 4abe 54a5 13be 5776 81bb
00000260: 3f89 a73d 1831 313e ee4e 44be 298d bbbd
00000270: cb7a ff3d 7262 bbbc aa51 94bd 5945 943c
00000280: 811c 833d 53e8 08be 0664 133e 5706 64be
00000290: 746d bdbc 7611 82bd e8af 8d3d ad9f 073e
000002a0: d413 7b3d cc3b 3f3d 26a9 28be 5136 7abe
000002b0: e227 653e 233d afbc 38f5 c53b 2f6a 31be
000002c0: eb53 14be fbde 673e 2d5a 3bbe 45f8 7ebd
000002d0: 0e1f 913c 84ae 82be 9460 803b 1b12 f63c
000002e0: 7593 083d 0520 03be c3c9 cdbc a533 a83d
000002f0: 86ef 22be 1ab8 9abb bc94 11bc d3f1 82bd
00000300: 9951 a3be d69d 9e3e 2c74 ed3e 1576 753c
00000310: 5969 f23e b4c7 f1be 9f06 f63e f2e9 6fbe
00000320: 3237 06bf 3d87 8cbc 1b39 bfbe e2fc 0cbe
00000330: 6257 843e cfc5 25be 9373 013f d740 c9be
00000340: a53d eb3e d525 1e3f cc38 013d 7760 6e3e
00000350: b381 eb3e c881 a6be 7333 b6be 0bea c4be
00000360: 9934 443e b743 e33e 9578 a1be 8c78 febe
00000370: 878a 0b3f e99e a6be 106d e4be e7ce e93e
00000380: ae6a 7d3e 84af b2be 08ba a33e 03d0 10be
00000390: c117 61be 255c 2d3d 1d14 0c3f 9f1e ab3e
000003a0: 6164 893d b116 c7bd cec3 dcbe 992c ea3c
000003b0: e68c a53e 3652 903e e060 4f3d 2e02 e1be
000003c0: 91dc 6e3e eb68 fc3e 61b5 74be 59ca 67be
000003d0: 533e dbbe 49d5 7ebd b509 163d 91cb b63e
000003e0: 6440 0a3f d3dc 853d c5e4 b63e 59b2 9e3e
000003f0: f2a7 97be 80ff 69bd 6f68 a1be 6aca 29bd

gru.bias_ih_l0 f4 [192]
-0.54957646 0.4469883 0.24458602 0.28509045 0.54288214 0.4469082 0.5022834 0.022674402
0.38222075 0.33602113 0.38072887 -0.48229417 0.3259288 0.15890965 -0.6972004 0.40525696
0.3442776 0.24058133 -0.07691681 0.011825626 0.6043394 -0.26581654 0.51553124 -0.49337032
0.3200328 0.07313241 0.40639454 0.45173997 -0.85134155 -0.00044545022 0.418683 -0.12260876
0.18759662 0.29436514 0.29842755 -0.14215994 0.06746325 -0.090234086 0.49656305 0.65780807
-0.0090283565 -0.37626013 0.45948777 0.021907765 0.5718303 0.39144835 -0.27164313 -0.3943335
0.19922318 0.5038232 -1.0398563 -0.40974134 0.40160847 0.3929086 0.1770749 0.67654586
0.44326338 0.033425245 -0.040746953 0.25527686 0.25028625 0.09787838 0.4118813 0.48910084
-5.2426353 -0.15852077 -0.23274206 0.3415749 -0.48180154 -0.43319735 -0.52557486 0.36766666
-0.22033861 0.4412372 -0.67090535 0.549004 -0.5116951 0.42414996 -0.29032493 -0.48364565
-0.57205874 -0.5370544 0.49554938 0.8232913 -0.40480742 -0.67376435 -0.4639866 -0.5536488
0.6592113 -0.048497118 -0.39664906 -0.48445868 -0.6781936 0.04357219 -0.17362505 -0.627927
0.52038974 -0.37522817 -0.1013485 0.6252658 -0.16941358 0.94569516 -0.57576746 -0.5214065
0.67848355 0.16208011 -0.3801905 0.05978304 -0.26957005 -0.46519214 -0.6035127 -0.5505937
0.18485837 -0.6726073 -0.53661424 -0.6429575 -0.24600466 0.43464312 0.39836818 -0.19854076
-0.35527563 0.19888462 -0.6966308 -0.44285357 -0.37534532 0.65648276 -0.04386769 0.66708374
-0.92452985 0.45251358 0.5660289 -0.14524096 0.6150761 -0.5993355 0.75784236 -0.31135777
-0.5608746 -0.15475239 -0.72958326 0.06869613 0.68563044 -0.24170202 0.5839892 -0.5770606
0.7004476 0.42320874 -0.10430831 0.12616803 0.5368564 -0.57005715 -0.58752954 -0.5536954
0.13503118 0.5241526 -0.74260277 -0.7584162 0.5725654 -0.52174497 -0.60660547 0.64219046
0.30342683 -0.46119884 0.706291 -0.028869139 -0.43874976 -0.10708104 0.52010554 0.6649402
0.1820586 0.25037876 -0.68448836 -0.29789475 0.27755314 0.70544916 1.4312246 -0.73382574
5.6074343 0.67527455 0.3967217 -0.8262027 -0.52265656 -0.18380702 0.28032938 -3.7703218
0.67905265 -0.15392801 0.7876443 0.60414135 -0.61294234 -0.23602891 -0.46192542 -0.14536867
00000000: 0bb1 0cbf a7db e43e c274 7a3e 60f7 913e
00000010: 53fa 0a3f 27d1 e43e a595 003f abbf b93c
00000020: 70b2 c33e f60a ac3e e5ee c23e 43ef f6be
00000030: 24e0 a63e 36b9 223e ba7b 32bf d77d cf3e
00000040: 2745 b03e f45a 763e 8f86 9dbd 45c0 413c
00000050: fdb5 1a3f 1b19 88be dbf9 033f 099b fcbe
00000060: 57db a33e 72c6 953d f212 d03e 764a e73e
00000070: 85f1 59bf 518b e9b9 9e5d d63e 4d1a fbbd
00000080: 5419 403e 07b7 963e 7fcb 983e 6092 11be
00000090: 2c2a 8a3d a6cc b8bd 833d fe3e 1c66 283f
000000a0: aceb 13bc 2ba5 c0be fb41 eb3e ea77 b33c
000000b0: 7863 123f eb6b c83e cf14 8bbe 15e6 c9be
000000c0: 2901 4c3e 8ffa 003f 031a 85bf 9ec9 d1be
000000d0: a09f cd3e 512b c93e 1f53 353e 1c32 2d3f
000000e0: 6bf3 e23e e9e8 083d 47e6 26bd a6b3 823e
000000f0: 8525 803e 7674 c83d 1be2 d23e 6d6b fa3e
00000100: abc3 a7c0 4553 22be ef53 6ebe e8e2 ae3e
00000110: b1ae f6be 0bcc ddbe 138c 06bf ce3e bc3e
00000120: 72a0 61be d8e9 e13e 74c0 2bbf 878b 0c3f
00000130: 73fe 02bf 2f2a d93e 78a5 94be 67a0 f7be
00000140: 7172 12bf 667c 09bf a6b8 fd3e 38c3 523f
00000150: eb42 cfbe d27b 2cbf a78f edbe eebb 0dbf
00000160: 12c2 283f eaa4 46bd 9615 cbbe f80a f8be
00000170: 199e 2dbf c178 323d c4ca 31be d3bf 20bf
00000180: 4338 053f e81d c0be cd8f cfbd 6b11 203f
00000190: c17a 2dbe 1419 723f 7f65 13bf e57a 05bf
000001a0: 19b1 2d3f 54f8 253e 54a8 c2be 10df 743d
000001b0: 1605 8abe aa2d eebe cf7f 1abf b5f3 0cbf
000001c0: 834b 3d3e fe2f 2cbf 8d5f 09bf dd98 24bf
000001d0: a5e8 7bbe 8b89 de3e eaf6 cb3e 454e 4bbe
000001e0: b0e6 b5be 69a8 4b3e 6556 32bf b4bd e2be
000001f0: 432d c0be 410f 283f 9bae 33bd 00c6 2a3f
00000200: fdad 6cbf dcaf e73e 45e7 103f 0cba 14be
00000210: a175 1d3f 0d6e 19bf f501 423f 496a 9fbe
00000220: 7a95 0fbf 6977 1ebe f8c5 3abf 8eb0 8c3d
00000230: 7a85 2f3f bc80 77be 5180 153f 3eba 13bf
00000240: 8950 333f d1ae d83e 989f d5bd 3132 013e
00000250: 6c6f 093f 44ef 11bf 5668 16bf fbbe 0dbf
00000260: 9d45 0a3e dd2e 063f 371b 3ebf 9027 42bf
00000270: a593 123f 1491 05bf 7f4a 1bbf 9866 243f
00000280: c35a 9b3e 4122 ecbe 7dcf 343f f97e ecbc
00000290: cfa3 e0be 4e4d dbbd a325 053f 8539 2a3f
000002a0: 926d 3a3e a531 803e a13a 2fbf a985 98be
000002b0: 721b 8e3e 5198 343f 5e32 b73f 01dc 3bbf
000002c0: 1a70 b340 cbde 2c3f 1b1f cb3e 0582 53bf
000002d0: d2cc 05bf e837 3cbe 5587 8f3e f44c 71c0
000002e0: 65d6 2d3f 4e9f 1dbe 0fa3 493f 02a9 1a3f
000002f0: cae9 1cbf 90b1 71be 7d81 ecbe 86db 14be

gru.bias_hh_l0 f4 [192]
-0.62901497 0.6017905 0.3080132 0.22023931 0.48551798 0.61172587 0.4886577 0.061181996
0.41882697 0.39842504 0.54723036 -0.6797901 0.48930216 0.064015225 -0.73591214 0.26913485
0.3596573 0.36423236 -0.08847882 0.04297222 0.52401227 -0.46301273 0.5340268 -0.49164423
0.18545043 0.2914216 0.39420474 0.56763446 -0.7674079 -0.016411776 0.47756964 0.077862464
0.114824906 0.15466279 0.2635697 -0.050307002 0.16272831 -0.2179972 0.59545827 0.59909743
-0.085492335 -0.15978856 0.600002 0.048908904 0.518878 0.45542023 -0.14967896 -0.21541806
0.20437106 0.58459115 -1.0672103 -0.43325227 0.30593252 0.26687428 0.119471624 0.6981425
0.58499086 0.06422308 -0.1720161 0.09628868 0.31738696 0.1722153 0.31207904 0.5031985
-5.135903 -0.1785716 -0.14671831 0.24930798 -0.6113274 -0.46311343 -0.6045212 0.2879734
-0.19317493 0.41418746 -0.5389262 0.6853069 -0.5778695 0.36706966 -0.37866503 -0.28062075
-0.47875172 -0.5256964 0.44834542 0.65509206 -0.62484205 -0.70293856 -0.34810206 -0.46259877
0.45403773 -0.21716017 -0.44097582 -0.61655796 -0.6869096 -0.0050009023 -0.07267645 -0.62677866
0.43932864 -0.36395 -0.257921 0.6628448 -0.122817956 0.9206655 -0.4760271 -0.46635273
0.5897745 0.25996608 -0.3809208 0.21206221 -0.34678897 -0.4254239 -0.6373989 -0.63674533
0.18603235 -0.6618906 -0.4237649 -0.4074298 -0.114280455 0.3177744 0.35063657 -0.20822589
-0.3086082 0.26232517 -0.7525063 -0.5289751 -0.3801559 0.60831 0.07481556 0.6324341
-2.417239 0.48779225 0.6324032 -0.085420296 0.59851253 -0.58218837 0.9102955 -0.27226847
-0.7043728 -0.14280531 -0.82981426 0.030924458 0.7155505 -0.13075574 0.17260155 -0.6924188
0.6352077 0.4923344 -0.09856551 0.29449123 0.717835 -0.22617193 -0.6341994 -0.078620724
0.35166788 0.60936683 -0.6656631 -0.8293953 0.030032443 -0.31413472 -0.57009536 0.38867462
0.26773652 -0.68530196 0.57755554 0.020881234 -0.3389078 -0.2666305 0.45815855 0.79894227
0.19601959 0.1447847 -0.6234037 -0.0534741 0.53356546 0.5978369 2.501492 -0.21943656
-0.86098915 0.8554892 0.31462318 -0.109536976 -0.5227894 -0.29153007 0.28743547 0.837139
0.616897 -0.19551355 0.20943213 0.45182624 -0.58614725 -0.21378341 -0.47821057 -0.107411996
00000000: 2007 21bf f10e 1a3f e8b3 9d3e 6a86 613e
00000010: d095 f83e 119a 1c3f 5831 fa3e f999 7a3d
00000020: 7d70 d63e 5efe cb3e 4a17 0c3f b906 2ebf
00000030: d085 fa3e 6a1a 833d bd64 3cbf 0bcc 893e
00000040: 0025 b83e aa7c ba3e 6234 b5bd a303 303d
00000050: ab25 063f 0110 edbe fbb5 083f cbb8 fbbe
00000060: b8e6 3d3e 3635 953e 34d5 c93e 7e50 113f
00000070: d874 44bf fd71 86bc 0284 f43e 5b76 9f3d
00000080: 5229 eb3d ec5f 1e3e 9cf2 863e b70e 4ebd
00000090: 40a2 263e a83a 5fbe f46f 183f 735e 193f
000000a0: 9b16 afbd 9d9f 23be bb99 193f b454 483d
000000b0: 30d5 043f d72c e93e 7145 19be 8d96 5cbe
000000c0: a646 513e c4a7 153f 599a 88bf 3ed3 ddbe
000000d0: 30a3 9c3e bfa3 883e 8aad f43d 78b9 323f
000000e0: f6c1 153f 6487 833d fd24 30be 0033 c53d
000000f0: 8b80 a23e 3559 303e d3c8 9f3e 9ed1 003f
00000100: 5159 a4c0 79db 36be 533d 16be 974a 7f3e
00000110: f47f 1cbf 341d edbe e7c1 1abf 4071 933e
00000120: a6cf 45be 6110 d43e 11f7 09bf 4670 2f3f
00000130: 41ef 13bf 8ef0 bb3e 62e0 c1be 86ad 8fbe
00000140: f21e f5be 0a94 06bf 888d e53e 1db4 273f
00000150: a6f5 1fbf c8f3 33bf 6f3a b2be bfd9 ecbe
00000160: a277 e83e 3c5f 5ebe 95c7 e1be bed6 1dbf
00000170: 4fd9 2fbf 9cde a3bb 64d7 94bd 9174 20bf
00000180: afef e03e a857 babe 390e 84be 32b0 293f
00000190: fb87 fbbd bcb0 6b3f d3b9 f3be c9c5 eebe
000001a0: 76fb 163f 461a 853e 0d08 c3be d626 593e
000001b0: 538e b1be 29d1 d9be 932c 23bf be01 23bf
000001c0: 447f 3e3e aa71 29bf b7f7 d8be a49a d0be
000001d0: df0b eabd 53b3 a23e a386 b33e 2b39 55be
000001e0: e501 9ebe 7c4f 863e 41a4 40bf ea6a 07bf
000001f0: cba3 c2be 34ba 1b3f e638 993d 34e7 213f
00000200: 0bb4 1ac0 e8bf f93e 2de5 213f d6f0 aebd
00000210: 1e38 193f 4c0a 15bf 2009 693f c666 8bbe
00000220: c751 34bf 8e3b 12be b56e 54bf 4a55 fd3c
00000230: 512e 373f d5e4 05be 76be 303e 5c42 31bf
00000240: f99c 223f 4113 fc3e b7dc c9bd 8ec7 963e
00000250: 09c4 373f 9d99 67be e45a 22bf e703 a1bd
00000260: d00d b43e 77ff 1b3f e668 2abf 4053 54bf
00000270: 9906 f63c 44d6 a0be c5f1 11bf 5c00 c73e
00000280: c314 893e f36f 2fbf aeda 133f 1f0f ab3c
00000290: 5385 adbe cb83 88be c293 ea3e 7b87 4c3f
000002a0: 5cb9 483e 7142 143e 6397 1fbf a807 5bbd
000002b0: bf97 083f d70b 193f 7218 2040 fab3 60be
000002c0: c969 5cbf 5701 5b3f 4a16 a13e ec54 e0bd
000002d0: 87d5 05bf 6e43 95be be2a 933e be4e 563f
000002e0: f6ec 1d3f b434 48be 6075 563e c555 e73e
000002f0: bf0d 16bf 0aea 5abe 04d8 f4be d2fa dbbd

fc.weight f4 [1, 64]
10.918441 9.454219 9.469244 -9.420356 9.3391485 -9.396023 9.350318 -9.459899
-9.407336 -9.473066 -9.404767 9.372601 9.358641 -9.437033 9.405675 -9.420392
9.467281 9.432135 -9.384412 9.366439 9.422332 -9.40748 -9.328049 -9.378217
9.382869 9.410822 -9.4292 -9.316129 9.366353 -9.34699 -9.340395 9.415001
9.395664 -9.463955 9.423527 -9.438034 -9.390227 9.442143 9.387829 9.335338
9.451461 9.299636 -9.378472 -9.4355755 9.38364 9.458555 -10.6860895 -9.372208
-5.711241 9.376997 -9.683688 -9.392075 -9.46121 -9.435761 9.433228 7.9903245
9.410013 -9.400149 9.392886 9.377923 -9.406788 -9.360649 -9.450076 -9.355712
00000000: efb1 2e41 7b44 1741 0682 1741 c7b9 16c1
00000010: 276d 1541 1c56 16c1 e79a 1541 bf5b 17c1
00000020: 7384 16c1 ae91 17c1 ed79 16c1 2cf6 1541
00000030: febc 1541 16fe 16c1 a57d 1641 edb9 16c1
00000040: fc79 1741 06ea 1641 8d26 16c1 efdc 1541
00000050: dfc1 1641 0a85 16c1 b03f 15c1 2d0d 16c1
00000060: 3b20 1641 ba92 1641 01de 16c1 dd0e 15c1
00000070: 95dc 1541 458d 15c1 4272 15c1 d8a3 1641
00000080: a454 1641 5c6c 17c1 c4c6 1641 3002 17c1
00000090: 5f3e 16c1 0513 1741 8c34 1641 8b5d 1541
000000a0: 2f39 1741 4fcb 1441 390e 16c1 1ef8 16c1
000000b0: 6423 1641 3e56 1741 39fa 2ac1 90f4 15c1
000000c0: 7cc2 b6c0 2e08 1641 63f0 1ac1 f045 16c1
000000d0: 1e61 17c1 e1f8 16c1 80ee 1641 bdb0 ff40
000000e0: 6a8f 1641 0367 16c1 4349 1641 f90b 1641
000000f0: 3482 16c1 38c5 15c1 8333 17c1 ffb0 15c1
