best_gru_model.pth (torch, 67653 bytes, 5 tensors)

gru.weight_ih_l0 f4 [192, 19]
00000000: c38b 60be c58f 03bd 20e5 efbc 1c2a eb3d
00000010: b05c e0bc 38a2 ce3c 1045 79bd b50a c53b
00000020: 35e2 50be 0a08 dbbe 7378 30be 4900 9cbe
00000030: e5d9 93be 0c9e a1be 1a4a a6be 0fe8 adbe
00000040: c3ff 72be 1f49 95be 73a7 babe 6a01 99c0
00000050: 7e5c cd40 c02c 70bc fcf3 4fbd aed2 a93d
00000060: 2a14 cabd 8c09 6cbd 7ad6 c5be 6914 1e3f
00000070: 95f2 44c0 806e 5cc0 f35b 9ec0 d645 14c1
00000080: f797 b4c0 8e8a 09c1 fc34 99c0 407a 95c0
00000090: ddfc f53f b3c2 4740 b691 07bf 7561 b8be
000000a0: e890 093d 08d8 0abd a47a 573d fe8f e43d
000000b0: b6fb 933d e623 d7be 3c0e d2be 47ff 09bf
000000c0: 4269 e5be 8cc7 22bf ad41 3dbf 42fa 1cbf
000000d0: e362 37bf ac0a e4be 93a9 08bf 3a87 eabe
000000e0: 6486 f3be 7522 87bf f968 3740 38e4 b5bd
000000f0: 20f3 003c f4ba aebd 50e0 1d3d e052 30bd
00000100: cfd5 923f 2831 043e 702c 44c0 e661 b5bf
00000110: a328 8dbe 4b6d 553e f53b 79be ab97 113e
00000120: 1fd3 683f 28be bcbf 6d98 06c0 2300 52c0
00000130: b5bd 293e 69f1 923e b855 373d 76b7 d43d
00000140: 7434 84bd aa84 aebd f8d3 873d 9a82 2e3d
00000150: b2b6 c13e 666d 1a3e 763d a13e c4b9 203e
00000160: c2dc 313e d019 973e ade0 893e 9645 703e
00000170: 0ac3 9d3e 53d0 813e 6e2f e83d f0c5 febe
00000180: cb3e b8be f4c3 2cbd 2c83 35bd 48b4 f7bd
00000190: 849a 92bd 88cc ff3c 381c 03bf 934f 303e
000001a0: 1e79 06bf 4b5c 04bf 17a4 07bf bfb5 02bf
000001b0: ad66 07bf d55d 03bf 9830 91be 5617 dbbe
000001c0: 0780 fabe e981 1fbf 0f08 cc3e 6ab3 0f3f
000001d0: c01f a03c 8642 e1bd 649b 5cbd 5842 99bd
000001e0: 009e b539 73f9 ba3e 9864 fc3e 0ff2 d03e
000001f0: 7a9c c03e e822 f23e 4ead fd3e 4136 dc3e
00000200: a80a 273f ca6d 133f 7ee4 193f 5e19 803e
00000210: 3131 b93e a5e6 b7be 9250 1dbf 5043 44bd
00000220: 807f d4bd 5081 febd 187d 123d c0af dfbc
00000230: ce6b e7be d3a2 f9be 7b6c e8be f330 10bf
00000240: c5c2 e7be c6f6 d9be 464a b9be 2cb1 a9be
00000250: 5f96 9bbe 8003 0fbf 63a7 0cbf 5e4f 1bbf
00000260: 06e1 1cbf 02ae 18bf 082e e93d 2ee4 bbbd
00000270: ccd1 883d e4ef 333d a060 263d b012 08bf
00000280: 896d dc3e f0a0 13bf 8c94 0fbf ef7c 39bf
00000290: 4710 1bbf d0bd 22bf 7567 37bf 7fa5 febe
000002a0: 62a9 17bf 29af 27bf 200a 24bf ea06 b53e
000002b0: e464 953e 54d5 02bd 3211 92bd ac54 2fbd
000002c0: 4c40 bfbd 8898 363d 72f0 94be 2166 453e
000002d0: e13b 933e 0994 cd3e a2f5 cc3e 7b52 a23e
000002e0: 7c8e e83e b525 e53e aec0 d53e bebc ab3e
000002f0: ac97 4a3e 68a7 8f3e 4540 cb3c 1826 3a3e
00000300: 10a3 a33d 9c01 dc3d 20bf 4abc 3845 e5bc
00000310: 8014 ef3a 3e05 c83e e623 aa3e dfbb 413e
00000320: 5715 4cbd 4829 603c 21c5 363e 2d2f cf3d
00000330: 64f7 783d f3eb 23bb 6d89 aebc 8218 b0bd
00000340: 5399 123e b081 13bf ebf3 b9be 9863 6c3d
00000350: 284a e2bd e4f2 99bd b09a a1bc 38a4 f73d
00000360: 44af 94be 069a ffbe 7498 27bf f8a9 15bf
00000370: f211 3bbf cd7d 1dbf 0b58 33bf 2856 39bf
00000380: f955 45bf 8825 13bf 4574 d2be 7a54 2abf
00000390: 24e5 06bd f206 313e f6ea cfbd 36e6 be3d
000003a0: 6cd0 753d d66c d73d 561c 863d 5d93 7b3e
000003b0: a347 963c b9da bbbd 7d95 5fbd 5bda 38bd
000003c0: 796b b73d 9ec6 eeba 8be5 b93a a0af bd3c
000003d0: e072 fc3c 7e35 9abe 2499 35bc 1109 a53c
000003e0: 9fde 7e3d 340a 9e3d 0c41 24bd 10cb bbbd
000003f0: 68ac b4bc d030 78bd f794 633e 2e64 fcbe
-0.21928315 -0.03211953 -0.02928406 0.11482641 -0.027387947 0.025223836 -0.06085688 0.0060132393
-0.20398791 -0.4277957 -0.17233448 -0.30468968 -0.28877178 -0.31565893 -0.3247841 -0.3396611
-0.23730378 -0.2915735 -0.3645588 -4.7814226 6.4175406 -0.014659107 -0.05076979 0.08292137
-0.09867127 -0.057626292 -0.38640195 0.61749893 -3.077306 -3.4442444 -4.9487243 -9.26705
-5.6435504 -8.596327 -4.787718 -4.671173 1.9217793 3.1212585 -0.5295671 -0.36011854
0.03358546 -0.03389743 0.052607194 0.11160277 0.072257444 -0.42019576 -0.41026485 -0.5390515
-0.44806868 -0.63585734 -0.7392834 -0.61319363 -0.71635264 -0.44539392 -0.5338375 -0.45806295
-0.4756347 -1.055739 2.865782 -0.0888142 0.0078704655 -0.08531752 0.038544 -0.043047786
1.1471499 0.12909377 -3.0652122 -1.4170501 -0.27570066 0.20842473 -0.24339278 0.14218013
0.90947145 -1.4745531 -2.1030533 -3.2812583 0.16576274 0.28699806 0.044759482 0.10386555
-0.06455317 -0.085213974 0.06632227 0.04260502 0.37834698 0.15080795 0.31492203 0.15695864
0.17369369 0.2951188 0.26929227 0.23464045 0.30812865 0.2535425 0.113371715 -0.4976039
-0.35985407 -0.042179063 -0.04431455 -0.12094933 -0.07158378 0.031225458 -0.51214933 0.17217855
-0.5252856 -0.5170333 -0.52984756 -0.5105857 -0.52891046 -0.5131505 -0.28357387 -0.4279124
-0.48925802 -0.623076 0.39849898 0.5613314 0.01954639 -0.109990165 -0.05385913 -0.07483357
0.0003464073 0.3651844 0.49295497 0.40809676 0.37619382 0.47292256 0.49546283 0.43010142
0.65250635 0.575894 0.60114276 0.25019354 0.36170343 -0.35918155 -0.61451066 -0.047915757
-0.10375881 -0.12427008 0.03576383 -0.027305484 -0.45199436 -0.48757038 -0.45395264 -0.5632469
-0.45265785 -0.42571086 -0.3618948 -0.33142984 -0.30388162 -0.55864716 -0.5494291 -0.6066798
-0.6128086 -0.59640515 0.11385733 -0.09174381 0.066806406 0.04392995 0.040619493 -0.53153515
0.4305232 -0.57667446 -0.5608604 -0.7245626 -0.6057171 -0.6357088 -0.7164224 -0.49735638
-0.5924283 -0.6550165 -0.6407795 0.35356838 0.29178536 -0.031941727 -0.07132186 -0.04280536
-0.093384355 0.04457906 -0.29089695 0.1927724 0.2875662 0.40152004 0.40031153 0.31703553
0.45421207 0.4475533 0.41748565 0.33542436 0.1978442 0.28057408 0.02481092 0.18178594
0.07990086 0.107424945 -0.012374669 -0.027987108 0.0018240362 0.390665 0.33230513 0.18919323
-0.04982504 0.013681717 0.17848636 0.1011642 0.060782805 -0.0025012463 -0.021305764 -0.085984245
0.14316301 -0.5761976 -0.36318907 0.057712168 -0.110493004 -0.07517031 -0.019727081 0.12091869
-0.29039967 -0.49922198 -0.65467 -0.58462477 -0.7307426 -0.6152008 -0.7005622 -0.7239709
-0.7708431 -0.57479143 -0.41104332 -0.6653515 -0.03293337 0.17287806 -0.10152237 0.09321253
0.06001322 0.10518806 0.065483734 0.24567933 0.018344706 -0.091725774 -0.054585923 -0.045130115
0.08956046 -0.0018217152 0.0014182789 0.023155034 0.030816495 -0.30118936 -0.011083875 0.020145925
0.062224027 0.0771679 -0.040101096 -0.091695905 -0.022054866 -0.060593426 0.22224794 -0.4929518

gru.weight_hh_l0 f4 [192, 64]
00000000: eae4 24bf 5bdd a13d c1fa 503f 6d51 b8bb
00000010: f166 273e 5bb0 163f 0a56 2c3e fa51 01bf
00000020: 7e04 3ebf 7cc2 ffbe 9c8d cc3d c42b 453f
00000030: 3b53 08bf 6f30 57bf cb16 97bb b254 98bd
00000040: 7181 283f 21be 02bc bbaf 403d 7a53 ecbd
00000050: 6693 413e 56f7 8a3d 1b03 57bf 67ab dbbe
00000060: 3ecb 59be b766 49bf 8cd1 533e 8045 0c3f
00000070: abce 1bbf 6e84 13be 912f 843d be20 2a3f
00000080: 4cd9 47bf e170 353f c7c2 45be a7fe 03bf
00000090: 15e9 21bf 691c 98bd b0a1 363f bd3a 14bf
000000a0: 3023 e43d 2daf 56bf 6a46 c43d 0694 42bf
000000b0: d039 033f 737f 42bf 52cf 303f 05cb 0cbf
000000c0: 4975 8bbe 9a36 0e3f 94e2 21bf c3a0 09bd
000000d0: ef94 68bf 904b 633f b250 04bf e9d2 1d3f
000000e0: 29bb 0bbf 98f7 29be fe76 cf3c 983d 29bf
000000f0: 1c7c fa3e 3b17 65bd b28e 5c3d 6a1a 463f
00000100: be46 4ebe e54f 20c0 b94d 083e 5712 dabe
00000110: 0016 663c 4782 c93e c53c 933e 7f30 03bf
00000120: de29 d1be c5c5 9fbe ccef 20be 8907 b13e
00000130: f874 e6be 14fd d93b f536 a53d b803 bdbe
00000140: 4d59 f73d 146a 15be 83e7 b13d ff40 e4be
00000150: aeac adbe d271 9cbe bf4e 0cbf 438e 45bc
00000160: 826a 393d 78a1 dabe 94f3 84bc 33d3 c53e
00000170: 183a e7be b9ee b0be dee9 52bc a8a9 463e
00000180: cce6 3cbe bae0 b73e 1791 03be 1960 efbe
00000190: 018a ecbe 8631 103d 2055 0f3f 8dc4 07bf
000001a0: 604a 62be 1c62 d6be 5711 453e 8069 c2be
000001b0: 4613 9a3e e74b 01bf 0db0 b93e 4b54 90be
000001c0: dafa 7ebe f4ca 903e d713 dbbe 284f b63e
000001d0: 1845 98bd 627e 703e 49f2 96be 5f33 823e
000001e0: 942a 07bf 0431 b4be 47c3 bebe 0eaf d3be
000001f0: 0726 193e e024 17be fb2a 6a3e f836 023f
00000200: 1bb9 32bb b19a dabd 4f22 533e 7668 cdbe
00000210: f7aa 94bd 0fbf 643f 15e3 ea3e f8ba 50bf
00000220: 3835 65bf 3d0a 8d3d 7902 d5be 1e77 053f
00000230: 95cd 5fbf d14e 48be 4c09 6fbd 0ad7 b4be
00000240: 0e07 013f 1bc1 b5be 1adb 10bf acb4 ffbe
00000250: 8f99 4f3d 17a7 e5be e01d 63bf 4e57 893e
00000260: 9100 f53e 179a 87bf 324b 81be 7d09 3e3f
00000270: 5191 48bf e103 08bf 066d 42be d2b3 493f
00000280: 04d7 33bf d862 fe3e eb4e cdbb 0c83 2dbf
00000290: 6388 65bf 261c bd3c b664 423f 7240 67bf
000002a0: 4ea1 5ebe 66ad 55bf ea3d 983e 185e 82bf
000002b0: fd6f 3f3f 11b9 62bf e1c8 4d3f a3c8 64bf
000002c0: c1c0 11bf de04 5a3f d31c 48bf 3b21 e63e
000002d0: 30e2 75be 4454 273f 42c4 54bf 6027 0c3f
000002e0: e16e 34bf ee27 b1be 3d0f 88be 7873 56bf
000002f0: 65bb 453f d137 8ebe 5834 cb3e 4c58 513f
00000300: 593f 4cbf 14a0 1b3d 5a3e 3d3f 8b89 013d
00000310: 107c a93d 173f 3e3f a86c 22be 5320 40bf
00000320: ee04 4bbf 3805 50be adf4 ee3d 4f91 513f
00000330: 3363 2bbf af22 1bbf 961e 433c c239 8d3d
00000340: ba06 2c3f 4895 10bd 3b63 b13d b601 703d
00000350: b917 433d 6bcd aa3d 1b3e 24bf e1f9 0b3d
00000360: 90e9 03be 7900 16bf bd4f 963d 01f8 343f
00000370: 93ed 43bf cd49 403c 92e6 68bd 742e 1b3f
00000380: eda6 4bbf e4dc 503f 4319 48be 152c 32bf
00000390: ca58 35bf 1deb 533d 4d5a 3d3f c222 4fbf
000003a0: 52c6 493e 31a1 4fbf 3d78 4dbc 8c2b 15bf
000003b0: dc3d 4c3f 3d2c 36bf 1209 1c3f a16d 21bf
000003c0: f37d a9be b752 1f3f 6f45 35bf 6f14 e1bd
000003d0: b46c 1cbf 37fe 383f 14f0 1fbf 1b88 2c3f
000003e0: affc 5abf a71d 83bc 81c9 90be d271 40bf
000003f0: 644e 3b3f 52c4 83bd 3854 18bd b8fb 193f
-0.64411795 0.07903548 0.8163262 -0.005624941 0.16347863 0.5886285 0.16829696 -0.5051571
-0.74225605 -0.49953067 0.09987947 0.77019906 -0.53252 -0.8405828 -0.0046108714 -0.07438029
0.6582251 -0.007979901 0.04704259 -0.115393594 0.18903884 0.06785457 -0.83989114 -0.42904207
-0.21268937 -0.78672355 0.20685405 0.5479355 -0.60862225 -0.14405987 0.06454385 0.6645621
-0.78065944 0.70875365 -0.19312583 -0.51560444 -0.6324628 -0.07427294 0.71340466 -0.5790213
0.11139524 -0.8386105 0.09583743 -0.76007116 0.5126009 -0.7597572 0.69066346 -0.54997283
-0.2723792 0.55552065 -0.63236356 -0.03360058 -0.90852255 0.88787174 -0.5168563 0.6164995
-0.5458246 -0.16598356 0.025325295 -0.6610961 0.48922813 -0.055930357 0.053847022 0.77384055
-0.20144174 -2.5048764 0.13310899 -0.42592117 0.014043331 0.39357206 0.287573 -0.51245874
-0.40852255 -0.31205574 -0.15716475 0.3457606 -0.45011115 0.0066524837 0.08067123 -0.369169
0.1207758 -0.14591247 0.086867355 -0.44580838 -0.33920807 -0.30555588 -0.54807657 -0.012057844
0.04526759 -0.42701316 -0.016229428 0.38637695 -0.4516151 -0.3455713 -0.012873141 0.19400656
-0.18447417 0.3591364 -0.12848316 -0.46753004 -0.4619904 0.03520348 0.55989265 -0.5303429
-0.22098684 -0.41871727 0.19244896 -0.37971115 0.3009283 -0.5050644 0.3626713 -0.2818931
-0.2490038 0.2827984 -0.42788574 0.35607266 -0.074350536 0.23485711 -0.29481724 0.25429818
-0.52799344 -0.35193646 -0.3725836 -0.41344494 0.14955913 -0.1476016 0.22867958 0.50865126
-0.0027270976 -0.10674036 0.20618556 -0.4011876 -0.072591715 0.8935403 0.45876375 -0.8153529
-0.8953433 0.068867184 -0.4160345 0.52134883 -0.8742307 -0.19561316 -0.058358476 -0.35320312
0.5040139 -0.3549889 -0.5658432 -0.4994253 0.050683554 -0.44854042 -0.8871746 0.2682442
0.47851995 -1.05939 -0.25252682 0.7423323 -0.78346735 -0.5313092 -0.18986902 0.7879001
-0.7024996 0.49684787 -0.0062655113 -0.67778087 -0.89661235 0.023084711 0.7593492 -0.9033271
-0.2174122 -0.8346771 0.29734737 -1.0184965 0.74780256 -0.8856364 0.8038464 -0.8936865
-0.56934744 0.85163677 -0.7816898 0.44947228 -0.24012065 0.65362954 -0.83111966 0.5474758
-0.7048169 -0.34600776 -0.26574126 -0.8376994 0.77239066 -0.2777696 0.39688373 0.81775355
-0.7978416 0.03799446 0.73923266 0.03162531 0.08275616 0.7431502 -0.15861762 -0.7504932
-0.793044 -0.20314491 0.11667762 0.8186235 -0.6694824 -0.605998 0.011909148 0.06895782
0.67197764 -0.035298616 0.08661505 0.05859538 0.047630046 0.083399616 -0.64157265 0.03417385
-0.12882066 -0.5859447 0.073394276 0.70690924 -0.76534384 0.0117363455 -0.056860514 0.60617757
-0.79551584 0.8158705 -0.19540887 -0.69598514 -0.70838606 0.051737893 0.73965913 -0.8091241
0.1970456 -0.81105334 -0.012540874 -0.5826957 0.7978189 -0.7116125 0.6095134 -0.63057905
-0.33103904 0.6223559 -0.7080907 -0.109902255 -0.6110337 0.722629 -0.62475705 0.6739518
-0.85541815 -0.01600535 -0.28278735 -0.75173676 0.7316649 -0.064339295 -0.037189692 0.6014972

gru.bias_ih_l0 f4 [192]
00000000: 8a15 a4be 7fa2 d13e b271 28bf 0a08 7d3f
00000010: cfc0 4e3e ba65 02bf 31e0 af3e 28d9 1cbf
00000020: f87f 22bf 4845 aa3e 0f64 a13e a679 5bbf
00000030: b146 8cbd aa7c 04be 9f28 3e3e 5abd 0cc0
00000040: d938 c3bd 2fe6 533e 623c 81bd 3862 0b3f
00000050: 04d2 0d3f 7eb9 623e 42ec c1be 395c 0bbf
00000060: 8e57 debe f14e 523e 80f5 fcbe 6cb9 44be
00000070: b578 32bf adc9 233e 550c ac3d b76b 2cbe
00000080: d7ec 97be 1f26 b5be 9cea b93e eb7b 1cbf
00000090: 721f 9fbe 17d2 233f c639 44bf 32d8 bfbe
000000a0: 5236 d9be fbc6 15bf 45a7 133f 0e77 3dbf
000000b0: 579e 0dbf 4dd0 953f e62b 1cbf 30e9 01bf
000000c0: 127e 393e a029 1abf 27f0 3ebf 4c0d ce3e
000000d0: 7359 53be b169 46bf 4b9b ddbe 1c4a b7be
000000e0: 5134 28bf 7fbe 1c3e 3e25 903e 8cba 20bf
000000f0: e37e 00bf 7499 b7bb 24c8 163f 851a e1be
00000100: 4561 2abf ab18 0140 754e 89bd 011a ea40
00000110: 0155 9b3d a197 61bf 7a4d cfbe b313 80bf
00000120: 0456 4dbf a1c8 6c3e a4f9 c2be 0a61 79bf
00000130: fde8 5bbf cde7 61bf 4bdd 32bf eda2 f33f
00000140: e934 81bf 0feb 74be 6033 aabe 4902 a53f
00000150: d531 71be aff1 b7be 38c0 57bf 700f c0be
00000160: 80a6 b33d 7f83 24bf fff8 b63e ef87 3ebf
00000170: 844f 7cbf f2ee 19be db8c 9dbd 0049 a63e
00000180: 69d4 213f 7db6 a5bd a5a2 59bf 8982 6abf
00000190: d0ad 22bf 5d8b 8dbf 7446 3dbf 7aca 12bf
000001a0: 98eb 1d3d 2f47 58bf 9ac7 a9be 218f 0ebf
000001b0: e00a 95bf 8684 37bf 1037 84bf 6ea7 49bf
000001c0: 0c1a 70be 43f3 84bf 6a9e 92bf c0e5 98be
000001d0: 486a debe 5698 30be 38ca 83bf 84ea 32bf
000001e0: 2ea3 51bf 3364 aebe e12c 80be f3f6 06bf
000001f0: e16e a6be cd09 aabe f2bd b9be 379f 93be
00000200: a30c 4bbe 6c04 02c0 f3d5 143f 8bc7 9ebf
00000210: f787 653e a7ed b73e 09da 0abf 6a25 99bd
00000220: d51b aebe 0cb7 e8bc 45ee 3a3f d591 133f
00000230: 6197 86be f7cc abbe 83bf 4a3e b590 8dbf
00000240: c4ae fe3e 168d 3a3f 6c31 073f fd80 103f
00000250: 0c0f 303f a1dc 5d3e 389e 9dbe c04c fabe
00000260: 9e9b a6be cd14 8fbe 9745 ff3e bec0 8a3e
00000270: 5012 aebe 5b56 133f feee b43e 8453 b83e
00000280: a257 73be 1bae 273e 9223 3dbf 19f4 a7be
00000290: d1ae 98be 49ea 2ebf c3bc aa3e aac6 c3be
000002a0: dd95 093f 6626 b5be 27d3 10bf 1667 b5be
000002b0: 1ecc 853e 1cbc 77be 68ac e83e 5c60 52be
000002c0: 7a98 763e 7f6c d93e 4a2f cfbe c2b3 e9be
000002d0: 89fd bebe aaef 103f 11cd afbe dd41 883e
000002e0: 8dee 07bf af9a 163f f88e 153f 8b0e 2fbe
000002f0: 8d94 fb3e 0ce5 243f 732b 0fbf 4f60 8c3e
-0.32047683 0.40944287 -0.65798485 0.9884039 0.20190738 -0.5093647 0.34350732 -0.61268854
-0.63476515 0.33255982 0.3152165 -0.85732496 -0.06849421 -0.1293818 0.18570183 -2.199057
-0.09532327 0.20693277 -0.06310345 0.54446745 0.55398583 0.22141072 -0.37875563 -0.54437596
-0.43426174 0.20537926 -0.49406052 -0.19211358 -0.69715434 0.15994902 0.0840079 -0.16837965
-0.29672882 -0.35380647 0.36311805 -0.61126584 -0.31078678 0.63992447 -0.76650655 -0.3746963
-0.42424256 -0.58506745 0.5767711 -0.7400979 -0.5531973 1.1704193 -0.61004484 -0.5074644
0.18114498 -0.60219765 -0.74585193 0.4024452 -0.20639591 -0.7750502 -0.43282542 -0.35798728
-0.6570483 0.15307043 0.28153414 -0.6278465 -0.50193614 -0.00560301 0.5889914 -0.43965545
-0.6655467 2.0171306 -0.067044176 7.3156743 0.075845726 -0.8812199 -0.40488797 -1.0006012
-0.80209374 0.23123409 -0.38081086 -0.97413695 -0.85902387 -0.88244325 -0.69868916 1.9034096
-1.0094272 -0.23917793 -0.3324232 1.2891322 -0.23554166 -0.35926577 -0.8427768 -0.37511778
0.08771992 -0.6426315 0.35736844 -0.7442617 -0.9855883 -0.15032557 -0.07692882 0.3247757
0.6321474 -0.080914475 -0.850138 -0.9160543 -0.63546467 -1.1058155 -0.7393563 -0.57340205
0.038554758 -0.8448362 -0.33160096 -0.5568715 -1.1643944 -0.7168659 -1.0329304 -0.787711
-0.23447436 -1.0386738 -1.1454594 -0.29862785 -0.4344046 -0.17245612 -1.0296087 -0.6988909
-0.8188962 -0.3406082 -0.2503424 -0.52720565 -0.3250647 -0.33210602 -0.3627773 -0.2883241
-0.1982904 -2.03152 0.5813896 -1.2404646 0.22415148 0.35923502 -0.54238945 -0.07477839
-0.3400561 -0.028407596 0.7301982 0.576444 -0.26287368 -0.33554813 0.19799618 -1.1059786
0.4974271 0.7287153 0.52809787 0.5644682 0.6877296 0.21666194 -0.30784774 -0.4888668
-0.32540601 -0.27945557 0.4985778 0.27100176 -0.33998346 0.57553643 0.35338587 0.36001217
-0.23763898 0.1637501 -0.738824 -0.3280342 -0.29820874 -0.6832624 0.3334714 -0.38237506
0.537443 -0.35380858 -0.5657219 -0.3543021 0.26132292 -0.24192852 0.45444036 -0.2054457
0.24081603 0.42465588 -0.40465766 -0.45644957 -0.37302807 0.566157 -0.3433614 0.2661275
-0.53098375 0.5882978 0.5842128 -0.17095391 0.49136773 0.64412 -0.55925673 0.27417228

gru.bias_hh_l0 f4 [192]
00000000: 461c d7be 02c0 a23e 4ab7 fcbe 946b 643f
00000010: 7a64 d53d 186e d8be 01e6 d03e 8cd6 e8be
00000020: 2fad f8be a41b 893e 9c37 e83d 0bff 3cbf
00000030: 6f85 9e3c b51e efbd 7272 153e 462c 0cc0
00000040: 791f 44be ff42 af3e ce84 14be 3fe6 103f
00000050: bfe0 0d3f 5ca5 733e cdb3 89be f740 04bf
00000060: 130c febe b306 9f3e 4b90 97be 49f3 a8be
00000070: 15ae 15bf c1cf fd3d 448a 043e a22d cabd
00000080: 564e 94be c25f bdbe d83c c93e 332a 44bf
00000090: 5ad7 99be 6b47 f53e 26bb 45bf db5a 8dbe
000000a0: 44de d0be 743c 24bf 1e0f e23e fc82 0ebf
000000b0: c8ba 1ebf bf06 893f 50a6 07bf 83d6 08bf
000000c0: 78bb 663e 0fbf 19bf 86d2 4dbf 6d7f d33e
000000d0: 86f1 61be d29c 30bf 2ee2 0abf 82f2 89be
000000e0: e52f 12bf 71fd 483e 5c11 b83e f3c6 3bbf
000000f0: ba0f 13bf a005 c63d e6c4 173f 8122 98be
00000100: 1fbe 32bf d729 0240 4150 9bbd 3f38 eb40
00000110: 69a2 1f3e ec0c 86bf 1dd8 8cbe 9672 6ebf
00000120: d81a 32bf cb15 823e 5652 24be 75d2 91bf
00000130: 6818 64bf 93ac 37bf cdae 62bf 078f e93f
00000140: 0c3e 8fbf a961 b0be 8938 46be e776 a13f
00000150: a577 80be 3826 92be f94f 5bbf 94e1 e1be
00000160: 5e71 1cbe 62a1 0fbf 774e 823e 01bb 55bf
00000170: 19bc 57bf 9a35 a4be 44c6 5dbe c3b1 363e
00000180: e380 2a3f 2fdd abbd 5ef0 2dbf 81fa 6dbf
00000190: 228f 36bf 456c 70bf a8f5 42bf a9ff 23bf
000001a0: aa3c 0dbd 71ce 88bf ce99 54be 7476 d9be
000001b0: da23 76bf 568a 58bf df57 65bf 29c3 4fbf
000001c0: eb26 cdbe 817f 94bf af40 91bf 0569 80be
000001d0: 87a5 03bf b927 a3be 628e 6ebf 5694 4dbf
000001e0: 9578 40bf 7506 92be 9664 a6be e4d6 dcbe
000001f0: 0cbe a5be 3c0c c9be 97f5 ecbe f305 9cbe
00000200: 24a9 e1be 3d8b 85c0 2b90 ca3d ad29 1840
00000210: e379 423e d34a 84bc 0c0c e6be 1bc8 893d
00000220: 22ba 16be 3373 60bd cd7a 363f 0c70 51be
00000230: be7b a7be 111e e1be 8221 683e 8f7e 00bf
00000240: 61a2 a43e 191d 2d3f 7ed3 053f b468 873f
00000250: 8c99 603f 62a0 963e 2945 33be f548 f9bd
00000260: 1814 63be d44b 57bf 00bc 79bd 2288 863e
00000270: 0856 e5bd 4684 0f3f 0a0a 413e c75c 2a3e
00000280: 6784 22be 6aa6 8c3e bbca 3abf 7d6c 07be
00000290: bbba 5ebd a430 53bf 9bd0 023e 3939 72be
000002a0: b654 943e 5916 b6bd efbd 11bf 5f73 dabd
000002b0: 7d7f 4c3e b68d eebf bc0c 4e3e 0911 03be
000002c0: 5421 af3e b6cb b63c c107 b9bd a567 19bf
000002d0: 6f23 7fbe 4cff 1f3d f4db 0ebd e15d 283f
000002e0: bd91 aebd 7546 363f 9609 083f d332 51be
000002f0: 5449 863e f185 233f 59bd 11bf 1493 d0bd
-0.42013758 0.31787115 -0.49358588 0.8922665 0.10419555 -0.42271495 0.4080048 -0.45476186
-0.4856963 0.267789 0.11338732 -0.73826665 0.019350735 -0.11675779 0.14594439 -2.1902022
-0.19152631 0.342308 -0.14503786 0.5660133 0.5542106 0.23793548 -0.2689499 -0.5166163
-0.49618587 0.310598 -0.29602274 -0.32998112 -0.58468753 0.123931415 0.12943369 -0.09871985
-0.28966016 -0.3698712 0.39304233 -0.7662689 -0.30047113 0.4790605 -0.7723869 -0.2760838
-0.40794575 -0.64154744 0.44152158 -0.55668616 -0.62003756 1.0705184 -0.5298815 -0.5345232
0.22532451 -0.6005716 -0.8039936 0.41308156 -0.2206479 -0.6898929 -0.5425137 -0.2694283
-0.5710433 0.1962793 0.35950744 -0.7335045 -0.5744587 0.09669042 0.5928482 -0.29713824
-0.6982135 2.0338037 -0.075836666 7.350616 0.15589298 -1.0472693 -0.2750863 -0.93143594
-0.6957221 0.25407252 -0.16047034 -1.1392351 -0.8909974 -0.717477 -0.88547975 1.8246773
-1.119081 -0.3444951 -0.19357504 1.2614411 -0.25091282 -0.28544784 -0.85668904 -0.44117415
-0.15277621 -0.56105626 0.2545049 -0.8348847 -0.8427139 -0.32072145 -0.21657664 0.17841248
0.66602916 -0.08391797 -0.67944896 -0.92960364 -0.71312153 -0.93915206 -0.7615609 -0.6406198
-0.034481682 -1.0688001 -0.20761797 -0.42473185 -0.96148455 -0.84586084 -0.89587206 -0.81157166
-0.40068755 -1.1601411 -1.1347865 -0.25080124 -0.5142445 -0.31866243 -0.9318601 -0.8030447
-0.75183994 -0.2852055 -0.32498616 -0.431327 -0.32371557 -0.39267147 -0.4628112 -0.3047329
-0.44074357 -4.173247 0.09890779 2.3775437 0.18991809 -0.01614896 -0.44931066 0.0672762
-0.14719442 -0.054797363 0.7128113 -0.20452899 -0.32711595 -0.4396825 0.22669032 -0.50193113
0.32155135 0.67622524 0.52275836 1.0578828 0.87734294 0.29419237 -0.17506851 -0.121721186
-0.22175634 -0.8410008 -0.060970306 0.26275736 -0.1119805 0.5606121 0.18851486 0.16636954
-0.1587082 0.27470714 -0.7296559 -0.13224979 -0.0543773 -0.82496095 0.12774889 -0.23654641
0.2897088 -0.08890981 -0.5693044 -0.106665365 0.19970508 -1.8636997 0.20122045 -0.12799467
0.34205115 0.022313934 -0.09034682 -0.59923774 -0.2491586 0.03906183 -0.034877732 0.6576825
-0.08523891 0.7120126 0.53139627 -0.20429544 0.2622782 0.63876253 -0.56929547 -0.10184303

fc.weight f4 [1, 64]
00000000: 9b3c 82c2 745e 6f42 9d2d 8242 3551 ad42
00000010: 4b57 8242 3855 8242 986a 82c2 8d44 82c2
00000020: c83b 82c2 9d67 82c2 c47c 8242 327f 8242
00000030: b83c 82c2 9f58 82c2 8327 8242 0a5c 8042
00000040: 3f55 8242 d53f 8242 8f60 8242 668e 8142
00000050: 1676 8242 a053 8242 5f3c 82c2 f510 83c2
00000060: 4937 82c2 df53 82c2 df57 8242 a44a 8242
00000070: b93f 82c2 396a 8242 925b 8242 6c32 8242
00000080: da3f 82c2 0149 8242 067c 82c2 8d42 82c2
00000090: c336 82c2 eb44 82c2 aa0e 8242 4b3c 82c2
000000a0: d967 8242 e73e 82c2 5967 82c2 4044 82c2
000000b0: 0842 8242 e745 82c2 8667 8242 c75b 82c2
000000c0: 3a55 8242 ab45 8242 174e 82c2 1171 82c2
000000d0: ac7e 82c2 b738 8242 091c 82c2 5346 8242
000000e0: c238 82c2 9239 8242 aa37 8242 e64e 82c2
000000f0: a13c 8242 e550 8242 a36c 82c2 ef5b 8242
-65.11837 59.84224 65.08909 86.65861 65.170494 65.16644 -65.20819 -65.13389
-65.11676 -65.20237 65.24368 65.24843 -65.11859 -65.17309 65.07717 64.17976
65.1665 65.12467 65.18859 64.77812 65.23064 65.16333 -65.11791 -65.53312
-65.10798 -65.16381 65.17162 65.14578 -65.12446 65.207466 65.17885 65.09848
-65.12471 65.142586 -65.24223 -65.12998 -65.10696 -65.134605 65.02864 -65.11776
65.20283 -65.122856 -65.20185 -65.1333 65.12897 -65.13653 65.202194 -65.17925
65.16646 65.13607 -65.15252 -65.22083 -65.247406 65.11077 -65.054756 65.13735
-65.110855 65.11244 65.10872 -65.1541 65.118416 65.158 -65.21218 65.17956
