best_gru_model_INFY.pth (torch, 67653 bytes, 5 tensors)

gru.weight_ih_l0 f4 [192, 19]
00000000: f4a6 e0bc 0f43 ed3d 90f8 1ebc d0ce 00bd
00000010: 20d9 593d 8215 a5bd 68e8 fb3d 7666 acbc
00000020: 1732 503d 1c18 a93d 68c5 9f3c a522 193d
00000030: 2c35 40bd b606 273e ee99 e63d 3646 10ba
00000040: 04b9 d53d 1199 003e cc75 ae3c eeb7 773e
00000050: 2114 cc3d 0c29 193d 5078 173d 703c 2dbd
00000060: 46f4 cbbd 84de 98bd 6acc 75be 1e33 ebbc
00000070: 0c03 913e 5b09 603d a877 fb3d 7a43 9f3e
00000080: d65c 253e 3e8f 4e3e be44 7e3e b42a 743e
00000090: c4cc 233e 2a9f dd3e 5f2f cb3e c9fb 373f
000000a0: e0cc c0bc ba91 e03d 0c0a 90bd 3c9e 603d
000000b0: 988c 11bd 14c4 983d 7c95 3d3e 1a60 ea3e
000000c0: 1e13 ae3e d8ed cf3e faa3 e13e c86d 083f
000000d0: cd18 d23e b909 e53e af52 063f 5cae f43e
000000e0: 5556 083f e24a c43e 017e c73d 28d4 c23c
000000f0: ac46 6bbd 5281 95bd 68f8 e73d 4452 493d
00000100: 83fe 703f ece7 fe3e 9a53 203f d055 d83e
00000110: f9df b23e 1ecb b53e f611 f23e b561 073f
00000120: ce7c dc3e 873e 1a3f 2ba2 323f a42e 543f
00000130: 1b62 4b3e 58ef fd3d 1406 e73d 42a0 d8bd
00000140: b8a4 f03d 5c99 963d d811 f4bc a200 2f3e
00000150: 3296 283e d186 763e 53cf 22bd 3c42 30bd
00000160: edc0 40bd dcbf 81ba f09f 1a3e 3176 0e3e
00000170: 711c ce3c 87be 223e 96f7 993e 82cd 393d
00000180: 0f4b 3b3e 10e1 aabd d037 183c a45b fc3d
00000190: 0284 e5bd c001 383c e80b 403e 4809 9e3e
000001a0: c9a7 113e 24d6 523e c305 843e 9625 583d
000001b0: 7786 2b3e f0df 593e 2a82 053e 11f2 c23d
000001c0: 997c 473e a96b 013e 918a a3bd cad5 4cbe
000001d0: 1c02 d5bd 5882 9f3c e00b 513c 809c 983a
000001e0: 40af b03c ab34 d4be 4d49 91be 214d b4bd
000001f0: e424 6bbd 68ac 70be 271b 2dbe 6b2b 4abe
00000200: 68d2 60be 3227 1fbd 9023 36be 5389 4abe
00000210: 15b9 39be a8df f93e b40c c53e f8cf 7cbd
00000220: 9c4a 6bbd b811 843d 70f5 9cbd 5001 e83d
00000230: 5e16 af3e 3fbc d43e ecc8 433f 9956 e33e
00000240: 35a5 f93e fee0 293f c6c9 f13e 2928 333f
00000250: f28a 093f 5f4a 303f 8ddf 1e3f a3e9 4d3f
00000260: 5f5d 733e 81b0 923d 363a f3bd 30b3 b9bc
00000270: e059 553c 14e5 32bd 8037 debb 83c3 9f3d
00000280: 13e2 3d3d 48a2 823e 70f7 333e 9bc2 383e
00000290: c351 3c3e 7dd6 bd3d 825c 8f3d 51f6 8c3e
000002a0: 4ffe 8b3d d826 683e 0600 5f3e b600 64be
000002b0: 85ef 85be 40ca 893b 80b1 253c 1426 8abd
000002c0: 807c c1bd 8034 30bb b6de b2be 7af4 17bf
000002d0: 4afa 73be b4c1 bdbe 4ee2 d2be 8605 adbe
000002e0: 189a dbbe ac5b acbe 8954 d4be 13e2 c3be
000002f0: 5b5b 3fbd 7bbd 933c 9f36 f93d 09f3 95bc
00000300: 9091 423d b869 abbc 604d a03b c868 a0bc
00000310: 84a3 af3d b031 80bc 4225 d03d ad5b f93d
00000320: 7430 463e 1bfa bd3d d9bd ad3d 3842 483e
00000330: 7e57 5f3e 32cb 593e 57f5 773d 47cc 423e
00000340: bf85 9d3e 1359 433e ee75 c3be 1878 a63d
00000350: 9425 30bd 0833 b43c fe89 9fbd bee0 ebbd
00000360: 9bef 1f3b 8de2 253e c62e 223e 0ab7 343e
00000370: 4de7 3b3e f934 963e 2c89 3f3e 1cd0 6e3e
00000380: e58d a03e 8167 a33d 4f72 d2bd a787 823c
00000390: 11fd e8be 8f72 15bf 447e 87bd 58f4 db3c
000003a0: 22a6 d1bd 3821 9cbc 78ad 01bd c44e 88bf
000003b0: e062 bcbf 0f67 9bbe 66f2 d9be f9c2 d1be
000003c0: 4cbf bebe f5a3 e8be 6fd2 d3be 802c dabe
000003d0: 40f3 19bf bbaf 3ebf 3bf4 11bf ecc4 9f3e
000003e0: 25d6 2bbd b099 dcbd b0cb 483d f8e2 9e3c
000003f0: fc2f 4f3d 0051 38bb b9ef 31bf da80 c83e
-0.02742336 0.11585056 -0.009702817 -0.03144723 0.053185582 -0.08060743 0.12300187 -0.021044951
0.05082902 0.082565516 0.01950331 0.037386555 -0.04692571 0.16311154 0.112598285 -0.00055036263
0.104356796 0.1255839 0.021296404 0.24191257 0.09964777 0.03739266 0.036979973 -0.042293966
-0.09958701 -0.074643165 -0.24003759 -0.028710898 0.28322637 0.054696422 0.12278682 0.31106168
0.16148695 0.2017183 0.2483091 0.23844415 0.1599608 0.43285495 0.3968458 0.7186857
-0.023535192 0.10965295 -0.07033166 0.054838404 -0.03553447 0.07459274 0.18514055 0.45776445
0.3399896 0.40611148 0.44070417 0.5329251 0.41034546 0.4473398 0.52469915 0.47789276
0.5325673 0.3833838 0.0974083 0.023782805 -0.057440445 -0.073000565 0.113266766 0.04915072
0.94138354 0.49786317 0.62627566 0.4225297 0.34936503 0.3550653 0.47279328 0.52883464
0.43063968 0.6025166 0.697787 0.8288367 0.19861643 0.12399167 0.11280456 -0.10577442
0.117501676 0.0735347 -0.029793665 0.17090085 0.16463545 0.24074866 -0.0397485 -0.043031916
-0.04705899 -0.0009899097 0.15100074 0.13912274 0.025160046 0.15892993 0.30071706 0.045362003
0.18290351 -0.083437085 0.0092906505 0.123221666 -0.11206819 0.011230886 0.18754542 0.30866456
0.14224161 0.205895 0.25785646 0.05277022 0.16750513 0.21276832 0.13037935 0.09518827
0.19481124 0.12638725 -0.07985414 -0.20003429 -0.10400793 0.019471332 0.012759179 0.001164332
0.02156794 -0.41446432 -0.28376237 -0.08803774 -0.05740823 -0.23503268 -0.16904889 -0.19743125
-0.21955264 -0.03885574 -0.17787004 -0.19778948 -0.1813701 0.4880345 0.38486254 -0.061721772
-0.0574442 0.06448692 -0.07664001 0.11328375 0.34196752 0.4154987 0.7647846 0.44402006
0.48758855 0.66358936 0.47224253 0.69983155 0.5372764 0.6886348 0.6205986 0.80434626
0.23766087 0.07162572 -0.11876337 -0.022668451 0.013021916 -0.043675497 -0.0067815185 0.07800963
0.04635818 0.25514436 0.17574859 0.18042986 0.18390565 0.09269426 0.07000066 0.27531675
0.06835615 0.22671068 0.21777353 -0.22265896 -0.261593 0.0042050183 0.01011312 -0.06745544
-0.094475746 -0.0026886761 -0.3493554 -0.59357417 -0.23825946 -0.37061846 -0.41188282 -0.33793277
-0.42891002 -0.3366369 -0.41470745 -0.38258418 -0.046717983 0.018034687 0.12168621 -0.018304365
0.0475021 -0.020924434 0.0048920363 -0.019581214 0.0857611 -0.015648693 0.10163356 0.12175689
0.19354421 0.092762195 0.08483476 0.1955651 0.2181072 0.21268919 0.06053671 0.19023238
0.30766103 0.19076948 -0.3817591 0.08128375 -0.043004587 0.02199699 -0.07789992 -0.115174755
0.002440429 0.16199704 0.15838155 0.17647949 0.18349953 0.2933729 0.1870467 0.23321575
0.31358257 0.07978726 -0.10275709 0.015933825 -0.45505574 -0.5837793 -0.0661588 0.02684991
-0.102367654 -0.019058809 -0.031659573 -1.0649037 -1.4717674 -0.30352065 -0.42567748 -0.40969065
-0.37255323 -0.4543759 -0.41371486 -0.42612076 -0.60136795 -0.74486893 -0.5701329 0.31204927
-0.04195227 -0.10771501 0.049022377 0.019395337 0.05058287 -0.0028124452 -0.6950641 0.39160806

gru.weight_hh_l0 f4 [192, 64]
00000000: 4bcc 87be add0 bf3e 66f6 89be c3c7 543e
00000010: f348 873e b7ad b2be 16a0 c9be 9b6b cc3e
00000020: 69d2 0abf b656 cc3e 77a5 153f 4400 dbbd
00000030: 5670 b4bd b761 1bbd 67a0 b4be 41dc 01bf
00000040: 46e3 c0be c10b 373e 6c41 203f e171 d7be
00000050: 3aba b8be bb2b 843d 6823 8e3e 31a4 b83d
00000060: 7ad7 ce3c bde5 31be d41f 6d3e e7dc 003f
00000070: 6d86 c13e 5fe6 3c3e d26f ecbd 1620 07bf
00000080: ea0e f9bd e94c 34be 16ba 193f 31d6 9ebe
00000090: f652 a33e d66f ccbe cbcb 88be 254f 463e
000000a0: 70f1 f83e f0ef 89be 40a2 84be 98b3 babe
000000b0: 3060 e43e df7e 713e bc15 6b3e 9ac7 7f3e
000000c0: f3d5 823e cca4 e43e 7225 6fbe ae60 c83d
000000d0: fd21 3c3e 2e7c da3e 6ce7 d63e c110 143e
000000e0: 9ac2 01bf 30f2 d0bd 6316 593e 22a8 a03e
000000f0: 8529 de3e 976c 093f 2c10 8dbe bf23 babe
00000100: f498 94be 8cc7 6a3e da00 15be 16c1 5b3e
00000110: 167e e03e 3d5e 04bf 585d 5bbe 9bde 933e
00000120: 3fdd 1cbf 4128 543e a0fc 0c3f 1630 4b3d
00000130: 0909 8fbd 7d74 69bc 1d4a 8bbe 27ac d2be
00000140: e9cb e7be 8fb7 b9bc 7c29 083f f913 c2be
00000150: 90af b4be f30b cd3d e62c c43e daef 603d
00000160: e3cf b93d 4252 853c e328 8e3e 2d0e 013f
00000170: 7cd9 eb3e c0cb 173c c2fb 02be 64c9 a5be
00000180: 213a 26bb 8739 abbe 559c 053f 6d26 163e
00000190: 8e87 583e 9cfa a1be ac3e b5be d633 993e
000001a0: 6508 533e a0a5 423d da1f 60be bc62 993c
000001b0: de37 6b3e 9933 203e 0568 e83d bb84 b43e
000001c0: 9d0b bebc f826 fa3e 74ad 43be 20b8 9f3e
000001d0: f1f9 cd3e e670 103f aace 223e 8efa 2b3e
000001e0: a569 1cbf b99f 8bbd 8de3 713e 56b8 933e
000001f0: 5488 f53e f4a1 1f3f 0d16 4d3d bbef cfbe
00000200: fecf 82be 56ca 543e 6ea4 27bd 550b 74bd
00000210: aecc 0abe 0f4b e93d 61fc b7be 2a95 8d3e
00000220: c3ba 1cbf 51a5 7f3e 6774 c13e 26df bdbe
00000230: b634 4a3e c711 8d3e 37f0 0f3d ba33 e7be
00000240: 2f27 363d 9e90 883e f906 d23e f107 383e
00000250: 463d 03bf fc70 6a3e a76a 48bd d4ff b4be
00000260: 6d00 c73e 2f77 4dbe 4ee3 5cbe 0ac7 d23e
00000270: 10f4 0e3f f529 863e c353 c6be bf19 4cbe
00000280: ba20 a3be c6a8 623d a232 013f 3c5a 94be
00000290: 370c 8d3e 4f94 2cbe 54ab df3d 5e0d 5cbe
000002a0: 8f42 cf3e 2410 943e 4e4e 4d3d 34c1 0ebe
000002b0: 75a9 1abe 1a79 e6bb 9ab0 bb3e 9282 213c
000002c0: e26b cfbe c331 b93e 0314 e73d fc5c 0cbe
000002d0: 8511 b23e 6d05 da3e 8145 8bbe 554f 0ebc
000002e0: b1f9 0cbf 62e8 bd3e 2355 993e 61ea 2dbe
000002f0: 69c2 073f 0f22 dd3e 561f c7be 3b78 593e
00000300: fca2 8ebe ab79 8d3e c456 1bbc af6a 08be
00000310: a2e6 ef38 9545 c73d 6040 89be dfb3 ae3e
00000320: 7fc8 bcbe b2a7 303e f94a d53e 936e 0bbe
00000330: f521 cc3d fb22 3f3e 296f 953c 5c61 c2be
00000340: 1ad4 8e3a ee5b 6c3e c655 893e a997 a63d
00000350: 2828 08bf bbb4 9f3e d1e6 8e3d d285 c7be
00000360: 1f07 283e ede8 30be 7b61 2ebd a635 093f
00000370: f93b cc3e 79e2 a53e c8bc 83be 4e83 afbe
00000380: af25 a0be 2ef3 35bd 5467 ca3e 3907 48be
00000390: 6128 c03e e40e 98be 67f1 413d 75d6 5e3d
000003a0: dda8 c43e bb42 053e 27a6 71bb f04f b8be
000003b0: e696 a6bd 0913 603c 4e43 a23e 2e15 c9bd
000003c0: bc46 36be 7077 0d3f 34e3 2b3d eae1 493d
000003d0: 9a59 8e3e 7ae9 053f 6e27 6cbe 3cb8 513c
000003e0: 3756 01bf 1eac 9b3e f684 613e 3a07 b8bd
000003f0: 3300 1b3f 55c4 c73e be5d c3be 66f2 e63d
-0.2652305 0.37463894 -0.269458 0.20779328 0.26422843 -0.3489816 -0.39379948 0.39925846
-0.5422731 0.39909905 0.58455604 -0.1069341 -0.08810489 -0.037934985 -0.35278627 -0.50726706
-0.37673396 0.17875578 0.62599826 -0.4207907 -0.3607958 0.064536534 0.27761388 0.09015692
0.025249232 -0.17372794 0.23156673 0.5033707 0.3779787 0.18447255 -0.115447655 -0.52783334
-0.12161048 -0.17607464 0.6004957 -0.3102279 0.31899232 -0.39929074 -0.26717982 0.19366129
0.48621702 -0.2694087 -0.25905037 -0.36465144 0.44604635 0.23583554 0.2295751 0.24978486
0.25553855 0.4465698 -0.23354128 0.09784065 0.1837234 0.42672867 0.41973436 0.14459516
-0.50687563 -0.102024436 0.21199946 0.31378275 0.43391052 0.5368132 -0.275514 -0.36355397
-0.29022944 0.22927684 -0.14551106 0.21460375 0.43846196 -0.51706296 -0.21422327 0.28880772
-0.61275095 0.2071848 0.55072975 0.049606405 -0.06984145 -0.014248964 -0.2720498 -0.41146967
-0.4527276 -0.022670535 0.531883 -0.37905863 -0.35290194 0.10012045 0.38315505 0.05491624
0.09072854 0.016274575 0.2776557 0.50412256 0.46064365 0.009264886 -0.1279135 -0.3238021
-0.0025364237 -0.33442327 0.5219167 0.14663096 0.2114546 -0.31636512 -0.35399377 0.2992236
0.20608671 0.047521234 -0.2188715 0.018723838 0.2297053 0.15644683 0.11347965 0.35257515
-0.023198897 0.48857856 -0.19109136 0.31195164 0.40229753 0.5642227 0.15899149 0.16794798
-0.610987 -0.06817574 0.2362196 0.28851575 0.47955573 0.62356496 0.050069857 -0.40612587
-0.2554931 0.2078031 -0.040928297 -0.05958112 -0.13554642 0.113912694 -0.35934737 0.27652866
-0.61222476 0.24965407 0.3778412 -0.3708431 0.1974667 0.27552626 0.035141196 -0.45156652
0.044470962 0.26672834 0.41020945 0.1797178 -0.5126537 0.22894663 -0.048929837 -0.3535143
0.38867512 -0.20064996 -0.21571085 0.4116748 0.5584116 0.26203886 -0.3873578 -0.19931696
-0.31860906 0.055336736 0.50467885 -0.28975093 0.27548382 -0.1685345 0.1092135 -0.21489474
0.40480468 0.28918564 0.050123505 -0.13940889 -0.15103705 -0.0070334794 0.36658174 0.009857791
-0.40511996 0.36170778 0.11283114 -0.13707346 0.3477899 0.42582265 -0.27201465 -0.008685906
-0.550685 0.37091357 0.29947767 -0.1698394 0.5303102 0.43190047 -0.38891095 0.2123727
-0.27858722 0.27631888 -0.009481136 -0.13321947 0.00011439367 0.097300686 -0.26806927 0.34121606
-0.36871716 0.1725147 0.41658762 -0.136164 0.09967414 0.18665688 0.018241482 -0.37964904
0.0010896951 0.23081943 0.26823252 0.08134396 -0.53186274 0.31192574 0.069776185 -0.38969284
0.16408966 -0.17276354 -0.042573433 0.53597486 0.39889506 0.32399347 -0.25729966 -0.34279865
-0.3127875 -0.044421367 0.39531958 -0.19534005 0.37530807 -0.2969886 0.04734936 0.05440374
0.38410082 0.13013737 -0.0036872716 -0.35998487 -0.0813425 0.013676413 0.31691974 -0.09818493
-0.1780042 0.5526037 0.041964725 0.049287714 0.27802736 0.5230938 -0.23061916 0.012800273
-0.5052218 0.30404752 0.22023377 -0.08985753 0.6054718 0.39016977 -0.38157457 0.112767026

gru.bias_ih_l0 f4 [192]
00000000: fb06 793e b1c1 bd3e 5a40 b73e 56ef 1e3f
00000010: 0077 4d3e 1a21 ae3e 60a2 a0bd 441e 553f
00000020: 3d27 ea3d f347 ecbc 2419 aa3e 68d4 c13d
00000030: ba4d 11bf 78bc ecbc ea01 703e 059d 783d
00000040: f033 d03e 7518 4c3f 8daf 233e 76aa 2e3e
00000050: 667f e53d 047b a73e f2a0 f03e 795a 55bf
00000060: db46 38bf acc5 18be 0223 f93d 443e 5a3d
00000070: 7ade 903e 26e7 2a3f b551 53bf 4721 d03e
00000080: 5500 fb3c dd7e acbe 26e4 fa3d 05f7 1f3f
00000090: ddad 603e e3b4 153d 0ec5 d53d d733 063f
000000a0: 3ead 6b3e c762 20bf f9ce c93e a9e3 d0be
000000b0: 1625 003f b5a3 853e 579a 91be 7a1c 543f
000000c0: 24a0 b6bf 5eb5 473e e997 1f3f 45f0 80bf
000000d0: 2b9b 243e cb13 603e 2094 893f d168 abbf
000000e0: 7635 32bc b802 4ebf 5c55 28bd 1de2 2c3e
000000f0: ed0b 3e3e c4ea 603e 2266 f93d c9aa 8f3e
00000100: 8ee3 6f3f 0e7a 4bbf 4751 21bd 45e8 f73e
00000110: d40a 6e3e 8aea 9f3e 8674 0a3f a3bd 663d
00000120: bb87 8bbe 024b 2dbf cff0 073f da1f 933f
00000130: e9eb 653f 7f9a b0bd 959d 1f3d a420 4c3f
00000140: cd45 193b a378 6abf 9634 0a3f 0b09 54bb
00000150: f55c d33e fade 303e eb0b a63e 099a 833f
00000160: 7309 3cbe 3769 283c e07e 363f fd4a 0c3e
00000170: 8c6e 193f 860c 1cbf e4bc 40bf 197d 4dbf
00000180: ba08 e8be 61f0 813e 527e 4d3e 06dd 85bf
00000190: d2ab 44bf 0f99 1f3e 3fc3 c8bd b498 9bbe
000001a0: f023 0fbf 92bc bd3e f47b 473e dbd7 63bf
000001b0: 2a12 bb3e f4d1 153e 1dbf f8be 6558 9bbe
000001c0: 5e50 74bf fa36 d43e 05c1 053e 45fc b3be
000001d0: ca79 4abe 67e3 a63c ff29 fbbf a985 cd3f
000001e0: a94d 813e c3ea ca3e aec1 3f3e 93bc ad3e
000001f0: 30b7 653e 8008 e03e 95b3 8cbf 27fd bd3e
00000200: abdc 033e 50b1 5f3f 8e4f cfbe f7dd fe3e
00000210: 2d4e 183f ad1b aebe 34cb 68bf 999d db3e
00000220: 30d4 e2be 9f7c 6f3f 8e66 043f 630f a5bc
00000230: 1bbd cc3e 1203 46be 0f59 eabe 9d2d 1abf
00000240: 2b79 43bf 3405 943f 442a 203f 82f1 10bf
00000250: de9c c2be 1e23 1dbf 156e fe3e 245f 4f3e
00000260: d2cc aabe 99ea 85bd b18c bf3e 2eb2 e93e
00000270: c263 af3e 39f7 673f e374 0340 d9d4 67bf
00000280: f285 5bbf 678d ecbe 106c 113f 9039 68bf
00000290: 6882 823f 4e8d bbbe 07c3 a7be cb01 e23e
000002a0: 2c12 4c3f b81b 6dbe 804b 1ebf 5d41 b43e
000002b0: fcbe 1f3f be33 c03e 3506 693f 1b30 e63e
000002c0: 0227 9240 bd5e ed3e 3db9 26bf 9a28 713e
000002d0: 72e3 3e3f 00c9 bb3e ca80 933f 19e3 7ebf
000002e0: 19c2 87be 2399 51bf 48c1 553f 57c3 d63e
000002f0: fd68 b93e 7c1e b13e f68c 86bf 9650 cdbe
0.24319069 0.37061837 0.35791284 0.6208395 0.20064926 0.3400963 -0.078434706 0.83249307
0.11433265 -0.028842902 0.33222306 0.094643414 -0.56759226 -0.028898463 0.2343823 0.06069662
0.40664625 0.7972482 0.15984936 0.17057213 0.1120594 0.3271104 0.46997792 -0.83341175
-0.71983117 -0.14919156 0.1216488 0.053282037 0.28294736 0.66758955 -0.8254655 0.4065039
0.030639807 -0.3369054 0.12250547 0.62486297 0.21941324 0.03654946 0.10437976 0.5242285
0.23015305 -0.6265072 0.3941572 -0.4079869 0.5005659 0.2610146 -0.28438064 0.8285595
-1.4267621 0.1950278 0.6234117 -1.0073324 0.16074817 0.2188255 1.0748329 -1.3391362
-0.010877004 -0.804729 -0.04109703 0.1688313 0.18559237 0.21964556 0.121776834 0.28059986
0.93706596 -0.79483116 -0.039384153 0.48419395 0.23246318 0.31233627 0.5408405 0.056333195
-0.27251992 -0.6769258 0.5310182 1.1494095 0.89813095 -0.08623218 0.03896864 0.79737306
0.0023387552 -0.9159033 0.5398649 -0.0032354023 0.41281858 0.17272559 0.32430968 1.0281383
-0.1836298 0.010278991 0.71287346 0.13700481 0.59934306 -0.6095661 -0.75288224 -0.8026901
-0.45319158 0.25378707 0.20067719 -1.0458076 -0.76824677 0.15585731 -0.09802865 -0.3038994
-0.5591421 0.3705793 0.19480878 -0.89001244 0.36537296 0.14630872 -0.48583308 -0.30340877
-0.9543513 0.41448194 0.13061912 -0.35153404 -0.19773021 0.020372106 -1.9622191 1.6056415
0.25254562 0.39632234 0.18726227 0.33932933 0.22433162 0.43756485 -1.0992304 0.37107202
0.12877147 0.8737993 -0.40490383 0.4977872 0.59494287 -0.3400549 -0.90935063 0.42893675
-0.4430251 0.9354953 0.51718986 -0.020148939 0.39988026 -0.19337109 -0.4577107 -0.6022585
-0.7635676 1.1564088 0.6256449 -0.5661851 -0.38010305 -0.6138171 0.4969336 0.20251137
-0.3335939 -0.065388866 0.37412027 0.45643753 0.34255797 0.90611607 2.0540092 -0.90559155
-0.8575126 -0.4620163 0.56805515 -0.90712833 1.0196047 -0.36631244 -0.32765982 0.44141993
0.7971523 -0.23155105 -0.61833954 0.35206118 0.62400794 0.37539476 0.91025096 0.44958577
4.5672617 0.46361342 -0.651264 0.23550645 0.74565804 0.36676788 1.1523678 -0.99565274
-0.26515272 -0.81874293 0.8349805 0.41945907 0.36212912 0.3459357 -1.0511768 -0.40100545

gru.bias_hh_l0 f4 [192]
00000000: fc24 0b3e 8a75 b43e d495 eb3e 2219 293f
00000010: 4bf2 883e 73b5 5f3e 3500 003d b55f 2c3f
00000020: 641a b33e 6497 c4bd 0326 eb3d 202a 2d3e
00000030: 5c0e c4be 1060 c23b 5b5c a63e 6fca 473c
00000040: 4806 b53e 962c 2f3f 3903 253e 296a ed3d
00000050: 722f 793d 0baf 7b3e ac88 0d3f a2c3 4cbf
00000060: 5778 2ebf 7ed7 11bd 767d 253e 3b4e a03d
00000070: 4a24 f03d d0cc 453f 5f49 60bf c5d8 b53e
00000080: 7894 39be a653 bebe e3e3 a73d d9dc 0a3f
00000090: 7766 423e 84a0 6e3d 476e 2d3e deed fb3e
000000a0: d2d9 c43e 14cd 20bf 7500 0f3f e163 e3be
000000b0: 7416 d93e 2f7b f23e bc6d fcbe 98e4 213f
000000c0: 1bfe cdbf 1672 893e d069 0e3f b4ee 82bf
000000d0: 2f77 143e 88cb f83d 73ba 853f 3705 c3bf
000000e0: fb9e 193e 6f5b 74bf 30a5 c2bd fa58 3c3e
000000f0: e5cb 233e 3142 0a3d f74b 7a3c a7ca 3c3e
00000100: 45d5 803f 0b94 64bf 8729 93bd a1c8 933e
00000110: 97e3 953e 88b5 2a3e fafb a63e b930 2c3e
00000120: 16d7 05be 3650 4dbf b3f3 f53e 174d 7e3f
00000130: 5d1f 4c3f 67d4 283d 7c41 c4bd 19e0 473f
00000140: b6ef a1bd 0acd 2dbf 270b 123f 586b ca3d
00000150: 7f7d 043f d33b e33d 062c b43e 9575 743f
00000160: 0497 95be 39c1 6a3b 8ff9 303f 5d8c 993c
00000170: 2de0 fb3e 3087 2dbf 7289 37bf d331 52bf
00000180: c595 81be 95c5 b73e 957d 0d3e 0f26 6fbf
00000190: b04c 54bf ab9f 8f3e 0516 d2bd 1420 53be
000001a0: 9495 1abf c915 163e c5fb 513e 8fab 3cbf
000001b0: 77e1 b63e f286 313d be99 f9be 2a6a b6be
000001c0: be00 6cbf 07cd a43e ae79 4b3e 6b2b 96be
000001d0: 5726 94be 2ced 253d b7fd 08c0 3ea2 c03f
000001e0: 24e7 7c3e c4ae 3c3e 3728 2a3e 552c cf3e
000001f0: 5a5d 3e3e 9dad d83e 5eab 91bf 399e b63e
00000200: 4894 4b3e 13e7 603f e52f acbe 220f 9a3f
00000210: e516 323f 265e 02bf 478d 26bf 2f31 243f
00000220: 7a17 8cbf 06c6 3f3f ed5d 243f 3e0e debd
00000230: d343 023e d742 26be 0029 68bf 41fd 10bf
00000240: b8d5 6abf ed72 943f 71ef 1f3f 74a4 0cbf
00000250: 301c 10be 6233 47bf 6d2f 673f 326f b73e
00000260: bfc9 bdbe 419f b0bd cff7 153f 4ec1 f83d
00000270: fe40 103f a95b 613f 7fd0 80be 5c8d 43bf
00000280: 408d 32bf 81df 66be 83fb 363f b9f6 51bf
00000290: d4c9 513f ba15 31bc eadd a4bf a68b a43e
000002a0: b259 3f3f 22ee 443e 8ad0 14bf 518c 65bf
000002b0: deae f83e ae04 ac3f c2c6 8f3e 601f 653f
000002c0: d28b f8bc cda4 2e3f fc0a 56bf d57c 343d
000002d0: bb58 413f 773d 1f3f 88f5 863f a013 0cbe
000002e0: 2dfd 3bbd 5ca1 b5be 30e1 3a3f c905 203f
000002f0: 966d 173f b273 dd3e 1ad1 65bf 4767 2dbf
0.13588327 0.35245925 0.46012747 0.66053975 0.26747355 0.21846561 0.031250197 0.6733354
0.34981072 -0.09599188 0.114818595 0.169106 -0.38292205 0.0059318617 0.32492337 0.01219426
0.35356355 0.6842741 0.1611451 0.11592514 0.060836263 0.24578492 0.5528667 -0.7998601
-0.68152374 -0.0356059 0.16161141 0.07827421 0.117256716 0.77265644 -0.87611955 0.35516945
-0.18123043 -0.37173194 0.08197763 0.54243237 0.189844 0.05825855 0.16936599 0.49204916
0.38447434 -0.62812924 0.5586007 -0.4441214 0.42399943 0.47359607 -0.4930247 0.6323943
-1.6093172 0.26844853 0.5563021 -1.0229096 0.1449859 0.121481955 1.0447525 -1.5235966
0.15002052 -0.95452017 -0.09504163 0.18393317 0.15995748 0.03375453 0.0152769005 0.1843668
1.0065085 -0.89288396 -0.07185655 0.28864005 0.292752 0.16670811 0.32614118 0.16815461
-0.1307033 -0.8020052 0.4803749 0.9933638 0.79735357 0.041218188 -0.09582803 0.7807632
-0.07907049 -0.6789099 0.5704827 0.098837554 0.5175399 0.11095395 0.35189837 0.95491916
-0.29216778 0.0035820736 0.69130796 0.018743688 0.4919447 -0.67784405 -0.716941 -0.82107276
-0.25309578 0.3589293 0.13817437 -0.9341745 -0.82929516 0.28051504 -0.10258106 -0.20617706
-0.6038449 0.14656748 0.20506199 -0.7369928 0.3571889 0.043341585 -0.48750108 -0.35627872
-0.9218863 0.32187673 0.19870636 -0.2933 -0.289355 0.040509388 -2.1404855 1.5049512
0.24697548 0.18426043 0.16616903 0.4046351 0.18590298 0.42319956 -1.1380422 0.3566759
0.19880784 0.8785259 -0.3363029 1.2035868 0.69566184 -0.5092491 -0.6505932 0.6413755
-1.0944664 0.74911535 0.6420582 -0.1084256 0.12721185 -0.16236435 -0.9068756 -0.56636435
-0.9173236 1.1597573 0.62474734 -0.54938436 -0.14073253 -0.7781278 0.9030674 0.35827023
-0.37067983 -0.08624125 0.5858125 0.12146245 0.5634917 0.8803049 -0.2515907 -0.7638757
-0.6974678 -0.22546197 0.71477526 -0.82017094 0.8194859 -0.010808403 -1.2880223 0.32137793
0.7474624 0.19231465 -0.58130705 -0.8966723 0.48570913 1.3438928 0.28081328 0.89501
-0.030340109 0.68220216 -0.8361051 0.04406436 0.75526017 0.6220316 1.054368 -0.13679361
-0.045895744 -0.3547467 0.7299986 0.6250883 0.5915159 0.4325233 -0.8977219 -0.67735714

fc.weight f4 [1, 64]
00000000: d718 fcc1 30e5 1342 3e7b 13c2 c3a3 1342
00000010: 47dc 1342 91e6 13c2 19cc 13c2 73bb 1342
00000020: 66c9 13c2 db6b 1342 69c2 1342 21c6 02c2
00000030: 6291 d641 aad9 c541 c883 13c2 e1d7 13c2
00000040: 88c0 13c2 f5f3 1342 6e7e 1342 a8bd 13c2
00000050: 679b 13c2 eceb bb41 f3bf 1342 ee42 13c2
00000060: 7ba1 ec41 6311 b0c1 c6be 1342 9e9d 1342
00000070: a4cd 1342 a9d0 1342 3651 04c2 698e 13c2
00000080: bac0 13c2 578d 13c2 fdb7 1342 23eb 13c2
00000090: 39a2 1342 c8bc 13c2 68f1 13c2 fde4 1342
000000a0: 83f1 1342 25f5 1342 3cad 13c2 c9af 13c2
000000b0: 7790 1342 62c4 1342 0e69 1342 bde7 1342
000000c0: be46 28c2 7bee 1342 3773 13c2 4665 1342
000000d0: 8ec8 1342 00fa 1342 a242 abc1 bedf 1042
000000e0: 5858 13c2 61b5 1342 c0c7 1342 fb88 1342
000000f0: 15c2 1342 2de1 1342 d7e2 13c2 10bb 13c2
-31.512129 36.973816 -36.870354 36.909924 36.965115 -36.975163 -36.949314 36.933056
-36.94668 36.855328 36.939854 -32.693485 26.820988 24.731281 -36.878693 -36.96082
-36.93802 36.98824 36.873466 -36.93521 -36.90176 23.490196 36.93745 -36.81536
29.578848 -22.00849 36.936302 36.903923 36.95082 36.95377 -33.079308 -36.889072
-36.93821 -36.888027 36.929676 -36.979626 36.90842 -36.934357 -36.98575 36.97362
36.98585 36.9894 -36.919174 -36.921665 36.89108 36.94178 36.852592 36.976307
-42.069084 36.98289 -36.862514 36.8489 36.945854 36.99414 -21.407536 36.2185
-36.836273 36.927128 36.94507 36.88377 36.939533 36.9699 -36.971523 -36.93268
