best_gru_model_TCS.pth (torch, 67653 bytes, 5 tensors)

gru.weight_ih_l0 f4 [192, 19]
0	0xbf000991	-0.500146
1	0xbea47d03	-0.32126626
2	0x3d0c67b4	0.034278587
3	0xbbd13700	-0.0063847303
4	0x3d5ab858	0.05339846
5	0x3cf3c958	0.029759094
6	0xbc6b62e0	-0.014366835
7	0xbe720b6f	-0.23637174
8	0xbe57b23f	-0.21064089
9	0xbeae7040	-0.34070015
10	0xbf00dc5b	-0.50336236
11	0xbf148b80	-0.5802536
12	0xbf214ca4	-0.6300757
13	0xbf03565b	-0.51303643
14	0xbf234731	-0.63780504
15	0xbf075ef3	-0.52879256
16	0xbef40b6c	-0.47664964
17	0xbe82fe0d	-0.2558445
18	0xbe86cb81	-0.26327136
19	0x3e83fe60	0.2578001
20	0x3d0d7334	0.034533694
21	0xbc0b18c0	-0.008489788
22	0xbc224db0	-0.009906217
23	0x3db5954e	0.08866368
24	0xbc42b3d0	-0.011883691
25	0x3d06d198	0.032914728
26	0x3e3245eb	0.17409484
27	0x3d66224e	0.05618506
28	0x3da11991	0.078662045
29	0x3da2b0e4	0.079438955
30	0x3cf19759	0.029491113
31	0x3d888ae6	0.06667118
32	0x3e302d16	0.17204699
33	0x3e6d34e8	0.23164713
34	0x3e1b352c	0.15157002
35	0x3da6ed9d	0.0815079
36	0x3e41bb03	0.18918996
37	0x3dcbb6c7	0.099469714
38	0x3e002dab	0.12517421
39	0xbe1a8a99	-0.15091933
40	0xbd20c4f0	-0.039250314
41	0xbded35a4	-0.11582497
42	0x3d5a7718	0.053336233
43	0x3d47157c	0.048604473
44	0x3ccb6698	0.024829194
45	0x3ebb1739	0.36541155
46	0x3d0f6789	0.03501085
47	0x3b97873e	0.0046242764
48	0x3e2ef892	0.1708701
49	0x3e0e623b	0.1390466
50	0x3e5c2f39	0.21502389
51	0x3e6b9c7d	0.23008914
52	0x3e8a956c	0.27067125
53	0x3e531e60	0.20617056
54	0x3daa7f75	0.08325092
55	0x3c09d8ed	0.008413536
56	0xbdcb330a	-0.09921844
57	0xbe879fe7	-0.26489183
58	0xbe074c55	-0.13212712
59	0x3deceffe	0.115692124
60	0x3d81d75c	0.06339905
61	0xbddacaf0	-0.106832385
62	0x3d15c6c8	0.036566526
63	0x3df5fbda	0.120109275
64	0x3e0c2f43	0.13689904
65	0xbd9684c6	-0.07349543
66	0xbd403a65	-0.04693069
67	0xbedfbe6a	-0.43699962
68	0xbee008d3	-0.43756732
69	0xbea5d3e2	-0.32388216
70	0xbf0833ac	-0.53203845
71	0xbea2e2d8	-0.31813693
72	0xbeea40e1	-0.45752624
73	0xbea22fdd	-0.31677142
74	0xbd6f1c61	-0.058376674
75	0xbd9ca758	-0.07649106
76	0x3d4f89ad	0.050668407
77	0x3ed093cf	0.4073777
78	0xbcdbf490	-0.026850015
79	0xbda1d208	-0.079013884
80	0x3dd9a3b4	0.10626927
81	0xbc7b6420	-0.015343696
82	0xbdfee75a	-0.124464706
83	0x3ebf30dd	0.37341967
84	0x3ddeac74	0.108727366
85	0x3e5d474d	0.2160923
86	0xbb928dbf	-0.004472464
87	0x3dd62661	0.10456539
88	0xbd35f0b6	-0.044419013
89	0xbd26d71d	-0.04073249
90	0x3c904fc3	0.017616158
91	0x3cf5c0fb	0.029999247
92	0x3dcfcb2c	0.10146174
93	0xbefa3ac7	-0.4887297
94	0x3ea66c76	0.32504624
95	0xbe251c2e	-0.16124031
96	0xbe0c70bf	-0.13714884
97	0xbd9f9036	-0.07791178
98	0xbdaf1974	-0.08549777
99	0xbd248ea8	-0.04017511
100	0xbd3b18e8	-0.04567805
101	0xbca4ff68	-0.020141318
102	0xbde5b3f0	-0.11215961
103	0xbd8b572b	-0.06803735
104	0x3c493e0b	0.012282859
105	0xbe213d85	-0.15746124
106	0xbe33bb53	-0.17551927
107	0xbe143427	-0.1447302
108	0xbec9799f	-0.39350602
109	0xbe75fb5e	-0.2402167
110	0xbe09f421	-0.13472034
111	0xbe9eef95	-0.31042162
112	0xbe46ae28	-0.19402373
113	0xbd90980f	-0.07060253
114	0x3cd6a065	0.026199529
115	0x3f2c2bd2	0.67254364
116	0xbc975130	-0.01847133
117	0x3de416ae	0.11137138
118	0xbc00c6a0	-0.007859856
119	0x3d8ad256	0.067784
120	0x3dbb7668	0.091534436
121	0x3f20d7df	0.62829393
122	0x3f2dd34c	0.6790054
123	0x3f27c2da	0.65531695
124	0x3e35cc02	0.17753604
125	0xbd10ff1b	-0.035399538
126	0x3c503a64	0.012709234
127	0x3dee7ab1	0.11644495
128	0xbdbcd111	-0.09219564
129	0xbd5f39b2	-0.054498382
130	0x3cf47a5b	0.0298435
131	0x3f3df02a	0.74194586
132	0x3f185d72	0.59517586
133	0xba5e9ab1	-0.0008491679
134	0x3e3f637d	0.18690296
135	0x3d817da0	0.06322789
136	0x3d3fc6a0	0.046820283
137	0xbddb5574	-0.10709658
138	0x3df94594	0.12171474
139	0xbc1a85b0	-0.009431288
140	0x3d0ce660	0.03439939
141	0x3dc29f88	0.095030844
142	0x3e56ae6f	0.20964979
143	0x3e343b47	0.17600738
144	0x3de97e74	0.11401072
145	0x3e563c66	0.20921478
146	0xba4df80d	-0.0007857092
147	0x3e54905e	0.20758197
148	0x3e7c0c6d	0.24614115
149	0x3d0a054b	0.033696454
150	0x3df7cb69	0.12099344
151	0x3dd3e33c	0.10346076
152	0x3dbc2fa1	0.09188772
153	0x3f660721	0.8985463
154	0xbd2b953c	-0.041890368
155	0xbddaa938	-0.10676807
156	0xbdba8a0c	-0.091083616
157	0x3b32bfc0	0.0027274936
158	0x3ded5436	0.115883276
159	0x3f627671	0.8846198
160	0x3f179954	0.59218335
161	0x3f5cebcb	0.8629729
162	0x3e83f291	0.25771
163	0x3cded8ab	0.027202925
164	0x3ddd7ce2	0.10814835
165	0x3e383fa0	0.17993021
166	0xbcc69027	-0.02423866
167	0x3e3d0e52	0.18462494
168	0x3e0c6a8b	0.13712518
169	0x3f6feea0	0.9372349
170	0x3f7e3508	0.9929967
171	0xbe097146	-0.13422117
172	0x3e8d79ec	0.27632082
173	0xbcbe4838	-0.023227796
174	0xbde6395c	-0.11241409
175	0xba8c3f80	-0.0010700077
176	0xbddea662	-0.10871579
177	0x3bf09b60	0.007342741
178	0x3e0e055d	0.13869233
179	0x3d0adf5e	0.033904426
180	0xbc1c52bf	-0.009541213
181	0xbe297690	-0.16549134
182	0xbe03d7d1	-0.12875296
183	0xbe0e6725	-0.13906534
184	0xbe9d49c4	-0.3072034
185	0xbe83a204	-0.25709546
186	0xbe47b5e4	-0.1950298
187	0xbdfd02c2	-0.12354042
188	0xb7e5eed8	-2.7410148e-05
189	0x3de0d457	0.109780006
190	0x3d1a4322	0.03766168
191	0xbde3f1bf	-0.11130094
192	0x3da5a640	0.0808835
193	0x3d375ddc	0.044767246
194	0xbd24a3c0	-0.040195227
195	0xbd75a9ac	-0.059976265
196	0x3d118eac	0.035536453
197	0xbd7b259f	-0.061315175
198	0x3cf80294	0.030274667
199	0x3daa5f03	0.08318903
200	0xbdc3615d	-0.09540055
201	0xbda5ed26	-0.08101873
202	0xbd8276ef	-0.06370341
203	0xbdddc4dc	-0.108285636
204	0xbc8835a1	-0.016627135
205	0x3d984908	0.074358046
206	0x3d24f54c	0.040272996
207	0xbd7f8da8	-0.062390953
208	0xbc904b71	-0.017614098
209	0xbfc8c126	-1.5683944
210	0x3db0c38e	0.08631049
211	0xbd0bbea0	-0.03411734
212	0x3c0d56f0	0.008626685
213	0xbd81d2ea	-0.06339057
214	0xbdbfc9fe	-0.09364699
215	0x3d158eac	0.036513016
216	0x3e2ecb22	0.17069677
217	0x3f0f6564	0.56014085
218	0xbe81bf85	-0.2534143
219	0xbfb5f23c	-1.4214549
220	0xbfcb977c	-1.5905604
221	0xbfdef8b6	-1.741965
222	0xbfc7d8ec	-1.5613074
223	0xbfd5b70e	-1.6696489
224	0xbfc8778c	-1.5661483
225	0xbfc427ea	-1.5324681
226	0x3e94b957	0.29047653
227	0x3e84c9ad	0.25935116
228	0xbf81fd09	-1.0155345
229	0x3fcbd774	1.5925126
230	0x3ba37a00	0.004988909
231	0x3cd20950	0.025639206
232	0x3d0758c0	0.033043623
233	0xbbe7bb80	-0.0070719123
234	0xbd85fbd4	-0.06542173
235	0xbf96816f	-1.175825
236	0xbed98a21	-0.42488196
237	0x3f0971fa	0.5368954
238	0xbf79c4e8	-0.9756608
239	0xbfa01f6c	-1.2509589
240	0xbfac367a	-1.3454125
241	0xbf9e6a4e	-1.2376192
242	0xbfc178dd	-1.511501
243	0xbf91cdd2	-1.1390936
244	0xbf875f1e	-1.0575902
245	0x3f6d5bb1	0.92718035
246	0x3f7d7f90	0.9902277
247	0xbdf5715d	-0.11984513
248	0xbded0852	-0.115738526
249	0xbda0c80a	-0.078506544
250	0xbdae814c	-0.08520755
251	0xbc013dc0	-0.0078882575
252	0x3cfdf940	0.03100264
253	0xbdefcd34	-0.11709061
254	0x3c80c4b4	0.015718795
255	0xbd17827a	-0.036989667

gru.weight_hh_l0 f4 [192, 64]
0	0xbba16efe	-0.0049265614
1	0x3cd8da04	0.026471145
2	0x3f22746c	0.63458896
3	0xbd7e1880	-0.062035084
4	0xbe01d7ad	-0.1267993
5	0x3da51162	0.08059956
6	0x3f1a1981	0.60195166
7	0x3d421ad7	0.047388878
8	0xbf2f39ba	-0.6844746
9	0xbdccb318	-0.09995097
10	0xbdf7c0a8	-0.12097293
11	0x3ee48483	0.44632348
12	0x3f276d3c	0.65401053
13	0xbf46e7fa	-0.7769772
14	0x3f0d28b8	0.55140257
15	0xbf3c8705	-0.73643523
16	0x3d873367	0.06601601
17	0x3f0afe72	0.542945
18	0x3b6f877c	0.003654926
19	0xbe07da6b	-0.13266914
20	0x3f2e27eb	0.6802966
21	0xbf066f92	-0.5251399
22	0xbf334106	-0.7002109
23	0x3cedbbcf	0.029020218
24	0x3f3bd1eb	0.73367184
25	0x3f1df78c	0.6170585
26	0x3cf8589d	0.030315692
27	0x3f0ebad8	0.5575385
28	0x3f2c9f20	0.67430305
29	0xbf1e9cc4	-0.61957955
30	0xbf133aeb	-0.57511777
31	0xbd934ed3	-0.07192769
32	0x3e0bab5e	0.1363959
33	0xbf24a93e	-0.64320743
34	0x3f157b11	0.5839091
35	0xbf236f51	-0.6384173
36	0xbefd3d5b	-0.49460873
37	0x3e0fbd64	0.1403709
38	0x3ed84451	0.4223962
39	0xbc693020	-0.014232665
40	0x3dee1263	0.11624601
41	0xbe088247	-0.13330947
42	0xbd3ad91d	-0.04561721
43	0xbf4f3b44	-0.8094981
44	0x3d2ea921	0.042641763
45	0xbd6b4ce4	-0.057446375
46	0xbf1c5678	-0.6106944
47	0xbf0cfb25	-0.55070716
48	0xbf0a58bc	-0.5404165
49	0x3f107820	0.56433296
50	0xbd9a14e0	-0.07523513
51	0xbf550c6d	-0.83222085
52	0xbf097614	-0.536958
53	0x3e2e2766	0.17007217
54	0x3f017630	0.50570965
55	0x3d91b6b9	0.0711493
56	0xbdedcbf4	-0.116111666
57	0xbf1c6e75	-0.61106044
58	0xbde0dd74	-0.10979739
59	0x3f3a5bbc	0.72796226
60	0xbd6dcc77	-0.05805632
61	0x3e8fdd7d	0.2809867
62	0x3d728775	0.059211213
63	0xbd94a5a9	-0.0725816
64	0x3d1baca9	0.03800646
65	0x3d008a52	0.031381913
66	0x3f417843	0.7557413
67	0xbd81115a	-0.06302138
68	0x3d9f8aa8	0.077901185
69	0xbdbe108e	-0.09280501
70	0x3f48f501	0.78498846
71	0xbd520666	-0.051275633
72	0xbf1f9313	-0.6233379
73	0xbc123a15	-0.008924981
74	0xbdf7073d	-0.120619275
75	0x3f5db75a	0.866079
76	0x3f49d43f	0.78839487
77	0xbf2541e8	-0.6455369
78	0x3f243f9f	0.6415958
79	0xbf47789f	-0.7791843
80	0x3de04b73	0.10951891
81	0x3f1c29a9	0.6100107
82	0xbe0f6f21	-0.14007236
83	0x3d3e6dd9	0.046491478
84	0x3f411138	0.754169
85	0xbf2005b5	-0.6250871
86	0xbf5226ec	-0.8209064
87	0xbe1f8513	-0.15578108
88	0x3f227e58	0.63474035
89	0x3f518177	0.8183817
90	0xbdc7c6fc	-0.0975475
91	0x3f4d728c	0.8025291
92	0x3f481bfe	0.7816771
93	0xbf48f125	-0.7849296
94	0xbf2f119c	-0.68386245
95	0x3cfc3fd7	0.03079216
96	0xbcab3c9a	-0.02090292
97	0xbf3784af	-0.71686834
98	0x3f5fb3da	0.87383807
99	0xbf18815d	-0.5957239
100	0xbf3d134c	-0.7385757
101	0x3d4b9fb9	0.04971287
102	0x3f4413c1	0.7659264
103	0xbc44bdb7	-0.012008122
104	0x3e478541	0.19484426
105	0x3d8614e9	0.06546957
106	0xbd65ff2f	-0.056151565
107	0xbf23f693	-0.6404812
108	0x3e3c969f	0.18416832
109	0x3e66838c	0.22511119
110	0xbf2737e7	-0.65319675
111	0xbf1e38e5	-0.61805564
112	0xbf53a53d	-0.8267401
113	0x3f2c42c6	0.6728939
114	0xbcd4ee65	-0.025992582
115	0xbf2efa78	-0.68350935
116	0xbf298805	-0.66223174
117	0x3e4be05d	0.19909807
118	0x3f554348	0.8330579
119	0x3e6327b2	0.22183111
120	0x3d5170f3	0.051133107
121	0xbf5b925c	-0.857702
122	0x3dd4f7c8	0.10398823
123	0x3f593301	0.8484345
124	0xbe4a5982	-0.19760707
125	0xbbe47d51	-0.0069729467
126	0xbd1d639f	-0.038425084
127	0x3af3f205	0.0018611556
128	0x3e593a5c	0.21213669
129	0x3e6b7d00	0.22996902
130	0x3e62d60c	0.22151965
131	0xbdd92f0c	-0.106046766
132	0x3e8de134	0.2771088
133	0xbe600fdd	-0.21881051
134	0x3f40a611	0.752534
135	0xbdfb4f11	-0.1227094
136	0xbf439624	-0.7640097
137	0xbe14d9a2	-0.14536145
138	0xbe4aacbd	-0.19792457
139	0x3f5a58a6	0.85291517
140	0x3f44a257	0.7681021
141	0xbe946484	-0.28982937
142	0x3e2e1d12	0.17003277
143	0xbf424d4b	-0.7589919
144	0x3d1eba5c	0.038751945
145	0x3f43a34a	0.76421034
146	0xbe84b624	-0.25920212
147	0x3e3ecffb	0.18634026
148	0x3e239da7	0.15978108
149	0xbf79cda5	-0.97579414
150	0xbf532970	-0.82485104
151	0xbe7e7da4	-0.24852616
152	0x3e008a99	0.12552871
153	0x3f66cfee	0.90161026
154	0xbea5aa96	-0.3235671
155	0x3f5bc08c	0.8584068
156	0x3f5740be	0.84083164
157	0xbf3e2ed0	-0.7429018
158	0xbf44c7e1	-0.7686749
159	0x3dda241f	0.10651421
160	0x3e29a073	0.16565113
161	0xbf662857	-0.89905304
162	0x3f588119	0.8457199
163	0xbf7405ff	-0.9532165
164	0xbd8302be	-0.063970074
165	0x3e7d0fae	0.24713013
166	0x3f4a7c0c	0.7909553
167	0x3e3c86e0	0.18410826
168	0x3e159b5e	0.14610049
169	0x3e2c5f37	0.16833197
170	0xbe813db0	-0.25242376
171	0xbf77722e	-0.966586
172	0x3ebd9e3b	0.37034783
173	0x3d9c5392	0.07633127
174	0xbf377c4c	-0.71674037
175	0xbf7b4c66	-0.9816345
176	0xbf55a9a5	-0.8346198
177	0x3e998497	0.2998397
178	0xbeb57d60	-0.35447216
179	0xbe70fd68	-0.23534167
180	0xbf312a6e	-0.6920537
181	0xbea0939c	-0.31362617
182	0x3d833e1f	0.06408333
183	0x3e069457	0.13142525
184	0x3e012b38	0.12614143
185	0xbf664d05	-0.8996127
186	0x3d1b3cbe	0.037899725
187	0x3f499e8f	0.78757566
188	0xbe81b53a	-0.25333577
189	0x3e9db0bb	0.30798897
190	0xbdd186fe	-0.10230826
191	0xbe0bd519	-0.13655509
192	0x3c88b803	0.016689306
193	0xbe0c9cf1	-0.13731743
194	0x3f547f4e	0.8300675
195	0x3e06df3d	0.13171096
196	0x3d9e6e02	0.07735826
197	0xbded004d	-0.11572323
198	0x3f477a62	0.77921116
199	0xbda7664e	-0.0817381
200	0xbf430cd7	-0.7619147
201	0x3d1da23b	0.038484793
202	0xbe5076ba	-0.2035779
203	0x3f169978	0.58827925
204	0x3f286540	0.65779495
205	0xbf4d4b9e	-0.8019351
206	0x3f380943	0.7188913
207	0xbf2f3226	-0.68435895
208	0x3d26a5ea	0.04068557
209	0x3f53b470	0.826972
210	0x3e195b98	0.14976346
211	0x3df09406	0.11746983
212	0x3f2be4a0	0.6714573
213	0xbf24179d	-0.6409853
214	0xbf1a2016	-0.6020521
215	0x3d931764	0.07182196
216	0x3f2fefb9	0.6872516
217	0x3f416eaa	0.75559485
218	0x3d84b407	0.0647965
219	0x3f038b18	0.51384115
220	0x3f39df74	0.7260659
221	0xbf18ffd1	-0.59765345
222	0xbf23a0cd	-0.6391724
223	0x3d6f987a	0.058495022
224	0x3e27c97f	0.16385458
225	0xbf3fd677	-0.7493662
226	0x3f1789b8	0.5919452
227	0xbf40188a	-0.75037444
228	0xbeecb5cf	-0.4623246
229	0x3c90a2f2	0.017655823
230	0x3f30f506	0.69123876
231	0x3c004cab	0.007830779
232	0x3d5d4496	0.054020487
233	0x3e065e4b	0.13121907
234	0x3b9c78c4	0.0047751386
235	0xbf2dbce0	-0.67866325
236	0xbdfd1a98	-0.12358588
237	0xbe18dc8a	-0.14927879
238	0xbf0243c9	-0.5088468
239	0xbf4eb31e	-0.8074206
240	0xbf10f0ad	-0.5661724
241	0x3f373080	0.7155838
242	0xbd84b4f0	-0.064798236
243	0xbf21f832	-0.6326934
244	0xbf37449c	-0.71589065
245	0x3e6400de	0.22265956
246	0x3f0998ef	0.53748983
247	0xbcb0edae	-0.02159771
248	0x3db69ea3	0.08916976
249	0xbf0bd6e7	-0.5462479
250	0xbdab83f5	-0.08374778
251	0x3f169ae1	0.58830076
252	0x3df57831	0.11985815
253	0x3dea0c5e	0.1142814
254	0x3d9f50a9	0.077790566
255	0x3d2e9372	0.042621084

gru.bias_ih_l0 f4 [192]
0	0xbe1b5921	-0.15170719
1	0x3dca13a2	0.09867026
2	0xbdbf8160	-0.09350848
3	0xbda14466	-0.07874374
4	0x3e9d571e	0.30730528
5	0xbe158505	-0.14601524
6	0x3f2453fc	0.6419065
7	0x3d32216f	0.043488916
8	0x3f9c5067	1.2212037
9	0x3e03f1b3	0.1288517
10	0xbd879529	-0.06620247
11	0x3f0b6a21	0.54458815
12	0x3f76b97f	0.96376795
13	0xbd276c67	-0.040874865
14	0x3d7c7f45	0.06164481
15	0x3f507ed6	0.81443536
16	0x3e3767fd	0.17910762
17	0xbd87e814	-0.06636062
18	0x3f23d602	0.63998425
19	0x3eb8bae7	0.36080095
20	0x3f0925ad	0.53573114
21	0x3f5cf24d	0.8630722
22	0x3f518175	0.8183816
23	0x3e9d8b36	0.30770272
24	0x3d9d2c63	0.07674482
25	0xbe08c0c6	-0.13354787
26	0xbe6d3d91	-0.23168017
27	0x3f4da682	0.80332196
28	0x3e95d652	0.29265076
29	0x3f233fbf	0.63769144
30	0x3df0aa5d	0.11751244
31	0xbc6aecee	-0.014338715
32	0x3d9e69b3	0.07735004
33	0x3e1befb4	0.15228158
34	0xbc50e1cd	-0.012749148
35	0xbdf9fc7c	-0.12206361
36	0xba63bbec	-0.00086873653
37	0xc0001041	-2.000992
38	0xbd888f3b	-0.06667944
39	0x3e66273d	0.22475906
40	0x3f16d1c3	0.5891382
41	0xbe7bcbd2	-0.2458947
42	0x3d18fa87	0.037348296
43	0x3c123ced	0.008925659
44	0xbd18c953	-0.037301373
45	0x3df0c5db	0.11756488
46	0x3e3eda1c	0.1863789
47	0x3fb2a08f	1.3955249
48	0x3e1d236c	0.15345544
49	0x3d7ae24f	0.06125098
50	0x3daccb79	0.08437247
51	0x3da69a53	0.08134904
52	0x3eecd393	0.46255168
53	0x3e109f77	0.14123331
54	0x3f97c641	1.1857377
55	0xbb41cd7f	-0.0029571948
56	0x3f2f1503	0.68391436
57	0x3f052b5d	0.5201929
58	0x3ec23dd8	0.37937808
59	0x3f4428e2	0.7662488
60	0x3d553377	0.052051034
61	0xbc55bb0c	-0.013045084
62	0x3e3d8d46	0.18510923
63	0x3d596836	0.0530779
64	0xbf1d2326	-0.6138176
65	0xbf3acc78	-0.72968245
66	0x3f595ce9	0.84907395
67	0xbf1c3a36	-0.6102632
68	0xbf82e698	-1.0226622
69	0xbec21e09	-0.3791354
70	0xbe81fe61	-0.25389388
71	0xbf144c47	-0.5792889
72	0xbe9b7c4f	-0.30368277
73	0xbf9e5e55	-1.2372538
74	0xbf4affc9	-0.7929655
75	0x3b58c805	0.0033078205
76	0x3edb4658	0.42827106
77	0x3f156972	0.5836402
78	0xbd92fa0e	-0.071766004
79	0xbe993349	-0.2992194
80	0xbf3f3d32	-0.7470275
81	0xbe0952e0	-0.1341052
82	0xbf0f2558	-0.5591636
83	0x402f0c17	2.735113
84	0x3edb2704	0.42803204
85	0xbd48424c	-0.04889135
86	0xbe2f1505	-0.17097862
87	0xbe9e3ce7	-0.3090584
88	0x3f20e26a	0.6284548
89	0xbdf34893	-0.11879077
90	0xbea91a5c	-0.33027923
91	0x3f45cb1c	0.77263045
92	0x3d942612	0.07233824
93	0xbf034d97	-0.5129027
94	0xbe19a987	-0.15006076
95	0xbf4197bd	-0.7562216
96	0xbe96252d	-0.29325238
97	0xbdce629e	-0.100774035
98	0x3cb163d9	0.021654056
99	0xbe9647c8	-0.2935164
100	0x3ec8f0c4	0.3924619
101	0x3fff49b5	1.9944369
102	0xbe9b2ed1	-0.30309156
103	0xbf458b2c	-0.77165484
104	0xbec9764e	-0.39348072
105	0xbee79e54	-0.45237982
106	0xbf1d791b	-0.6151292
107	0xbe7364ce	-0.23768923
108	0xbf1330fe	-0.5749663
109	0xbf443d2b	-0.76655835
110	0xbe95672d	-0.2918028
111	0x3dd1c4f0	0.10242641
112	0xbf0aab85	-0.5416797
113	0xbee7a911	-0.45246175
114	0xbf48f08b	-0.7849204
115	0x3dcc65d3	0.09980359
116	0xbea3b329	-0.31972626
117	0xbf1ebcaa	-0.6200663
118	0xbed7f974	-0.42182505
119	0xbf3407fe	-0.70324695
120	0x40e2585f	7.0732875
121	0x3f430c40	0.76190567
122	0xbf4e23f8	-0.80523634
123	0xbe20580a	-0.15658584
124	0xbf4c892d	-0.79896814
125	0x3e516747	0.20449553
126	0xbf3d28e8	-0.73890543
127	0xbf32453c	-0.69636893
128	0x3f2fc952	0.68666565
129	0x3f5c3337	0.8601565
130	0x3f04a8f2	0.5182029
131	0xbf2af946	-0.6678661
132	0x3f61e69b	0.882425
133	0xbf45e944	-0.7730906
134	0x3f5d42cf	0.86430067
135	0xbf558bc8	-0.83416414
136	0xbf267bf3	-0.6503288
137	0xbf4759c5	-0.7787135
138	0xbf3e6357	-0.7437033
139	0x3f80deca	1.006799
140	0x3fa778cb	1.3083738
141	0xbf20052b	-0.62507886
142	0x3f8f0349	1.1172878
143	0xbf2de00b	-0.6791999
144	0x3f6e3e9e	0.93064296
145	0x3f409894	0.75232816
146	0xbf24feec	-0.6445148
147	0xbfcfcd49	-1.6234523
148	0x3f29a3a2	0.6626531
149	0xbfaf226a	-1.3682377
150	0xbefc681b	-0.49298176
151	0xbf1ed3a8	-0.6204171
152	0x3f072478	0.5279002
153	0x3f072e84	0.5280535
154	0xbf3104a6	-0.6914772
155	0x3f95fa19	1.1716949
156	0x3f2391bd	0.63894254
157	0xbf4cd64a	-0.8001448
158	0xbf19f220	-0.6013508
159	0x3f6b7f79	0.9199138
160	0x3f1e8570	0.6192236
161	0xbf336091	-0.70069224
162	0x3f4cf707	0.80064434
163	0xbf1fe856	-0.6246389
164	0xbf303f50	-0.6884661
165	0xbfd81c09	-1.6883556
166	0x3f155895	0.5833829
167	0x3f709dd1	0.9399081
168	0x3f0ceebe	0.5505179
169	0x3f257c74	0.64643025
170	0xbf57d24c	-0.8430526
171	0xbf421634	-0.7581513
172	0x3f19d418	0.60089254
173	0x3f4c4e21	0.79806715
174	0xbf3067fb	-0.6890866
175	0xbf21c762	-0.6319486
176	0xbf459cc8	-0.77192354
177	0x3f0f765f	0.56039995
178	0xbf33e829	-0.70276123
179	0xbf49e242	-0.7886087
180	0xbf1f8a90	-0.62320805
181	0xbf269d78	-0.6508403
182	0x3e984d59	0.29746512
183	0x3f56d09a	0.8391205
184	0xc0223b40	-2.5348663
185	0xbfa443eb	-1.2833227
186	0x3f710f0f	0.941636
187	0x3f380e37	0.7189669
188	0xbf50f2a6	-0.8162025
189	0x3f22a884	0.63538384
190	0xbf45ab13	-0.77214164
191	0xbf39cc7c	-0.72577643

gru.bias_hh_l0 f4 [192]
0	0xbe6cb0da	-0.23114339
1	0x3e81c73f	0.25347325
2	0xbcf66396	-0.030076783
3	0xbe1309f5	-0.14359267
4	0x3e7ff061	0.24994041
5	0x3c99ff41	0.018798472
6	0x3f20d71d	0.62828237
7	0x3da7ee3e	0.08199738
8	0x3fa10002	1.2578127
9	0x3e43d850	0.19125485
10	0x3dcd67b5	0.10029546
11	0x3eb1ba06	0.34712237
12	0x3f904622	1.1271403
13	0xbe0b0656	-0.13576636
14	0x3cbbdf2b	0.022933563
15	0x3f2da60e	0.67831504
16	0x3e4727da	0.19448796
17	0x3d6aa8b9	0.057289813
18	0x3f20e041	0.62842184
19	0x3ec8ad4a	0.3919471
20	0x3ee92ac0	0.45540428
21	0x3f2a7711	0.6658793
22	0x3f563d77	0.8368754
23	0x3e9e6d78	0.30942893
24	0xbd6ce28e	-0.057833247
25	0x3dad8de2	0.084743276
26	0xbe79b8bf	-0.24386881
27	0x3f6b51aa	0.91921484
28	0x3ec0cfa9	0.37658432
29	0x3f1f2957	0.62172455
30	0x3e34a1da	0.17639866
31	0x3e3e99ec	0.18613404
32	0x3b96085e	0.004578634
33	0x3c4e1548	0.012578316
34	0xbd42fddd	-0.047605384
35	0xbcf77f3e	-0.030212041
36	0x3dc1516b	0.09439357
37	0xc0083d8f	-2.1287572
38	0x3d03f107	0.032212283
39	0x3e2a08a5	0.1660486
40	0x3f033e97	0.5126738
41	0xbcf105b8	-0.029421672
42	0x3e362324	0.17786843
43	0x3d1328d4	0.03592761
44	0xbdb8d703	-0.09025385
45	0x3e39e5ac	0.18154019
46	0x3e9dde08	0.3083346
47	0x3fc9872f	1.574438
48	0x3e2268ca	0.15860286
49	0x3e116d60	0.1420188
50	0x3d698b76	0.057017766
51	0x3d6ce79e	0.057838075
52	0x3ebbd7a9	0.36687973
53	0x3c7905d5	0.015199144
54	0x3f9066cc	1.1281371
55	0x3c98b281	0.018639805
56	0x3f535d06	0.8256382
57	0x3f0d0db6	0.55099046
58	0x3e7e0cfa	0.24809638
59	0x3f1b7591	0.6072627
60	0x3df4065c	0.119152755
61	0x3d7b0dd2	0.061292477
62	0x3daeb478	0.085305154
63	0x3d899362	0.06717564
64	0xbf01d031	-0.507083
65	0xbf3fee75	-0.7497323
66	0x3f6f62bc	0.9351003
67	0xbf33d8fd	-0.7025297
68	0xbf937ac4	-1.152184
69	0xbed16f2d	-0.40905133
70	0xbeaa6a1b	-0.33284077
71	0xbf28b343	-0.6589853
72	0xbe8d93fd	-0.2765197
73	0xbfa1d4ab	-1.2643026
74	0xbf29362e	-0.66098297
75	0x3e0ef672	0.13961199
76	0x3eb96460	0.36209393
77	0x3f06cc6d	0.5265568
78	0xbe23f349	-0.16010775
79	0xbdc5013a	-0.096193746
80	0xbf275a51	-0.65372187
81	0xbdfb6351	-0.122748025
82	0xbf1b3b0f	-0.6063699
83	0x4024483f	2.5669096
84	0x3e54fad1	0.20798804
85	0xbd9fe16a	-0.07806666
86	0xbd61aa2e	-0.055093937
87	0xbe5f3d5d	-0.21800752
88	0x3ed8b8bc	0.4232844
89	0xbe932d83	-0.2874566
90	0xbebfcc59	-0.37460592
91	0x3f23f9e3	0.6405317
92	0x3d824c5a	0.06362219
93	0xbf0fbcec	-0.56147647
94	0xbd492827	-0.049110558
95	0xbf414c7c	-0.7550733
96	0xbebfa6f9	-0.37432078
97	0xbdb749ca	-0.08949621
98	0xbe0a288d	-0.13492031
99	0xbe830a32	-0.25593716
100	0x3ee0cc1d	0.43905726
101	0x3ffc158b	1.9694074
102	0xbe503b82	-0.203352
103	0xbf3772b6	-0.7165941
104	0xbef6e210	-0.48219347
105	0xbeb57f53	-0.35448703
106	0xbf1da8f6	-0.6158594
107	0xbdaee99c	-0.08540651
108	0xbf26f59d	-0.65218526
109	0xbf3a0efb	-0.7267911
110	0xbea6c08e	-0.32568783
111	0x3c855028	0.016273573
112	0xbf0a5e92	-0.5405055
113	0xbee22c7d	-0.44174567
114	0xbf2c0c93	-0.67206687
115	0x3eabb123	0.33533582
116	0xbe40842c	-0.1880042
117	0xbf3ca7c9	-0.7369352
118	0xbef069b8	-0.46955657
119	0xbf3682af	-0.7129316
120	0x40e3d6af	7.1199565
121	0x3f534a2c	0.8253505
122	0xbf5c71db	-0.8611123
123	0xbe7888ac	-0.24270886
124	0xbf4dc468	-0.8037782
125	0x3e2012b6	0.15632138
126	0xbf1ec6d8	-0.6202216
127	0xbf3b242e	-0.7310208
128	0x3f13e436	0.577701
129	0x3f5c4929	0.86049134
130	0x3ef4900d	0.47766152
131	0xbf176049	-0.59131294
132	0x3f4e5259	0.805944
133	0xbf39dd31	-0.72603136
134	0x3f67903c	0.9045446
135	0xbf4bb282	-0.79569256
136	0xbfd22e40	-1.6420364
137	0xbf3a0f72	-0.7267982
138	0xbf4aead9	-0.792646
139	0x3f8a8d6c	1.0824409
140	0x3fb491a7	1.410695
141	0xbf0cdfd8	-0.5502906
142	0x3f8fcac8	1.1233759
143	0xbf7d1467	-0.98859257
144	0x3f5a2bb7	0.85222954
145	0x3f70ae43	0.940159
146	0xbf27bef7	-0.65525764
147	0xc02334b3	-2.5500915
148	0x3fbe42fb	1.4864191
149	0xbf36a0a3	-0.7133886
150	0xbf962c8c	-1.1732345
151	0xbf493c03	-0.78607196
152	0x3f34e722	0.7066518
153	0x3efd8c1d	0.4952096
154	0xbf18d061	-0.5969296
155	0x3f98bab7	1.1931981
156	0x3f7d081e	0.9884051
157	0xbf646ddb	-0.89230126
158	0xbf379afd	-0.7172087
159	0x3f419efa	0.75633204
160	0x3f4a9f42	0.7914926
161	0xbf88f6c9	-1.0700313
162	0x3f5df60f	0.8670358
163	0xbf29b3cb	-0.6628997
164	0xbf7569ff	-0.9586486
165	0xbf2a7a33	-0.6659271
166	0x3f0765f2	0.5288993
167	0x3f82dfba	1.0224526
168	0x3f22fbfe	0.6366576
169	0x3f1d6531	0.6148253
170	0xbf3910a3	-0.7229101
171	0xbf0ba6e0	-0.54551506
172	0x3f3f7aac	0.7479656
173	0x3f523451	0.8211108
174	0xbeb06941	-0.34455302
175	0xbfe252fa	-1.7681572
176	0xbf6c61cd	-0.9233673
177	0x3f9f7a6a	1.2459233
178	0xbf02a16e	-0.5102757
179	0xbfa88572	-1.3165724
180	0xbf5a4d8f	-0.85274595
181	0xbf2a6472	-0.6655952
182	0xc0819eea	-4.0506487
183	0x3f5254f7	0.82160896
184	0xc03e4eb8	-2.9735546
185	0xbf3ac90f	-0.7296304
186	0x3f70eee7	0.94114536
187	0x3f4b5f5e	0.79442394
188	0xbf48a007	-0.7836918
189	0x3f1b4a2f	0.6066007
190	0xbf53746a	-0.8259951
191	0xbf331d4d	-0.69966584

fc.weight f4 [1, 64]
0	0x428401b1	66.0033
1	0x42841493	66.040184
2	0x42840ead	66.02866
3	0xc2840416	-66.00798
4	0x42840568	66.01056
5	0xc2840626	-66.01201
6	0x4283da3b	65.92623
7	0xc2841aee	-66.0526
8	0xc283f214	-65.97281
9	0xc2841ff7	-66.06243
10	0xc283fdfa	-65.99605
11	0x4283e0d6	65.93913
12	0x4283d870	65.92273
13	0xc2840143	-66.002464
14	0x4283ebb2	65.96034
15	0xc283fd3f	-65.99462
16	0x42841fe3	66.06228
17	0x4283fe09	65.99616
18	0xc283f04a	-65.969315
19	0x4285931a	66.78731
20	0x4283f518	65.9787
21	0xc283f724	-65.9827
22	0xc283db7e	-65.928696
23	0xc283e94b	-65.95565
24	0x4283ef17	65.96697
25	0x4283fd65	65.99491
26	0xc28408e3	-66.01736
27	0x4283d96c	65.92465
28	0x4283df60	65.93628
29	0xc283d609	-65.91804
30	0xc283cc1f	-65.898674
31	0x42840092	66.001114
32	0x4283fdaf	65.995476
33	0xc284062c	-66.012054
34	0x4283fba0	65.991455
35	0xc28400fb	-66.001915
36	0xc283e98b	-65.95614
37	0x42715253	60.330395
38	0x4284016a	66.00276
39	0x4283f0d1	65.970345
40	0x42840d05	66.02543
41	0x4283c687	65.88775
42	0xc283ef84	-65.967804
43	0xc2840b5f	-66.02221
44	0x4283ef69	65.9676
45	0x428417af	66.04626
46	0xc283dce4	-65.93143
47	0xc283ea42	-65.957535
48	0xc2840885	-66.01664
49	0x4283db43	65.928246
50	0xc2843819	-66.109566
51	0xc283dec7	-65.93511
52	0xc2841187	-66.03423
53	0xc284047d	-66.008766
54	0x4281ac76	64.83684
55	0x428406e5	66.013466
56	0x42ac5a96	86.176926
57	0xc283ef6e	-65.967636
58	0x4283f6dc	65.98215
59	0x4283e213	65.94155
60	0xc283fdb9	-65.99555
61	0x4284192c	66.049164
62	0xc2841202	-66.03517
63	0xc283f848	-65.984924
