best_gru_model_TCS.pth (torch, 67653 bytes, 5 tensors)

gru.weight_ih_l0 f4 [192, 19]
0.26686338 0.56592965 -0.033802584 -0.026882544 0.009763315 0.028499603 -0.058569476 0.22699393
0.45751584 0.40298793 0.4145084 0.38812152 0.2839532 0.28107685 0.26482525 0.21886578
0.36640224 0.2528389 0.24639982 -0.70665425 -0.078294784 0.07176049 0.10330652 -0.013304129
0.033390477 0.0057068914 -0.59317774 -0.7302737 -0.5625753 -0.56743836 -0.7776998 -0.7016489
-0.6266668 -0.7806708 -0.6823674 -0.5830321 -0.60907197 -0.72436446 -0.33391804 -0.75224066
-0.12399678 -0.12289381 0.107315645 0.060942605 -0.030620635 0.32151797 0.13849385 -0.4983789
-0.5058086 -0.36255965 -0.29015952 -0.4190907 -0.24613726 -0.3170911 -0.2646749 -0.28295502
-0.3531545 0.0433455 0.22646089 0.02020213 -0.01706411 0.0056679994 0.017317206 0.0132000595
0.18627757 0.21751821 0.057340473 0.12972593 0.041159835 0.24895492 0.07613654 0.06646142
0.020469349 0.12604122 0.21388645 0.06831611 -0.49990338 -0.09073895 -0.074512094 -0.00034239888
-0.109214574 0.03604746 -0.080081984 -0.41467234 -0.29791325 -0.56602156 -0.39990819 -0.4927737
-0.40596652 -0.5038979 -0.3112187 -0.31993642 -0.28573865 -0.40840828 -0.44894248 -0.5666888
-0.36353588 0.00010243058 0.049913496 0.0951761 -0.08341235 -0.06401713 -0.42611456 -0.3703099
-0.3943389 -0.490811 -0.512097 -0.49370095 -0.47307184 -0.42027763 -0.52853453 -0.513242
-0.46188894 -0.416472 0.039786793 0.23997848 -0.04587421 0.032851636 -0.122972175 0.06604609
-0.10519433 -0.09107345 0.19141544 0.1613201 0.07595427 0.2384867 0.08430508 0.1611593
0.16889718 0.042032115 0.2081212 0.042625085 0.022245217 0.09553517 0.44077152 -0.012089804
-0.09332375 -0.02421759 0.052378178 0.06919083 -0.0023754805 0.13394533 0.14481714 0.29848278
0.054575264 0.20033218 0.09897991 0.26018137 0.11988133 0.120404385 0.22228248 0.20239152
0.018682593 0.08300823 0.07075301 -0.03692615 0.029343724 -0.014800131 -0.073915735 0.021458158
0.13735984 0.029866755 0.17575197 0.010496799 0.10506804 -0.029417548 0.058169123 0.13138947
0.012424613 0.0026800851 0.06855232 0.28958473 0.7288837 0.11979593 0.0066773593 -0.04589486
-0.041721746 0.06388639 -0.37451127 0.22661339 0.10242751 0.37465003 0.32276806 0.2715301
0.21797217 0.3100137 0.20706224 0.20075738 0.24091138 0.19127718 -0.14516212 0.038425986
0.04123935 0.019320682 -0.059961304 0.017986134 0.093840644 -0.1478376 -0.112884626 -0.28466278
-0.2509339 -0.17140834 -0.21926375 -0.2728478 -0.20159024 -0.151859 -0.21448153 -0.15606226
-0.26990125 0.19271746 0.1624246 -0.012634024 0.09305538 0.07877576 0.018806383 -0.08054565
0.0011145017 0.015837982 0.10125532 0.18184038 -0.017187981 0.1702605 0.18249045 0.07756969
0.093974546 0.0013710603 0.08222197 -0.19252099 -0.2678638 -0.09185522 -0.014709547 0.09654535
0.03863655 -0.045898214 -0.038466677 -0.39719626 -0.27081883 -0.3372935 -0.13818708 -0.28286058
-0.25713187 -0.23740861 -0.18577974 -0.38851953 -0.2929359 -0.43100643 -0.31639612 -0.4445133
-0.34909377 0.0721712 -0.11404398 -0.024637312 0.053803563 -0.0263291 -0.5997195 -0.5690827
00000000: 51a2 883e c4e0 103f 9474 0abd c838 dcbc
00000010: 50f6 1f3c 0078 e93c 8ce6 6fbd 1971 683e
00000020: 843f ea3e 6f54 ce3e 723a d43e ddb7 c63e
00000030: 5062 913e 4ee9 8f3e 2d97 873e 5a1e 603e
00000040: 1399 bb3e 1a74 813e 3c50 7c3e 4be7 34bf
00000050: 0459 a0bd 2af7 923d 5e92 d33d 90f9 59bc
00000060: 74c4 083d e000 bb3b 7fda 17bf 38f3 3abf
00000070: ef04 10bf a443 11bf 5617 47bf 439f 33bf
00000080: 3c6d 20bf 0bda 47bf a1af 2ebf 9741 15bf
00000090: 24ec 1bbf f36f 39bf 4ef7 aabe d892 40bf
000000a0: 06f2 fdbd c0af fbbd 4ec8 db3d f49e 793d
000000b0: 20d8 fabc 019e a43e 55d1 0d3e 852b ffbe
000000c0: ac7c 01bf 6ba1 b9be ca8f 94be 0e93 d6be
000000d0: 680b 7cbe c459 a2be 7883 87be 7bdf 90be
000000e0: abd0 b4be 0d8b 313d 5de5 673e f07e a53c
000000f0: 08ca 8bbc a0ba b93b d0dc 8d3c 1045 583c
00000100: 8cbf 3e3e 18bd 5e3e d8dd 6a3d e0d6 043e
00000110: 3797 283d 0aee 7e3e 79ed 9b3d ed1c 883d
00000120: 56af a73c f310 013e 0d05 5b3e 51e9 8b3d
00000130: 56f3 ffbe 58d5 b9bd cc99 98bd 0084 b3b9
00000140: e4ab dfbd 80a6 133d 0602 a4bd ef4f d4be
00000150: 1688 98be cae6 10bf c4c0 ccbe d64c fcbe
00000160: d8da cfbe 74ff 00bf 0f58 9fbe b5ce a3be
00000170: 564c 92be e41a d1be cadb e5be 8412 11bf
00000180: 6021 babe 00d0 d638 1872 4c3d b0eb c23d
00000190: 18d4 aabd 6a1b 83bd b02b dabe 4299 bdbe
000001a0: cae6 c9be 944b fbbe ca18 03bf 5fc6 fcbe
000001b0: 7936 f2be a12e d7be 0a4e 07bf d463 03bf
000001c0: b57c ecbe d13b d5be 7af7 223d ebbc 753e
000001d0: 98e6 3bbd 708f 063d d6d8 fbbd 2c43 873d
000001e0: 2070 d7bd b884 babd 6902 443e 1931 253e
000001f0: ea8d 9b3d dc35 743e 24a8 ac3d f206 253e
00000200: 62f3 2c3e de29 2c3d b91d 553e a497 2e3d
00000210: 9a3b b63c f1a7 c33d ceac e13e 5014 46bc
00000220: 8620 bfbd f863 c6bc 808a 563d ecb3 8d3d
00000230: f3ad 1bbb f728 093e f24a 143e bcd2 983e
00000240: 508a 5f3d e123 4d3e fbb5 ca3d 7e36 853e
00000250: 5884 f53d 9396 f63d 059e 633e b93f 4f3e
00000260: 3d0c 993c 3800 aa3d f4e6 903d e03f 17bd
00000270: 4062 f03c 407c 72bc 2261 97bd 05c9 af3c
00000280: 0fa8 0c3e 20ab f43c 53f8 333e c4fa 2b3c
00000290: ea2d d73d 12fd f0bc bf42 6e3d f68a 063e
000002a0: 9b90 4b3c 5ea4 2f3b 2965 8c3d 7344 943e
000002b0: 1f98 3a3f 9257 f53d c0cd da3b 40fc 3bbd
000002c0: 6ce4 2abd ded6 823d f1bf bfbe 570d 683e
000002d0: 84c5 d13d 21d2 bf3e db41 a53e fe05 8b3e
000002e0: 1934 5f3e 1eba 9e3e 2008 543e 5893 4d3e
000002f0: 79b1 763e 2ade 433e 61a5 14be 9164 1d3d
00000300: 98ea 283d 6846 9e3c fc99 75bd a857 933c
00000310: 862f c03d bd62 17be 0e30 e7bd 52bf 91be
00000320: 687a 80be ab85 2fbe ad86 60be b5b2 8bbe
00000330: ac6d 4ebe ed80 1bbe 0ca1 5bbe c9ce 1fbe
00000340: 7f30 8abe ba57 453e a252 263e f0fe 4ebc
00000350: d293 be3d 3055 a13d d80f 9a3c 1ef5 a4bd
00000360: 7914 923a a8be 813c f35e cf3d 5d34 3a3e
00000370: cfcd 8cbc c558 2e3e c7de 3a3e dcdc 9e3d
00000380: ba75 c03d 26b5 b33a fe63 a83d 3924 45be
00000390: 7225 89be 971e bcbd 5000 71bc 92b9 c53d
000003a0: 5c41 1e3d c4ff 3bbd 3c8f 1dbd 4f5d cbbe
000003b0: c4a8 8abe bcb1 acbe ea80 0dbe 1ad3 90be
000003c0: caa6 83be 3e1b 73be 0b3d 3ebe 08ec c6be
000003d0: b2fb 95be e0ac dcbe acfe a1be 3f97 e3be
000003e0: 6bbc b2be 7ece 933d e48f e9bd 30d4 c9bc
000003f0: 2061 5c3d 20b0 d7bc 3887 19bf 67af 11bf

gru.weight_hh_l0 f4 [192, 64]
0.30434003 0.41183794 -0.12487336 -0.3567254 0.3158123 0.10705523 0.26779932 0.3513292
-0.43313548 0.3525527 -0.46762827 -0.40934995 -0.27314964 0.42824677 -0.2050586 0.27689815
0.44377348 0.2536363 0.3256312 -0.51644033 -0.37019625 0.27490228 0.39463383 0.27641025
0.30369788 0.49144515 0.298555 -0.3159421 0.2905667 -0.23632047 0.29743448 0.43348575
-0.45498148 -0.31005153 0.45540434 -0.40758076 0.08606676 0.3132661 0.28356102 -0.3904461
0.3122732 -0.34880325 -0.17561296 0.32207936 -0.30077863 -0.38414478 0.41111672 0.3214302
0.4808645 0.37247896 0.31515157 0.5049079 0.24670555 0.18451181 0.48809868 0.4081179
-0.23705167 -0.30687672 -0.44031605 0.33853367 -0.45253974 0.49230617 0.41466394 0.492267
0.023220854 0.016765023 0.639477 -0.1000476 0.58553183 -0.1972145 0.5326773 0.3608929
-0.8047478 0.361171 -0.6034624 -0.5741454 -0.7570732 0.6157249 0.04173327 0.20081195
0.1269173 -0.046958577 -0.0029900768 0.0038982183 0.120588176 0.16646156 0.4441949 0.17863597
0.1482476 -0.0023800835 -0.0392557 -0.26626664 -0.020228216 0.16705799 0.006734417 0.5090736
-0.36590979 -0.76432407 0.48345688 0.15881519 0.30071032 0.81681776 -0.006833298 0.1868439
0.024446169 -0.110577494 -0.610516 -0.057834912 0.25673544 -0.75961727 0.14576644 0.8605067
0.07503412 -0.119727746 -0.10521135 0.23505552 -0.45460042 -0.62591684 0.68570215 -0.14269815
-0.71367764 -0.19341259 -0.08519182 -0.016997688 0.005819429 0.6017029 -0.13664111 -0.20471151
0.45029992 0.3706539 -0.048229862 -0.42388517 0.5277275 0.13109842 0.3549598 0.27853835
-0.29470986 0.2915092 -0.46088666 -0.39827937 -0.31537506 0.44231865 -0.5548708 0.5418072
0.44725382 0.31016344 0.4760217 -0.39495763 -0.4282237 0.47561973 0.38798034 0.33260748
0.31322446 0.46996683 0.3151782 -0.36454338 0.1776577 0.17684771 0.5304271 0.4850316
-0.28946635 -0.4475196 0.29095104 -0.4617064 0.23543616 0.45092386 0.55480707 -0.44889712
0.3934708 -0.44562796 -0.11272423 0.553644 -0.3556254 -0.41746318 0.32306007 0.47438008
0.40029797 0.4334321 0.38597527 0.30664858 0.26012346 0.32620245 0.38653076 0.36604005
-0.30064824 -0.37993717 -0.30306947 0.41207302 -0.43895197 0.38496852 0.4132305 0.51739615
0.3154085 0.30434763 -0.23716459 -0.43656865 -0.03765888 -0.2949129 -0.14605206 0.47401443
0.05743314 0.3344005 -0.3059295 -0.19175059 0.27097222 -0.11055149 -0.3340925 0.4959169
0.31091192 0.4024739 0.36114866 -0.31482103 -0.34662122 0.5532038 0.51221704 0.540266
0.2688873 0.32803315 0.2590102 -0.345213 -0.32249036 -0.39494827 0.22935665 0.22393183
-0.34718847 0.20534277 -0.20312524 -0.49908146 0.42142513 -0.2989528 0.28979295 -0.41512942
0.33793685 -0.35359132 0.18479928 0.37322694 -0.36507127 0.11558176 0.4623989 -0.27826327
0.43425074 0.4511714 0.48786864 0.41466814 0.20765474 0.23340169 0.2279711 0.28995776
0.24944335 -0.38662922 -0.28849864 0.43285826 -0.2878311 0.23518458 0.34481937 0.46641985
00000000: 75d2 9b3e 6cdc d23e 9bbd ffbd b6a4 b6be
00000010: 26b2 a13e c63f db3d fe1c 893e 6ce1 b33e
00000020: efc3 ddbe ca81 b43e f96c efbe 5196 d1be
00000030: 45da 8bbe 2943 db3e e2fa 51be 98c5 8d3e
00000040: 4736 e33e 9edc 813e 22b9 a63e 6f35 04bf
00000050: 5d8a bdbe febf 8c3e 720d ca3e a585 8d3e
00000060: 4a7e 9b3e b39e fb3e 33dc 983e 2ac3 a1be
00000070: 29c5 943e fefd 71be 5549 983e d8f1 dd3e
00000080: 55f3 e8be 13bf 9ebe c22a e93e 6dae d0be
00000090: c543 b03d 6a64 a03e e92e 913e 8de8 c7be
000000a0: 46e2 9f3e 5796 b2be e2d3 33be 96e7 a43e
000000b0: a8ff 99be a0ae c4be e47d d23e 8092 a43e
000000c0: df33 f63e 90b5 be3e 8c5b a13e a541 013f
000000d0: 61a0 7c3e aaf0 3c3e 12e8 f93e d4f4 d03e
000000e0: acbd 72be f21e 9dbe 1b71 e1be 4954 ad3e
000000f0: 4ab3 e7be 8e0f fc3e d54e d43e 6c0a fc3e
00000100: a939 be3c cd56 893c c4b4 233f c2e5 ccbd
00000110: 6ae5 153f 99f2 49be 8a5d 083f f4c6 b83e
00000120: f403 4ebf 68eb b83e 837c 1abf 31fb 12bf
00000130: 8dcf 41bf 26a0 1d3f 81f0 2a3d a6a1 4d3e
00000140: 9cf6 013e a357 40bd 2af5 43bb 4079 7f3b
00000150: eff6 f63d e674 2a3e 846d e33e 59ec 363e
00000160: 38ce 173e 2dfb 1bbb 96ca 20bd 1a54 88be
00000170: a5b5 a5bc 4011 2b3e 62ac dc3b a652 023f
00000180: 8758 bbbe beaa 43bf a987 f73e 73a0 223e
00000190: b4f6 993e f81a 513f dce9 dfbb 0254 3f3e
000001a0: 5543 c83c 7476 e2bd c74a 1cbf 4de4 6cbd
000001b0: d472 833e 4776 42bf cc43 153e 2b4a 5c3f
000001c0: 7dab 993d d233 f5bd 0c79 d7bd 65b2 703e
000001d0: 63c1 e8be 163c 20bf 2d8a 2f3f 771f 12be
000001e0: 94b3 36bf f30d 46be 0d79 aebd bc3e 8bbc
000001f0: e9b0 be3b 3409 1a3f a6eb 0bbe e59f 51be
00000200: b68d e63e 59c6 bd3e ad8c 45bd 7a07 d9be
00000210: 2619 073f aa3e 063e 4abd b53e 949c 8e3e
00000220: 36e4 96be b240 953e 56f9 ebbe 46eb cbbe
00000230: d778 a1be 9777 e23e 030c 0ebf e0b3 0a3f
00000240: 74fe e43e becd 9e3e 1eb9 f33e e337 cabe
00000250: 2340 dbbe 6e84 f33e 5ca5 c63e 874b aa3e
00000260: f55e a03e 7e9f f03e 095f a13e 6ea5 babe
00000270: e6eb 353e 9117 353e 12ca 073f 1056 f83e
00000280: ef34 94be 4a21 e5be 89f7 943e c864 ecbe
00000290: 2d16 713e 7edf e63e d607 0e3f d8d5 e5be
000002a0: 0175 c93e 5929 e4be f6db e6bd 9dbb 0d3f
000002b0: 8814 b6be bcbd d5be 2168 a53e f2e1 f23e
000002c0: dbf3 cc3e d0ea dd3e 8d9e c53e 0b01 9d3e
000002d0: e72e 853e 0204 a73e 5ce7 c53e 9a69 bb3e
000002e0: 91ee 99be 2087 c2be ec2b 9bbe 3cfb d23e
000002f0: 50be e0be 981a c53e f392 d33e 1374 043f
00000300: 397d a13e 74d3 9b3e 46db 72be ed85 dfbe
00000310: 3340 1abd d3fe 96be ac8e 15be 05b2 f23e
00000320: 033f 6b3d 8b36 ab3e cba2 9cbe 445a 44be
00000330: dfbc 8a3e d268 e2bd 2c0e abbe d2e8 fd3e
00000340: d92f 9f3e 0f11 ce3e 7ae8 b83e 3930 a1be
00000350: 5678 b1be c49e 0d3f a820 033f df4e 0a3f
00000360: 99ab 893e f6f3 a73e fc9c 843e c2bf b0be
00000370: 751d a5be a936 cabe 78dc 6a3e 634e 653e
00000380: b0c2 b1be 6045 523e 1000 50be 9b87 ffbe
00000390: 09c5 d73e 5710 99be be5f 943e d88b d4be
000003a0: 0f06 ad3e ec09 b5be 063c 3d3e 9a17 bf3e
000003b0: 9fea babe 21b6 ec3d 8cbf ec3e 8678 8ebe
000003c0: 1d56 de3e f0ff e63e ebc9 f93e 624f d43e
000003d0: 72a3 543e da00 6f3e 4271 693e 5875 943e
000003e0: 146e 7f3e 44f4 c5be 18b6 93be 999f dd3e
000003f0: 995e 93be 3ad4 703e 2a8c b03e 95ce ee3e

gru.bias_ih_l0 f4 [192]
0.46085826 -0.64128643 -0.2892749 0.11401845 -0.55140597 -0.46984646 0.03588601 0.14743012
0.08939711 0.037232313 -0.105264895 -0.016726987 -0.5391224 -0.43391556 0.2291384 -0.07937422
-0.04471564 -0.023896914 0.3677178 0.53698045 0.2202105 0.035816196 -0.111974955 -0.04270616
-0.2302853 -0.01574815 0.33272457 0.34139484 0.27072674 0.2680486 0.48512107 -0.34845504
0.03055345 0.018526476 0.058462642 0.12567149 0.01704861 0.06271176 -0.37590584 0.28275377
0.31359762 -0.27586603 -0.21392266 0.5126981 0.43146473 -0.13015199 0.099049665 -0.14529908
-0.066819705 0.118482 0.1215784 -0.15064044 0.3731734 0.2828557 -0.14474227 0.27842814
-0.03727992 -0.15605438 -0.5432097 0.2108673 0.42575407 0.20065606 0.16567326 0.56893235
-0.23541288 -0.3254527 0.016326698 -0.14895023 -0.1423918 0.27047145 -0.10903447 -0.06851165
0.56720394 0.1256742 0.32405862 0.351712 -0.24071832 -0.14408548 -0.21087974 -0.22965053
0.22952805 -0.26026246 -0.16614541 -0.3083783 -0.06562652 -0.24506499 -0.15557304 0.106409736
-0.10609027 -0.1814684 -0.4990146 -0.38570765 0.0627463 -0.17189893 -0.47378612 -0.06383031
0.42348132 -0.1916344 0.64489573 -0.30898246 -0.20337014 -0.18538213 -0.12799928 -0.44047993
-0.4479679 0.23718509 -0.13329242 -0.33352876 -0.43497673 -0.21322085 -0.07599226 -0.2487297
0.17027181 -0.29915395 -0.2757833 0.2520295 0.43011892 0.34333766 0.31974417 -0.4380665
-0.23932211 -0.18522514 -0.36514115 -0.34359336 -0.39103132 0.26965708 0.003938428 -0.5219524
0.5252276 0.16857016 -0.14716455 -0.4029486 -0.20616917 -0.3742855 0.03267845 0.25821087
0.29083583 0.25875857 0.2254415 0.028999083 0.21634598 0.25891718 -0.34210706 0.10659803
0.094605036 0.250119 0.45692825 -0.58584154 -0.48626414 -0.09548763 0.20069763 0.049326815
-0.30237105 -0.07370685 0.44180405 -0.34431633 -0.06207798 -0.22318923 0.40178266 -0.19436419
0.093370415 -0.035381608 -0.014842819 -0.15699628 0.2051826 0.24662465 0.347174 -0.6440457
0.385972 -0.23320395 0.106177054 0.31848365 -0.37617666 0.2624403 0.24124506 -0.3062872
0.06859599 0.39958993 0.36368307 -0.20709378 0.78923464 0.06312411 0.0018091465 0.43297532
-0.08220862 -0.099894546 -0.35669973 0.28328592 -0.3902982 -0.06799587 0.08212642 0.43292847
00000000: 9df5 eb3e 592b 24bf d71b 94be 8182 e93d
00000010: f128 0dbf b78f f0be 35fd 123d ecf7 163e
00000020: d515 b73d e980 183d 1f95 d7bd 0907 89bc
00000030: ed03 0abf 2e2a debe 42a3 6a3e f38e a2bd
00000040: bf27 37bd 76c3 c3bc 8245 bc3e 8d77 093f
00000050: dc7e 613e 01b4 123d 2053 e5bd a8ec 2ebd
00000060: e9cf 6bbe 4402 81bc e05a aa3e 4ecb ae3e
00000070: b29c 8a3e ab3d 893e ca61 f83e b368 b2be
00000080: 3b4b fa3c d6c4 973c 8676 6f3d 07b0 003e
00000090: 87a9 8b3c 066f 803d bb76 c0be 1ac5 903e
000000a0: de8f a03e 503e 8dbe 8b0e 5bbe 2f40 033f
000000b0: f2e8 dc3e 9046 05be 8dda ca3d 48c9 14be
000000c0: c5d8 88bd b1a6 f23d 19fe f83d 7d41 1abe
000000d0: 9510 bf3e 76d2 903e 5137 14be 228e 8e3e
000000e0: d4b2 18bd b8cc 1fbe ca0f 0bbf 99ed 573e
000000f0: 70fc d93e c878 4d3e 40a6 293e 8da5 113f
00000100: 1310 71be bca1 a6be 91bf 853c 6986 18be
00000110: 28cf 11be 3c7b 8a3e 774d dfbd d64f 8cbd
00000120: 4734 113f bdb0 003e 03eb a53e 9813 b43e
00000130: dd7e 76be 258b 13be dcf0 57be 8229 6bbe
00000140: 6709 6b3e 1f41 85be 0622 2abe c3e3 9dbe
00000150: 3267 86bd 51f2 7abe 8a4e 1fbe 59ed d93d
00000160: db45 d9bd dad2 39be d77e ffbe 797b c5be
00000170: 2281 803d 4606 30be 1894 f2be 77b9 82bd
00000180: 8bd2 d83e cf3b 44be e317 253f f332 9ebe
00000190: 4340 50be d0d4 3dbe 3e12 03be 9686 e1be
000001a0: 0c5c e5be a6e0 723e cf7d 08be 48c4 aabe
000001b0: 45b5 debe 9156 5abe d4a1 9bbd 00b3 7ebe
000001c0: bc5b 2e3e b52a 99be 7833 8dbe 030a 813e
000001d0: 8c38 dc3e f4c9 af3e 82b5 a33e 414a e0be
000001e0: db10 75be a9ab 3dbe c8f3 babe 78eb afbe
000001f0: 4235 c8be 7e10 8a3e ee0d 813b ac9e 05bf
00000200: 5175 063f a89d 2c3e 4eb2 16be 474f cebe
00000210: 031e 53be 59a2 bfbe d7d9 053d 3734 843e
00000220: 6fe8 943e 017c 843e 23da 663e 7c8f ed3c
00000230: cd89 5d3e cb90 843e a828 afbe 1150 da3d
00000240: 49c0 c13d 990f 803e 80f2 e93e b6f9 15bf
00000250: 9df7 f8be 058f c3bd ae83 4d3e ea0a 4a3d
00000260: 61d0 9abe 9ef3 96bd 2434 e23e 3b4a b0be
00000270: 7b45 7ebd b88b 64be 75b6 cd3e 6807 47be
00000280: fd38 bf3d 4eec 10bd 4c2f 73bc a2c3 20be
00000290: 631b 523e 2c8b 7c3e cac0 b13e 2ee0 24bf
000002a0: 1f9e c53e 04cd 6ebe 5b73 d93d 4a10 a33e
000002b0: 3a9a c0be 935e 863e f208 773e add1 9cbe
000002c0: 0e7c 8c3d 0d97 cc3e ab34 ba3e 6410 54be
000002d0: 480b 4a3f 3747 813d e220 ed3a f1ae dd3e
000002e0: fe5c a8bd 8395 ccbd 59a1 b6be da0a 913e
000002f0: 2ad5 c7be 6b41 8bbd e631 a83d cda8 dd3e

gru.bias_hh_l0 f4 [192]
0.3643531 -0.7708783 -0.3930899 0.07064559 -0.5022546 -0.36531818 0.06798781 0.2786406
0.025803389 0.14375535 -0.13599531 -0.16357535 -0.41216272 -0.5751354 0.19676107 -0.10420817
-0.14607559 -0.1901141 0.451829 0.45991847 0.2474556 0.06093192 -0.06584614 -0.11644141
-0.24080531 -0.051916864 0.3511112 0.14436707 0.14220193 0.18646485 0.4737781 -0.1997161
0.1683228 0.18452407 0.24921674 0.34143618 0.024637531 0.09966271 -0.40204793 0.29058948
0.53996253 -0.08694715 -0.08456489 0.31242093 0.22311427 -0.19483925 0.16598889 -0.008832299
-0.071183406 0.3431303 0.2807508 0.09061147 0.23023218 0.10893029 0.027279029 0.32833502
0.066827625 -0.07388728 -0.62795305 0.123807594 0.30449608 0.0054204375 0.21041977 0.5521411
-0.35480118 -0.2507916 0.2127601 -0.2771861 -0.1752824 0.26008707 0.04364894 -0.23639604
0.36094877 0.0021301906 0.37947565 0.31519857 -0.13848463 -0.14342284 -0.19601624 -0.16178082
0.07701304 -0.37285137 -0.028569061 -0.20915402 -0.08591369 -0.042705983 -0.20990105 0.08549799
-0.30610454 -0.1796493 -0.38582852 -0.29482627 0.17069727 -0.28049427 -0.48896998 0.0971694
0.40036148 -0.18490809 0.6809838 -0.31420538 -0.09419536 -0.044727378 -0.07010135 -0.33875597
-0.43664807 0.18443912 -0.09025681 -0.3641125 -0.38519117 -0.18115261 -0.08834194 -0.15088803
0.22942784 -0.27663913 -0.35889247 0.2589761 0.42691618 0.2628739 0.40246874 -0.25488478
-0.13203016 -0.18574978 -0.4246753 -0.4325554 -0.4109081 0.35032576 0.17515627 -0.4012114
0.35841995 0.0019379205 -0.16301024 -0.25692788 -0.39992347 -0.17042814 0.008974018 0.25340673
0.10727304 0.20801276 0.057449985 0.029199919 0.40148732 0.17633435 -0.2981369 0.1795497
0.08476816 0.19992724 0.40145543 -0.51054555 -0.31635904 0.12031526 0.30116722 0.06527868
-0.013554774 0.06840844 0.48039788 -0.34760478 -0.55364156 -0.35206679 0.5926002 -0.2714902
0.0068245144 -0.20931388 -0.18632749 -0.32751766 0.021519814 0.25672492 0.25936428 -0.4018646
0.5653917 -0.08318839 0.19789994 0.49684668 -0.3659084 0.32562852 0.25420734 -0.28160492
-0.08052796 0.35507384 0.2750438 -0.21214782 -0.5161539 0.014550929 -0.10713172 0.46374255
0.06285387 -0.03820358 -0.29612225 0.14516562 -0.50411856 -0.052145384 0.12435896 0.58129376
00000000: 7d8c ba3e 4858 45bf 1443 c9be a3ae 903d
00000010: c293 00bf fc0a bbbe 313d 8b3d fba9 8e3e
00000020: a161 d33c 9a34 133e 5b42 0bbe 4c80 27be
00000030: fe06 d3be 133c 13bf bc7b 493e 186b d5bd
00000040: d794 15be 45ad 42be 2156 e73e 6f7a eb3e
00000050: 0065 7d3e c093 793d 57da 86bd d578 eebd
00000060: ab95 76be c7a6 54bd d9c4 b33e f6d4 133e
00000070: 629d 113e a4f0 3e3e 0b93 f23e 6182 4cbe
00000080: d05c 2c3e e1f3 3c3e ac32 7f3e b9d0 ae3e
00000090: a6d4 c93c f71b cc3d 3ad9 cdbe 25c8 943e
000000a0: fc3a 0a3f 5911 b2bd 5b30 adbd a3f5 9f3e
000000b0: 1178 643e f183 47be fef8 293e 59b5 10bc
000000c0: 9bc8 91bd c6ae af3e 92be 8f3e 8292 b93d
000000d0: fcc1 6b3e d816 df3d 4578 df3c 871b a83e
000000e0: ecdc 883d 3752 97bd 88c1 20bf d68e fd3d
000000f0: e9e6 9b3e ed9d b13b 4878 573e 1e59 0d3f
00000100: 80a8 b5be c267 80be c9dd 593e 56eb 8dbe
00000110: 3b7d 33be 222a 853e 3bc9 323d ce11 72be
00000120: 47ce b83e ab9a 0b3b a24a c23e b561 a13e
00000130: eace 0dbe 70dd 12be 7bb8 48be dfa9 25be
00000140: 03b9 9d3d 60e6 bebe aa09 eabc 792c 56be
00000150: 84f3 afbd 78ec 2ebd 4df0 56be 9219 af3d
00000160: bcb9 9cbe fcf5 37be 518b c5be 78f3 96be
00000170: 44cb 2e3e f29c 8fbe 465a fabe c000 c73d
00000180: 2efc cc3e 8c58 3dbe f454 2e3f 87df a0be
00000190: 7fe9 c0bd 0e34 37bd 4c91 8fbd 6c71 adbe
000001a0: 5690 dfbe 9cdd 3c3e 90d8 b8bd f46c babe
000001b0: c737 c5be 1280 39be 9eec b4bd 6482 1abe
000001c0: 22ef 6a3e a5a3 8dbe c1c0 b7be 8498 843e
000001d0: c294 da3e 6897 863e 6210 ce3e 4280 82be
000001e0: ea32 07be 3135 3ebe 0a6f d9be e777 ddbe
000001f0: 8c62 d2be e65d b33e 2a5c 333e 956b cdbe
00000200: d282 b73e d201 fe3a 28ec 26be 0d8c 83be
00000210: c5c2 ccbe b784 2ebe c207 133c 87be 813e
00000220: f8b1 db3d 4c01 553e ad50 6b3d ab34 ef3c
00000230: bf8f cd3e fe90 343e 66a5 98be e0db 373e
00000240: ee9a ad3d bab9 4c3e 918b cd3e 1db3 02bf
00000250: d0f9 a1be d967 f63d 9732 9a3e d4b0 853d
00000260: d814 5ebc b919 8c3d b6f6 f53e 41f9 b1be
00000270: 74bb 0dbf 1942 b4be a6b4 173f c300 8bbe
00000280: 2da0 df3b 6156 56be a2cc 3ebe 65b0 a7be
00000290: 524a b03c 7371 833e 65cb 843e 32c1 cdbe
000002a0: 83bd 103f ad5e aabd 48a6 4a3e b062 fe3e
000002b0: 5958 bbbe c8b8 a63e 7727 823e 852e 90be
000002c0: d8eb a4bd 3dcc b53e 8ad2 8c3e 473d 59be
000002d0: a922 04bf 0567 6e3c e067 dbbd aa6f ed3e
000002e0: 88b9 803d 5b7b 1cbd 569d 97be 4ca6 143e
000002f0: ea0d 01bf 6696 55bd e9af fe3d abcf 143f

fc.weight f4 [1, 64]
67.51304 67.548386 67.504524 -67.59428 67.6069 -67.463066 67.616516 67.53548
-67.54302 67.55014 -67.52451 -67.46409 -67.59688 67.54627 -67.60317 67.4846
67.46045 67.54652 67.586975 -67.520294 -67.8043 67.55306 67.573875 67.531784
67.52678 67.521255 67.56806 -67.582054 61.43917 -67.54622 67.51016 67.59204
-67.5466 -67.575645 67.5577 -67.52436 67.599525 67.512985 67.44209 -67.5506
67.58497 -67.5946 -67.4832 67.52075 -67.52901 -67.50177 67.52665 67.58658
67.57789 67.49704 67.548164 67.562706 59.53284 -67.48386 67.56487 67.45103
-67.57174 -67.53554 -67.5601 67.610664 -67.560684 67.48291 67.56284 67.54017
00000000: ad06 8742 c618 8742 5102 8742 4530 87c2
00000010: bc36 8742 17ed 86c2 a83b 8742 2a12 8742
00000020: 0716 87c2 ac19 8742 8d0c 87c2 9ded 86c2
00000030: 9a31 87c2 b117 8742 d334 87c2 1df8 8642
00000040: c0eb 8642 d117 8742 882c 8742 640a 87c2
00000050: cd9b 87c2 2b1b 8742 d325 8742 4610 8742
00000060: b60d 8742 e20a 8742 d922 8742 032a 87c2
00000070: b6c1 7542 aa17 87c2 3405 8742 202f 8742
00000080: dc17 87c2 bb26 87c2 8b1d 8742 790c 87c2
00000090: f532 8742 a606 8742 5ae2 8642 e819 87c2
000000a0: 812b 8742 6f30 87c2 66f7 86c2 a00a 8742
000000b0: da0e 87c2 e800 87c2 a50d 8742 542c 8742
000000c0: e127 8742 7cfe 8642 a918 8742 1b20 8742
000000d0: a121 6e42 bcf7 86c2 3721 8742 ede6 8642
000000e0: bb24 87c2 3212 87c2 c51e 87c2 a938 8742
000000f0: 121f 87c2 40f7 8642 2d20 8742 9114 8742
