best_model.pth (torch, 89385 bytes, 5 tensors)

lstm.weight_ih_l0 f4 [256, 19]
00000000: 276b f0bb 2a48 fc3d 2c85 c33d ce0c 8a3d
00000010: c841 37bd 8408 853d 40fb afbb bcc7 93bd
00000020: 95d7 683d 80bf 143d 46b3 0c3d 4288 373e
00000030: c633 493d d656 433e af26 7f3c 9f5e 013d
00000040: acb7 513e 827a 843d af52 e73c e161 673e
00000050: 104d 153d 5044 cdbc d8fd f23c c81d b23c
00000060: a0bd db3b f450 f7bd b520 b7bd c37a 67ba
00000070: c50f 8f3e aa16 123e 3eaf 203e 94ee a93d
00000080: bab9 863e 6df0 c83d f800 313e 7c9c 633d
00000090: b2da 9c3d 8187 5d3e 1381 bd3d 1f22 663d
000000a0: 1295 ba3d aaa4 a5bd e292 cc3d 9877 733d
000000b0: 9496 6d3d 0df3 20be 6748 29be 0549 073e
000000c0: 3bc4 733e d4d2 033e 991c ab3d ea89 b33d
000000d0: 4d60 2e3e e3d2 533e 10b2 883e 59c0 23be
000000e0: 8417 18bc 2ac0 f03e 479a 283e ce1c 853d
000000f0: bcb6 bb3d 40c8 fa3c f08d 9a3c 7ae3 fdbd
00000100: cfc5 153b 8fb9 f7bc 5af9 033e f461 113f
00000110: a5c0 a23e 4921 ea3e d56f d33e f29f 993e
00000120: cdf8 883e 2fb2 db3e 12b3 b43e ca5f c53e
00000130: ebcd 0f3e e6bc 5dbc 4076 83bc 5c74 c1bd
00000140: 2c3d 56bd d072 63bd 6480 653d 9285 69bd
00000150: f585 c6bd 8580 263d 289e 62bd ac78 0c3d
00000160: bdc9 b43d e555 403d 34ce a23c 06c4 023e
00000170: 7a35 02bc c106 3d3e 7d45 4b3e f2de 3cbd
00000180: b62d 72bd 3086 953c f0de 1c3d a2b2 de3d
00000190: 1275 ab3d 0cd2 2bbd 460d 70bd 4175 823c
000001a0: da1f 1e3e 24b4 003e 9bae 9bbc 4249 a03c
000001b0: 1f0d dd3d c8b1 be3d 9920 403e 23e6 293e
000001c0: addb 883c 86d1 70bc 7bd7 c53d 2bc8 3b3d
000001d0: 7063 70bc dc16 f6bd 5893 1d3d 2650 fd3d
000001e0: 1480 45bd 9621 ec3c d33e 20bd 7ecf 1f3e
000001f0: ff5d 0b3e 8ebc a13d 6d82 1f3e c8d5 973d
00000200: 3762 823e 36e8 083e ce9a 4c3e 9401 873c
00000210: 7ca9 0a3e b1c6 f83d 9096 973d 70cb 89bd
00000220: 90f6 3ebc c0f8 7f3c 6070 ddbd ac15 0a3d
00000230: 365f f0bd 4d51 7dbc 73a4 423e 9fd4 ad3d
00000240: 6d1f 403d 4970 233e b3ca 0e3e 9548 0e3e
00000250: d713 163e f017 273e 9a3a 2d3d 83fb 903d
00000260: 74c3 f53d cfbc 9f3d d05a 0d3c 8077 6dbb
00000270: 5a5a a73d 101a 453c 3483 eb3d e111 823d
00000280: 9776 be3d 69f0 543e 68d1 2e3d 233c d83d
00000290: 729d 153e bb2f 873d b1eb 873d 7881 653e
000002a0: e48e c23d f83e a43d e4a3 433e a9f1 563e
000002b0: 9d78 35bd 14bc 5fbd 90d7 ab3c c858 0ebd
000002c0: 2622 c0bd b013 b13c cb87 bd3d 08c5 c63c
000002d0: 2049 183e 0896 9ebc 6461 303e 9d1f 3d3e
000002e0: ea1c be3d 8cca 9c3d 7a2a 263e 232b 0f3e
000002f0: 5f2b 543e 68fb 983d 2c75 173e fea3 97bd
00000300: c0e7 7bbb 30a2 113d 2a6a b33d 3e0f e73d
00000310: fee5 92bd c77f b43c 86c6 443d ba7f 013e
00000320: b653 f4bc a5db e13d 9acc 6bbd 211b cbbc
00000330: 65ff b63d 6adc abbd 2ac2 0b3e 6e68 b9bd
00000340: 590e 833d 1290 b83d 80b5 bbbd 5427 fe3d
00000350: c0db f5bb acd8 833d 6e4e ea3d 587d 29bd
00000360: af1b 003e bb25 a03d 7032 c53d e8e4 97bc
00000370: 2a2e 473d cfbc 203e e544 0d3e 09e1 223d
00000380: 2f15 073d dd82 063d 582e 9ebd d3e5 cc3d
00000390: 0dcd ba3d 2a20 373d f620 febd 86d2 a9bd
000003a0: 46f6 e03d a895 f23d 5424 c83d 1bfc a2bd
000003b0: b04f cebd 5963 6fbd b391 e63d f0e0 b5bd
000003c0: 885f b53d 32cc f93d 2a62 cd3d 373d 163e
000003d0: 9536 053d 2ab3 f53d 9fa4 983d 4331 2f3e
000003e0: 78b4 b43d 78aa fdbd d84e 6dbd 4ee7 80bd
000003f0: 401e 69bc d6ec eb3d bb20 163d 4e2b 533d
-0.0073369923 0.12318452 0.09546885 0.067407236 -0.04474047 0.06495765 -0.0053705275 -0.07215831
0.05684622 0.03631544 0.034350656 0.17923072 0.04912164 0.19076094 0.015573188 0.03158438
0.20480222 0.06468679 0.028237669 0.22595932 0.036450446 -0.025056988 0.029662058 0.021742716
0.0067059547 -0.120759875 -0.08941785 -0.00088302436 0.2794172 0.14266458 0.1569185 0.08297458
0.26313573 0.098114826 0.17285526 0.055569157 0.076589 0.21633722 0.092531346 0.056184884
0.09110464 -0.08088048 0.09988953 0.059440225 0.05800493 -0.15717717 -0.16531526 0.13211448
0.23805325 0.12873393 0.08355064 0.087665394 0.17028923 0.20685916 0.2669835 -0.15991344
-0.00928295 0.4702161 0.16465102 0.06499635 0.09165713 0.030613065 0.01886651 -0.12396903
0.0022853499 -0.030239848 0.12888089 0.5679009 0.317876 0.4572852 0.4129626 0.3000484
0.2675232 0.4290938 0.3529287 0.38549644 0.14043395 -0.013533806 -0.016047597 -0.09446022
-0.05230443 -0.055529416 0.056030646 -0.05701215 -0.09693519 0.04064991 -0.05532661 0.03429477
0.08827541 0.046956915 0.019873716 0.1277009 -0.00794732 0.18459608 0.19850726 -0.046111055
-0.059125625 0.018252462 0.038298547 0.10873915 0.08371939 -0.041948363 -0.05860641 0.015925052
0.15441838 0.12568718 -0.019004157 0.019566182 0.10793518 0.09311253 0.18762435 0.16591696
0.016706312 -0.014698392 0.0966024 0.045845192 -0.014672145 -0.12016079 0.038470596 0.12368803
-0.048217848 0.028824609 -0.039122414 0.15606496 0.13610075 0.07897292 0.15577097 0.074138224
0.25465557 0.13369831 0.19980928 0.016480245 0.13541216 0.121472724 0.074017644 -0.06728256
-0.011655465 0.015623271 -0.108124495 0.033712074 -0.1173691 -0.015461278 0.19008045 0.0848782
0.04690497 0.15960802 0.13944511 0.13894875 0.14656006 0.16317725 0.042292215 0.07079222
0.1200017 0.07799684 0.008627608 -0.0036234558 0.0817153 0.01203014 0.114996344 0.063510664
0.09299963 0.20794834 0.042680174 0.10558345 0.14610842 0.06600901 0.066367514 0.2241267
0.094999105 0.08019823 0.19105488 0.20990624 -0.04430448 -0.054622725 0.020976812 -0.034752637
-0.09381513 0.021615833 0.09254416 0.024263874 0.14871645 -0.01935865 0.17224652 0.18469091
0.09282859 0.0765582 0.16227141 0.13981299 0.2071967 0.07469827 0.14790791 -0.07404326
-0.0038437694 0.035555065 0.087604836 0.11282204 -0.07172774 0.022033585 0.04804089 0.1264638
-0.029825073 0.11028222 -0.05756817 -0.02479321 0.089354314 -0.0839165 0.13648286 -0.090531215
0.06399221 0.09011854 -0.09165478 0.12409845 -0.007503003 0.06437811 0.114407405 -0.041379303
0.1251056 0.078196965 0.09628761 -0.018541768 0.04862801 0.15697025 0.13795812 0.03976539
0.032979187 0.032839645 -0.07723683 0.10004773 0.091211416 0.04470841 -0.124086305 -0.08292107
0.10984473 0.11844951 0.09772554 -0.079582416 -0.10073793 -0.058444355 0.11258259 -0.08880794
0.08856112 0.1219715 0.10028489 0.14671789 0.032522757 0.119970635 0.07453274 0.17108636
0.08823484 -0.1238603 -0.05793652 -0.06294118 -0.014228404 0.11519782 0.036652308 0.05155497

lstm.weight_hh_l0 f4 [256, 64]
00000000: 2fd2 e13c 8d27 893d ea76 08be c84c 2ebd
00000010: beb0 5fbd 3942 9c3d 2891 60bb a4d8 533e
00000020: ba6c 0e3e b2c5 413e 160f 96bc 2438 183e
00000030: 70be af3d 84be 213e 38fc f2bd a20c 12bb
00000040: 7496 a03d 8881 e5bd 8d0e cdbd 691d c9bd
00000050: f8eb 7dbd 7397 6cbd b2ab 0c3e 771d 213c
00000060: e617 bc3c 2127 2cbe 70dc 453d da07 7e3d
00000070: 8d76 05be 382a edbd 2f07 1bbc 0433 06bd
00000080: f262 b93d f8ac 753c f043 553d 85f5 653e
00000090: 96c2 00be 060a 2b3e 3999 8b3d d9bf 41be
000000a0: ef5c d73c 2179 12be 2593 9f3d cc25 6ebd
000000b0: 01e4 d5bd 0ef5 8fbd 628d 09bc d8f7 333d
000000c0: 8dc5 213e 4ddd a33d 5898 613d 3fcd 383d
000000d0: 5902 1cbe 6f33 3e3e b415 39be 464f 6a3d
000000e0: 4a9b 1b3d d7bf 62bd fcd0 29be 591d 96bc
000000f0: d79b ea3c 2d14 ef3d b4ef 21be 3e1e 9a3d
00000100: 8780 58be 7b91 33bd 0874 febd 7cfa 10be
00000110: 6aa8 d53d 5e47 1d3e 4cc9 313e 7ec8 913d
00000120: 53c5 833e dc15 253e 9377 333e f60c e33d
00000130: 9a4c 4e3e df9a 213e ec48 03bd 20f0 d43d
00000140: f361 eb3d d005 8bbe 7dc2 b5bd ad43 84be
00000150: 3b31 4ebd 848f c73d 5575 503e 7b52 b13c
00000160: e7c1 193d 3468 73be ed63 653e d12f 83bd
00000170: 99e8 6dbe cc3a d7bd d6df 663e c070 80bd
00000180: 02ab 4b3e 03eb 743e 73e5 183e 63f2 6d3e
00000190: 6209 57be 7d4a a83d 5b87 663e f136 80bd
000001a0: 5528 943d a4c4 11be 5395 6b3d 55fd ac3d
000001b0: 0213 61be 7ff6 d5bd 7dc0 85be efd9 8dbe
000001c0: ea56 ed3d f279 e53d a1ce 323e 1a88 6fbe
000001d0: d052 24be eda0 0b3e 7226 21be fbab 51be
000001e0: f96e 483d f8b1 953d 6b4c 90be bf83 7e3d
000001f0: 6852 78bd 955b 893e d1f9 5cbe 0865 59bd
00000200: 1e65 a43e 7fd2 7ebe c730 27be 633d 9b3d
00000210: 1288 9e3e c331 d33d c311 843c 2bed a93d
00000220: 8644 a3be a829 5bbe 126c aa3d af9e f93d
00000230: 926a 67bd 07fd a23e 1b9e 1e3e 9e6d 8a3e
00000240: a56f b83e 0e22 76bd 92d9 3ebe 7aaa ae3d
00000250: 3202 ad3d 00f2 663d db19 25bd 78ac 513c
00000260: b0e4 e9bd 3259 e5bc 1d14 de3e 7fe2 95bd
00000270: 20eb e0bd 96d8 67bd 0782 bcbe 36f4 af3e
00000280: 1ae1 dcbd 70b6 453d ea90 3d3d 9dc8 f9bd
00000290: 3675 523d c1ff 30be 03ef 3cbe d975 d1bd
000002a0: c41f 453d 4025 ef3a d56b 533e 7769 af39
000002b0: 4e59 363e 1293 9d3d d315 3f3e 907b 63be
000002c0: e8c3 8dbe 5fef 733d 4af6 58be 00e0 e1be
000002d0: 7f63 193e e331 8d3e b728 a23e 99a9 2abe
000002e0: d39b 88be ad09 ba3e 4580 513d f0e9 8dbe
000002f0: d553 0c3e 7938 a53d d550 35be b2de 33be
00000300: bfda 29be 1ee4 10bb 0e31 06bd 7b91 df3d
00000310: 686b 553e 8313 023e 7bdd 31bd 6b17 893e
00000320: 8905 fd3d b3e0 bdbd 1a07 2abd f470 0b3e
00000330: 5c4e 183e 6b5f 513e 1fa1 823d 0d32 1f3e
00000340: 572c cb3d 91ac df3d b6d4 f73d 72e2 8abe
00000350: eaf7 5fbe d50f d33d 3c9e 893c cf06 2fbe
00000360: 6595 f2bd d581 85be e06f 79bd cd15 9dbd
00000370: f6a1 f8bd 0604 61bd 6f2a a03c 6f96 e2bc
00000380: 91df 343e 64cc 2a3e ae03 8d3d 2328 5a3e
00000390: c1a8 96bd 8c3b bdbd d90d 123e 78e4 8abc
000003a0: 6e75 033b e83d 77be 47ec 963b d35a 9c3c
000003b0: 25e7 e0bd fca4 efbd 03f4 8dbe b733 4cbe
000003c0: aa5a bf3d 0d7a b8bd fcfe 4c3e 01a6 87be
000003d0: 0b46 50be 4351 423c 334b 6ebe 5e0e 753e
000003e0: 41e1 343d 7193 673d b353 8fbd 3528 653e
000003f0: 8de2 aebe 69dd b1bd 80a3 64be 6347 84bd
0.027566044 0.06696997 -0.13326612 -0.042553693 -0.054611914 0.076298185 -0.0034266207 0.2068811
0.13908663 0.18923071 -0.01831774 0.14865166 0.08581245 0.15795332 -0.11864513 -0.0022285362
0.07841197 -0.11206347 -0.10012541 -0.09820063 -0.061992615 -0.05776162 0.13737372 0.009833685
0.022960614 -0.16811801 0.04830593 0.062019207 -0.13033505 -0.11580318 -0.009462162 -0.032763496
0.090520754 0.014994852 0.052066743 0.2245694 -0.12574229 0.16703042 0.06816334 -0.1892084
0.026289431 -0.1430402 0.077917375 -0.058141515 -0.10443879 -0.07029162 -0.008395525 0.043937534
0.15798016 0.08001194 0.055076927 0.045117613 -0.1523527 0.18574308 -0.18074685 0.057204507
0.037989892 -0.055358734 -0.16583627 -0.01832454 0.028638763 0.1167377 -0.15814096 0.075252995
-0.2114278 -0.043839913 -0.12424475 -0.14158052 0.10432513 0.15359256 0.17361945 0.07118319
0.25736484 0.1612162 0.17526083 0.110864565 0.20146409 0.15781735 -0.032051966 0.10397363
0.11493292 -0.27152872 -0.08874986 -0.25832883 -0.05033992 0.0974417 0.20357259 0.021645775
0.037538435 -0.23770219 0.224014 -0.06405605 -0.2323326 -0.105092615 0.22546324 -0.06271505
0.19889453 0.23917775 0.14931278 0.23236994 -0.20999673 0.082173325 0.22512572 -0.06260479
0.07234255 -0.14235169 0.057515454 0.08446757 -0.21979907 -0.10447406 -0.2612342 -0.27705333
0.11588843 0.112049 0.17461635 -0.23391762 -0.16047215 0.13635607 -0.15737322 -0.20475762
0.048933957 0.073093355 -0.28183302 0.06213736 -0.060625464 0.26827684 -0.21579672 -0.053074867
0.32108396 -0.24884985 -0.16327201 0.07580068 0.30963188 0.10312226 0.01612175 0.08297189
-0.31888217 -0.2140261 0.08321394 0.121884696 -0.056498118 0.3183367 0.1549 0.27036756
0.36022678 -0.06009107 -0.18637684 0.085286096 0.08447684 0.056383133 -0.04030786 0.012797467
-0.11420572 -0.027996633 0.4337472 -0.07318591 -0.109823465 -0.056603037 -0.36817953 0.34366006
-0.10785122 0.04826969 0.04628078 -0.12196467 0.051381312 -0.17285062 -0.1845055 -0.10227556
0.048125997 0.0018245354 0.20646603 0.00033457179 0.17807505 0.07694067 0.18660669 -0.22215104
-0.27688527 0.059554454 -0.21187702 -0.4411621 0.14979361 0.27577123 0.31671688 -0.16666259
-0.26681384 0.36335507 0.051147718 -0.27717543 0.13703854 0.08067412 -0.17706616 -0.1756542
-0.16587351 -0.0022108625 -0.032761626 0.1091642 0.20841753 0.12702756 -0.04342411 0.2677568
0.12354571 -0.092713736 -0.04151068 0.13617307 0.14873642 0.20446555 0.06378388 0.15546437
0.099205665 0.10921586 0.12101118 -0.2712589 -0.21871915 0.10305754 0.016799085 -0.17092441
-0.11844901 -0.26075616 -0.060897708 -0.07670174 -0.121402666 -0.054935478 0.019551484 -0.027659623
0.17663409 0.16679531 0.068854675 0.21304373 -0.07356406 -0.09239873 0.14263095 -0.016954646
0.0020059007 -0.24144709 0.004605803 0.019086277 -0.10981587 -0.1170139 -0.2772523 -0.19941603
0.09343465 -0.09007654 0.20019144 -0.26493838 -0.2033922 0.011860195 -0.23270874 0.23931262
0.04416013 0.056537095 -0.06998386 0.22378619 -0.3415722 -0.08684809 -0.22327995 -0.064589284

lstm.bias_ih_l0 f4 [256]
00000000: 9683 6f3e 97de af3e d747 93be 9f4c 253e
00000010: 8649 c83d d138 7e3c d246 763e 99af 11bd
00000020: edc9 3a3e a355 873e ba3e 093e d254 e63d
00000030: f80a 0d3e fd31 9e3d cd21 5bbe a790 403d
00000040: 471a 893e 4b3f 643e 9eda 88be bc54 593e
00000050: 8b14 8c3e 1bda 02bf bf1a 97be 78a3 a53e
00000060: cd4c b4be bd5d b73d 0d4f acbb 2df3 99bc
00000070: 3464 a83d 147d 9b3d 390e 5c3e c576 983e
00000080: 38ea b33d 41a2 473e 86a3 1fbe e67f e23d
00000090: 90ec 273e e073 ca3d f572 123e 0f7e 65be
000000a0: f61a bb3b 75ac 253d cf16 273d de37 c53d
000000b0: 7b13 ac3d 8765 e73e 5c64 1d3e a105 883e
000000c0: 9346 103e 37f6 953d 86f3 ae3e 3ff4 643e
000000d0: 666b 223e 8e4d 863e 0560 333e d5f1 bd3d
000000e0: a517 cb3d 4b64 70be addb bc3e 35dd 3d3e
000000f0: e943 4b3d 7617 dabe 231e 9d3d ccd5 853d
00000100: b54d 433e 8ccf 8a3e 214e c5bd 4b2c 10bd
00000110: 6fc9 5b3e 915e 623e 5ecd 783e 11a7 993d
00000120: 128c e33d 2d1f b53d c983 133e 5a12 983d
00000130: 98c4 fd3c 780c 113e 0c9f 0bbe fc5d 2e3e
00000140: f777 583d 0d06 a43d fb47 1ebe 7b3e c73d
00000150: 3457 d33d ac79 71be c3e3 39be 6dfc 2b3e
00000160: 0365 a1be 97fb 46bc 3c0a d13c 8ee2 8dbd
00000170: ca19 863d ed1b c43d 87cd 513e a3d9 613e
00000180: 9848 f23d fbd7 e93d a726 d0bb 36fe 773e
00000190: 2f5c 143e a295 003e 7643 593e 6b4a c43d
000001a0: 4b38 483e e5f9 633e c11c 513e 87e7 9a3d
000001b0: 89c2 863e 393b 35be d67c 693e 9888 70bc
000001c0: 9452 173e a4d2 483e 58f8 bd3d c088 7ebe
000001d0: e027 b1bb 4066 8c3c 76d0 28bc d62a dcbd
000001e0: ab8f fa3d 080b 52be 416c 4dbd e529 a73d
000001f0: c275 fa3d 02ed d9bd 0ce9 223e ed58 d83c
00000200: 4deb 7cbe 1bd5 bd3e 9f91 7abe bbcb b5be
00000210: b3b8 453e 7cbe 983e f8bd 833e eabd 763e
00000220: 70d9 113e 8dc2 aa3e 978a d23d 60e8 5c3e
00000230: 98f8 413e 3613 503e bfcb 6c3d ae82 ff3d
00000240: 139e 76be 7978 38be 2197 bf3d 8679 62be
00000250: e6c1 aabe f045 90bd c343 a43e c7c7 bb3e
00000260: aa63 5bbd e8bc a53c 4448 ef3d f33d c43d
00000270: f404 25be 2843 eebd a2ae 733e dd18 76be
00000280: a735 4f3e 4728 ac3e 7240 073d 1fc5 ab3e
00000290: 4e7b 8abe fd3c 8c3c 8c97 1e3e e49c babd
000002a0: d754 e73d c38e 0abe 7777 1b3d 8f06 d73d
000002b0: 17b8 60be be65 99be 6681 95be 4383 a1be
000002c0: 1df2 463e 9f80 703e 23dc 933e cefb a7bd
000002d0: bf88 25be 39d3 083e 3416 e8bd 3d36 203e
000002e0: 39cf 603e 0ede b03c dd79 f7be e00d 8c3e
000002f0: 5bcd cd3b 95c1 2abd a944 e3bd 65d6 403e
00000300: 230e 463f db81 09bf a148 8abf 1ef8 d13e
00000310: 0286 093f 1586 cabe 6630 113d 737c 303e
00000320: d8b1 1b3f 70af 363f 35bc 85be 9f32 02bf
00000330: 5d60 cd3d 20c2 163f 98b9 bd3e cbb3 cc3e
00000340: c24d 043f 5bb0 5ebe 1af7 983e 4b6a 99be
00000350: 6180 013f 7bdd 9a3e 58a0 9e3e c366 42be
00000360: 4647 373e 361a 80bd 51cd 1d3f 5f86 9f3d
00000370: 4960 91be a204 f83e fcf0 313f c076 0e3f
00000380: a35a 0e3e 6244 c7be 754d 93bc a2ee 0c3f
00000390: 7a2e 68be aa7e 773e cb4d c63e edda 843d
000003a0: b0a5 f63d 8b96 bcbe b4a6 103f f76b d93e
000003b0: 59e8 58be cc33 073f 0bff 5b3f a0f1 5b3f
000003c0: 7761 a33e fb5f c5be 921e 003f 0564 57bf
000003d0: b16b cd3e b72b d13e ac5b a63e 4e34 e53e
000003e0: b313 103f 9bee f43e 91a4 f53e faca a3be
000003f0: 3287 b73d 5698 a53e 22c1 103f ebb6 67be
0.2339004 0.3434951 -0.28765747 0.1614251 0.097796485 0.015516476 0.24050453 -0.035567854
0.18241091 0.26432523 0.13402835 0.11246647 0.13773715 0.07724378 -0.21399613 0.04701295
0.2677786 0.2228977 -0.26729292 0.2122373 0.27359423 -0.5111405 -0.29512593 0.3235128
-0.35214844 0.08953426 -0.005258447 -0.018792713 0.08222237 0.07592216 0.214898 0.29778114
0.08784908 0.19495489 -0.15589723 0.11059551 0.16398835 0.09885383 0.14301665 -0.22411369
0.005710001 0.04044767 0.040793236 0.096297964 0.08402153 0.45194647 0.15370315 0.26566795
0.14089422 0.073223524 0.3417017 0.22358797 0.15861282 0.26231045 0.17517097 0.092746414
0.09916619 -0.23475759 0.3688635 0.18541415 0.04962531 -0.42596024 0.07671764 0.06534919
0.19072612 0.2711147 -0.096340425 -0.03519849 0.2146356 0.22106387 0.24297091 0.075025685
0.11110701 0.08843837 0.14405741 0.07425375 0.030977532 0.14164913 -0.1363489 0.1702804
0.052848782 0.080089666 -0.15457146 0.09728714 0.10319367 -0.2358157 -0.1815329 0.16795512
-0.31522378 -0.012144945 0.025517575 -0.069279775 0.065478876 0.09575639 0.20488559 0.22055678
0.118302524 0.11418148 -0.006352264 0.24218068 0.1448829 0.1255708 0.2121714 0.095845066
0.19552724 0.22263296 0.20421125 0.075636916 0.26320294 -0.17698373 0.22801527 -0.014681004
0.14777595 0.19611603 0.092758834 -0.24856853 -0.005406365 0.0171386 -0.010303607 -0.10750358
0.12234434 -0.2051202 -0.050152067 0.081622876 0.12229492 -0.10640909 0.15909213 0.02640959
-0.24699135 0.3707665 -0.24469613 -0.35506997 0.19308738 0.29832828 0.25730872 0.24095884
0.14243102 0.33351555 0.1028034 0.21573019 0.18942487 0.20319828 0.057811495 0.12476097
-0.24083738 -0.18014707 0.093549974 -0.2211667 -0.33351058 -0.070445895 0.32082948 0.36675856
-0.053561844 0.02023168 0.116837054 0.095821284 -0.1611517 -0.11633903 0.23797086 -0.24032922
0.2023531 0.3362448 0.033020444 0.3354883 -0.270472 0.017118925 0.15487498 -0.09111956
0.11295479 -0.13531022 0.037955727 0.10499298 -0.21945225 -0.29960436 -0.29200286 -0.31545457
0.19428296 0.23486565 0.28878888 -0.08202325 -0.16165446 0.13361825 -0.1133236 0.1564569
0.21954049 0.021590259 -0.48335162 0.27354336 0.006280584 -0.04168852 -0.1109708 0.18831785
0.7736532 -0.5371377 -1.0803415 0.4100961 0.53720105 -0.3955542 0.035446547 0.17234974
0.60818243 0.71361446 -0.26120153 -0.5085849 0.100281455 0.5888996 0.3705566 0.3998092
0.5168115 -0.21746962 0.29876024 -0.29963908 0.50586516 0.302471 0.30981708 -0.18984513
0.17898282 -0.06254999 0.6164141 0.07789301 -0.28393772 0.48441035 0.6950834 0.5564995
0.13901763 -0.3891936 -0.01798127 0.55051625 -0.2267398 0.24169412 0.38731226 0.06487069
0.12043321 -0.36833605 0.5650437 0.42465183 -0.21182384 0.5281341 0.8593604 0.85915565
0.31910297 -0.3854979 0.50046647 -0.8413699 0.40121225 0.40853664 0.32491815 0.44766468
0.5628006 0.47838292 0.47977117 -0.31990796 0.08961333 0.32342786 0.565447 -0.22628371

lstm.bias_hh_l0 f4 [256]
00000000: 68d0 bf3d 9af6 3e3e 237d 37be 937b 473e
00000010: 9214 2d3e 53f7 733e 162f ed3d 9080 f3bc
00000020: 8462 8a3e 566b d63d 299e bf3d 17e2 0bbd
00000030: 1fa9 fb3b c6db 8c3d 6cc1 d5be 351a 7d3d
00000040: 8d2c 853e 24c1 a33b 45e2 90be 5af7 073e
00000050: 8316 873e e5ec f6be 87ee 34be 1951 443e
00000060: 1e5a 6bbe b727 3dbd 9dd2 f63d fc34 573d
00000070: ad6f f03d e67d 4a3e 9e91 dc3d ff92 5d3e
00000080: 6fce 8d3e 0924 e03a d8b9 4bbd 2c23 bd3d
00000090: 5310 4d3e 3bd3 7f3d 00f5 093e 81ed 89be
000000a0: 309b 503e b0e4 a53c e2b8 513e c04a 6f3e
000000b0: 3d5b 5d3e 4383 d13e a200 083e 869a a63e
000000c0: 8ef8 363e b79f 273e cade b83e 91c5 d43e
000000d0: 22de 703c 2a10 b93d 852a 1a3e 3783 113e
000000e0: 573b 2a3e 1cec 88bd f579 ba3e f063 223e
000000f0: 09e4 db3d 2a7e e4be ab4d be3c 64b4 9a3e
00000100: 1bd5 393e 7336 cb3d a158 1dbe 2c75 123d
00000110: 80e6 b03b e44b 393e a04e 843e b7a1 b13d
00000120: 3ecf a73d 0447 a23e 4a08 213e 9022 d03d
00000130: a04e 633e 7ebe c43d 1e07 38bd b770 c23d
00000140: d01f 0d3d 1e90 fe3d 303b 97bd 0051 363d
00000150: 4645 9b3e 8aba 77be 6652 5fbe 357c bc3d
00000160: a79d e5bd 3e40 913d 1e66 213e 1da8 303d
00000170: dc70 3b3e 20fa 313e 4eec d93d d76a f43d
00000180: 65a6 813c cc13 5a3e 3870 bcb9 8420 af3d
00000190: 1eff 433e 97ca ee3d 2dcc 0b3e 8003 f9bc
000001a0: 92cc cb3d fb02 19bb ab75 d23d 5959 de3d
000001b0: 07eb d73d 6f18 09be 2d52 fa3d 2ab9 1dbd
000001c0: 80bc 3a3e 3928 a6bc b489 313e ead3 74be
000001d0: 18d0 403e 6da6 d93c f61c 293e 7336 5bbe
000001e0: e5c0 7e3e c950 55bd a675 123e 5f7e e9bb
000001f0: 1862 8e3c 04c5 0cbe 10fb 6e3e 66d4 cc3d
00000200: 8a46 8bbe 34cb b43e 3d93 68be b4cf 99be
00000210: 7527 b03c d09e 8d3d 06b9 913e a5f3 1c3d
00000220: 9f4b 113e a466 7c3e 8afd a83e 16b7 823e
00000230: 7806 923e 74ca b3bc 1819 94bd b40e 9c3b
00000240: 3ade 01be 1475 7dbe 9cb5 ffba 8a02 b7be
00000250: b753 5ebe 47a1 183d f4e1 7b3e 90c6 8b3e
00000260: 048c c8bd 083f e33c e2eb ce3b 3044 983d
00000270: 9817 c3bd 643b a23d 8233 323e 4305 6abe
00000280: 677c 3c3e f907 683e ff78 423e 65d0 3f3e
00000290: 27ed 63be 4e54 a0bd f70d cb3d 1e2b babd
000002a0: b936 413e 0d59 e4bd c405 cc3d 9969 f1bc
000002b0: 9dd5 3cbe ce4d adbe 7b5e 66be 79ff bbbe
000002c0: 21ba 603e 9e98 403e c5b2 763e 1afc b1bc
000002d0: b418 72be 6fd6 cdbc 51a3 0fbe c470 143e
000002e0: 3800 6f3e dae2 053c 3109 bebe 10e1 bd3d
000002f0: 8743 4ebe d224 143e a652 b5bc 213e b93d
00000300: 9227 493f 33a6 2bbf 06e4 7cbf e4ab e93e
00000310: 3498 f03e 4998 c1be 001a f0bd 2ed9 423c
00000320: a744 3c3f f510 483f 6b9d 94be 55a1 28bf
00000330: 65f2 273c 182b 1f3f 1dee ef3e d496 123f
00000340: 0db1 013f 4c59 02be abc5 a73e 820d 5dbe
00000350: 1dbc 1e3f 0a8d 733e 6b08 913e 9a27 a4be
00000360: f825 bf3d 7e4f 83be 91c6 0b3f fe92 083d
00000370: 1121 efbe 8098 053f ae02 3f3f 809e 343f
00000380: 5e76 fa3d e6d2 34be b4cc 553d 282d cb3e
00000390: 0340 d1be e866 513e bbeb ef3e bee6 243e
000003a0: 2c04 2abd c787 f9be e561 f63e e3c6 dd3e
000003b0: 5e2d cbbd e7be fa3e 8c7a 683f 2529 383f
000003c0: f033 063f 6c50 b0be f600 0a3f 9fbe 4dbf
000003d0: 415d be3e dee4 c43e 54ca aa3e 4216 e93e
000003e0: 3eea 0e3f 5391 f83e 2f55 043f 3347 58be
000003f0: a8c2 003e 2929 753e 7a37 c83e c735 5cbe
0.09365922 0.18648759 -0.1791883 0.19480734 0.16902378 0.23824815 0.115812466 -0.02972439
0.27028286 0.104696915 0.093563385 -0.034151163 0.007680073 0.06877856 -0.41749132 0.06179257
0.26010552 0.0049973894 -0.2829763 0.13277951 0.26384363 -0.4822761 -0.17669116 0.19171561
-0.22983596 -0.046180453 0.1205189 0.052540764 0.117400505 0.19774589 0.10769962 0.21638106
0.2769656 0.0017100583 -0.04973778 0.09235224 0.20025758 0.062457304 0.13472366 -0.26939014
0.203717 0.020250648 0.20480683 0.23368359 0.21616836 0.40920457 0.13281491 0.32539767
0.17868254 0.1636952 0.36107475 0.4155698 0.014701398 0.09036286 0.15055282 0.1421021
0.16624199 -0.06685659 0.3642117 0.15858436 0.10736854 -0.44627506 0.023230394 0.30215752
0.181477 0.09922495 -0.1536584 0.035756275 0.0053985715 0.18095356 0.25841236 0.08673423
0.08193825 0.31694806 0.15725818 0.10162842 0.22197962 0.09606646 -0.044928662 0.09494155
0.034454167 0.12429832 -0.07384336 0.04451084 0.3032629 -0.24192253 -0.21808776 0.09203378
-0.112117104 0.07092331 0.15761611 0.043129075 0.18304771 0.17380571 0.10640775 0.119344406
0.015826413 0.21296614 -0.00035941764 0.08551124 0.19140288 0.11659735 0.13652106 -0.030397177
0.09951128 -0.0023347724 0.1027635 0.108568855 0.10542875 -0.13388227 0.12222705 -0.038506664
0.1823597 -0.020282852 0.17337686 -0.23908964 0.18829381 0.026568616 0.16514954 -0.2140749
0.24878271 -0.052078996 0.14302692 -0.0071256603 0.01738076 -0.1374703 0.2333796 0.10001449
-0.27202255 0.35311282 -0.22712417 -0.30041277 0.02150319 0.06915057 0.28461474 0.038318295
0.14189003 0.2464853 0.33005935 0.25530308 0.2852056 -0.021947123 -0.07231349 0.004762495
-0.12682429 -0.24751693 -0.001950908 -0.35744125 -0.21711622 0.03726318 0.24597913 0.2729993
-0.09792331 0.027740017 0.0063147405 0.07434881 -0.095259845 0.07921484 0.17402461 -0.2285357
0.1840683 0.22659291 0.18991469 0.1873184 -0.22258435 -0.0782858 0.09914773 -0.09090255
0.18868531 -0.111497976 0.09962037 -0.029469298 -0.18440862 -0.33848423 -0.22496979 -0.36718348
0.21946003 0.18808219 0.24091633 -0.021726657 -0.23642236 -0.025126664 -0.14027144 0.14496142
0.23339927 0.008171761 -0.37116387 0.09271443 -0.20142947 0.14467171 -0.022134136 0.09045053
0.78576005 -0.67050475 -0.98785436 0.45638955 0.46991122 -0.37811497 -0.11723709 0.0118926
0.73542255 0.78150874 -0.2902635 -0.65871173 0.010250662 0.6217513 0.46861354 0.57261395
0.50660783 -0.12729377 0.32767996 -0.21587184 0.6200579 0.23784271 0.28326735 -0.32061464
0.09333414 -0.25646585 0.54599863 0.033343308 -0.46704915 0.5218582 0.74613464 0.7055435
0.12229608 -0.17658576 0.052197173 0.3968289 -0.4086915 0.20449412 0.46859536 0.16103646
-0.041507885 -0.48736402 0.48121563 0.433158 -0.099207625 0.48973772 0.9081199 0.7193778
0.52423 -0.34436357 0.53907716 -0.8036899 0.37180522 0.38455862 0.3335749 0.45524794
0.55826175 0.48548374 0.5169248 -0.2112091 0.12574255 0.23941483 0.39104825 -0.2150489

fc.weight f4 [1, 64]
00000000: fe17 eac2 4826 d242 285d e4c2 e789 e1c2
00000010: c18b de42 b7eb e342 873c e342 0008 e642
00000020: fd38 e642 c27c e842 5028 e342 e91c e042
00000030: e11f e442 9622 df42 3c3c 7342 df2f de42
00000040: f753 dd42 352f e3c2 3d6e 83c2 c20d dfc2
00000050: 2bd1 e8c2 54b7 82c2 c20c e142 0960 d442
00000060: 92bd 8d42 b170 e3c2 6789 da42 9d1c f9c1
00000070: 0a59 e1c2 fca3 ddc2 c692 e642 49e5 e6c2
00000080: 53d9 e442 e6c8 e542 e9fe e342 ba40 eb42
00000090: 3dec e2c2 4d59 2342 1007 ea42 82b6 e4c2
000000a0: e055 e442 e435 e5c2 0d2d df42 8646 dd42
000000b0: 560d e9c2 b021 e7c2 153c ebc2 5682 e1c2
000000c0: cc9d ea42 8882 e342 1157 e942 5575 d9c2
000000d0: 8811 e6c2 24a2 de42 8879 e9c2 4008 86c2
000000e0: 6466 ea42 0f40 7b42 b02b eac2 63b6 a142
000000f0: 0638 e4c2 7934 9042 540b dec2 dc96 cb42
-117.04686 105.07477 -114.181946 -112.76934 111.27296 113.96038 113.61822 115.015625
115.111305 116.24367 113.578735 112.056465 114.06226 111.56755 60.808823 111.0935
110.663994 -113.5922 -65.71531 -111.52687 -116.40853 -65.35806 112.52492 106.18757
70.870255 -113.7201 109.268364 -31.138971 -112.673904 -110.82028 115.28667 -115.44782
114.42446 114.89238 113.99787 117.62642 -113.4614 40.837208 117.013794 -114.35646
114.167725 -114.605255 111.58799 110.63774 -116.52605 -115.565796 -117.61735 -112.75456
117.3082 113.754944 116.67005 -108.729164 -115.03424 111.31668 -116.737366 -67.01611
117.19998 62.812557 -117.08533 80.856224 -114.10942 72.102486 -111.022125 101.79465
