LSTM_MODEL/first_model.pt (torch, 89392 bytes, 5 tensors)

lstm.weight_ih_l0 f4 [256, 19]
0	0xbcdf2a5e	-0.027241882
1	0xbf754d63	-0.9582121
2	0xbba8c040	-0.005149871
3	0xbb355e00	-0.0027674437
4	0x3c52f9e0	0.012876958
5	0xbdf41a2c	-0.119190544
6	0xbcd6e760	-0.026233375
7	0x3fa26d97	1.2689694
8	0xbfe47d83	-1.7850803
9	0xc014c045	-2.3242352
10	0xbd81c33a	-0.06336065
11	0x3e5acf6a	0.21368185
12	0x3eaeda6b	0.34151015
13	0x3e46971f	0.19393586
14	0x3e810a78	0.252033
15	0x3e0ffcd5	0.14061292
16	0x3eac6edd	0.33678332
17	0xbf44d908	-0.76893663
18	0xbf3cef9d	-0.7380312
19	0x3fbb9fa8	1.4658098
20	0x400325c5	2.0491803
21	0xbde9321e	-0.11386512
22	0x3df660b8	0.120301664
23	0xbd8012ca	-0.06253584
24	0x3c8d1d00	0.017225742
25	0x3ded8f4c	0.11599597
26	0x3fb08a57	1.3792218
27	0x4009b976	2.1519446
28	0x3f9fb9c0	1.2478561
29	0x3fb20942	1.3909075
30	0x3faf39c8	1.3689508
31	0x3fad0dbf	1.351982
32	0x3fada549	1.3566066
33	0x3fb3308f	1.3999194
34	0x3fbb326d	1.4624764
35	0x3fbce3a2	1.4756968
36	0x3ff096e6	1.879605
37	0x3fbdea3c	1.4837108
38	0x3f832b25	1.0247542
39	0x400413e1	2.0637133
40	0x3dc6be72	0.09704293
41	0xbd8067ba	-0.06269784
42	0x3d56df74	0.052459195
43	0xbd147ab8	-0.036249846
44	0x3c255130	0.010090157
45	0x3f8d3345	1.1031271
46	0x401bede8	2.4363956
47	0x3fa79300	1.3091736
48	0x3f6a28c0	0.9146843
49	0x3f8ca2e0	1.0987206
50	0x3f7f81e9	0.998076
51	0x3f85055f	1.0392264
52	0x3f672189	0.90285546
53	0x3f84d233	1.0376648
54	0x3f81f6f9	1.0153495
55	0x3fc08ed0	1.5043583
56	0x3f8b4ed9	1.0883437
57	0x3f1b47c9	0.6065641
58	0x3f9b5937	1.2136601
59	0xbdf2753e	-0.118387684
60	0x3d239cf8	0.03994462
61	0xbda8ef48	-0.08248764
62	0xbd3a6e7c	-0.045515522
63	0xbda5a082	-0.08087255
64	0x3f492c1f	0.7858295
65	0x4020c4c3	2.5120094
66	0x3f3577c9	0.708859
67	0x3f24b5f3	0.6434013
68	0x3f352fa2	0.70775807
69	0x3f2f553d	0.6848944
70	0x3f15a553	0.5845539
71	0x3f1be17f	0.60890955
72	0x3f3ad936	0.7298769
73	0x3f11e976	0.5699686
74	0x3f30c11f	0.6904468
75	0x3eb19141	0.34681132
76	0x3f4975ae	0.7869519
77	0xbf9102b7	-1.1328954
78	0xbd3a4e4c	-0.045484826
79	0x3d914ede	0.07095121
80	0x3d567ed0	0.05236703
81	0xbd5b6e4c	-0.053571984
82	0xbcc1d900	-0.023663044
83	0x3f21d476	0.63214815
84	0x3fb4e697	1.413287
85	0x3f8e17f1	1.1101056
86	0x3f87c9ee	1.0608499
87	0x3f475e6b	0.77878445
88	0x3f4baf29	0.7956415
89	0x3f3a206b	0.72705716
90	0x3f24cff8	0.64379835
91	0x3f3b244e	0.7310227
92	0x3f480d0d	0.78144914
93	0x3ffa4a54	1.9553933
94	0x3fd1c17a	1.6387169
95	0x3f1bf7a9	0.60924774
96	0xbfbe8d9f	-1.4886969
97	0x3d286128	0.04110828
98	0xbde06bc2	-0.10958053
99	0xbcdfba70	-0.02731058
100	0xbcc341f0	-0.023835152
101	0xbd19b50c	-0.037526175
102	0x3f154288	0.58304644
103	0x3f6a7e86	0.9159931
104	0x3f0378c5	0.51356155
105	0x3f5481b1	0.83010393
106	0x3f1e4d8c	0.6183708
107	0x3f166a69	0.5875612
108	0x3f03b53b	0.5144841
109	0x3ed56c77	0.41684315
110	0x3f1bba9a	0.60831606
111	0x3f375188	0.7160878
112	0x3ffd34fc	1.9781795
113	0x3f9f33bc	1.2437663
114	0x3e815377	0.2525899
115	0xbfcf92e8	-1.6216707
116	0x3d139d20	0.036038518
117	0x3d872368	0.0659855
118	0x3dcb4328	0.099249184
119	0x3d5d9cec	0.05410473
120	0x3de09f06	0.10967831
121	0x3d6ec0e2	0.058289416
122	0x3fec2d22	1.8451273
123	0x3f956d82	1.1674044
124	0x3f1251dd	0.57156163
125	0x3e7639d2	0.24045494
126	0x3c57dbc8	0.0131749585
127	0x3e82759b	0.2548035
128	0xbae19d1f	-0.0017212963
129	0x3e151fb8	0.14562881
130	0x3edd6d86	0.43247622
131	0x3fd7438b	1.6817487
132	0x3fbc5e89	1.471635
133	0x3d0f31c1	0.03495956
134	0xbe870b36	-0.2637574
135	0xbd14dbb0	-0.036342323
136	0xbd8cbb50	-0.068716645
137	0x3d652020	0.05593884
138	0xbb83cdc0	-0.00402233
139	0xbc7ff480	-0.015622258
140	0x3dc82857	0.09773319
141	0x3fa3ff7f	1.2812346
142	0x3f067d4a	0.52534926
143	0x3e8a3448	0.26993012
144	0x3e08e279	0.13367642
145	0x3d6c0fe3	0.05763234
146	0xbb92caed	-0.004479757
147	0xbca7e28b	-0.020493766
148	0x3e21576f	0.1575601
149	0x3dc660c4	0.09686425
150	0x3f82914e	1.0200593
151	0x3f42dac5	0.76115066
152	0xbf1b6254	-0.6069691
153	0x3f7090fe	0.9397124
154	0x3d899090	0.06717026
155	0x3d0b9d3c	0.034085497
156	0xbcc72f20	-0.024314463
157	0x3c06b080	0.008220792
158	0x3db3dbca	0.08782156
159	0x3eb41da2	0.35178858
160	0xbfcc3602	-1.5953982
161	0xbe819f16	-0.25316685
162	0xbee7d0da	-0.4527653
163	0xbecdc16e	-0.40186638
164	0xbf14952b	-0.5804011
165	0xbee84e33	-0.4537216
166	0xbf0bf8c1	-0.54676443
167	0xbeb940e1	-0.3618231
168	0xbf04b467	-0.5183777
169	0xbf1704dd	-0.58991796
170	0xbe93d4a5	-0.28873172
171	0xbf55b352	-0.83476746
172	0xc047f1cc	-3.124133
173	0x3df211f8	0.118198335
174	0x3dd87036	0.105682775
175	0x3c947950	0.018124253
176	0xbdd98da4	-0.10622719
177	0x3d98c2fa	0.07459064
178	0x3e00f7c4	0.12594515
179	0x3e9c1c4c	0.3049034
180	0xbf05a626	-0.5220665
181	0xbf613abf	-0.87980264
182	0xbf5e655a	-0.868734
183	0xbf72287a	-0.9459301
184	0xbf57045a	-0.83991015
185	0xbf6dee1f	-0.9294147
186	0xbf826836	-1.0188053
187	0xbf6a431d	-0.91508657
188	0x3f8c7b80	1.0975189
189	0x3e1e67c5	0.15469272
190	0x3fc9871b	1.5744356
191	0x40473999	3.1128905
192	0xbdd97b24	-0.1061919
193	0xbd5e3780	-0.054252148
194	0x3c33f530	0.01098375
195	0xbd006ee4	-0.031355754
196	0xbdafbeee	-0.08581339
197	0x3f966269	1.1748782
198	0xbe57ad64	-0.21062237
199	0x3faad6cc	1.3346801
200	0x3fabbfa3	1.3417858
201	0x3fc14e98	1.510211
202	0x3fcbccc3	1.5921863
203	0x3fcb9593	1.5905021
204	0x3fbba34b	1.4659208
205	0x3fc8c378	1.5684652
206	0x3fb5663f	1.4171828
207	0x3f68d5c6	0.9095119
208	0x3f89bce9	1.0760776
209	0x3ed5a23d	0.4172534
210	0xbe3b1b6e	-0.18272182
211	0xbca249a8	-0.019810513
212	0x3d887ab4	0.06664029
213	0xbde4ec12	-0.11177839
214	0x3d2095a4	0.03920521
215	0x3d8617b8	0.06547493
216	0x3f1ff820	0.62487984
217	0x3fe5d9d1	1.7957097
218	0x3f10be4d	0.56540376
219	0x3ec8d6fe	0.39226526
220	0x3f13e3d9	0.5776954
221	0x3f0382d7	0.5137152
222	0x3f087170	0.5329809
223	0x3f0956ce	0.5364808
224	0x3f08c7c3	0.5342981
225	0x3f0b5f9f	0.5444278
226	0x3f5323db	0.82476586
227	0x3f2b5392	0.66924393
228	0x3f866574	1.0499711
229	0x3fd35600	1.651062
230	0x3dfc4f5e	0.123198256
231	0xbc14ce30	-0.009082362
232	0xbc796410	-0.015221611
233	0xbcc8aa80	-0.024495363
234	0xbc17bbc0	-0.009261072
235	0x3f8e6c3b	1.1126779
236	0x40022db0	2.0340385
237	0x3f5d6bba	0.864925
238	0x3f63a0b5	0.88917094
239	0x3f684a32	0.90738213
240	0x3f95407a	1.1660302
241	0x3f8b8161	1.0898858
242	0x3f92b9cf	1.1462954
243	0x3f836fca	1.026849
244	0x3f639d89	0.88912255
245	0x3f88adf2	1.0678084
246	0x3f5496f6	0.8304285
247	0x3f6088ad	0.8770855
248	0x3fa81d5e	1.3133962
249	0x3dc39c04	0.09551242
250	0x3d8e7f5c	0.069578856
251	0xbd850628	-0.06495315
252	0x3ce9a828	0.028522566
253	0xbdd55632	-0.10416831
254	0x3f77951f	0.96711916
255	0xbf936848	-1.1516199

lstm.weight_hh_l0 f4 [256, 64]
0	0x3e8a12c0	0.2696743
1	0xbf2e0c89	-0.6798788
2	0xbecf7138	-0.40516067
3	0xbf061af0	-0.52384853
4	0x3f41b9ac	0.7567394
5	0x3f87a2e9	1.0596591
6	0xbf82d54f	-1.0221347
7	0xbf442556	-0.7661947
8	0xbef6ba74	-0.48189127
9	0xbd2e3319	-0.0425292
10	0x3f5fbafd	0.87394696
11	0x3f489efc	0.7836759
12	0x3e959005	0.2921144
13	0x3f088ae9	0.5333696
14	0x3f43db89	0.7650686
15	0x3f140d3c	0.57832694
16	0xbf37a46c	-0.7173526
17	0x3f6211f2	0.8830863
18	0xbf5b43c4	-0.8565028
19	0x3f91f748	1.1403589
20	0xbf74d1ef	-0.95632833
21	0xbf44a067	-0.76807255
22	0xbdde7051	-0.108612664
23	0x3f4e27b6	0.80529344
24	0xbf5905db	-0.8477456
25	0x3e7d5b14	0.24741775
26	0xbf5831a2	-0.84450734
27	0x3f20f6dd	0.62876683
28	0x3ec82499	0.39090422
29	0x3f46aade	0.7760447
30	0x3ec63367	0.38711092
31	0x3f45b89f	0.77234834
32	0x3f5dc2b6	0.8662523
33	0x3f97580a	1.1823742
34	0x3e30ac8e	0.17253324
35	0xbf35b347	-0.7097668
36	0x3eeb7ba4	0.45992768
37	0x3f6e0ea9	0.9299112
38	0xbf0257ec	-0.5091541
39	0xbf30254d	-0.68806916
40	0xbe88168b	-0.265797
41	0xbf0683f2	-0.5254508
42	0x3f27a73d	0.6548956
43	0xbf249c3f	-0.6430091
44	0x3de35881	0.11100865
45	0xbf2e0d1c	-0.67988753
46	0x3f1cb60c	0.6121528
47	0xbf0eb354	-0.55742383
48	0x3ed4a79f	0.41534135
49	0x3eb67a0e	0.35639995
50	0x3e83fdf5	0.2577969
51	0xbf4498ee	-0.7679585
52	0x3f70a6e6	0.94004667
53	0xbf16aa55	-0.58853656
54	0x3f44fdb1	0.769496
55	0x3f2b1b1d	0.66838247
56	0xbf6aff87	-0.91796154
57	0x3f01524a	0.5051619
58	0x3f66b1dc	0.9011514
59	0x3eaf387a	0.34222776
60	0x3edb63f4	0.42849696
61	0xbf8f2b00	-1.1184998
62	0xbec148bb	-0.377508
63	0x3e72577a	0.23666182
64	0xbdfffabf	-0.12498998
65	0xbea5eaca	-0.32405692
66	0x3f2acc77	0.6671824
67	0x3f9c9353	1.223246
68	0x3eae151b	0.34000477
69	0x3de473dd	0.11154912
70	0xbee4aa5c	-0.44661224
71	0xbeb92cf5	-0.36167112
72	0xbfa724fc	-1.3058162
73	0xbdee9afc	-0.11650655
74	0x3ef99304	0.48744977
75	0x3edaa974	0.42707407
76	0xbf6c65ed	-0.92343026
77	0x3ea139c7	0.31489393
78	0xbeebb80f	-0.46038863
79	0xbf003432	-0.50079644
80	0x3fd437e2	1.6579554
81	0x3ebff057	0.37488052
82	0xbec26811	-0.3797002
83	0x3e59247c	0.21205324
84	0xbee91fab	-0.45531973
85	0xbec8d794	-0.39226973
86	0x3e4114f3	0.18855648
87	0x3eebe4f7	0.46073124
88	0xbed6d590	-0.4195981
89	0xbec00bbd	-0.37508956
90	0xbeee7089	-0.46570233
91	0xbed6ce2f	-0.4195418
92	0xbd0f0651	-0.034918133
93	0x3f07c00b	0.5302741
94	0x3f054a21	0.52066237
95	0x3f0436e0	0.5164623
96	0x3ee1900c	0.44055212
97	0x3daf368a	0.085553244
98	0x3dc4acf2	0.09603299
99	0x3f9828d0	1.1887455
100	0x3f0d7960	0.5526333
101	0xbed36184	-0.41285336
102	0xbef96861	-0.48712447
103	0xbed3c2a2	-0.4135943
104	0xbe48623f	-0.19568728
105	0xbf026f66	-0.5095123
106	0xbf7fd337	-0.99931663
107	0xbef1d84c	-0.47235334
108	0x3d913fc7	0.07092243
109	0x3eefe820	0.46856785
110	0xbec3ddcf	-0.38255164
111	0x401204eb	2.2815502
112	0xbf1ea1c7	-0.619656
113	0x3d5a60cf	0.05331498
114	0xbe6ffcaa	-0.23436227
115	0xbec10d58	-0.37705493
116	0x3f0fb186	0.56130254
117	0xbeb1e64b	-0.34746012
118	0x3ee440c4	0.44580662
119	0xbefc1a3e	-0.4923877
120	0xbf0f9c92	-0.5609828
121	0xbf4e0178	-0.8047099
122	0x3ece0275	0.4023625
123	0xbc9fc31e	-0.019502219
124	0x3fd0b090	1.6303883
125	0xbefedf3d	-0.49779692
126	0xbe649d67	-0.22325669
127	0x3ddef357	0.10886257
128	0x3d9b8e5a	0.07595511
129	0xbe25defd	-0.16198345
130	0xbe5ba334	-0.21448976
131	0xbdd1e0ad	-0.10247932
132	0x3e25cd06	0.16191491
133	0x3e24c183	0.16089444
134	0xbe474a50	-0.19461942
135	0xbdeef111	-0.116670735
136	0xbe70ad49	-0.23503603
137	0xbe02e935	-0.12784274
138	0x3e684000	0.22680664
139	0x3d2a5f0a	0.041594543
140	0x3dbec1b4	0.0931429
141	0x3e804134	0.25049746
142	0xbe197e06	-0.1498948
143	0xbe362a2b	-0.17789523
144	0xbe227d4e	-0.15868112
145	0x3e0f2029	0.13977112
146	0xbe7b5c91	-0.2454703
147	0x3dea6265	0.114445485
148	0xbe38652b	-0.18007343
149	0xbc824da4	-0.015906163
150	0x3d9e215d	0.07721207
151	0x3e87f6df	0.26555535
152	0xbdbfdbb8	-0.0936808
153	0xbdee1727	-0.1162551
154	0xbe4283f8	-0.18995655
155	0x3df45ff9	0.11932368
156	0xbcb918af	-0.022594778
157	0x3d0b887a	0.0340657
158	0x3c4a08d1	0.012331204
159	0x3d55522f	0.05208033
160	0x3dbb7a15	0.09154145
161	0xbdade9dd	-0.084918715
162	0xbd8a1b0a	-0.067434385
163	0xbe0bac77	-0.13640009
164	0x3d408fc7	0.047012117
165	0x3dd00037	0.10156291
166	0xbe666309	-0.22498716
167	0x3d9b6322	0.075872675
168	0xbd737db1	-0.05944604
169	0xbdf72fa7	-0.12069636
170	0x3e19c114	0.1501506
171	0xbe608c64	-0.21928555
172	0x3d50f0c8	0.051010877
173	0xbe2ba0bb	-0.16760533
174	0x3d855321	0.06509996
175	0xbe4b87cd	-0.19876023
176	0x3daf1ac0	0.08550024
177	0xbd9c1fd0	-0.07623255
178	0xbe238a44	-0.15970713
179	0xbdce4d66	-0.10073356
180	0x3dd99f47	0.10626083
181	0xbd8978bf	-0.067124836
182	0x3e6036d5	0.21895917
183	0x3e62708f	0.2211325
184	0xbe836b0f	-0.25667617
185	0x3d5d545d	0.054035533
186	0x3d08448f	0.033268508
187	0x3e4e7f02	0.20165637
188	0x3e2e581b	0.17025797
189	0xbdf338ca	-0.11876066
190	0xbe5eaea7	-0.21746312
191	0x3e09d19a	0.13458863
192	0xbe4c31af	-0.19940828
193	0xbdbde56b	-0.09272274
194	0xbe6c75bb	-0.23091786
195	0xbe113fb6	-0.1418446
196	0x3e8ebc29	0.2787793
197	0x3e187a49	0.14890398
198	0xbe2336ce	-0.15938875
199	0xbe849482	-0.25894552
200	0xbd8b06d1	-0.067884095
201	0xbd279ea5	-0.04092278
202	0x3e73dc96	0.23814616
203	0x3e91db05	0.2848741
204	0x3e77ef12	0.24212292
205	0x3dbea70d	0.09309206
206	0xbe2355f3	-0.15950756
207	0xbc979524	-0.018503733
208	0xbc503bf4	-0.012709606
209	0x3e178cb8	0.14799774
210	0xbe849e9d	-0.25902262
211	0x3e3e17af	0.18563722
212	0xbe1cd384	-0.15315062
213	0xbe44a98a	-0.19205299
214	0x3de741eb	0.1129187
215	0x3e85bfef	0.26122996
216	0xbe2a06ad	-0.16604109
217	0x3db304d7	0.087411575
218	0xbd8cf40c	-0.06882486
219	0x3e3fa812	0.18716457
220	0xbd944bda	-0.0724103
221	0x3dcd126f	0.100132816
222	0x3c170a1b	0.009218718
223	0x3e44ca7d	0.19217868
224	0x3e961568	0.29313207
225	0x3d6e4d00	0.0581789
226	0xbd0ba4f1	-0.034092847
227	0xbd151449	-0.0363963
228	0x3daf92f2	0.085729495
229	0x3e48638a	0.19569221
230	0xbe2da2eb	-0.1695668
231	0xbd8e6911	-0.069536336
232	0xbcf97cd3	-0.030455029
233	0xbe3d5fc9	-0.1849357
234	0x3e5462d0	0.20740819
235	0xbe41cc55	-0.18925603
236	0xbe3e2a19	-0.18570746
237	0xb99a6bad	-0.00029453394
238	0x3e035377	0.12824808
239	0xbd173ecb	-0.03692512
240	0x3e176887	0.14785968
241	0x3e49d19b	0.19708864
242	0xbe40a9a0	-0.18814707
243	0xbe68420a	-0.22681442
244	0x3e866396	0.26247853
245	0xbcdb8f5b	-0.026801756
246	0x3e876e56	0.26451367
247	0x3bcb5a76	0.006205852
248	0xbd4ff879	-0.05077407
249	0x3e3d337a	0.18476668
250	0xbc8f9db7	-0.017531259
251	0x3d014a31	0.031564895
252	0xbd3453ad	-0.044025112
253	0xbe54535c	-0.20734924
254	0xbe7637e7	-0.24044763
255	0x3da4b92f	0.080431335

lstm.bias_ih_l0 f4 [256]
0	0xbed40d35	-0.41416326
1	0x3fe02b7e	1.7513273
2	0x3fac2b56	1.3450725
3	0x3f3ff19f	0.7497806
4	0x3f6ca8ed	0.9244526
5	0x3f26bc65	0.6513122
6	0x3e3658dc	0.17807335
7	0x3ebaad4d	0.36460343
8	0xbf02d17c	-0.511009
9	0xbead9613	-0.3390356
10	0x3fc960ce	1.5732667
11	0x3ed8f2ec	0.42372835
12	0x3fa8f016	1.3198268
13	0x3f653216	0.8952955
14	0x3fb3fea4	1.4062085
15	0xbeaec839	-0.34137133
16	0x3f35476a	0.70812094
17	0x3f6147e5	0.8800033
18	0x3f59870f	0.8497171
19	0x3f803138	1.001502
20	0x3f756f93	0.95873374
21	0x3f39833a	0.7246586
22	0xbebd4f10	-0.36974382
23	0x3f18dd6c	0.5971286
24	0x3fa4e91c	1.2883639
25	0xbeb99189	-0.36243847
26	0x3f7365b5	0.9507707
27	0x3f3fc386	0.7490772
28	0xbf233e19	-0.6376663
29	0x3f8d093b	1.1018442
30	0xbec8b9e3	-0.3920432
31	0x3f67faa1	0.90616804
32	0x3f08822a	0.53323615
33	0x3f08f711	0.53501993
34	0xbe9782df	-0.29592034
35	0x3f145b09	0.5795141
36	0xbf5a50c9	-0.8527952
37	0x3e9c6134	0.3054291
38	0xbf6499fa	-0.8929745
39	0x3f853411	1.0406514
40	0xbd8cf29e	-0.06882213
41	0x3f128cb8	0.5724597
42	0x3ef21949	0.47284916
43	0x3e4dd686	0.20101365
44	0xbf83b34b	-1.0289091
45	0x3f9ac904	1.2092595
46	0x3f7e3d9e	0.9931277
47	0x3fb01a0e	1.3757951
48	0x3f574c86	0.8410114
49	0xbea8c875	-0.32965437
50	0xbc5b7a85	-0.01339591
51	0x3f66b87a	0.9012524
52	0x3f89e601	1.0773317
53	0x3f44be8e	0.76853263
54	0x3f768fba	0.9631306
55	0x3f9264b4	1.1436982
56	0x3e8dd9ea	0.27705318
57	0x3f77157b	0.9651715
58	0x3f1d48a9	0.61438996
59	0xbf1c981a	-0.6116959
60	0xbf6b297b	-0.9186017
61	0x3ec21553	0.37906894
62	0xbf1f876c	-0.6231601
63	0xbe0f760f	-0.1400988
64	0x3eca7919	0.39545515
65	0xbe8aee6e	-0.27135032
66	0x3e83b6ed	0.257255
67	0x3ee57817	0.44818184
68	0x3f362ea0	0.71164894
69	0x3ecb4f92	0.39709145
70	0x3f04fad9	0.51945263
71	0x3f0bb651	0.5457507
72	0x3e98c4d2	0.29837662
73	0x3ea2e4e2	0.3181525
74	0x3f0dde49	0.55417305
75	0x3eef2674	0.46709025
76	0xbeac50f3	-0.3365551
77	0x3ed451de	0.4146871
78	0xbecb4437	-0.3970048
79	0xbee9188d	-0.45526543
80	0x3ef4e11e	0.47828
81	0x3ee59728	0.44841886
82	0x3f18d977	0.59706825
83	0x3f1672d3	0.5876896
84	0x3f0393c6	0.5139736
85	0x3f023e65	0.50876456
86	0xbc4e187c	-0.01257908
87	0x3f14e688	0.5816426
88	0x3ef20a02	0.4727326
89	0xbf2567b9	-0.64611393
90	0x3ef8dbda	0.48605233
91	0x3e3eb3e6	0.18623313
92	0xbe40667a	-0.18789092
93	0x3f150b36	0.5822023
94	0x3e6b89ac	0.23001736
95	0x3ee94dcc	0.45567167
96	0x3ec9bbe2	0.39401156
97	0x3e123ccd	0.14281006
98	0x3d501ef7	0.05081078
99	0x3ecf286c	0.40460527
100	0x3f07b57c	0.530113
101	0xbda1c33e	-0.078985676
102	0x3ef7c9e1	0.4839621
103	0x3f5a8db5	0.8537248
104	0xbe3b9aa0	-0.18320704
105	0x3f18de5e	0.59714305
106	0xbec408bf	-0.38287923
107	0x3e983763	0.29729757
108	0x3e3a280b	0.18179338
109	0x3e2066e3	0.15664248
110	0xbe5b488c	-0.21414393
111	0xbec3dfa1	-0.38256553
112	0x3c8c4284	0.01712156
113	0x3dd29a1d	0.10283301
114	0x3f24214f	0.64113325
115	0x3f1dd0f6	0.61646974
116	0x3ede6fc8	0.43444657
117	0x3f0a3de8	0.5400071
118	0x3ee369b6	0.4441659
119	0x3db5e02f	0.0888065
120	0x3ed6af92	0.41930825
121	0xbe813119	-0.2523277
122	0x3ef9fdda	0.48826486
123	0x3d40b59a	0.04704819
124	0xbf14f804	-0.5819094
125	0x3e7d7e1e	0.24755141
126	0xbc981f33	-0.018569564
127	0x3d127aea	0.03576175
128	0xbeff8926	-0.49909323
129	0xbfa7a0a2	-1.3095896
130	0xbf8f390f	-1.1189288
131	0xbf4b2f60	-0.79369164
132	0x3f4b6cfe	0.79463184
133	0x3f1eab4d	0.61980134
134	0xbed0e6cf	-0.40801093
135	0xbea9c802	-0.33160406
136	0xbec335ec	-0.38127077
137	0xbe26c3c2	-0.16285613
138	0x3fa7069b	1.3048891
139	0x3f0da237	0.55325645
140	0x3f81327d	1.0093533
141	0x3ee00abb	0.43758187
142	0x3f82c625	1.0216719
143	0x3dd769e2	0.105182424
144	0xbf76a848	-0.96350527
145	0x3f493018	0.7858901
146	0xbf4c426f	-0.7978887
147	0x3f17cb07	0.5929417
148	0xbf675fc7	-0.9038052
149	0xbf4554d4	-0.7708256
150	0xbe862789	-0.26202038
151	0x3f34320e	0.7038888
152	0xbf5140bc	-0.817394
153	0x3f17b2e3	0.59257334
154	0xbf5944b4	-0.8487046
155	0x3f3817d6	0.7191137
156	0xbe893d46	-0.2680456
157	0x3f44a99d	0.7682131
158	0xbf729ebe	-0.9477347
159	0x3f692aec	0.9108112
160	0x3f0a49e2	0.54018986
161	0x3e9156de	0.28386587
162	0xbead6883	-0.338688
163	0xbf5e08e1	-0.867323
164	0x3f0abea5	0.5419715
165	0x3f0afc2b	0.5429103
166	0x3f5c5e46	0.8608135
167	0xbf415894	-0.75525784
168	0xbf40f2b1	-0.7537032
169	0xbeffd85a	-0.4996975
170	0x3f1a3073	0.6023018
171	0xbeac5e0e	-0.33665508
172	0x3edb1050	0.42785883
173	0xbf647172	-0.89235604
174	0x3ef5b8c1	0.4799252
175	0xbf87d232	-1.0611022
176	0x3f683cbb	0.9071767
177	0x3f539adc	0.8265817
178	0xbee0decb	-0.43919978
179	0xbf719799	-0.94371945
180	0x3f5c03a1	0.8594304
181	0xbf6d4536	-0.9268373
182	0x3f5fd40a	0.8743292
183	0x3f4c12ff	0.79716486
184	0xbf55146b	-0.8323428
185	0x3f7be76c	0.98399997
186	0x3edccf08	0.43126702
187	0x3eed78c8	0.4638121
188	0x3e5c36b0	0.21505237
189	0xbea7d1ad	-0.32777157
190	0xbf25dff4	-0.6479485
191	0x3f44a772	0.76818
192	0xbf03f6cb	-0.5154845
193	0x3f4865e6	0.78280485
194	0xbf4d2e2d	-0.80148584
195	0xbf4eba49	-0.80753
196	0x401d5973	2.4585845
197	0x3fe5e24b	1.7959684
198	0xbecefbd0	-0.40426493
199	0x3fb21365	1.3912169
200	0xbf1e9eaf	-0.6196088
201	0xbf6fc1a5	-0.93654853
202	0x3e1d5310	0.15363717
203	0x3f81ff33	1.0156006
204	0xbfc7b84d	-1.5603119
205	0xbec80b02	-0.39070898
206	0xbf93c00a	-1.1542981
207	0x3f22650d	0.6343544
208	0xbe3e31d1	-0.18573691
209	0x3fff2ade	1.9934957
210	0x3fed3410	1.8531513
211	0x3fa41971	1.2820264
212	0x400b698b	2.1783168
213	0x3f1e628b	0.61869115
214	0xbf79ba48	-0.9754987
215	0x3f8e7faf	1.1132716
216	0x3ec4fac1	0.3847256
217	0x3f2ed2e1	0.68290526
218	0x3fb5c3fb	1.4200433
219	0xbe8b9983	-0.27265558
220	0xbfa2d93d	-1.2722546
221	0x3fa8c175	1.3184038
222	0x3f1950a4	0.5988867
223	0x4002daaa	2.0445962
224	0x3ffab842	1.9587481
225	0x3faa1864	1.3288693
226	0xbf6ec474	-0.93268514
227	0xbe8ac830	-0.27105856
228	0x3f35abaf	0.70965093
229	0x3f51af4a	0.81908095
230	0xbf32043d	-0.6953772
231	0x3fdc1cd2	1.7196295
232	0xbf86f3a6	-1.0543106
233	0x3f3d91c2	0.74050534
234	0xbe1cab1e	-0.15299651
235	0x3feb0c6d	1.8363167
236	0x3f0f8671	0.56064516
237	0xbe88d310	-0.26723528
238	0x3d859080	0.06521702
239	0x3f1ed03b	0.62036484
240	0xbf58d42c	-0.8469875
241	0xbf4bd2dd	-0.79618627
242	0xbe854af4	-0.26033747
243	0x4003a3ba	2.056868
244	0x3fb0c466	1.3809936
245	0x3fdd07b4	1.7267976
246	0x4008ab96	2.1354728
247	0xbf692460	-0.9107113
248	0x3ffe09f6	1.984679
249	0xbf220d8f	-0.6330194
250	0xbf75f1f0	-0.9607229
251	0xbf971294	-1.1802545
252	0xbe40cc6a	-0.18827978
253	0x3faff0f3	1.3745407
254	0xbf81652a	-1.0108998
255	0xbfa64779	-1.2990562

lstm.bias_hh_l0 f4 [256]
0	0xbe897234	-0.26844943
1	0x3fddb3e4	1.7320523
2	0x3f9ff268	1.2495852
3	0x3f6e7b7f	0.9315719
4	0x3f5612e8	0.836226
5	0x3f4711ab	0.77761334
6	0x3e74f294	0.23920661
7	0x3e23429e	0.15943381
8	0xbf0ba03f	-0.5454139
9	0xbe4bdcb6	-0.19908413
10	0x3fd4bec9	1.6620723
11	0x3f09525d	0.536413
12	0x3f9cd149	1.2251369
13	0x3f82a99b	1.020801
14	0x3fb33291	1.3999807
15	0xbeb49707	-0.35271475
16	0x3f3370dd	0.7009409
17	0x3f673f11	0.90330607
18	0x3f5cfa92	0.8631984
19	0x3f41ec97	0.7575163
20	0x3f71399c	0.9422853
21	0x3f476ff8	0.77905226
22	0xbe78bc10	-0.2429049
23	0x3f1c40ca	0.6103636
24	0x3fa4faa7	1.2888993
25	0xbed446b0	-0.4146018
26	0x3f8c17d9	1.0944778
27	0x3f5e562e	0.8685025
28	0xbf331a90	-0.69962406
29	0x3f8fc81f	1.1232947
30	0xbebb0195	-0.36524644
31	0x3f53ffe3	0.8281233
32	0x3f06c80e	0.5264901
33	0x3ef878aa	0.4852956
34	0xbea1e318	-0.3161857
35	0x3f34f185	0.7068103
36	0xbf67d6ee	-0.9056233
37	0x3e88786a	0.2665437
38	0xbf619bda	-0.88128436
39	0x3f6ace87	0.91721386
40	0xbe1f2b92	-0.15543965
41	0x3f09739c	0.5369203
42	0x3f1f682d	0.62268335
43	0x3d5fcb86	0.054637454
44	0xbf9318eb	-1.1491979
45	0x3f904b3d	1.1272961
46	0x3f804ae7	1.0022858
47	0x3fa897cf	1.3171328
48	0x3f564dbe	0.83712375
49	0xbf06ca84	-0.52652764
50	0x3c06db6a	0.008231023
51	0x3f48f3be	0.7849692
52	0x3f9a5e11	1.2059957
53	0x3f5bd058	0.8586478
54	0x3f6948d4	0.9112675
55	0x3f98423b	1.1895212
56	0x3e6652b4	0.22492486
57	0x3f8b70b2	1.0893767
58	0x3f0a42d5	0.5400823
59	0xbee47889	-0.4462321
60	0xbf598399	-0.8496643
61	0x3eeee561	0.46659377
62	0xbf350926	-0.70717084
63	0xbdc3050d	-0.09522448
64	0x3e9d732c	0.30751932
65	0xbe969e4e	-0.29417652
66	0x3d9776ff	0.073957436
67	0x3ebbc102	0.3667069
68	0x3f1fc49d	0.62409383
69	0x3ec1f7fb	0.37884507
70	0x3f09038c	0.5352104
71	0x3ed01424	0.40640366
72	0x3e905c2e	0.28195328
73	0x3ead34cd	0.33829346
74	0x3f03245f	0.5122737
75	0x3ee8c2d8	0.45461154
76	0xbf09bb48	-0.53801394
77	0x3ebaa2cc	0.3645233
78	0xbf0eac42	-0.55731595
79	0xbe8cf29e	-0.27528852
80	0x3ecd08b9	0.40045717
81	0x3eda7510	0.42667437
82	0x3ee084e8	0.438514
83	0x3efd3082	0.4945107
84	0x3f163353	0.58672065
85	0x3f2257dc	0.6341531
86	0x3cb2458f	0.021761684
87	0x3f24768f	0.64243406
88	0x3e9f06a7	0.31059763
89	0xbf1fddce	-0.6244782
90	0x3ede48b4	0.43414843
91	0x3e3d9afb	0.18516152
92	0x3912ca9f	0.00013999127
93	0x3ebc4e44	0.36778462
94	0x3ea4b076	0.3216588
95	0x3ea6b3b8	0.3255899
96	0x3eb64276	0.3559758
97	0x3e27635a	0.16346493
98	0x3e104765	0.14089735
99	0x3f0fbff1	0.56152254
100	0x3ee7be19	0.4526222
101	0xbe944691	-0.28960088
102	0x3e9d5b3e	0.30733675
103	0x3f3d6b9f	0.7399234
104	0xbdca362a	-0.09873612
105	0x3eeb7adf	0.4599218
106	0xbe891636	-0.26774758
107	0x3e8a309a	0.26990205
108	0xbb93aeba	-0.004506913
109	0x3d0bb7b1	0.03411073
110	0xbe2fab17	-0.1715511
111	0xbed31358	-0.41225696
112	0xbe003c32	-0.12522963
113	0x3dab6f04	0.08370784
114	0x3f10de1c	0.5658891
115	0x3f34b225	0.70584327
116	0x3edd4a9b	0.43220982
117	0x3f014655	0.50497943
118	0x3f01b67f	0.5066909
119	0x3d1054d6	0.035237156
120	0x3ea976e1	0.3309851
121	0xbe748db3	-0.23882179
122	0x3eef7cd0	0.46774912
123	0x3e12c3c9	0.14332499
124	0xbf1caa94	-0.6119778
125	0x3e476104	0.19470602
126	0x3dacbaf7	0.08434098
127	0x3d9bd44a	0.0760885
128	0xbef81b66	-0.48458403
129	0xbf9c3011	-1.2202169
130	0xbf944aa2	-1.1585276
131	0xbf2a50c7	-0.66529506
132	0x3f76b560	0.96370506
133	0x3f1ca82f	0.6119413
134	0xbed1098f	-0.40827605
135	0xbef870fd	-0.48523703
136	0xbe810745	-0.2520086
137	0xbe95d667	-0.29265139
138	0x3f9855b4	1.1901155
139	0x3ee8ea8f	0.45491454
140	0x3f6d7329	0.92753845
141	0x3f23d4d4	0.63996625
142	0x3f848f8d	1.0356308
143	0x3e0d1867	0.1377884
144	0xbf8a696f	-1.0813426
145	0x3f2e5968	0.68105173
146	0xbf60b3ff	-0.8777465
147	0x3f143f32	0.5790893
148	0xbf4645d5	-0.77450305
149	0xbf62307c	-0.8835523
150	0xbee92841	-0.45538524
151	0x3f430e40	0.7619362
152	0xbf62a88c	-0.8853843
153	0x3eda26e1	0.42607787
154	0xbf656ad5	-0.8961614
155	0x3f11b9e7	0.5692429
156	0xbed648fd	-0.4185256
157	0x3f7319f3	0.9496147
158	0xbf5dd4b9	-0.86652714
159	0x3f6aa998	0.9166503
160	0x3f12adb6	0.5729631
161	0x3e2fef22	0.17181066
162	0xbe945c22	-0.28976542
163	0xbf4482ce	-0.7676209
164	0x3f2cffda	0.675779
165	0x3ed94a29	0.42439392
166	0x3f4b5ef4	0.7944176
167	0xbf6c14df	-0.92219347
168	0xbf35ae55	-0.70969135
169	0xbef450ed	-0.4771799
170	0x3f17da63	0.59317607
171	0xbea87d3b	-0.32908043
172	0x3ef02839	0.46905687
173	0xbf687371	-0.9080115
174	0x3ee81dca	0.45335227
175	0xbf8b6f8b	-1.0893415
176	0x3f8607ad	1.0471092
177	0x3f386284	0.7202532
178	0xbed2eff0	-0.41198683
179	0xbf58a814	-0.84631467
180	0x3f68acb4	0.90888524
181	0xbf45a22f	-0.772006
182	0x3f43a086	0.76416814
183	0x3f466aa9	0.775065
184	0xbf3f31cb	-0.74685353
185	0x3f529e74	0.8227303
186	0x3efd85eb	0.49516234
187	0x3f0cc141	0.5498238
188	0x3e6e693f	0.23282336
189	0xbe2ce1a5	-0.16882952
190	0xbf267853	-0.6502735
191	0x3f2e2088	0.6801839
192	0xbf0da76d	-0.55333596
193	0x3f54c97d	0.83119947
194	0xbf455648	-0.7708478
195	0xbf7d9b14	-0.99064755
196	0x401e9af0	2.4782066
197	0x3fdf9ab9	1.7469093
198	0xbf137834	-0.5760529
199	0x3fc1b529	1.5133411
200	0xbf0ce580	-0.5503769
201	0xbf8af7e9	-1.0856906
202	0x3ca71e55	0.020400206
203	0x3f58dc74	0.84711385
204	0xbfb27377	-1.3941487
205	0xbe80754f	-0.250895
206	0xbf8e935b	-1.1138719
207	0x3f1dd498	0.6165252
208	0xbe1c4273	-0.15259723
209	0x4001c283	2.027497
210	0x3fefc9b9	1.8733436
211	0x3fb4b608	1.4118052
212	0x40068fbc	2.1025229
213	0x3f23be44	0.639622
214	0xbf5eee2f	-0.8708219
215	0x3f8aaf76	1.0834796
216	0x3ecf8c79	0.4053686
217	0x3f0c8aa1	0.5489903
218	0x3fb112b6	1.3833835
219	0xbeb9916b	-0.36243758
220	0xbfa328fb	-1.2746881
221	0x3fb0c221	1.3809243
222	0x3ed28540	0.41117287
223	0x3ffb580a	1.9636242
224	0x3fdf2e70	1.7436047
225	0x3fae1f00	1.360321
226	0xbf8359b0	-1.0261745
227	0xbde76a1e	-0.11299537
228	0x3f58823e	0.84573734
229	0x3f457bb1	0.77141863
230	0xbf49ab5d	-0.78777105
231	0x3ff54715	1.9162318
232	0xbf898edc	-1.0746722
233	0x3f319cfd	0.6938017
234	0xbe432656	-0.19057593
235	0x3ffc1e8a	1.969682
236	0x3f3fb216	0.7488111
237	0xbdf0c71f	-0.11756729
238	0x3bac0f1c	0.0052508246
239	0x3eeeaf88	0.46618295
240	0xbf6e0a99	-0.9298492
241	0xbf7fda31	-0.9994231
242	0xbe91e1e1	-0.28492644
243	0x40099b12	2.1500897
244	0x3fa31194	1.273974
245	0x3feae2fd	1.8350521
246	0x400fcaf0	2.2467613
247	0xbf6adc7e	-0.91742694
248	0x3ff3761d	1.902042
249	0xbf3159c1	-0.6927758
250	0xbf8a263f	-1.0792922
251	0xbf8eb7ae	-1.1149805
252	0xbdca960a	-0.09891899
253	0x3fbb18d5	1.4616953
254	0xbf613fc7	-0.8798794
255	0xbf8bbf7b	-1.091781

fc.weight f4 [1, 64]
0	0xc22a7bbf	-42.620846
1	0xc1fbe8c3	-31.488653
2	0xc21a0ec7	-38.51443
3	0xc243ce1b	-48.951275
4	0x42648b22	57.13587
5	0x4264ce44	57.20143
6	0xc2435a7a	-48.838356
7	0xc242730b	-48.612347
8	0xc252133f	-52.518795
9	0xc23edb04	-47.713882
10	0x4232912e	44.641777
11	0x426446d5	57.06917
12	0x420203cc	32.503708
13	0x423c89de	47.134636
14	0xc1f86f70	-31.054413
15	0xc228bec9	-42.186314
16	0xc2537489	-52.863804
17	0x4264e00c	57.218796
18	0xc2648c0c	-57.136765
19	0x426486b4	57.131546
20	0xc264a238	-57.158417
21	0xc260ca23	-56.1974
22	0x42221bd0	40.52716
23	0x42645f0f	57.09283
24	0xc244df6d	-49.21819
25	0xc257f5f1	-53.990177
26	0xc264ae53	-57.17024
27	0x422be1cc	42.970505
28	0xc203565d	-32.83434
29	0x42644b1c	57.07335
30	0x424bf704	50.991226
31	0x4264c3a4	57.191055
32	0x42647b51	57.120426
33	0x425bdbe9	54.964756
34	0xc23d98f3	-47.399364
35	0xc2583bf0	-54.058533
36	0x42599704	54.397476
37	0x423fc748	47.94461
38	0xc2649d29	-57.153477
39	0xc1a54a8b	-20.661398
40	0xc1f8fbb5	-31.122904
41	0xc24db0dc	-51.422714
42	0x4257c230	53.939636
43	0xc2645287	-57.080593
44	0xc246a176	-49.657677
45	0xc24de057	-51.46908
46	0x422dec01	43.480473
47	0xc23ba420	-46.91028
48	0x41e7f670	28.99533
49	0x421e7d7b	39.62254
50	0xc21e2bcb	-39.542767
51	0xc2647676	-57.115685
52	0x4264623b	57.09593
53	0xc19c47c0	-19.535034
54	0x4264776b	57.11662
55	0x4243f8ea	48.99308
56	0xc264532d	-57.081226
57	0x42188002	38.125008
58	0x4256dd7f	53.716305
59	0x421bd11d	38.954212
60	0x42571193	53.767162
61	0xc2646d9f	-57.10705
62	0xc1ee6fa9	-29.804522
63	0x420cd952	35.212227
