LSTM_MODEL/first_model_64.pt (torch, 89392 bytes, 5 tensors)

lstm.weight_ih_l0 f4 [256, 19]
0.095039465 0.51818025 -0.08366305 0.049336493 -0.06410964 -0.088287935 -0.060507774 0.39094615
0.39286345 0.67899424 0.18349873 0.22210786 0.2170739 0.23653713 0.22736235 0.15888058
0.05717223 0.42912653 0.23245446 0.6602619 0.27022678 0.10390118 -0.037015826 -0.08043191
-0.12426309 -0.07199861 0.19048342 0.32550713 0.55212206 0.566587 0.7028532 0.57810885
0.66181815 0.7052625 0.5007974 0.559989 0.47466555 0.56692004 -0.08318888 0.50529146
0.025632784 0.006408751 0.11183305 -0.082726195 -0.07749556 0.3708728 -0.37553728 -0.1287347
-0.05842014 -0.117351174 -0.18051857 -0.13614662 -0.11004484 -0.019704256 -0.0008860604 -0.18735379
-0.15323862 0.078522414 0.4196667 -0.047374353 0.117297694 -0.02686292 0.0235724 0.03624381
0.23591946 -0.09672716 0.0962388 0.04466283 0.17625593 0.15908064 0.114362456 0.16196646
0.23122597 0.22799224 0.17385462 0.26261592 0.10390254 0.5399882 -0.09987958 0.09348945
0.12171768 -0.030385643 0.060927927 0.2971871 -0.017138667 0.25809467 0.11692803 0.110430576
0.064887926 0.06695978 0.08756388 -0.005304128 0.2487871 0.22021338 0.1490669 0.7439162
0.21765918 -0.11459836 -0.009500325 0.041150942 -0.062097937 0.0060126036 -0.098037064 0.70212543
0.59804296 0.7046755 0.7498236 0.81951225 0.63932735 0.82572925 0.7473451 0.6000528
0.6445983 0.520739 0.6197427 0.5015673 -0.10467869 0.07167505 0.1043611 0.048754364
-0.11071776 0.5360524 0.7534065 0.5994776 0.8620703 0.7895709 0.66590625 0.8149125
0.6153466 0.8229778 0.7895355 0.6171971 0.6776498 0.5511843 0.09669368 -0.02097866
0.066072196 -0.070340455 -0.054966673 0.031549618 0.014837171 0.4396314 0.119576134 0.62001085
0.58224136 0.6553852 0.615332 0.623249 0.5808836 0.47105652 0.28363734 0.26229864
0.32262626 0.4422084 -0.11708304 -0.08539422 -0.07052094 0.00041392446 0.09761359 -0.2050684
0.41945115 0.49062324 0.40970144 0.43262225 0.2993995 0.38155246 0.36514926 0.45928377
0.37011987 0.40491006 0.3995863 0.35894784 0.6518749 0.0678345 0.07491876 0.06880264
-0.037742376 0.026209503 0.6367272 0.0764408 0.18954793 0.40297276 0.4293178 0.5750267
0.540161 0.42977506 0.5569846 0.46363243 -0.052871626 0.20286852 0.35784945 0.5061892
-0.012547061 -0.05645877 -0.12458241 -0.021422207 0.015727907 0.4319046 0.01619921 0.21322058
0.5220806 0.3755901 0.5009523 0.29586577 0.4165345 0.3477029 0.37909967 0.24194974
0.296815 0.4259808 0.6169845 0.05822988 0.0024735332 0.027142018 0.010268867 0.03576143
0.49353114 0.09674582 0.3549415 0.32360443 0.49743122 0.35199502 0.47634855 0.34199852
0.52134556 0.3512906 0.17998852 0.34731743 -0.20703809 -0.095126465 0.008857071 -0.0073310584
-0.094496146 0.117461234 0.06771086 -0.029321417 0.24673906 0.072594285 -0.02315247 -0.1372403
-0.13863124 -0.018771606 -0.15260932 -0.023893835 -0.028529394 0.023089485 -0.04131433 0.24422064
0.62355536 0.09819652 -0.11938727 -0.049066365 -0.11223522 0.004086226 0.20370725 0.0016153256
00000000: 0da4 c23d 76a7 043f 8857 abbd 1015 4a3d
00000010: ea4b 83bd 4ed0 b4bd 00d7 77bd 182a c83e
00000020: 6625 c93e 91d2 2d3f 17e7 3b3e 3e70 633e
00000030: 9f48 5e3e ca36 723e add1 683e 97b1 223e
00000040: 6e2d 6a3d 79b6 db3e 8b08 6e3e ed06 293f
00000050: 2a5b 8a3e 24ca d43d e89d 17bd 7cb9 a4bd
00000060: a67d febd 0274 93bd 160e 433e dfa8 a63e
00000070: df57 0d3f d80b 113f 30ee 333f f1fe 133f
00000080: ea6c 293f 158c 343f 4234 003f 705b 0f3f
00000090: 5d07 f33e ac21 113f ee5e aabd c85a 013f
000000a0: d8fb d13c 8000 d23b ba08 e53d 5a6c a9bd
000000b0: feb5 9ebd 0ae3 bd3e 6c46 c0be 07d3 03be
000000c0: f549 6fbd d055 f0bd dcd9 38be 056a 0bbe
000000d0: 305f e1bd d26a a1bc 8246 68ba acd9 3fbe
000000e0: 96ea 1cbe 5cd0 a03d 8ede d63e 9c0b 42bd
000000f0: c639 f03d a00f dcbc e81a c13c 6474 143d
00000100: df94 713e e418 c6bd d918 c53d 5ff0 363d
00000110: 6f7c 343e 09e6 223e dd36 ea3d 89da 253e
00000120: 80c6 6c3e cc76 693e f206 323e 9875 863e
00000130: dbca d43d ab3c 0a3f aa8d ccbd 6677 bf3d
00000140: 1e47 f93d 50eb f8bc 908f 793d e828 983e
00000150: 6466 8cbc fc24 843e f777 ef3d 6d29 e23d
00000160: f6e3 843d 3622 893d b154 b33d 40ce adbb
00000170: 0cc2 7e3e 9e7f 613e fea4 183e 4b71 3e3f
00000180: 0ce2 5e3e 8cb2 eabd 40a7 1bbc e48d 283d
00000190: 685a 7ebd 6005 c53b a8c7 c8bd 7ebe 333f
000001a0: 5819 193f 9d65 343f 70f4 3f3f 8ecb 513f
000001b0: f5aa 233f fe62 533f 0252 3f3f 0f9d 193f
000001c0: 6504 253f 274f 053f 75a7 1e3f b766 003f
000001d0: c861 d6bd 5eca 923d 46bb d53d a8b2 473d
000001e0: febf e2bd bb3a 093f 40df 403f 5d77 193f
000001f0: a4b0 5c3f 5221 4a3f d578 2a3f 1b9e 503f
00000200: 5b87 1d3f acae 523f 001f 4a3f a100 1e3f
00000210: 757a 2d3f 6a1a 0d3f 5607 c63d 70db abbc
00000220: dc50 873d a80e 90bd bc24 61bd 2c3a 013d
00000230: 9b17 733c 5e17 e13e 55e4 f43d 08b9 1e3f
00000240: c50d 153f 53c7 273f 6686 1d3f 3f8d 1f3f
00000250: cab4 143f 522e f13e ea38 913e 024c 863e
00000260: 452f a53e 2469 e23e 3cc9 efbd 2ae3 aebd
00000270: 486d 90bd 0004 d939 a2e9 c73d 73fd 51be
00000280: 4dc2 d63e f832 fb3e 63c4 d13e aa80 dd3e
00000290: e44a 993e d85a c33e d8f4 ba3e 3e27 eb3e
000002a0: 5a80 bd3e 5f50 cf3e 9396 cc3e 03c8 b73e
000002b0: 46e1 263f d0ec 8a3d 026f 993d 66e8 8c3d
000002c0: c097 1abd 50b5 d63c 8e00 233f ff8c 9c3d
000002d0: da18 423e 7252 ce3e 8bcf db3e f334 133f
000002e0: fe47 0a3f 7a0b dc3e 8b96 0e3f 3b61 ed3e
000002f0: eb8f 58bd c4bc 4f3e 0b38 b73e 9e95 013f
00000300: 3092 4dbc 5041 67bd 1025 ffbd a07d afbc
00000310: d0d7 803c 9a22 dd3e 35b4 843c 7f56 5a3e
00000320: 13a7 053f 584d c03e 693e 003f b87b 973e
00000330: 0344 d53e 1d06 b23e 5a19 c23e acc1 773e
00000340: 23f8 973e 281a da3e b2f2 1d3f 7482 6e3d
00000350: 001b 223b f058 de3c c03e 283c 947a 123d
00000360: 1db0 fc3e ac22 c63d e4ba b53e 7baf a53e
00000370: 4eaf fe3e b138 b43e f5e3 f33e 6e1a af3e
00000380: e776 053f 5ddc b33e e94e 383e 97d3 b13e
00000390: cb01 54be aad1 c2bd 401d 113c 6039 f0bb
000003a0: 3287 c1bd 848f f03d feab 8a3d 7833 f0bc
000003b0: 2aa9 7c3e 50ac 943d 40aa bdbc b988 0cbe
000003c0: 59f5 0dbe e9c6 99bc 9e45 1cbe 01bd c3bc
000003d0: 7ab6 e9bc 2926 bd3c 3739 29bd fa14 7a3e
000003e0: 53a1 1f3f 421b c93d 5081 f4bd d0f9 48bd
000003f0: 94db e5bd c0e5 853b a298 503e 55b9 d33a

lstm.weight_hh_l0 f4 [256, 64]
0.33354667 -0.19238582 -0.33618382 0.4430946 -0.23486598 0.27999115 0.2715828 -0.22418305
-0.20012774 -0.15124367 0.44928408 -0.44331488 -0.28370386 -0.22852078 0.31337917 -0.33381718
-0.3733959 0.417046 0.23447108 -0.2986323 0.42257115 0.08572076 0.29953066 -0.27242512
-0.27883506 -0.3916866 -0.29566234 0.35188562 -0.38455302 -0.33618712 0.19200613 0.22492638
-0.39705682 0.4215233 0.28494978 0.31979662 0.23747951 0.24276416 -0.27547583 -0.43608803
-0.41640493 0.22695096 0.27091086 -0.36345685 -0.14134735 0.3589962 0.2867107 -0.44826213
0.33168772 -0.286162 -0.23689358 0.31532156 -0.23228234 -0.46882483 -0.29360557 -0.3796443
0.28347948 0.35435638 -0.26601028 -0.22477204 0.28146058 0.39019296 0.26594016 0.14317429
0.116574034 -0.15915819 -0.19816104 0.08091953 0.028567156 0.03464507 0.1616363 -0.10977342
-0.07055885 -0.049130663 0.15052089 -0.09056161 -0.19841921 -0.2100254 0.032966632 -0.08047977
0.04186527 0.05526674 0.091720685 0.046023984 0.1341594 -0.017895175 -0.029206347 -0.12056583
-0.08302607 -0.07118264 -0.20040499 -0.015760116 -0.050588254 -0.077739015 0.04242441 0.0046616034
-0.15289627 0.11460007 -0.015133962 0.011692155 -0.021553675 0.14631534 0.017090635 -0.030851
-0.08571162 0.13010108 0.043890323 -0.09514547 -0.14400722 0.04423431 0.0627741 -0.0085254675
0.048534106 -0.03997329 -0.19308938 -0.028208103 -0.12847836 -0.104873694 -0.1893053 -0.05597273
0.07096945 0.22461249 -0.022941992 -0.13677493 0.11106716 0.15630643 0.19063574 0.0033961
-0.0066119567 0.004588767 -0.18919174 0.06058819 -0.20151469 0.08612725 0.021946242 -0.06969335
0.0882716 -0.013212199 0.0700532 -0.09049372 -0.06743624 -0.13680132 -0.06607586 -0.23116532
-0.13677384 0.08863839 0.12223199 -0.07988802 0.11733492 0.100328915 0.19334263 -0.08884381
-0.14513133 -0.14305916 -0.2005354 0.18398596 -0.15646394 -0.18101548 0.14379813 0.21802168
-0.15994222 0.12748277 0.05365334 0.09045277 0.087453686 -0.05046583 -0.1989011 -0.12577221
-0.04770323 0.107390545 0.20868096 -0.12643749 0.13117453 0.1523569 0.14455047 0.024699278
0.00023934686 -0.1364778 -0.07446931 -0.009957383 -0.00801138 -0.08371137 -0.17318507 -0.15462542
0.01401889 0.10665707 0.0024189823 -0.19339795 0.05915059 0.14313766 0.18182279 -0.10452574
0.4203716 -0.43768784 -0.3621871 0.33349162 -0.3206613 0.356835 0.4027373 -0.37039676
0.27069294 -0.34176776 0.49719968 -0.46430176 -0.5165157 -0.4425614 0.32472366 -0.424229
-0.44381228 0.39196718 -0.27422243 -0.32463035 0.43591973 0.29040667 0.50575274 -0.31675622
0.13298897 -0.38837475 -0.44462627 0.4248617 -0.49076986 0.10835949 0.2960761 0.30342516
-0.3889595 0.28059486 0.36044285 0.32897308 0.45083103 -0.16778845 -0.46218765 -0.28081065
-0.37030602 0.48188862 0.33291844 -0.31861725 0.07012464 0.4648857 0.49905458 -0.36546773
0.42426294 -0.26523256 -0.3897134 0.5425508 0.27731124 -0.32259947 -0.32386848 -0.4246121
0.41310126 -0.27239987 -0.30439815 -0.37112558 -0.15854537 0.31362462 0.20016581 -0.22763339
00000000: a1c6 aa3e ca00 45be 4920 acbe 4cdd e23e
00000010: b580 70be 005b 8f3e e70c 8b3e 3e90 65be
00000020: 49ee 4cbe 9fdf 1abe 9008 e63e 2bfa e2be
00000030: a241 91be 5a01 6abe 3c73 a03e 16ea aabe
00000040: bf2d bfbe 0e87 d53e 3019 703e 55e6 98be
00000050: 3f5b d83e 5e8e af3d 155c 993e 4e7b 8bbe
00000060: 78c3 8ebe 258b c8be 0e61 97be 5a2a b43e
00000070: 22e4 c4be b820 acbe 419d 443e 1a53 663e
00000080: 084b cbbe e7d1 d73e f0e4 913e 62bc a33e
00000090: d42d 733e 2b97 783e 2b0b 8dbe ee46 dfbe
000000a0: 0733 d5be d565 683e d4b4 8a3e 0417 babe
000000b0: 5cbd 10be 5ace b73e bfcb 923e 9d82 e5be
000000c0: f9d2 a93e d383 92be 3b94 72be d471 a13e
000000d0: 6cdb 6dbe cf09 f0be 7853 96be bd60 c2be
000000e0: 3924 913e 336e b53e 8032 88be a42a 66be
000000f0: 9a1b 903e 5fc7 c73e 4f29 883e 489c 123e
00000100: 5ebe ee3d 5dfa 22be baea 4abe 23b9 a53d
00000110: ab05 ea3c fde7 0d3d fc83 253e e3d0 e0bd
00000120: 2981 90bd 3c3d 49bd 2622 1a3e 5e78 b9bd
00000130: 682e 4bbe e610 57be 0508 073d 94d2 a4bd
00000140: eb7a 2b3d 615f 623d 0ed8 bb3d a583 3c3d
00000150: 1561 093e e798 92bc 2642 efbc 38eb f6bd
00000160: 9209 aabd 34c8 91bd f736 4dbe 5c1b 81bc
00000170: a135 4fbd a235 9fbd 38c5 2d3d 5dc0 983b
00000180: d790 1cbe 71b3 ea3d 70f4 77bc 7490 3f3c
00000190: 5591 b0bc b0d3 153e a901 8c3c 3dbb fcbc
000001a0: 9389 afbd 3839 053e 57c6 333d a1db c2bd
000001b0: a176 13be 092f 353d b58f 803d 67ae 0bbc
000001c0: b3cb 463d 08bb 23bd 39b9 45be ae14 e7bc
000001d0: d58f 03be 05c8 d6bd 40d9 41be a943 65bd
000001e0: 6e58 913d d100 663e d8f0 bbbc ba0e 0cbe
000001f0: 2e77 e33d cb0e 203e 0436 433e 1a91 5e3b
00000200: 1da9 d8bb 5e5d 963b 7bbb 41be 522b 783d
00000210: de59 4ebe 7c63 b03d 9bc8 b33c 63bb 8ebd
00000220: bec7 b43d fb77 58bc 0d78 8f3d c554 b9bd
00000230: 031c 8abd a515 0cbe c852 87bd 9ab6 6cbe
00000240: 710e 0cbe 0b88 b53d c454 fa3d 559c a3bd
00000250: 4a4d f03d 3f79 cd3d 9cfb 453e bef3 b5bd
00000260: 4f9d 14be 1a7e 12be 2759 4dbe d166 3c3e
00000270: 1538 20be 1f5c 39be d13f 133e 1341 5f3e
00000280: e5c7 23be d88a 023e 9bc3 5b3d 4d3f b93d
00000290: eb1a b33d 42b5 4ebd bbac 4bbe 6eca 00be
000002a0: 7664 43bd 93ef db3d 76b0 553e d478 01be
000002b0: 9e52 063e 7203 1c3e 0a05 143e 2456 ca3c
000002c0: 2ff9 7a39 d6c0 0bbe 5e83 98bd 4b24 23bc
000002d0: 2a42 03bc de70 abbd 6d57 31be 2056 1ebe
000002e0: 7daf 653c 066f da3d ca87 1e3b 1d0a 46be
000002f0: e447 723d ae92 123e c12f 3a3e 9711 d6bd
00000300: f23a d73e 9f18 e0be 9670 b9be 6abf aa3e
00000310: b82d a4be 14b3 b63e 9533 ce3e a5a4 bdbe
00000320: 4498 8a3e 2ffc aebe f590 fe3e f6b8 edbe
00000330: 5f3a 04bf 6897 e2be 2e42 a63e 8b34 d9be
00000340: 5d3b e3be ecaf c83e e266 8cbe f335 a6be
00000350: df30 df3e 2fb0 943e 0379 013f df2d a2be
00000360: 432e 083e 0ed9 c6be 0ea6 e3be 7987 d93e
00000370: 3046 fbbe 95eb dd3d 4997 973e 8b5a 9b3e
00000380: b325 c7be 21aa 8f3e f78b b83e 296f a83e
00000390: 53d3 e63e bcd0 2bbe dca3 ecbe 6ac6 8fbe
000003a0: c098 bdbe 1bba f63e 4974 aa3e cd21 a3be
000003b0: 829d 8f3d 8005 ee3e 1584 ff3e 961e bbbe
000003c0: fe38 d93e 90cc 87be 8488 c7be 9ce4 0a3f
000003d0: bdfb 8d3e c22b a5be 17d2 a5be c266 d9be
000003e0: 0282 d33e ff77 8bbe 13da 9bbe 2c04 bebe
000003f0: b859 22be 6893 a03e 44f8 4c3e ba18 69be

lstm.bias_ih_l0 f4 [256]
0.26497853 0.3664285 -0.14861035 0.22834022 0.08306729 0.6359104 0.5381617 0.22821222
0.39321172 0.1394297 0.31571084 0.30273733 -0.073786214 -0.06385266 0.02906623 0.2626418
0.20459352 0.4852392 -0.9115994 0.5913338 0.31071174 0.15194333 0.33053672 0.83570385
-0.0831565 0.666152 0.042071223 0.11455633 0.095215715 0.2881419 0.25746247 0.6737554
0.43936607 -0.35393938 0.039594408 -0.4917818 0.057830557 -0.07119525 -0.16488855 0.11263535
0.40914327 0.39210725 0.55490494 0.679125 0.3903268 0.095562615 -0.22976159 0.15804577
0.5659807 0.1992126 0.41013873 -0.3878533 0.24495271 0.2594107 0.21098931 0.0703238
0.20509432 -0.107348375 0.3914966 0.30722564 0.0053823665 -0.33652538 -0.55733496 -0.08985078
0.43102178 0.03590426 0.16064313 0.31635457 0.12564313 0.07043363 0.40069464 0.2095154
0.5487823 0.4797918 0.254681 0.6228089 0.07804486 0.3204366 0.05242077 0.3043114
0.4667903 0.49993682 0.34689987 0.44813612 0.37641555 0.31184074 0.071153685 0.3189061
0.0779424 0.1465292 0.2838675 0.34052315 0.303571 0.2565913 -0.0117441565 0.023509772
0.50281626 0.4754778 0.3838655 0.18881205 0.38538727 0.3913422 0.37166834 0.2873623
0.26671883 0.3511757 0.01914925 0.0372033 0.10644328 0.39051735 0.38057923 0.5303956
0.064869426 0.17078765 0.14250231 0.5335547 0.14910838 0.4039578 0.43746546 0.09250578
0.24390869 0.13224177 0.2948352 0.39885962 0.16465783 0.20920782 -0.29431447 0.17999396
0.7672187 -0.3774059 -0.039437216 0.08278327 -0.3508145 0.6760127 0.8195191 -0.37802547
0.4684207 -0.06681665 0.3468661 -0.32734227 -0.19655477 -0.1111074 -0.5083435 -0.3591066
-0.3371151 0.5483328 -0.16684374 -0.6392208 0.30947673 0.15098834 0.28526244 -0.48826912
-0.2229862 -0.51746184 -0.25321972 0.33366427 -0.304628 -0.29210764 0.3928618 0.3262228
-0.47097617 -0.0015798042 0.17661771 -0.005976862 0.04574183 -0.019010117 -0.33942494 -0.2999234
-0.63152254 0.4451118 0.43760636 -0.6650363 0.6097437 0.20069498 -0.33677915 -0.08640961
0.47962773 -0.3372262 -0.3168919 -0.21571931 -0.4582387 -0.4950532 -0.29739392 0.5664728
0.07569273 0.32454404 -0.12895525 -0.25546625 0.22719668 -0.16996261 -0.14770484 -0.039269175
0.21604483 -0.7584414 -0.16982669 -0.522997 0.37532273 -0.7418381 0.17740175 0.081998214
-0.17864987 -0.5089887 0.5806173 0.5621453 -0.6434272 0.7461429 -0.9219683 -0.3771204
0.5541853 0.12074793 -0.105262384 -0.16591313 0.40731245 0.2144124 -0.45947334 0.24995762
0.6963798 -0.55204767 0.54151213 0.5981886 0.21118364 0.18198591 -0.66608053 -0.5400532
0.42335948 -0.20219438 0.7103293 -0.37990105 0.6146232 0.39737922 0.34191576 0.43024465
0.3206889 0.4672282 -0.6909329 -0.64743304 -0.58395207 0.33671767 0.48431978 0.28474745
-0.67459327 -0.45099825 0.70039755 0.18663163 -0.15797335 -0.005029505 0.71121603 -0.48792782
0.59700096 -0.33376217 -0.6201042 0.44777718 0.56242406 -0.31814203 -0.71787125 0.34200045
00000000: 44ab 873e 849c bb3e 502d 18be 05d2 693e
00000010: 2f1f aa3d 06cb 223f f7c4 093f 77b0 693e
00000020: 0c53 c93e a9c6 0e3e daa4 a13e 6300 9b3e
00000030: 3a1d 97bd 2fc5 82bd 4d1c ee3c fc78 863e
00000040: f780 513e 4671 f83e 945e 69bf a761 173f
00000050: 9c15 9f3e 0897 1b3e 1c3c a93e b0f0 553f
00000060: f44d aabd f088 2a3f e052 2c3d 829c ea3d
00000070: 7500 c33d 5687 933e 1fd2 833e 3c7b 2c3f
00000080: 97f4 e03e 8b37 b5be bf2d 223d d3ca fbbe
00000090: bcdf 6c3d d1ce 91bd 8bd8 28be 5dad e63d
000000a0: 3a7b d13e 48c2 c83e 400e 0e3f 23db 2d3f
000000b0: ead8 c73e 55b6 c33d 9f46 6bbe c0d6 213e
000000c0: 1ce4 103f 63fe 4b3e b4fd d13e b594 c6be
000000d0: e2d4 7a3e 7bd1 843e 950d 583e ed05 903d
000000e0: 3f04 523e 77d9 dbbd 3e72 c83e ae4c 9d3e
000000f0: 905e b03b 0e4d acbe 81ad 0ebf b003 b8bd
00000100: e3ae dc3e 5810 133d a27f 243e 3af9 a13e
00000110: 98a8 003e 823f 903d d927 cd3e 348b 563e
00000120: ff7c 0c3f 45a7 f53e 8c65 823e 6770 1f3f
00000130: fcd5 9f3d 4410 a43e 29b7 563d b4ce 9b3e
00000140: 23ff ee3e b8f7 ff3e dc9c b13e 1972 e53e
00000150: 8ab9 c03e 97a9 9f3e 06b9 913d a947 a33e
00000160: 44a0 9f3d c00b 163e 1557 913e 0d59 ae3e
00000170: a86d 9b3e ef5f 833e 906a 40bc 9197 c03c
00000180: 91b8 003f d471 f33e 058a c43e f257 413e
00000190: 7b51 c53e 015e c83e 504b be3e 2721 933e
000001a0: 5f8f 883e 4dcd b33e e3de 9c3c 7d62 183d
000001b0: effe d93d e4f1 c73e 48db c23e 02c8 073f
000001c0: 43da 843d f5e2 2e3e 20ec 113e 0a97 083f
000001d0: deaf 183e 8fd3 ce3e 79fb df3e ac73 bd3d
000001e0: 33c3 793e 636a 073e a4f4 963e 5437 cc3e
000001f0: 109c 283e 933a 563e 63b0 96be 5650 383e
00000200: 7268 443f 593b c1be eb88 21bd 468a a93d
00000210: f59d b3be 2b0f 2d3f 01cc 513f 8e8c c1be
00000220: d7d4 ef3e 2bd7 88bd 6f98 b13e 6899 a7be
00000230: a745 49be 478c e3bd cd22 02bf d2dc b7be
00000240: 5a9a acbe 8a5f 0c3f 16d9 2abe f9a3 23bf
00000250: bc73 9e3e b09c 1a3e eb0d 923e 69fe f9be
00000260: 7f56 64be 6178 04bf 04a6 81be 0bd6 aa3e
00000270: 34f8 9bbe 228f 95be 2f25 c93e ad06 a73e
00000280: ca23 f1be 6f11 cfba 46db 343e 8dd9 c3bb
00000290: c95b 3b3d 1bbb 9bbc 1bc9 adbe 8f8f 99be
000002a0: 76ab 21bf b2e5 e33e f10d e03e d23f 2abf
000002b0: 2a18 1c3f fc82 4d3e 516e acbe 86f7 b0bd
000002c0: c491 f53e eaa8 acbe a83f a2be 86e5 5cbe
000002d0: 439e eabe 9d77 fdbe 0444 98be 5d04 113f
000002e0: ca04 9b3d a32a a63e d80c 04be 79cc 82be
000002f0: 3fa6 683e ae0a 2ebe f03f 17be b7d8 20bd
00000300: db3a 5d3e 3729 42bf 0ce7 2dbe 22e3 05bf
00000310: 4d2a c03e 1ae9 3dbf cea8 353e aeee a73d
00000320: feef 36be 154d 02bf 56a3 143f c1e8 0f3f
00000330: a5b7 24bf 3903 3f3f 1d06 6cbf ed15 c1be
00000340: 16df 0d3f b14a f73d ce93 d7bd 22e5 29be
00000350: 428b d03e ed8e 5b3e 1740 ebbe e4f4 7f3e
00000360: f245 323f ff52 0dbf 8aa0 0a3f e322 193f
00000370: 8640 583e 845a 3a3e 4184 2abf ed40 0abf
00000380: 93c2 d83e 0b0c 4fbe 24d8 353f 6482 c2be
00000390: f257 1d3f 4a75 cb3e 950f af3e 0749 dc3e
000003a0: 5631 a43e 8938 ef3e fbe0 30bf 2cbe 25bf
000003b0: e27d 15bf 4266 ac3e c3f8 f73e 6bca 913e
000003c0: 25b2 2cbf 3ee9 e6be 414d 333f 5d1c 3f3e
000003d0: c4c3 21be 8cce a4bb 4112 363f add1 f9be
000003e0: 0ed5 183f e0e2 aabe 26bf 1ebf 0d43 e53e
000003f0: 06fb 0f3f 83e3 a2be 69c6 37bf af1a af3e

lstm.bias_hh_l0 f4 [256]
0.30100742 0.49566168 -0.21913071 0.0945428 0.31061825 0.66354567 0.61240613 0.31023115
0.45832843 0.24344683 0.13515714 0.14454652 0.046191763 0.17312124 -0.12747572 0.24030827
0.3636796 0.4213592 -0.9664982 0.5805632 0.28784594 0.28702718 0.3547509 0.8025649
0.029826846 0.54349744 0.039489146 0.2849579 0.2058544 0.24400593 0.27597317 0.6164798
0.4642088 -0.4438672 -0.070196345 -0.31754476 0.18409841 -0.12650205 -0.06496397 0.16105372
0.40820438 0.3882236 0.55702746 0.588714 0.45345524 0.080913 -0.2598125 0.0019219969
0.43362355 0.4010531 0.47379902 -0.35625106 0.22818083 0.20771068 0.15831655 -0.14786936
0.030037463 -0.14579871 0.18251427 0.33869183 0.027069688 -0.37251037 -0.5741472 0.04063541
0.34025502 0.0059888875 0.063068524 0.3542803 0.1534763 0.014070419 0.3295196 0.3120303
0.4115326 0.2988758 0.24749486 0.6142156 0.09400816 0.47205558 0.16864745 0.3431707
0.48022294 0.5354019 0.5068497 0.33979028 0.5372796 0.46602285 0.10707174 0.31727526
0.26268184 0.13832265 0.24595445 0.35368758 0.36478308 0.3271479 0.123773366 0.03726735
0.38455233 0.48460212 0.40877584 0.16141693 0.3289212 0.30291668 0.21593203 0.49350104
0.33139554 0.25719783 -0.051365677 0.054430764 0.20869419 0.37424505 0.3792217 0.6294915
0.1103009 0.07451711 0.2770255 0.4364006 0.32653847 0.25756696 0.46289656 0.09316446
0.18449748 -0.06398579 0.22138919 0.35127485 0.005186404 0.10623541 -0.31987146 0.17680287
0.7717522 -0.39150482 0.10200581 0.24491385 -0.33552864 0.55913657 0.7686396 -0.29512474
0.29017806 0.082940005 0.15302315 -0.3228177 -0.08163451 -0.20087379 -0.6363532 -0.4035552
-0.23776232 0.62293357 -0.22523823 -0.81710184 0.15121163 0.06320959 0.505387 -0.6234083
-0.023043675 -0.5539444 -0.20594573 0.20567216 -0.19657543 -0.2417432 0.33861655 0.47880474
-0.39124343 -0.07161836 0.22478315 -0.18776053 0.10190071 -0.21011235 -0.273749 -0.11756348
-0.55860955 0.47974652 0.36913466 -0.5172925 0.7733127 0.28648278 -0.44526735 -0.17880078
0.34907836 -0.3130752 -0.22125763 -0.40905493 -0.37500143 -0.35738054 -0.2556467 0.5130952
0.06406068 0.38845977 -0.14154759 -0.17368676 0.16439845 -0.06821888 -0.10481636 -0.110431485
0.2368293 -0.6723122 -0.25917998 -0.4583858 0.38032383 -0.6706927 0.2873716 0.17025842
-0.1737712 -0.3321251 0.6283447 0.5182919 -0.4538619 0.55475 -0.82581276 -0.5200766
0.52546406 0.12580793 -0.14404325 -0.34094402 0.35518178 0.24124606 -0.6217921 0.33671615
0.7647347 -0.53001815 0.5775968 0.5164521 0.22082032 0.16285269 -0.754582 -0.68118197
0.3052373 -0.2321371 0.7184086 -0.36186528 0.7694929 0.3643259 0.44230014 0.52899456
0.34418535 0.6596367 -0.59711653 -0.6229628 -0.69113743 0.4911923 0.478675 0.417283
-0.7029095 -0.5662116 0.5807026 0.11146343 -0.13702807 -0.19237174 0.69286865 -0.3340044
0.6188333 -0.41063535 -0.59290165 0.2715093 0.467426 -0.40428972 -0.76607126 0.3430321
00000000: a51d 9a3e 5ec7 fd3e cd63 60be a89f c13d
00000010: 5b09 9f3e 21de 293f a6c6 1c3f 9ed6 9e3e
00000020: 06aa ea3e 204a 793e a266 0a3e 0104 143e
00000030: 9333 3d3d b246 313e ff88 02be 5f13 763e
00000040: 3634 ba3e 65bc d73e 6d6c 77bf ca9f 143f
00000050: 8b60 933e 3af5 923e e9a1 b53e e574 4d3f
00000060: 6e57 f43c a622 0b3f 5fbf 213d 00e6 913e
00000070: 7fcb 523e b1dc 793e 5b4c 8d3e 9fd1 1d3f
00000080: c7ac ed3e 9042 e3be 1ac3 8fbd 3a95 a2be
00000090: 4b84 3c3e c189 01be d40b 85bd 44eb 243e
000000a0: 2a00 d13e 3ec5 c63e 5a99 0e3f f6b5 163f
000000b0: 492b e83e b7b5 a53d 2506 85be 84eb fb3a
000000c0: e803 de3e d556 cd3e c995 f23e 8a66 b6be
000000d0: 3ca8 693e 1cb2 543e bc1d 223e 116b 17be
000000e0: 2011 f63c 424c 15be 05e5 3a3e 0469 ad3e
000000f0: 40c1 dd3c aeb9 bebe 50fb 12bf 5171 263d
00000100: e835 ae3e 6e3e c43b 122a 813d 3a64 b53e
00000110: e428 1d3e 9d87 663c cbb6 a83e 6fc2 9f3e
00000120: 67b4 d23e 4006 993e 4b6f 7d3e 3c3d 1d3f
00000130: 5a87 c03d 45b1 f13e ebb1 2c3e 12b4 af3e
00000140: c8df f53e 1910 093f e7c0 013f fef8 ad3e
00000150: 288b 093f 8c9a ee3e 6e48 db3d e771 a23e
00000160: 3c7e 863e 74a4 0d3e 7cdb 7b3e 8a16 b53e
00000170: d9c4 ba3e ee7f a73e e47c fd3d a6a5 183d
00000180: 0be4 c43e c51d f83e 114b d13e 7b4a 253e
00000190: 5c68 a83e e517 9b3e 491d 5d3e 2bac fc3e
000001a0: adac a93e 6faf 833e d164 52bd cbf2 5e3d
000001b0: eeb3 553e 0c9d bf3e 5929 c23e 5b26 213f
000001c0: 70e5 e13d 6d9c 983d 49d6 8d3e e66f df3e
000001d0: 0d30 a73e d1df 833e c700 ed3e 02cd be3d
000001e0: e8ec 3c3e fb0a 83bd d9b3 623e 4cda b33e
000001f0: b6f2 a93b f391 d93d 31c6 a3be d00b 353e
00000200: 8d91 453f 5273 c8be 6ce8 d03d b2ca 7a3e
00000210: 69ca abbe 9323 0f3f 91c5 443f 971a 97be
00000220: 3892 943e 73dc a93d 1ab2 1c3e 5d48 a5be
00000230: fe2f a7bd dcb1 4dbe 0be8 22bf ca9e cebe
00000240: f777 73be 9378 1f3f daa4 66be 962d 51bf
00000250: 39d7 1a3e 0874 813d 0b61 013f b097 1fbf
00000260: 17c6 bcbc 4dcf 0dbf 70e3 52be b99b 523e
00000270: 124b 49be 888b 77be 265f ad3e e525 f53e
00000280: 0f51 c8be a6ac 92bd 8e2d 663e 4c44 40be
00000290: 52b1 d03d b127 57be d428 8cbe 1fc5 f0bd
000002a0: 0901 0fbf 56a1 f53e 38ff bc3e 486d 04bf
000002b0: d2f7 453f dfad 923e 15fa e3be 8d17 37be
000002c0: 66ba b23e 654b a0be 5c91 62be a66f d1be
000002d0: 3000 c0be 95fa b6be 20e4 82be 355a 033f
000002e0: 3f32 833d 33e4 c63e daf1 10be f1da 31be
000002f0: 1158 283e 57b6 8bbd f6a9 d6bd e729 e2bd
00000300: 6183 723e a71c 2cbf 3db3 84be 8bb1 eabe
00000310: ceb9 c23e 84b2 2bbf 5f22 933e 3958 2e3e
00000320: 14f1 31be 4d0c aabe 33db 203f c7ae 043f
00000330: 9660 e8be 1904 0e3f 7768 53bf bd23 05bf
00000340: d084 063f cbd3 003e 1380 13be 3790 aebe
00000350: 63da b53e 3509 773e c42d 1fbf 0f66 ac3e
00000360: a7c5 433f 45af 07bf 62dd 133f 3436 043f
00000370: b91e 623e dbc2 263e 492c 41bf f161 2ebf
00000380: 1048 9c3e 59b5 6dbe a0e9 373f 6846 b9be
00000390: 7dfd 443f ed88 ba3e 2a75 e23e 306c 073f
000003a0: 1039 b03e f3dd 283f a1dc 18bf 7d7a 1fbf
000003b0: 62ee 30bf 8f7d fb3e e414 f53e 1ea6 d53e
000003c0: e1f1 33bf 3ef3 10bf eda8 143f f046 e43d
000003d0: 1651 0cbe 19fd 44be d75f 313f a002 abbe
000003e0: dc6b 1e3f cc3e d2be 67c8 17bf 4403 8b3e
000003f0: 7652 ef3e 10ff cebe 3f1d 44bf e7a1 af3e

fc.weight f4 [1, 64]
44.30505 -30.115547 -50.344025 50.79546 -52.291626 31.957504 47.917667 -38.956055
-50.168167 -18.212763 52.30771 -52.22429 -34.124462 -52.2823 49.411674 -48.330124
-52.26468 43.203644 46.45371 -49.515488 52.266293 21.229961 39.108383 -41.35772
-52.304104 -50.86021 -52.31675 52.319374 -47.19153 -42.15033 38.219337 31.044624
-48.6718 47.971493 52.356297 46.01556 52.32146 52.326874 -39.926746 -52.241474
-36.71037 45.68971 40.58687 -41.31851 -39.828587 52.36783 48.140472 -50.88079
34.597183 -30.54579 -52.248623 50.380722 -50.08966 -38.05026 -52.2691 -44.14603
52.300327 49.604626 -47.04278 -43.409283 52.254753 44.465157 43.283245 50.459126
00000000: 5f38 3142 a4ec f0c1 4860 49c2 8d2e 4b42
00000010: a02a 51c2 f8a8 ff41 b1ab 3f42 00d3 1bc2
00000020: 34ac 48c2 bdb3 91c1 183b 5142 ace5 50c2
00000030: 737f 08c2 1321 51c2 8ea5 4542 0c52 41c2
00000040: 080f 51c2 88d0 2c42 99d0 3942 dc0f 46c2
00000050: af10 5142 f6d6 a941 fc6e 1c42 4e6e 25c2
00000060: 6737 51c2 db70 4bc2 5a44 51c2 0a47 5142
00000070: 20c4 3cc2 f099 28c2 9ae0 1842 645b f841
00000080: ecaf 42c2 cfe2 3f42 d96c 5142 ef0f 3842
00000090: 2d49 5142 b84e 5142 fdb4 1fc2 45f7 50c2
000000a0: 6bd7 12c2 43c2 3642 f458 2242 2746 25c2
000000b0: 7950 1fc2 a878 5142 d88f 4042 ee85 4bc2
000000c0: 8463 0a42 c75d f4c1 97fe 50c2 dc85 4942
000000d0: d05b 48c2 7733 18c2 8f13 51c2 8995 30c2
000000e0: 8933 5142 236b 4642 cf2b 3cc2 1ba3 2dc2
000000f0: de04 5142 52dc 3142 0b22 2d42 25d6 4942
