LSTM_MODEL/INFY_Test_model.pt (torch, 89420 bytes, 5 tensors)

lstm.weight_ih_l0 f4 [256, 19]
00000000: f8a9 c5bf 98b4 52bf 5c1c b6bd 3407 2bbd
00000010: 38fe dd3c aa38 8bbd 680f ad3c d4a1 75bf
00000020: f778 6bbf 6d06 6ebf 8304 afbf bbc0 b8bf
00000030: 41ae b7bf af0f bfbf 632c bdbf 898e b4bf
00000040: a1ea bdbf c871 b1bf d763 98bf ceb3 96bf
00000050: 520b d6be 645f f93d fc3b da3d 2e47 f93d
00000060: 2e6a b73d 14a3 3cbd 981c 22bf 3935 d9be
00000070: f5ad 40bf a7c2 adbf 2ed8 8cbf 2f0a b5bf
00000080: 435d 93bf 3d4b 9abf 8fcf b2bf d2a0 95bf
00000090: 9e26 3cbf d29e 24bf 5830 6d3d 16c7 b93e
000000a0: 28e2 af3c c034 ba3c 54bc 403d 9ca9 c73d
000000b0: 0e79 debd f27d b7bf 2dc2 d4bf 2343 d4bf
000000c0: 733a 48bc aae2 d73b e3eb af3d 5b94 023e
000000d0: 86cd 033e 0e4d ce3d 03c1 59bd c230 9a3d
000000e0: 6026 d83d aeef 523f b368 523f 98d7 fb3c
000000f0: a02d 723d 5e79 e2bd 7611 a73d d09a fb3c
00000100: 6988 d9bb 50a6 743f 741d bd3f e318 3b3f
00000110: 59b4 4b3f fe3d 263f 09a3 373f a62c 1f3f
00000120: 2f28 4e3f b8b0 173f f6dd 6a3f add1 723f
00000130: 25fc 573e 7fdc febc ee67 bc3d 549b c13d
00000140: f644 f33d 7814 683d 44dd 943d 97d6 b53f
00000150: e8ed d93f 5360 383f 68ae d63e 1024 7d3e
00000160: a506 ad3e 50fe b43e ed53 b83e ee77 8b3e
00000170: b6d4 953e 04a0 8a3f e4cc 0a3f 1893 983f
00000180: 2cdc 503f 4258 ff3d 62ff e13d 50c0 3d3d
00000190: 2020 73bc 1e7e d03d 869c 453f c1c0 033f
000001a0: 8419 323e c999 8e3f f1fc ac3f 0eb0 9d3f
000001b0: 6d52 ab3f 0163 ab3f 8f08 a23f 0f14 9e3f
000001c0: df69 503f dcc9 4c3f 29d5 e63e 3531 9f3f
000001d0: 607b f13b 8c5a 633d 9265 f53d b44a 8cbd
000001e0: a016 b33c 5196 f93e dc3d d93c dfd5 e93f
000001f0: f756 073f 21ae ac3e 969d d03e 02c9 073f
00000200: 7200 c03e 8484 963e b6cd f03e da9c cf3f
00000210: 1b88 b43f cfdb 51bf 5bae 3abf d886 d5bc
00000220: 90b7 01bc a81e d1bc 788b 62bd 844c 493d
00000230: baf4 80bf ef20 b8be b99f 78bf 1939 8fbf
00000240: 45bc 81bf 6664 7dbf edf0 67bf 5609 54bf
00000250: 53a1 60bf 8182 71bf 8122 cabe b1dc f3be
00000260: 6bd3 79bf be96 fcbe ac3f 2dbd ee21 ae3d
00000270: 0c66 af3d e4dc 983d 8232 e83d a71e bfbf
00000280: 70dd 833e d1fa 8bbf 112a 70bf 50f5 8cbf
00000290: 636f 8fbf 1df7 87bf 8698 81bf 0d96 9abf
000002a0: 516d 84bf fd8a a93e 1548 bebe cc49 9cbf
000002b0: b506 c4be 7040 32bd 180b fabc a299 c6bd
000002c0: a0be bfbb 0055 60bc cee7 08bf 800b 68bd
000002d0: 855d 92bf 5574 85bf ba83 84bf ee8a 81bf
000002e0: ed83 80bf 0e54 74bf a1a0 60bf 9180 87bf
000002f0: 53be dbbf 4e0b aabf 0fec 53bf 7805 1ebe
00000300: d093 9cbd 905e fd3d d85d b2bc c0d1 6dbd
00000310: 8403 67bd a62e 513f 02ac 0bbf 4852 bc3e
00000320: 28fc 68bf 18fb 74bf a51e 67bf ae5c 63bf
00000330: 92a4 68bf 8bfe 72bf 8842 70bf aaa2 c1be
00000340: c3e0 0ebf 60be 9bbf 52a8 75bf 486d d73c
00000350: 1ec2 8dbd 6016 a73c 54d5 bb3d 38b7 a13c
00000360: 2934 23bf e4aa 84bf e921 35bf 862e 60bf
00000370: 9fb2 9dbf 68e1 94bf dc2a 90bf fb4d 7abf
00000380: 19ee 94bf 1698 97bf 1d74 a6bf 8b68 8ebf
00000390: e47a 42bf b186 29bf 84ca c23d a0df 67bd
000003a0: 2e32 de3d dcff 0ebd 3807 24bd a43c 013e
000003b0: f77d 903f 8331 3cbf cb6b 2ebf 6346 40bf
000003c0: 1069 3ebf 5591 31bf 24ee 3ebf 3299 eebe
000003d0: f2ce 3fbf 3e07 81bf d1f2 59bf d6c2 8ebf
000003e0: a59a 0ebf 3424 323d 9c64 64bd d0d3 9d3c
000003f0: 9ce9 d4bd 00f9 293d bda7 a1be bc1e c33d
-1.5442495 -0.82306814 -0.08892128 -0.041754916 0.02709876 -0.06797917 0.02112551 -0.95950055
-0.9198145 -0.92978555 -1.3673252 -1.4433817 -1.4350053 -1.4926661 -1.4779171 -1.4105998
-1.4837228 -1.3862848 -1.1905469 -1.1773622 -0.41805512 0.121763974 0.10655972 0.121717796
0.08955799 -0.04605396 -0.6332488 -0.42423418 -0.7526544 -1.3575028 -1.1003473 -1.4143733
-1.1512836 -1.2054211 -1.3969592 -1.1689703 -0.73496425 -0.6430484 0.057907432 0.36284703
0.021470144 0.022730231 0.047054604 0.09749147 -0.10862933 -1.433531 -1.6621758 -1.6582989
-0.012220967 0.0065882998 0.08589914 0.12751906 0.1287137 0.10073291 -0.053162586 0.07528831
0.105541945 0.8239697 0.8219101 0.030742452 0.059125543 -0.11058305 0.08157627 0.030713469
-0.006638576 0.9556627 1.4774613 0.7308485 0.79572064 0.6493834 0.71733147 0.62177503
0.80530065 0.59254026 0.91744936 0.9485119 0.2109228 -0.031111 0.091995105 0.094534546
0.11878388 0.056660146 0.072687656 1.4206113 1.7025728 0.7202198 0.41929936 0.24720788
0.33794132 0.35350275 0.3600153 0.27239937 0.29263848 1.0830083 0.5421889 1.191989
0.81585956 0.12468006 0.110350385 0.04632598 -0.014839202 0.10180305 0.7719196 0.51465994
0.17392546 1.1140682 1.3514692 1.2319353 1.3384529 1.3389589 1.2658862 1.2349871
0.81411546 0.7999551 0.45084503 1.2436892 0.007369444 0.055506274 0.119822636 -0.06850186
0.021861374 0.48747495 0.026518755 1.8268393 0.5286707 0.337266 0.4074523 0.5304109
0.3750034 0.29397976 0.47031945 1.6219742 1.4104036 -0.81976026 -0.72922295 -0.026065275
-0.0079173 -0.025527313 -0.05530879 0.049145237 -1.0074685 -0.35962626 -0.9711872 -1.11893
-1.013558 -0.9898132 -0.90602 -0.82826746 -0.8774616 -0.9433976 -0.3947945 -0.47629312
-0.97588223 -0.49333757 -0.04229705 0.08502565 0.08564386 0.074640065 0.113377586 -1.4931229
0.2575488 -1.0935918 -0.9381419 -1.1012363 -1.1205868 -1.0622288 -1.0124671 -1.2077042
-1.0345861 0.33113852 -0.3716437 -1.2210021 -0.38286367 -0.043518484 -0.030522868 -0.09697272
-0.0058515817 -0.013692141 -0.53478706 -0.056651592 -1.143479 -1.0426127 -1.03527 -1.0120523
-1.004026 -0.9544076 -0.877451 -1.058611 -1.7167457 -1.32847 -0.8278207 -0.15431774
-0.076453805 0.12371552 -0.021773264 -0.05806136 -0.056399837 0.81711805 -0.5455934 0.36781526
-0.9100976 -0.9569564 -0.90281135 -0.8881329 -0.90876114 -0.9491965 -0.9385152 -0.37819415
-0.5581171 -1.2167473 -0.9595996 0.026297227 -0.069217905 0.020396411 0.091715485 0.019740686
-0.63751465 -1.0364652 -0.7075487 -0.8757099 -1.2320136 -1.1631289 -1.126308 -0.9777524
-1.1635162 -1.1843288 -1.3004185 -1.1125654 -0.75968766 -0.6622115 0.09511283 -0.05660975
0.10849415 -0.034911975 -0.040045947 0.12620789 1.1288441 -0.7351305 -0.6813323 -0.751074
-0.7437906 -0.69362384 -0.74582124 -0.46601254 -0.7492515 -1.0080335 -0.85136133 -1.1153209
-0.5570472 0.043491557 -0.05576001 0.01926604 -0.1039612 0.04149723 -0.31573287 0.095273465

lstm.weight_hh_l0 f4 [256, 64]
00000000: 6dd8 d33e aa20 5fbd 5c8b 103f 440d b2be
00000010: 4f6d 5fbe 16fd efbe 09d7 1ebe 7cb7 293e
00000020: 687e c23d 8050 c4be c3cd 483e b2a3 e43e
00000030: ff59 7bbe 5722 903e e353 e83e 71cb a0bd
00000040: f0d8 d43e 4675 533f e30a 64bd ddc6 e4be
00000050: cc80 e8be 2c34 b0be 165c 8cbf 6662 c9be
00000060: 4d40 82bf 6735 f63d 34eb ab3e c5c3 013f
00000070: a210 75bf cea4 b53e 7aa6 12bb 121b 8e3f
00000080: f5fc 8ebe c6c3 1c3f ab0d 153f 5357 f73e
00000090: bbb3 74be 4bec 75be 74c8 c13e d58b 53be
000000a0: 5677 62bf 3fb4 11bd 8a1f 03bf b507 60bf
000000b0: da9a c4be 81e7 1abf 84cd 32bf 3b4b 903e
000000c0: b44a 76be 9649 e63e 1f57 e6be 3530 43bf
000000d0: af6b 263f 2d46 0bbf 83a2 4b3c 630f 0c3f
000000e0: d2b7 19bf b8d3 963e b829 f5be 25f8 4abe
000000f0: d862 543d 689e b6be f294 08be 0735 af3e
00000100: 5c14 f73e 228e 4bbe 04dc 923e faea 08be
00000110: e168 49bf 415c 203f 581f 19be f3f2 c6bc
00000120: 992d e13d bf6b 6f3e fbb1 dfbd 4e7f 363e
00000130: ba38 4b3e f9c5 bd3d 97d2 b4be f086 c7be
00000140: 0b76 f5bd 5b19 91be 77ed b3bd d6f2 47bf
00000150: e3e6 cabd c4bc 57bd 026a 55bd d490 a0be
00000160: 87ed 3cbf 2392 3b3e 0ae7 2ebe ed7e 66be
00000170: 594a 833f a478 603e e46e d33e f69b f83d
00000180: d766 cbbe 9c53 df3d 2b9f fbbe 4931 2dbf
00000190: 39c4 d23e 7b45 2dbf 7e3b 1ebf 14b6 5dbc
000001a0: 404d d83e 1b44 3f3d bc53 2c3f f84d e43d
000001b0: 721a 14bd ed71 8b3c 7065 de3d de1e 0f3f
000001c0: 0298 85bc 38c3 433e fdce 4e3f 802a 443d
000001d0: a538 a4bd d227 a53e 6619 01be d0f6 033f
000001e0: 9c1f c33e 3daf 24bf 71f4 8a3d 7ee2 0c3e
000001f0: 50fa cebe 5b80 e03e 1880 25bf 57e0 153f
00000200: fa3b 81bb 885f d0bc 04da 53bd 6c20 04be
00000210: 1640 db3d 7633 003e 4dd5 36bd 7a3c 8ebc
00000220: b8c7 413f 18e9 593f 9079 1a3e 4c9a 6b3d
00000230: f4a0 1c3f 6c8a 50bf d544 12be 7941 403d
00000240: a845 64bf 395f 9ebf c5b5 a53c 36dc 31be
00000250: 82e6 42be 0321 313f f150 db3f e714 44be
00000260: c3ea b93f bac0 113a 81fd 4cbf 2172 94bf
00000270: d7d5 b53f cb39 b6bd 51da 55bf f1bd abbf
00000280: 2773 013e 2863 743e 4b64 543e 3e55 5ebf
00000290: c1d8 353f b1a7 65bf 5d33 dbbe f5af cbbd
000002a0: 4dea b33f 3d9e 5dbd 149f 913f 7621 753e
000002b0: a97b 0c3f df76 8e3f 672a d13f 70ab 3f3d
000002c0: e92e fb3e 4ccd a9bd 07a7 d83e be28 803f
000002d0: a423 99bf 5d6f c73e 9978 3fbd b7be e8be
000002e0: 23c2 103f e29a 1fbe 95b0 d2bd db68 7c3e
000002f0: 6ab2 45bf 90df ac3f e57b 67be 6267 323d
00000300: 7d0a 373e 38ef 393c 130f 1d3f df56 e4be
00000310: 6119 90be d5cc 213e ff12 3bbe e53e b83d
00000320: 2dcd ba3e 7157 29be e051 a33e eb1b eb3e
00000330: 9286 b0bd 8f00 623e 492e a4be 0d2c 1c3d
00000340: 9345 cfbe ed4d 22be aae2 603e 9bef dabe
00000350: 9360 60ba 5725 f5be e08c d93e 0a7e 6ebe
00000360: 059c 98be 3593 9d3d d784 99be 5373 9cbe
00000370: 369d b03e 4c85 0a3f 1715 82be 45d6 eabd
00000380: 5cf6 cdbe 65ed 303f a4d4 dc3e 6906 e9be
00000390: e075 8bbd f27d d0be 1a34 48be 8df3 1cbe
000003a0: 4418 b33e fefe 803c 0eec 733e bb88 12bd
000003b0: 59d2 d2be 42a4 c23e 5cfb 6b3e 6ca1 dc3e
000003c0: 6d91 883d e04d 263f 49d3 a53e e1f7 793e
000003d0: 1cfd 80be c2c0 ba3e ea26 f1bd 778a c63e
000003e0: 90ec 5e3e dc76 d2be e5fa 27be ec84 46bd
000003f0: 0342 c5be d812 153f abca a5be f392 bb3e
0.41376057 -0.05447451 0.56462646 -0.34775746 -0.21819042 -0.46872777 -0.15511717 0.165739
0.09496766 -0.38342667 0.19609742 0.4465614 -0.2454605 0.281512 0.453765 -0.07851303
0.4157176 0.8260082 -0.055674445 -0.4468297 -0.45410764 -0.34414804 -1.0965602 -0.39332885
-1.0175873 0.120219044 0.33577883 0.50689346 -0.95728505 0.35477298 -0.002237706 1.1102011
-0.27927366 0.61236227 0.5822398 0.4830881 -0.23896687 -0.2401592 0.37848246 -0.2065881
-0.8846334 -0.035572287 -0.5122 -0.8751176 -0.38399392 -0.60509497 -0.6984484 0.28182396
-0.24051934 0.44978017 -0.44988343 -0.76245433 0.6500806 -0.54403955 0.0124288825 0.5471098
-0.6004611 0.29458404 -0.4788339 -0.19821222 0.051852077 -0.3566773 -0.13338068 0.34220144
0.4825772 -0.19878438 0.28683484 -0.13370886 -0.7867566 0.6264077 -0.14953363 -0.02428577
0.10995025 0.23380946 -0.10922619 0.17822 0.19845858 0.09266276 -0.35316917 -0.38970137
-0.119854055 -0.28339657 -0.08785527 -0.78104913 -0.099073194 -0.052670255 -0.05210305 -0.31360495
-0.7379994 0.18317465 -0.17080322 -0.22509356 1.0257064 0.21921021 0.4129554 0.12139122
-0.39726898 0.10904619 -0.49144873 -0.6765333 0.4116533 -0.67684144 -0.6180953 -0.01353218
0.42246437 0.04669581 0.6731527 0.11147684 -0.036158033 0.017022097 0.108591914 0.55906475
-0.016307835 0.19117439 0.8078459 0.047892094 -0.080186166 0.32256943 -0.12607345 0.5154848
0.38110054 -0.6432989 0.06784905 0.13758275 -0.40425348 0.43847927 -0.6464858 0.5854544
-0.0039439173 -0.025436178 -0.051721588 -0.12902993 0.10705583 0.12519631 -0.044637013 -0.017362822
0.7569537 0.851213 0.15085435 0.057520196 0.61183095 -0.81461215 -0.1428407 0.04693744
-0.89168787 -1.237281 0.020228276 -0.1736916 -0.19033244 0.69190997 1.7134076 -0.19148599
1.4524769 0.00055600295 -0.80074316 -1.1597329 1.4205884 -0.08897742 -0.8353625 -1.341734
0.12641583 0.2386595 0.20741384 -0.8684882 0.71033865 -0.89709 -0.42812625 -0.099456705
1.4055878 -0.054105986 1.1376672 0.23938546 0.5487619 1.1130027 1.6341065 0.046794355
0.49059227 -0.082911104 0.42314932 1.0012434 -1.1964002 0.3895215 -0.04674587 -0.45458004
0.5654623 -0.15586427 -0.102875866 0.24649374 -0.77225363 1.3505726 -0.22605856 0.043555625
0.17875095 0.011348538 0.61351126 -0.44597527 -0.28144363 0.15800793 -0.18268965 0.08996371
0.36484662 -0.16537262 0.31898403 0.45919737 -0.08619417 0.22070526 -0.32066563 0.038127948
-0.40482768 -0.15850039 0.21961465 -0.4276093 -0.00085593126 -0.4788005 0.42490292 -0.23290268
-0.29806533 0.07694093 -0.2998416 -0.30556735 0.34494942 0.54109645 -0.25406715 -0.1146665
-0.4022702 0.69112235 0.43130982 -0.45512703 -0.06809592 -0.4072109 -0.19551125 -0.15327282
0.3497945 0.01574659 0.23820516 -0.035774928 -0.41176108 0.38015944 0.23045105 0.43091905
0.06668363 0.6496258 0.3238776 0.24410965 -0.25193107 0.36475188 -0.117750004 0.38777515
0.21769929 -0.41106308 -0.16404302 -0.048466608 -0.38526925 0.5823188 -0.32381186 0.3663555

lstm.bias_ih_l0 f4 [256]
00000000: 1add 8abf eee3 53bf 2019 133e f7ff 8c3f
00000010: 5da8 853d 0539 6b3f 518b d33f 3a1e f6be
00000020: f273 9ebf 1b12 aebf ef2d e9be e79c 8cbf
00000030: d4e1 7abf d61d a6bf 272d 93bf 33ba 33bf
00000040: ea41 573e 53ed 0e3f 2789 d0bf 2b98 56bf
00000050: 92bf 68bf 44dc 96bf 0b77 3fbf 5574 2a3f
00000060: 0ea4 a53f 963a fdbf 77e5 ac3f 9b5d 643f
00000070: 4dc1 6abf 7147 f4be b650 0d3f 2633 853f
00000080: 82d5 43bf dfc6 a3bf 3133 84bf d04a 20bf
00000090: 258b 1ebf d501 95be 13fd 083f 0d89 b0bf
000000a0: eb3d 813f e416 91bf 9d70 803f 1f7e 9e3f
000000b0: d73c f13f 35bc 943f d629 cb3e 4258 a03f
000000c0: cdd3 97bf ec09 d13f 27b1 8d3e 6ebd 4d3f
000000d0: 8139 8a3f ff72 27bd bd28 5dbf 8c40 893f
000000e0: fe9a 34bf d464 17bf 3302 b53f 3199 05bf
000000f0: 1d29 53bf 0403 a8bf d8bd 833e b731 a2be
00000100: c184 c33e 6b08 a03e e5b1 183f eab1 a23e
00000110: 8221 5f3f 6adf 10bf 3ffa c0be 50cb 30bf
00000120: 37de 8b3d 618e 29bf 25e4 253f a28d 1abf
00000130: 2db3 0bbf 4b33 82be 5b2e 2cbe d17c efbe
00000140: 623b e0be a281 2e3f e4fe 093f 6b54 823e
00000150: 2d22 1dbf 0ca4 bbbe 9189 163f 2c45 5a3f
00000160: 41cf 78bd 6059 4ebf 5645 19bf b2e0 6f3f
00000170: fecb 68bf 8ec4 4d3f 4ddb c33d 5920 7e3f
00000180: a25d 2dbc ba93 8e3e b79c f13e 2e09 8d3c
00000190: 2d58 c1be 6f3d 0b3e 7a20 7a3f db2a 38bd
000001a0: c583 373f 136a 18bf 6aa2 383f b62e 083f
000001b0: 3e53 55bf b6ff 37bf 6e73 5a3f a980 6d3f
000001c0: 631a 25bf 13f6 cd3e 3c80 883f c759 a63e
000001d0: 146d 513f 3e6f 4f3f d6d2 21be 8a4e 37bc
000001e0: 0020 563f 9e45 dc3e 6f8f d4be 0b39 44bc
000001f0: e6d9 01be a422 f13d 3f69 733f 1ef2 9dbd
00000200: 2f3c 3fbf cdd9 07bf 3d8b 56bf 2102 643f
00000210: d9f2 4fbf a9e3 12bf 4809 8abf 4b7e a7be
00000220: 1e7c 6e3d 3a90 353f ed3d 06bf 2680 e8be
00000230: e670 c83e fe25 13bf 74c4 103e ab32 993e
00000240: 4206 1fbf 407e a0bf b393 853d abc2 003f
00000250: 92f3 233f 785d 243f fed3 1d3f 9ce9 4d3f
00000260: 4b03 3c3f c1e3 91be 73a3 82bf 5bf3 7abf
00000270: 0e76 a13e 34d8 93be 7e49 143f 9d85 a9bf
00000280: dada 6dbd 54ac 0e3f 56ee 5abf 8327 343f
00000290: 9b21 d8be 2f75 2ebf 3e6f 83bf 9532 033e
000002a0: 5e0d 3b3f 5689 e4be 189b 2a3f 4c84 323f
000002b0: 73e9 9b3f cd6d 923f 399a 8e3f e37d 8ebf
000002c0: 4525 e03e 0489 bfbf bde2 3d3f b8ea 3d3f
000002d0: 8918 8abf e778 783f b3dd b5be 4ff9 92bf
000002e0: afd3 7f3f 9a79 22be 8023 813f 2596 bb3c
000002f0: 295c 94be 7878 573e 9456 8ebf 59f6 6cbf
00000300: bed2 dd3d d619 48bf 28c3 b6bf d46c f5be
00000310: fedc 12be dc6c a9bf de61 f2bc 6dde edbe
00000320: d526 413d 25a4 4fbf 42f8 8cbf cc16 fd3e
00000330: c4d2 74bf 4b17 5dbf 1238 af3f d4af 54bf
00000340: 9d4d bcbf 9142 943f f1a7 80bf d8a9 8e3f
00000350: d71f 2ebf 5068 83bf 996b 663f 0139 a3bf
00000360: 9854 e43f 5463 64bf 1760 d43c 3aa3 143f
00000370: ffca d53e 41cb b1bf 278e 5a3f 70b3 8d3e
00000380: 5db1 ab3f 8cbf 2e3f c8d6 393f 12d7 a03f
00000390: 4983 f1be 8b95 82be 5526 51bf 9be8 88bf
000003a0: 82da c73f e51e 6dbf de34 453f 9ee7 893f
000003b0: 4ab1 e43f c205 4cbe 2765 de3e 36b2 c83f
000003c0: c687 83bf 6c2f 713f 026e 453f bdb5 713f
000003d0: c325 8e3f 3e60 943f 03f4 7abf c51c 573f
000003e0: 223d 473f 6b6e c13e ce7c 443f fe1c 8cbf
000003f0: 53a2 1c3f e78a f23d fb34 993e 08b6 483f
-1.0848725 -0.8276967 0.14365053 1.1015614 0.06526253 0.9188388 1.6526891 -0.48069936
-1.2379134 -1.3599275 -0.45542857 -1.0985383 -0.98000836 -1.2977855 -1.1498154 -0.7020599
0.21021238 0.5583088 -1.6291856 -0.8382594 -0.90917313 -1.178597 -0.7479102 0.6658376
1.294069 -1.9783504 1.3507527 0.8920533 -0.91701204 -0.47710755 0.5520128 1.0406234
-0.7649766 -1.2795066 -1.0328122 -0.62614155 -0.6193107 -0.2910296 0.5351116 -1.3791825
1.0097021 -1.1335111 1.0034367 1.2382239 1.8846692 1.1619936 0.39680356 1.2526934
-1.1861511 1.6331153 0.2767422 0.8036717 1.0798799 -0.040881153 -0.86390287 1.0722823
-0.70549 -0.59138227 1.4141296 -0.52186877 -0.8248461 -1.312592 0.25730777 -0.31678554
0.3818722 0.31256422 0.59646446 0.31776363 0.87160504 -0.565909 -0.37690923 -0.6906023
0.068294935 -0.6623288 0.64801246 -0.60372365 -0.54570276 -0.25429758 -0.16814558 -0.46774915
-0.43795305 0.68166554 0.5390456 0.2545503 -0.61380273 -0.36648595 0.5880366 0.852618
-0.060744528 -0.80605125 -0.59871423 0.9370223 -0.9093627 0.80378044 0.09563313 0.9926811
-0.010581406 0.2784708 0.47189876 0.017216291 -0.37762585 0.13597654 0.97705805 -0.044962745
0.7168544 -0.59536856 0.72122824 0.53196275 -0.8333014 -0.7187456 0.8533238 0.92774445
-0.6449339 0.40226802 1.0664134 0.3249037 0.81807065 0.8102912 -0.15803084 -0.011188159
0.8364258 0.43021864 -0.4151568 -0.011976491 -0.12680778 0.11774185 0.9508247 -0.07712196
-0.7470121 -0.5306671 -0.8380621 0.8906575 -0.8122993 -0.5737863 -1.0784082 -0.3271354
0.058223836 0.709232 -0.5243824 -0.4541027 0.39148635 -0.57479846 0.14137441 0.2992147
-0.62118924 -1.2538528 0.06522312 0.5029704 0.64043534 0.6420512 0.616516 0.80434585
0.73442525 -0.28494075 -1.0206131 -0.9802758 0.3153538 -0.28875887 0.5792464 -1.32439
-0.05807004 0.557317 -0.8551992 0.7037279 -0.4221314 -0.6814756 -1.0268323 0.12812264
0.7306727 -0.4463603 0.66642904 0.6973312 1.2180618 1.1439759 1.1140815 -1.1132168
0.43778434 -1.4963689 0.741741 0.7418628 -1.0788738 0.9705948 -0.35520706 -1.1482333
0.9993238 -0.158667 1.0088959 0.022898743 -0.28976563 0.21042049 -1.1120172 -0.92563397
0.108312115 -0.7816442 -1.4278307 -0.47934592 -0.14342114 -1.3236346 -0.029587682 -0.4645876
0.047156174 -0.8110984 -1.1013262 0.49431455 -0.956341 -0.8636367 1.3688986 -0.8308079
-1.4711186 1.1582814 -1.0051252 1.1145582 -0.68017334 -1.0266209 0.9000793 -1.2751771
1.7838316 -0.8921406 0.025924725 0.58061564 0.41756436 -1.3890153 0.8537316 0.27675962
1.3413502 0.6826103 0.72593355 1.2565634 -0.47170475 -0.25504717 -0.81699115 -1.0695986
1.5613558 -0.92625266 0.77033794 1.0773809 1.7866604 -0.19924071 0.43436548 1.5679386
-1.027581 0.94212985 0.77120984 0.94417936 1.1105274 1.1591871 -0.9802858 0.84028274
0.77827656 0.37779555 0.76752937 -1.0946348 0.6118519 0.118429 0.29923233 0.7840276

lstm.bias_hh_l0 f4 [256]
00000000: dc3f 7cbf bf2c 6fbf 16bc c53d 9f1b 7f3f
00000010: 133a 3e3e a924 733f 54f4 c33f d2a0 f4be
00000020: 9e38 93bf 0e24 adbf 1502 65be 867c 8bbf
00000030: cac8 4ebf 5371 b1bf 4b52 72bf 8d90 57bf
00000040: 86eb 833e c120 c63e 4bc9 d0bf 7dfa 53bf
00000050: 26fd 87bf a927 85bf 5ce4 13bf 60c9 373f
00000060: 035a a03f 929e f9bf 8067 ab3f 6774 843f
00000070: 4f7f 55bf 3f5c 11bf be52 d93e d965 973f
00000080: 9939 2dbf a546 c0bf c51d 78bf 8ad7 19bf
00000090: 0131 28bf 7341 9fbe cab3 de3e 22e0 b3bf
000000a0: e0ff 663f 71f7 99bf 8f34 8f3f 7679 9b3f
000000b0: 2b84 f63f 59f2 9e3f df64 a03e a1e9 a23f
000000c0: 1f3c 84bf b072 e43f 8d98 d43e 2f45 573f
000000d0: 5a9a 8c3f e8d8 da3c ad88 75bf 4bdb 863f
000000e0: a7fc 66bf 5940 06bf f32a a03f 5cc6 ecbe
000000f0: 93c4 60bf 8fd4 adbf f6d1 343e 1bd6 dbbe
00000100: 8c22 d53e 9e9f f93e d9e2 b43e 4d6a 533e
00000110: 7db9 793f 6eed d6be de2d e2be 22b2 28bf
00000120: cb45 883e 5291 25bf fe29 1a3f 733f 14bf
00000130: a8b0 13bf 61e4 c1be dbfa f7bd 9170 09bf
00000140: 34ae 9bbe a8b6 213f 58bd 153f 38ae 583d
00000150: 148a 3fbf d2e0 f2be ae4e 373f 2fd1 443f
00000160: e92d 7ebd c611 42bf 7b65 0dbf b468 753f
00000170: 3980 75bf 7dec 533f 0d34 d03d 7ac4 5b3f
00000180: b784 423d 7a37 aa3e bfe6 f93e 3ee0 3fbd
00000190: 2703 c9be db1a 023e 2e79 593f 743f 6abd
000001a0: 42bb 433f 2fe5 11bf 2778 353f bb72 173f
000001b0: c1ee 5dbf 28e5 59bf 39cb 2f3f d77d 6d3f
000001c0: af2f 19bf 4cef 003f 196c 703f 6d2b 1f3e
000001d0: 3fd8 453f 2503 673f 4aef 0abe f833 bc3d
000001e0: c788 463f 558b ed3e 1110 c4be 4211 ac3d
000001f0: fa7d 0dbe 5eb1 a83d e242 883f dfad 66be
00000200: 17f7 2cbf f493 16bf 7bf6 4cbf 0b11 6c3f
00000210: d9fa 3ebf 3473 21bf 713e 87bf 86d4 94be
00000220: 729d 063e c4b4 063f 378e cdbe 7ec8 8fbe
00000230: 67f2 f03e 7a0f d7be bc8c 0e3e f1c6 4e3e
00000240: 91f5 2fbf f902 9bbf 4a7c 393e bbea ec3e
00000250: 0a3d 263f 4491 483f ed1f e43e 7e6a 413f
00000260: 5b3d 3b3f 52b0 c8be a3c1 6bbf 72ea 81bf
00000270: 891f f83e a1aa d1be c857 1a3f f4e2 9ebf
00000280: 63ba d63d eccd ca3e 535f 31bf df6b 153f
00000290: e214 a6be dbf6 05bf f74e 87bf e2b6 42bc
000002a0: a14b 3d3f 0b5f 82be c982 2a3f a5e1 443f
000002b0: a657 873f 6e58 953f b22f 893f 2431 8dbf
000002c0: a304 d93e 6bda c5bf 3050 643f 187d 473f
000002d0: 28f6 6ebf ceac 983f 4c42 7fbe e3df adbf
000002e0: a39d 753f af32 84be 3194 803f f307 a2bd
000002f0: 0df2 12be b88b c33e c654 80bf 75be 64bf
00000300: 594f 863d 619b 19bf a496 bebf ed40 b2be
00000310: 4b97 abbe f756 b2bf 66cf d5bd a21e 19bf
00000320: 5819 e5bc 1b1f 34bf 88b0 94bf 573a 1e3f
00000330: c521 85bf f526 55bf f9c6 a93f 1d7b 35bf
00000340: bf5d c4bf 13cd ad3f dfd7 65bf 6667 9c3f
00000350: fd59 3cbf 5c27 82bf be8f 4d3f 0919 9cbf
00000360: f043 df3f 9282 39bf 8c23 963d 660f 003f
00000370: abcd 593e 429c c6bf ce1f 803f f52e a43e
00000380: 7daf a63f 1236 1c3f 748d 3f3f 3dd9 9c3f
00000390: ed56 2dbf 939e 31be b345 50bf 528f 7abf
000003a0: ab77 bb3f c25f 7cbf de5d 573f 99fc 853f
000003b0: 722f d23f d0a0 81be efe9 a73e 0535 c13f
000003c0: 87ba 8dbf e228 7f3f 9202 703f 7ee6 7b3f
000003d0: 7010 883f 1f0f 9b3f 883d 6fbf 9851 483f
000003e0: b193 453f 1302 493e 17ca 653f 849d a1bf
000003f0: 7a42 fa3e ed6e f73d d933 a03e da58 3d3f
-0.9853494 -0.9342765 0.09655015 0.9965152 0.18576841 0.94977814 1.5308938 -0.47778946
-1.1501653 -1.3526628 -0.22364075 -1.0897377 -0.8077513 -1.3862709 -0.9465682 -0.8420494
0.25765628 0.38696864 -1.631143 -0.8280409 -1.062413 -1.0402728 -0.57770324 0.7179165
1.2527469 -1.9501517 1.3390961 1.0348023 -0.8339738 -0.5678138 0.4244594 1.1827956
-0.6766601 -1.5021559 -0.96920425 -0.6009451 -0.65699774 -0.3110462 0.43496543 -1.4052775
0.90234184 -1.2028638 1.1187915 1.2146442 1.9259084 1.2417709 0.3132696 1.2727548
-1.0330848 1.78475 0.41522637 0.8408994 1.0984604 0.026714757 -0.95911676 1.0535673
-0.90229267 -0.52441937 1.2513107 -0.46245086 -0.8779995 -1.3580493 0.17658219 -0.42936787
0.4162792 0.4875459 0.3532932 0.2064602 0.9754866 -0.4197802 -0.4417562 -0.6589681
0.26615748 -0.64674866 0.60220325 -0.57909316 -0.5769143 -0.37869552 -0.12108394 -0.5368739
-0.30406344 0.63169336 0.5849204 0.052900523 -0.74820065 -0.4743715 0.7160443 0.7688169
-0.062055502 -0.7580837 -0.5523297 0.9586289 -0.9589878 0.8278273 0.10166178 0.85846674
0.047489848 0.3324545 0.48808858 -0.046844713 -0.39260218 0.12705557 0.8495053 -0.05718942
0.7645761 -0.5699033 0.7088646 0.5915944 -0.86692435 -0.8511529 0.6866947 0.9277014
-0.59838384 0.5036514 0.93914944 0.1554391 0.7728309 0.90239173 -0.13567844 0.091896
0.77552456 0.46395364 -0.38293508 0.08401729 -0.13817587 0.08236955 1.0645411 -0.22527264
-0.6756453 -0.5881951 -0.800636 0.92213506 -0.74601513 -0.6306641 -1.0565931 -0.29068393
0.13145998 0.52619576 -0.40147564 -0.2808265 0.47059938 -0.42003995 0.13920873 0.20193078
-0.6873408 -1.2110282 0.18113819 0.46272835 0.6493689 0.7834666 0.44555607 0.7555312
0.73140496 -0.39197022 -0.9209234 -1.0149672 0.4846156 -0.40950492 0.60290194 -1.2413011
0.10484769 0.3961023 -0.6928608 0.58367723 -0.32437807 -0.52329797 -1.0570973 -0.011884423
0.73943526 -0.25463137 0.6660581 0.76906806 1.0573623 1.1667612 1.071768 -1.1030622
0.4238635 -1.5457281 0.89184856 0.7792525 -0.93344355 1.1927736 -0.24927634 -1.358395
0.9594366 -0.2581992 1.0045224 -0.079116724 -0.14350148 0.38192534 -1.0025871 -0.89353114
0.06558103 -0.60002714 -1.4889722 -0.3481516 -0.33513865 -1.393279 -0.10439949 -0.59812367
-0.027966186 -0.70359963 -1.1616373 0.6180777 -1.0400931 -0.8326257 1.3263847 -0.7089098
-1.5341109 1.3578209 -0.8978252 1.2219055 -0.7357481 -1.0168262 0.8029746 -1.219514
1.7442608 -0.7246486 0.07330999 0.50023496 0.21269862 -1.5516436 1.0009706 0.32067075
1.3022305 0.61020005 0.74825215 1.2253796 -0.67710763 -0.17345648 -0.8135635 -0.9787494
1.4645895 -0.98583615 0.84127605 1.0467712 1.6420729 -0.25318003 0.32795665 1.5094305
-1.1072549 0.9967176 0.9375392 0.9839858 1.0630016 1.211399 -0.93453264 0.782495
0.77178484 0.19629698 0.8976149 -1.2626195 0.48878843 0.12081704 0.31289557 0.739637

fc.weight f4 [1, 64]
00000000: ff76 2f42 8d7c 05c2 5317 3c42 c632 62c2
00000010: d83f 91c2 09f2 eec1 32e5 01c2 b7cd 42be
00000020: faa3 8742 44c6 4b42 89ee 0d42 f00f 6242
00000030: 34d9 3642 0add 4bc2 b601 91c2 bb49 be3c
00000040: 980f 55c2 f0e0 66c2 4778 2242 19c6 90c2
00000050: e4f7 3fc2 c578 2642 a1e2 9042 d355 f8c1
00000060: 30c5 92c2 4bd0 2742 cf3d 59c2 4adf 90c2
00000070: 92f5 7642 4e3c 2742 e07c 54c2 ceb7 93c2
00000080: 4845 90c2 5a30 3942 e47b 3d42 a710 91c2
00000090: b77c 4642 f3b6 8fc2 3eb9 90c2 b782 16c2
000000a0: 1e80 5d42 df51 5142 921a 8342 f9cf c041
000000b0: bc07 22c2 d789 5f42 ece3 9042 d3da 9042
000000c0: 7b71 2e42 6b0d 3b42 dddc 9042 cdd9 9042
000000d0: 2aed 90c2 53de 9042 6649 10c2 11cf 9042
000000e0: b00a 9142 d315 91c2 6e5d fdc1 c637 0a42
000000f0: 5a04 88c2 da81 5142 adda 90c2 9c89 8042
43.866207 -33.37163 47.022778 -56.549583 -72.624695 -29.868181 -32.473824 -0.19023786
67.82027 50.94362 35.482944 56.515564 45.712112 -50.96586 -72.50334 0.023228517
-53.26523 -57.719666 40.61746 -72.38691 -47.99208 41.61794 72.442635 -31.041906
-73.38513 41.95341 -54.31036 -72.43611 61.739815 41.80889 -53.12195 -73.85899
-72.135315 46.29722 47.370987 -72.532524 49.62179 -71.85732 -72.3618 -37.62765
55.375114 52.329952 65.551895 24.10155 -40.507553 55.88461 72.44516 72.42739
43.61082 46.763103 72.43137 72.42539 -72.46321 72.43423 -36.07168 72.40443
72.520874 -72.542625 -31.67062 34.554466 -68.0085 52.37681 -72.4271 64.26877
