LSTM_MODEL/INFY_Test_model.pt (torch, 89420 bytes, 5 tensors)

lstm.weight_ih_l0 f4 [256, 19]
000000 a5 3e 83 3e 47 e0 6f 3d e4 68 9c 3d fe c2 a8 3d
       0.2563373 0.058563497 0.07637194 0.08240317
000010 ae d7 df 3d 14 d8 4d bd e2 d1 f6 bd 23 72 88 3d
       0.109298095 -0.050254896 -0.12051751 0.06662395
000020 22 58 cc 3d 7d 61 78 3e 7b c4 a7 3d 7d 78 f2 3d
       0.099777475 0.24255939 0.081917726 0.118393876
000030 f3 7f 05 3e d8 b2 d9 3d ed 9e cf 3d 27 1b 77 3e
       0.1303709 0.10629815 0.101377346 0.24131452
000040 b5 d4 e6 3c 62 04 15 3e ed 18 62 3c 18 3b 06 3e
       0.028177598 0.14552453 0.013799888 0.1310848
000050 c5 4f a6 bd d2 53 f3 bd 30 7c a4 3c dc a7 6e bd
       -0.081206836 -0.11881222 0.020078748 -0.058265552
000060 20 7c fa bd ea b0 f0 bd 8e 4c ae bd d4 61 ba bc
       -0.12230706 -0.11752494 -0.085106954 -0.022751726
000070 8a 07 12 3e f9 cb 33 3d 93 c9 2b 3d b0 fa 19 3e
       0.14260688 0.043895695 0.041940283 0.15037036
000080 05 59 23 3d d7 16 16 3e a8 d0 c5 bb 9c 3a 1b 3e
       0.039879818 0.1465715 -0.0060368367 0.15159076
000090 10 0d cc 3d 22 cc 37 bb d5 ea 50 3d 26 eb 85 bc
       0.09963429 -0.0028045257 0.051005203 -0.01634748
0000a0 26 1c f9 bd 40 2e f1 bd 08 06 bf 3c 4c 4b 51 3d
       -0.12163572 -0.117763996 0.023318306 0.0510972
0000b0 d8 f0 96 3d d4 76 9b bd 36 05 8e 3d 5e 71 c5 bc
       0.07370156 -0.07591024 0.06934588 -0.02410191
0000c0 da 36 02 3e 75 75 80 bd fc f4 42 bd ce 76 ff 3d
       0.12716237 -0.06272403 -0.047596917 0.12473832
0000d0 72 c3 65 3d 15 90 1a 3d f3 49 19 3d c5 6f 4a 3c
       0.056094594 0.037735064 0.03742404 0.0123557495
0000e0 3f 44 a4 3b 06 7e 81 bc e4 40 76 bd 6a 9e ed bd
       0.0050130184 -0.015807163 -0.06012048 -0.11602481
0000f0 2c ff 4b 3d 2c 6c 2c bd 94 ea a7 bd 3a 6d eb 3d
       0.049803898 -0.04209535 -0.08199039 0.11495443
000100 81 ce 8f bd a6 1b e1 3d 6e fc 8b bd 28 a8 16 3e
       -0.07021809 0.10991602 -0.068352565 0.14712584
000110 70 ab 91 bd 7c 6d 09 bd 67 b1 aa 3d ef 54 df 3d
       -0.07112777 -0.033551678 0.08334618 0.10904872
000120 34 b3 17 3e 22 cc 84 bc 63 35 4f 3c 27 30 0d 3d
       0.14814454 -0.01621062 0.012647006 0.03446975
000130 4e d1 a2 3d 32 05 64 bd e0 53 f4 bb 5c 2b 0a 3d
       0.07950078 -0.055669017 -0.0074562877 0.033732757
000140 50 95 62 3d 1a de e7 3d 78 32 b4 bc a9 f8 92 bd
       0.055318177 0.113216594 -0.021996722 -0.071763344
000150 12 b1 24 3d 6b 69 0d 3d 0f dc 74 3d d2 42 19 3e
       0.04020793 0.034524363 0.059780177 0.14966896
000160 db 2e a4 bd d4 56 3e bd fc 08 d3 3d 30 be 14 3d
       -0.080167495 -0.046469525 0.10304448 0.03631419
000170 ba 79 96 bc ac 80 35 bd 8d f6 cf 3c 23 12 8f bc
       -0.01836859 -0.044312164 0.02538612 -0.017464703
000180 fe da f3 bd 6c 92 df bd c2 3a ad 3d a8 55 cb 3c
       -0.11907004 -0.109166 0.08458473 0.024821118
000190 bc 91 f9 bd 32 6d d4 3d 6b 8e ae bd 24 4d 45 3d
       -0.12186 0.1037239 -0.08523258 0.04816927
0001a0 6a 0e db b8 78 0b dc 3d 5c dd 69 bd c8 3d 4c bd
       -0.000104454186 0.10744375 -0.05709587 -0.049863607
0001b0 71 79 fe 3d 06 8d 72 bc 9d 2c 5e bd cc 82 b7 3d
       0.12425507 -0.01480413 -0.054241765 0.089604944
0001c0 86 7c ce 3c 21 b4 c7 3d 20 33 18 3e 7c 59 e2 bd
       0.025205862 0.09751154 0.14863253 -0.11052224
0001d0 a8 9c 6e bd 48 05 35 3d 8c de f7 3d 02 12 fa bd
       -0.058254868 0.04419449 0.12102994 -0.12210466
0001e0 4c 01 cb bd 3c ab cf bb a5 14 97 bd 33 f6 ea 3d
       -0.09912357 -0.0063375514 -0.073769845 0.1147274
0001f0 5d 78 6b 3d 80 22 03 3e 7a dc f1 3d 6e 00 3d 3e
       0.057487834 0.1280613 0.11809631 0.18457195
000200 df 55 40 3d 8e b0 27 3e ba 60 8f 3c ce 21 92 3d
       0.046956893 0.16375944 0.017502178 0.07135354
000210 45 6f b4 3d 1b a7 9b bc 55 57 55 bd b8 fd ad 3d
       0.088102855 -0.01900058 -0.05208524 0.08495659
000220 34 f9 0d bd d8 66 3c 3d 00 d3 54 ba 30 52 80 bd
       -0.034661487 0.045996517 -0.00081185997 -0.06265676
000230 44 44 90 3c 82 dd 3b bd 51 e0 19 3e 34 4e 09 3d
       0.017610677 -0.045865543 0.15026976 0.033521846
000240 51 9d cf 3d 9c 5f 35 3e 26 fd 4e bc 88 88 86 3d
       0.101374276 0.17712253 -0.0126335975 0.0656901
000250 46 2d f7 3d c8 92 4a bd 6b 7c 71 3d fb 10 f6 3d
       0.12069182 -0.049456388 0.058956545 0.120149575
000260 51 29 fa 3d c2 72 5f 3d 04 96 db 3d 10 2b 28 3c
       0.12214912 0.0545528 0.107219726 0.010264173
000270 60 cc ec 3b 26 16 f0 bd 40 4d e0 3d d3 dd bd bd
       0.007226512 -0.117229745 0.10952234 -0.09270825
000280 b0 26 4f bd 82 51 98 3d 9f 36 ac bc 85 96 17 3e
       -0.050574005 0.074374214 -0.02102214 0.14803512
000290 2c 52 2e 3e a0 c7 1f 3e 90 51 a0 bc a7 e4 93 3d
       0.17023534 0.15603495 -0.019570142 0.07221346
0002a0 29 f6 52 3e 9d fa 1f 3e e5 88 70 3d 1d 37 7c bd
       0.20601715 0.15622945 0.058724303 -0.061575998
0002b0 79 70 8a bd 0c 68 1d 3d 08 a6 c4 bd 8e 19 f8 3d
       -0.06759734 0.038429305 -0.096019804 0.12114249
0002c0 ee 7f 8f 3d c0 90 22 bc ad 75 ff 3d ab 8f 46 3c
       0.070068225 -0.009922206 0.12473617 0.012119214
0002d0 55 e0 c3 3d 19 22 be bd c9 68 82 3d c2 c8 31 3d
       0.09564272 -0.09283847 0.063676424 0.04340435
0002e0 88 c0 c3 3c 62 57 b2 bd ec 17 a3 3d ad bf f0 3d
       0.023895517 -0.08708073 0.07963547 0.11755309
0002f0 a6 4c 46 bc bb b0 f0 3d 1c 0c 1c 3e a4 39 b5 bd
       -0.012103235 0.11752459 0.15238994 -0.08848885
000300 08 b0 ef 3d 00 82 9b b9 2a 1a da bd cc c3 6a bd
       0.11703497 -0.0002966076 -0.10649522 -0.057315633
000310 f2 c6 c1 3d e6 07 cc 3d 09 e8 dc 3d 42 2d 95 b9
       0.09461774 0.09962444 0.10786445 -0.00028453214
000320 c3 e7 df bb d1 79 13 3e 8c 33 a0 bd 9e f3 7a bd
       -0.006833048 0.14401938 -0.07822332 -0.061267488
000330 ee 96 87 3d 50 97 2c bd a5 1f 60 bd c0 f3 58 bd
       0.066205844 -0.04213649 -0.05471768 -0.052966833
000340 98 08 f0 3d 6f 53 79 3d 97 12 c3 3d c8 d8 8f 3d
       0.11720389 0.060870584 0.0952503 0.070237696
000350 10 8e 3d bd 90 47 bd bc c4 d9 ff 3d 3e b8 f9 3d
       -0.04627806 -0.023105413 0.12492707 0.121933445
000360 9c 7d 4b 3d 41 37 51 3d 8d 9c 99 bc 07 e1 67 bb
       0.049680337 0.051078085 -0.018751407 -0.003538193
000370 de 78 9b bd 4d 03 a9 3d 83 c1 39 bc 5f 7c 29 3c
       -0.07591413 0.08252583 -0.011337641 0.010344594
000380 31 8f fe 3d d8 06 4c bd 84 87 8d 3c 50 2a 9b bd
       0.12429655 -0.049811214 0.017276533 -0.0757643
000390 7c 0b 75 3d 50 d4 71 3d 20 c5 26 3c b8 70 be bd
       0.059825405 0.059040368 0.010178834 -0.09298843
0003a0 18 c4 b0 3c 48 f6 b6 3c 68 36 27 3d 31 13 c3 bc
       0.02157788 0.022334233 0.04082337 -0.023812862
0003b0 15 68 c9 bd fc cb 35 bc cf 6b fb bb 92 a5 93 bd
       -0.09834305 -0.011095997 -0.007672764 -0.072093144
0003c0 52 73 cc bc 43 5f 3d 3d a0 9c 19 bc ff d2 be 3d
       -0.024957333 0.046233427 -0.009375721 0.09317588
0003d0 cb 46 ef 3d 98 b6 02 3e 62 f7 a3 bd e0 a7 05 3e
       0.116834246 0.12764966 -0.08006169 0.1305232
0003e0 88 ea bc 3d b4 f2 75 bd 30 aa c4 bc 86 ab e7 3d
       0.09224421 -0.060045913 -0.024006933 0.113120124
0003f0 c4 0a 1a bd 98 9b 05 bd c3 1e 91 bd e5 c6 06 3d
       -0.037607923 -0.03261909 -0.070859455 0.032904524

lstm.weight_hh_l0 f4 [256, 64]
000000 6e 5e 26 bd 48 65 04 be ec d7 a3 bd d3 5c 2f be
       -0.0406174 -0.1292926 -0.08000168 -0.17125253
000010 99 f9 c2 bc 33 41 2a 3d 2e 53 47 3e df d9 ae bd
       -0.023800658 0.041566085 0.19465324 -0.08537649
000020 5c 6a 60 3e 69 e7 a3 bd b6 b2 e6 3d 57 d1 0f 3d
       0.21915573 -0.08003122 0.11264555 0.03511175
000030 ff d2 3d 3e 5c 67 0d be b8 72 19 be aa 95 d5 bd
       0.1853752 -0.1380896 -0.14985168 -0.10428937
000040 26 0e e9 bc 4f e6 c4 bd a5 7c 24 bd 54 8f 9b bd
       -0.02844913 -0.096142404 -0.040157933 -0.07595697
000050 a1 3f 59 bd 5f 7a 4e be 3a cf 7f 3d 99 5d 90 bd
       -0.053039197 -0.20163868 0.062453486 -0.07049102
000060 ed 7e 15 bd 08 9b 5c be f9 c2 74 3e bd 27 01 be
       -0.036498 -0.21543515 0.23902501 -0.12612815
000070 d4 ab cb 3d b3 49 33 be 22 e3 8d 3d 61 34 37 be
       0.09944883 -0.17508583 0.06928088 -0.17891075
000080 6c 76 d9 bc f7 a2 2f be 32 a1 80 3d c1 34 1d 3e
       -0.026545726 -0.1715201 0.062807456 0.15352155
000090 05 a1 f8 3d cd ab 23 3e 16 fe 44 be d4 11 31 be
       0.12140087 0.15983506 -0.19237551 -0.17291957
0000a0 2b e8 43 3e 3b 5f be bd 63 60 1e be 5b 94 15 be
       0.19131534 -0.092955075 -0.15466456 -0.14607374
0000b0 dd ac bc bd 48 ca d8 3d 14 8e 78 3e c5 28 7f 3e
       -0.092126586 0.10585457 0.24272949 0.24917896
0000c0 3d fb 74 bd 5e 86 86 bc 2d 01 f4 3d 47 bf 37 be
       -0.059809912 -0.016421493 0.11914287 -0.1794406
0000d0 6e 41 e8 bd 24 03 26 bd 05 93 b8 bd 3e 3c 54 3a
       -0.11340605 -0.04053034 -0.09012417 0.0008096135
0000e0 a6 5d 80 bd 68 2e 1b 3e 5c 5c 2e be 50 e6 b0 bc
       -0.06267862 0.15154421 -0.1702742 -0.021594197
0000f0 9b e7 8c 3d d0 b2 4a 3e 86 b9 5b 3e 60 d6 0e 3e
       0.06880113 0.19794774 0.2145749 0.13948965
000100 a8 98 fa 3d 3d 1b 93 3d f1 66 5d be ad 10 f8 bd
       0.12236148 0.0718293 -0.216213 -0.12112556
000110 70 1c 9a bc d1 a3 dc 3d 14 56 18 3e 60 40 43 be
       -0.018812388 0.10773433 0.14876586 -0.19067526
000120 85 8f 56 3e 3b f7 9c bd fe e8 83 3d 8c 36 6a 3e
       0.20953186 -0.07664343 0.06440924 0.2287237
000130 a8 26 c0 3d 43 a2 0f be e4 c6 c3 bd cc 82 06 be
       0.09382373 -0.14026742 -0.0955942 -0.13135833
000140 c0 d0 2a be 71 50 22 be fe 23 4f be a3 47 0e bb
       -0.16681194 -0.15850998 -0.20228574 -0.002171018
000150 ab c0 f4 bd 50 bc 22 be e5 3c ec 3a 1a b1 b9 bd
       -0.11950811 -0.15892148 0.0018023519 -0.090669826
000160 46 e7 b8 bc 43 84 6b be 8f 47 34 3e 1b 7d 04 be
       -0.022571217 -0.22999673 0.17605422 -0.12938349
000170 3e cb 41 3e 99 e1 3d be c4 cd 83 3d a6 d9 0a be
       0.18925187 -0.1854309 0.06435731 -0.13559589
000180 e9 ef 32 be 3a fd f9 bc a2 d3 1f 3e b5 6b cb bd
       -0.17474331 -0.030516256 0.15608075 -0.09932653
000190 1d 31 fd bb 52 6b b8 3d 96 10 5a be 88 0a 26 be
       -0.007726802 0.09004845 -0.2129539 -0.16214955
0001a0 64 69 28 3d f6 90 ce bd c7 0b 6b 3c 55 19 3f be
       0.041116133 -0.10086243 0.01434607 -0.18662007
0001b0 ce 69 f4 bd dd e6 2c 3d 65 d4 51 3e f7 22 66 3d
       -0.11934243 0.042212356 0.20491178 0.05618569
0001c0 4e db 68 be 24 62 01 bd 4e 81 02 3e 9f b2 0e be
       -0.22739908 -0.031587735 0.12744638 -0.13935326
0001d0 1d 4d b4 bd 53 78 6a be 5e de 5a be ad b9 d3 3d
       -0.08803771 -0.22897463 -0.21373889 0.10338149
0001e0 66 a7 0f be b0 f8 18 3e 69 0d 3e bd ed f1 bf bd
       -0.14028701 0.14938617 -0.046399508 -0.093723156
0001f0 d6 de fc 3d c2 5d 0d 3e f8 1c 32 3c 42 4a 82 bb
       0.1234719 0.13805297 0.0108711645 -0.0039761374
000200 c6 9a b6 bc 4a 64 54 bd 8a d3 93 3d 60 43 3a bd
       -0.022290599 -0.051853456 0.07218082 -0.04547441
000210 4e 18 2d bd 3a 9b b0 bd 8e 7d ad 3b 34 52 a9 3d
       -0.042259507 -0.08623357 0.0052945083 0.08267632
000220 bd 86 ba 3c 60 8a e3 bd a7 8e 0b 3e 2d f9 08 3e
       0.022769326 -0.11110377 0.13628636 0.13376303
000230 7d ac bb 3d a1 3c bc bd 1a 4f 07 3c 99 f8 b2 bd
       0.09163759 -0.091912515 0.008258605 -0.087388225
000240 3a 9b 0f be dc f7 0e bd 85 a9 8a bd b2 af 8e 3d
       -0.14024058 -0.034904346 -0.067706145 0.06967105
000250 1a eb 48 ba b8 91 8c 3c f2 0c 14 3d 88 01 8b bd
       -0.00076644274 0.017159328 0.036145158 -0.067874014
000260 8d 64 32 bd 41 e1 f1 3c 25 dc d0 3d 6d f4 a6 3d
       -0.043552924 0.029526355 0.10198239 0.08152089
000270 a5 31 a1 bc c1 56 32 bd 26 7a af 3d 73 f7 70 3d
       -0.019676993 -0.043539766 0.0856822 0.058829736
000280 e4 0f fe bd 17 c7 83 bd f4 9e b1 bd bc 65 93 bd
       -0.12405375 -0.06434458 -0.08672896 -0.07197139
000290 1e d2 f2 3d 8e 43 16 3e 0d 22 7f bd 5c 9f ea bd
       0.11856483 0.14674208 -0.062288333 -0.11456177
0002a0 35 2f cf 3c 83 6c 9d bd 51 14 ea 3b ae 7a bb 3d
       0.025291065 -0.076867126 0.007143535 0.09154259
0002b0 7c 5c da bc 09 ea 9d 3c 57 fd 83 bd b0 35 f6 3d
       -0.026655428 0.019276636 -0.06444805 0.12021959
0002c0 9b 76 08 be 55 51 bb bc 05 06 1f bd e2 11 f5 3c
       -0.13326494 -0.02286593 -0.0388241 0.029915754
0002d0 5d 73 50 bd 80 07 84 3d 27 94 83 bd 4f f9 e2 3d
       -0.05089127 0.06446743 -0.06424742 0.11082708
0002e0 ac c2 50 bd c5 b0 d1 3d 16 90 0e be ee 80 07 be
       -0.050966904 0.10238794 -0.13922152 -0.13232777
0002f0 1f 37 42 3c 20 5b db bb 03 42 be bd 54 4e da bd
       0.011853962 -0.0066942126 -0.092899345 -0.10659471
000300 d2 4e 10 bd 38 b8 3e 3d 76 eb fa 3c a1 1a c0 3d
       -0.03523142 0.046562403 0.030629855 0.09380079
000310 c9 ff 1a 3b 7a 26 14 bc b3 c1 60 bb 88 dd 5b 3d
       0.0023650995 -0.009042377 -0.0034295141 0.053678066
000320 52 5e 55 3d ff 85 8a 3d 91 bb aa 3d 41 59 f0 3c
       0.052091904 0.06763839 0.08336557 0.029339435
000330 68 a2 82 bd 42 5b 0a bd df 80 07 bd 44 d5 b4 3d
       -0.06378633 -0.033778436 -0.033081885 0.0882974
000340 5b ab d5 bc 53 e8 f3 3c b4 b6 17 bd 07 36 6d bd
       -0.026082685 0.029773867 -0.037039474 -0.057912853
000350 3f 8e 5a bc 80 7f ad 3a 1b 45 e7 3d 3b 24 16 bd
       -0.013339578 0.001323685 0.11292478 -0.036655646
000360 23 63 c6 bd cb d3 0d 3d df 7c 12 3d 72 d4 25 bb
       -0.096868776 0.03462581 0.035763618 -0.002530363
000370 ed 6d b5 3c 5a 34 37 bd a6 ca 59 bc 1d 4a a7 3c
       0.022147143 -0.04472766 -0.013292944 0.020421082
000380 fc 2a 15 3d 25 fe 86 bd 54 50 ec 3d b7 de 07 bc
       0.036417946 -0.06591443 0.11538759 -0.008292845
000390 89 b0 88 3c aa bf e0 3d 97 35 d3 bd e1 e3 f4 bd
       0.016685741 0.10974057 -0.10312956 -0.11957527
0003a0 bc f1 b9 bc ac b4 dc bd c1 b5 2f bd 03 8b 00 be
       -0.022698276 -0.10776648 -0.042897943 -0.12553029
0003b0 37 d3 54 bd ec 77 da bc 07 c9 22 3e cb 4e ad bd
       -0.051959243 -0.026668511 0.15896998 -0.08462294
0003c0 2d e7 ad 3d 19 b1 9a 3d 64 17 94 bd 7b d9 c9 ba
       0.08491359 0.0755331 -0.07231024 -0.0015399897
0003d0 32 d2 29 bc 32 40 be 3c ed aa 92 bd 83 d5 0f be
       -0.010365056 0.02322397 -0.07161508 -0.14046292
0003e0 93 4a a6 bd ad 11 92 bc f4 83 cc bb 4c 82 39 3d
       -0.08119693 -0.017830694 -0.006241316 0.045290276
0003f0 f8 df 6e bd 9d d5 b9 3d cd 8d 89 bd c6 84 8c bd
       -0.058319062 0.090739466 -0.067164995 -0.06861262

lstm.bias_ih_l0 f4 [256]
000000 49 fc 32 3e 02 ee 46 3e 92 84 0e 3e d0 5b 53 3d
       0.17479052 0.1942673 0.13917759 0.05160123
000010 8d 0a 0b 3e 5b 9c b8 3d 22 a0 1e 3d 94 f1 09 3d
       0.13578244 0.090141974 0.038726933 0.033677652
000020 3e 87 cc 3d db 1d db 3c 05 fc a6 3d 29 d7 91 3d
       0.09986733 0.026747635 0.08153538 0.07121117
000030 d6 fa 0c 3e 7d 30 cc 3b 69 a2 0d 3e c8 1b 20 bd
       0.13767561 0.006231366 0.13831486 -0.039088994
000040 37 72 10 bc 98 fc 6b 3c 21 f0 2f 3e 56 77 e2 3d
       -0.008816293 0.014403485 0.17181446 0.11057918
000050 56 54 11 3e ab fe 9b bd 5b 81 6d 3d 00 d1 37 3c
       0.14192328 -0.076169334 0.05798469 0.011219263
000060 9b 64 28 bd 2c d5 e1 3d 85 af d3 bd c2 00 63 3c
       -0.04111157 0.110269874 -0.10336212 0.013855161
000070 16 73 68 3d 8e 3f 68 3e be 6c 7a 3b 9d d1 8a 3e
       0.05675038 0.22680494 0.0038211788 0.27113047
000080 4c 8b 23 3e 02 db 1b 3e 60 6f 23 3d 8f d6 be 3d
       0.15971106 0.15220264 0.039901137 0.093182676
000090 54 a5 13 3e 69 d0 59 3e a3 3c 68 3e bc e2 1b 3e
       0.14418536 0.21270908 0.22679381 0.15223211
0000a0 57 79 ee 3d ef de f2 3d 62 dc 96 3d 1b c4 0a 3e
       0.116442375 0.118589275 0.073662534 0.13551371
0000b0 3d e4 fe 3d 82 90 d9 3d 8b 3e 33 3e 17 04 d2 bc
       0.12445877 0.10623266 0.17504327 -0.025636716
0000c0 5d 2a 9a 3d 75 ae 12 bd d0 95 8c 3e 95 a6 8f bd
       0.075276114 -0.035810906 0.27458048 -0.07014195
0000d0 71 6b 29 3e a8 24 a1 3d 5b 51 ab 3d 2d 12 85 be
       0.16544892 0.0786832 0.08365127 -0.2599043
0000e0 23 c3 57 3e d5 ea 9e 3c d0 36 23 3d c4 b5 f2 3d
       0.21070533 0.019399086 0.039847195 0.11851075
0000f0 54 3f 90 3d 12 db 3d 3d 03 c1 78 bd 34 d0 9e 3d
       0.07043329 0.0463515 -0.060730945 0.07754555
000100 c5 5b 3c be 95 9e 52 3e 79 52 18 bd d3 6b 07 3e
       -0.18394382 0.20568307 -0.037188027 0.13224725
000110 8d a7 44 3b 7d b7 6f 3e cb a0 27 3e eb ea fd 3d
       0.0030007095 0.23409839 0.16369931 0.12398323
000120 2f cf 09 bc 94 ce ba 3d 8d 80 c1 3b d3 1d 4a bd
       -0.008411213 0.09121433 0.005905217 -0.04934485
000130 c5 19 11 3e df 95 dd 3c fb 5e aa 3d 12 43 97 3d
       0.14169987 0.027049003 0.08318897 0.073858395
000140 af 38 26 3e 98 9a 48 3e b6 bf 5b 3e f5 60 a3 3d
       0.1623256 0.19590223 0.2145985 0.079774775
000150 cd cd 32 3d 6d 29 2d 3e 8d 55 08 3e 59 15 4c 3d
       0.0436533 0.16910334 0.13313885 0.049825046
000160 33 9f c5 bc 9b 27 6d bc c4 d4 14 3d 64 10 c0 3d
       -0.024123764 -0.014474775 0.03633572 0.09378126
000170 55 5b ab ba 40 39 52 3d 46 55 f7 3c 00 ca ce 3d
       -0.0013073484 0.05132413 0.030192029 0.10097122
000180 eb d4 c8 bd d6 1c e3 3d 54 bb 05 3e 9d 36 18 3e
       -0.09806236 0.110894844 0.13059741 0.14864583
000190 0f 48 a4 bc 2d 04 76 3d 26 c8 5a 3e 40 b5 37 bd
       -0.020053891 0.060062576 0.21365413 -0.044850588
0001a0 0c ca 03 3e 96 ee eb 3c 1e be d7 3c 62 4d 22 3e
       0.12870044 0.02880029 0.026335772 0.15849832
0001b0 88 91 0d 3e 86 ef d5 3d 6b f7 b4 3d 32 84 da 3d
       0.13825047 0.10446076 0.08836254 0.106697455
0001c0 7d 9c 60 3e be c1 93 bd 52 30 f0 3c 9f 40 75 3d
       0.21934696 -0.07214688 0.029319916 0.05987608
0001d0 52 ee a4 3d 34 a0 bd 3d e3 98 22 3e 4c f1 99 bc
       0.080532685 0.09259072 0.15878634 -0.018791817
0001e0 7c 01 8e bd ff a2 8c 3e a4 e7 63 3e 0e a0 5e 3e
       -0.06933877 0.27468106 0.22256333 0.21740744
0001f0 cc 01 20 3c d1 e4 08 3e f6 be f1 3d 71 be 05 3d
       0.009766053 0.13368537 0.11804001 0.032652322
000200 36 30 39 3e 62 63 e1 bd 90 a1 7f be 77 4a 76 be
       0.18084797 -0.11005284 -0.24963975 -0.24051844
000210 ac b7 8a bd 93 2d 2b 3e f3 3d 86 3e e3 57 6c be
       -0.06773314 0.16716604 0.26219139 -0.23080401
000220 b2 e3 a1 3d 98 f2 d6 bb 3b 79 77 3e 9d e2 51 3c
       0.079047576 -0.006559681 0.2416734 0.0128103765
000230 bb 04 41 3e 0d 90 83 be ef 18 39 be 51 7a 60 bd
       0.18849461 -0.2569584 -0.18075918 -0.05480415
000240 d4 08 00 be 54 bd 8c be 45 77 83 be 18 cc 57 be
       -0.12503368 -0.27488196 -0.25676933 -0.2107395
000250 b2 d2 d2 bd 9b 51 bd bd 07 e9 8e 3c f9 34 80 be
       -0.10294093 -0.09244081 0.0174451 -0.25040415
000260 51 c9 11 be 65 d3 45 be 97 eb 81 3c 0d 6b 88 be
       -0.14236952 -0.19318922 0.015859408 -0.26644173
000270 66 2f 46 3e 66 ff 90 be a1 b8 8f 3d a3 e8 87 bd
       0.19354019 -0.28319854 0.07017637 -0.06636169
000280 04 cd ae be 65 2a 87 be 96 f9 d7 3d 89 63 87 3d
       -0.3414079 -0.26399532 0.105456516 0.06610782
000290 00 ca 5a 3e b3 3b 8b 3e 68 eb 78 be 29 6e cd bd
       0.2136612 0.27193984 -0.2430855 -0.10030777
0002a0 79 5d 15 3d db 87 4f bd 6d 48 f6 bd 42 27 e8 bd
       0.036466096 -0.05066667 -0.12025533 -0.11335613
0002b0 18 ea a3 be fa 1f 83 bd 0f dd 92 3e a3 45 99 3e
       -0.32014537 -0.064025834 0.2868428 0.2993594
0002c0 aa 7e 84 be 0d 69 a9 bd 14 59 8f 3e a5 36 2e be
       -0.25877887 -0.0827199 0.2799765 -0.17013033
0002d0 f1 a9 0c be 77 30 6a bd 0f 5f 61 be 1f e7 00 be
       -0.13736703 -0.057175126 -0.22008918 -0.12588166
0002e0 41 09 5d bd d5 ca b5 3e 99 27 77 be 92 1c a7 3c
       -0.053963903 0.3550631 -0.24136199 0.020399366
0002f0 88 f3 66 3e 2c 26 4b 3e 55 5f 5b 3e 2b 5c 84 bc
       0.22553837 0.1983878 0.21423085 -0.01615723
000300 25 20 0c 3e d7 84 3f 3e d5 60 88 3d b2 d9 95 3e
       0.13684137 0.18703018 0.06659094 0.2926765
000310 b0 7e 8b 3e 7d c1 d6 3d e2 c5 00 3e 6a f1 5e 3e
       0.27245092 0.10486124 0.12575486 0.2177178
000320 81 3d 8a 3e d2 11 88 3e c5 cc d0 3d 90 ba e8 3d
       0.2700005 0.26576096 0.10195307 0.11363709
000330 71 70 c5 3d 0d fd 69 3e cf 85 7a 3e 89 fa a3 3d
       0.09640587 0.22850437 0.24465106 0.0800677
000340 8e 0c c0 3d d2 48 89 3e 46 63 f5 3d 8e 92 93 3e
       0.093773946 0.2681337 0.119818255 0.2882275
000350 6f ad 0f 3e 5f b2 12 3e b6 4f 18 3e 1c e0 2c 3e
       0.14031003 0.14325856 0.14874157 0.16882366
000360 da b2 92 3d bf 56 31 3e 5a a2 64 3e c7 a7 2e 3e
       0.071630195 0.17318247 0.22327557 0.1705619
000370 90 2f 30 3e a6 dc 80 3c 76 cd 5f 3e a0 07 50 3e
       0.17205644 0.015730213 0.21855721 0.20315409
000380 54 24 b3 3e f0 f7 22 3e 61 3c f6 3d b0 be ac bd
       0.34988654 0.15914893 0.12023235 -0.08434808
000390 8a 9b 2a 3e 59 cb 8c 3e 74 68 15 be cd b0 50 3e
       0.16660896 0.27498892 -0.14590627 0.20379944
0003a0 34 dc 90 3d 77 9c 06 bd 02 46 00 3e 56 a5 a9 3d
       0.070732504 -0.03286406 0.12526706 0.082834885
0003b0 cd 2d 10 be 99 61 5c 3e 88 eb 6f 3e e0 45 28 3e
       -0.14079972 0.21521606 0.23429692 0.16432905
0003c0 ef 71 74 3e 33 bb 39 3c e6 fe 46 3e e3 8d fe 3d
       0.23871587 0.011336136 0.19433174 0.124294065
0003d0 02 3e 08 3e a7 92 9e 3d bf 20 d9 3d b2 25 62 3e
       0.13304904 0.077428155 0.10601949 0.22084692
0003e0 0a d3 23 3e 79 bf 59 3e 23 76 83 3e 4e ce 6b 3d
       0.15998474 0.21264447 0.2567607 0.057569794
0003f0 9e 64 40 3e 90 c3 07 3e 77 d0 0e 3e c4 73 02 3e
       0.18788382 0.13258195 0.1394671 0.12739474

lstm.bias_hh_l0 f4 [256]
000000 ba f4 d0 3d 67 79 e5 3d c1 e6 1e 3e 6b 40 e9 3a
       0.10202928 0.11204796 0.15517713 0.0017795687
000010 87 1a ab 3c 3e 7d 12 3e 6f 6d 08 3d ae e9 4f 3d
       0.020886673 0.14305589 0.03330749 0.050759964
000020 dd b1 86 3e 8b 9d 24 bd ff c3 05 3e 36 78 f6 3d
       0.26307574 -0.040189307 0.13063048 0.12034647
000030 5d e0 06 3d 17 eb 7f 3d 85 36 48 3e 3e df c3 3d
       0.032928813 0.06248006 0.19552048 0.095640644
000040 63 71 47 bd d9 f8 fb 3d 5e fe f4 3d 28 11 24 3d
       -0.04869212 0.12303323 0.11962579 0.040055424
000050 69 66 0c 3e 1f 5d f8 3d d1 e4 bf 3d d9 82 e9 3d
       0.13710941 0.121271364 0.09369815 0.1140191
000060 47 8d 27 bd 42 d2 15 3d 3d 55 97 bd b0 b3 5e bc
       -0.040906217 0.03657747 -0.07389305 -0.0135926455
000070 8f b9 45 3e 7d 83 26 3d b9 df ba bd 36 9b 2c 3e
       0.19309066 0.04065274 -0.09124703 0.16856083
000080 43 de 60 3e d4 73 4f 3e b6 b7 ce 3d 1a c2 46 3e
       0.21959786 0.20259029 0.10093634 0.19409981
000090 7d 97 5e 3d 5c f8 74 3e 8a c3 66 3e 31 d1 7f bd
       0.05434369 0.23922867 0.2253553 -0.06245536
0000a0 77 82 8e bd 69 bc e6 bc 13 5f 10 3d cb 64 4a 3e
       -0.06958478 -0.028166013 0.03524692 0.19765012
0000b0 5e 8a 4b 3e 5b 35 70 bd b6 97 0c 3d 6a 46 63 bc
       0.19877002 -0.058644634 0.03432437 -0.0138717685
0000c0 30 2a 06 3e 5e 81 f1 3d 2d 4c 13 3e e8 6a b9 3d
       0.13102031 0.11792253 0.14384528 0.09053594
0000d0 dc 6c 24 3d 9a cc 0e 3d dd a1 37 3e ce b2 5b be
       0.04014288 0.034863092 0.1793284 -0.21454927
0000e0 43 01 d8 3d f6 1d 69 3e 43 a2 2d 3e b7 75 88 3d
       0.10547116 0.22765335 0.16956429 0.06663077
0000f0 c8 e9 85 3e be 5d 00 3e a8 d1 f3 bc 27 77 d8 3d
       0.26154923 0.1253576 -0.029763058 0.105696015
000100 ef 73 8d bd 40 59 46 3c 82 a6 85 3d 14 82 be bc
       -0.06906878 0.01210624 0.065258995 -0.023255385
000110 3d 7a cd 3d 64 39 2a 3d 1e a6 42 3d 66 31 24 3e
       0.10033081 0.04155864 0.047521703 0.16034469
000120 12 1a a3 3c 87 26 d5 bc d6 bb 16 3d 82 fc 12 3e
       0.019909892 -0.026019348 0.036800228 0.14354137
000130 4a 53 48 bc f9 ad 56 3e c2 5b 4e bc dc 85 3a 3e
       -0.012226889 0.20964803 -0.012595119 0.18215126
000140 61 91 22 3e 26 ab 66 3e 49 39 0e 3e 29 06 27 3e
       0.1587577 0.22526225 0.1388904 0.16310944
000150 4e d8 6b 3d be bf c0 3d 7f ef 93 3d 87 97 c2 3c
       0.05757933 0.09411572 0.07223415 0.023753894
000160 0d d2 a2 3d 5a 64 d3 3b c2 de 56 3d 6a 58 42 3e
       0.0795022 0.006451172 0.052458532 0.1897904
000170 e9 b4 47 3e 8e 52 2b 3c 3d c7 c6 3d fc ed 34 3d
       0.19502605 0.010456694 0.097059704 0.044172272
000180 d4 dd 60 3a 50 fa 90 3d 54 8d 12 3e c6 25 09 3e
       0.0008577977 0.07078993 0.14311725 0.13393316
000190 e6 f6 55 3e 98 67 59 3e b6 7a f3 3b 3c de 3c 3d
       0.20894966 0.21230924 0.0074304 0.046110377
0001a0 27 07 61 3d 52 26 1c 3e cc 6e e6 3d 33 d2 84 3d
       0.05493846 0.15248993 0.112516016 0.06485405
0001b0 a2 4b 0b 3e 07 a2 b0 bc 81 93 bf 3d 30 a9 a2 bc
       0.1360307 -0.021561636 0.09354306 -0.019856066
0001c0 cf 60 c5 3c 4f 22 4c bd f2 40 48 3e 83 93 5d 3a
       0.024094013 -0.049837407 0.19556025 0.0008452462
0001d0 86 fb 5b 3c 95 3e 20 3e 51 85 d1 3b 32 c7 cd 3c
       0.013426667 0.15648873 0.0063940664 0.025119398
0001e0 c4 25 88 bd 17 4f 25 3e d1 84 14 3e b5 dd 12 3e
       -0.06647828 0.16143452 0.1450379 0.14342387
0001f0 66 ae ca 3d 5e 74 1d 3d 36 4e b9 3c ec c9 32 3d
       0.09896545 0.038441055 0.022620302 0.0436496
000200 91 9a b9 3e 12 24 88 be 6d 4b de bd 2c e1 25 be
       0.36250737 -0.2659002 -0.1085423 -0.16199178
000210 3b 34 92 bd ed c7 02 3e c5 c2 79 3e bd be 70 be
       -0.071388684 0.12771578 0.24390705 -0.23510261
000220 8c 63 80 3e 9b 79 07 be 6e 60 ee 3d 96 8e 5b 3e
       0.25075948 -0.13229983 0.11639486 0.21441111
000230 6f b9 dc 3d ee 4d f5 bd ad 73 ab bd 2a fb 15 be
       0.10777556 -0.119777545 -0.08371673 -0.14646593
000240 e4 cd 92 be 7c 94 04 be c4 4d c1 bd 05 bf 5d be
       -0.28672707 -0.12947267 -0.09438661 -0.216549
000250 92 58 e1 bd 75 24 ed bd 25 4c 52 3e 42 4b 44 be
       -0.110032216 -0.11579219 0.2053686 -0.19169334
000260 c6 f0 a2 bd c5 86 9f be 28 0a 11 3e 6c 1b 5c be
       -0.0795608 -0.31157508 0.1416403 -0.21494836
000270 a5 85 b9 3d 0b 2a 21 be f6 e5 38 3e a2 4a 06 be
       0.09058694 -0.15738694 0.18056473 -0.13114408
000280 1f 1d 8d be 12 97 9b be 29 b2 c7 3d c6 6c 83 3e
       -0.2756128 -0.30388695 0.09750778 0.25668925
000290 0f 3d b4 3d 9a 31 8e 3e 87 1a 97 be 52 07 5c bd
       0.088007085 0.27772218 -0.29512426 -0.05371792
0002a0 fc 50 72 3e b6 d5 4f be a5 27 c5 bd 92 b8 68 be
       0.23663706 -0.20296368 -0.09626702 -0.22726658
0002b0 d7 14 01 be d1 fa 42 bd 67 d1 8b 3e 8c d4 f3 3d
       -0.12605606 -0.04760248 0.273082 0.119057745
0002c0 95 eb 4c be 84 a4 2d bd 21 93 7c 3e 3e 59 48 3d
       -0.20011742 -0.042393222 0.246655 0.048913233
0002d0 7f 7a fa bd 82 77 82 be 6d 17 75 be ce 80 1e bd
       -0.122303955 -0.25481802 -0.23934717 -0.038697056
0002e0 db d9 82 bd 43 d5 b0 3e 50 7f 91 be 00 d9 2d be
       -0.06389209 0.34537706 -0.28417444 -0.1697731
0002f0 c4 ed fb 3d f5 fa 96 3e cf 25 3f 3c 45 1d 32 3e
       0.123012096 0.2948834 0.011666729 0.17393978
000300 bd f4 e7 3d 3f e6 2e 3e 83 da 85 3e cc 92 53 3e
       0.11325977 0.1708002 0.26143274 0.20661467
000310 70 5e 6e 3e 3f 30 13 3e 07 e3 9a 3e b7 7f cd 3d
       0.23278213 0.14373873 0.30251333 0.10034125
000320 89 7c f6 3c cd d2 89 3e ad 88 c1 3d 66 8a d9 3d
       0.03008868 0.2691864 0.09449897 0.106221005
000330 68 e0 2f 3e c4 2b 66 3e 0a 5a d0 3d 20 cf 4b 3e
       0.17175448 0.22477633 0.101734236 0.1990323
000340 48 c6 91 3d 0d 68 1e 3e 7b af 6c 3e 3a 10 d1 3d
       0.07117897 0.1546938 0.23113815 0.10208173
000350 db 1f 73 3e f2 d2 50 3e 97 2a 75 3e a1 ec 51 3d
       0.2374262 0.20392969 0.23942028 0.051251058
000360 bf 84 70 3e 75 49 58 3e 1e a2 28 3e b8 13 94 3e
       0.23488139 0.21121772 0.16468093 0.28921294
000370 5a ca ce 3d 6e 07 1e 3e 91 30 a4 3d d2 a9 e4 3d
       0.10097189 0.15432522 0.08017076 0.11165203
000380 cc ba 50 3e 84 83 98 3d 56 c8 6c 3e 89 85 8f bc
       0.20383757 0.074469596 0.23123297 -0.01751973
000390 a6 6c a0 3d 22 21 57 3e dc ae fb 3b 80 90 99 3c
       0.07833223 0.21008733 0.007680757 0.01874566
0003a0 6e 9b fe 3d 9b ad e0 bd d7 06 18 3e 5f a7 82 3e
       0.124319896 -0.109706126 0.14846359 0.2551832
0003b0 c3 9e 00 be 88 60 9f 3d 18 ba db 3d 8a 35 28 3d
       -0.12560563 0.07782084 0.10728854 0.041066684
0003c0 9a c3 77 3d f5 ab 81 3e 0a 45 05 3e 2a 64 36 3d
       0.060489275 0.25326505 0.13014618 0.044529118
0003d0 56 07 6c 3d 14 06 29 3e ce 48 ff 3d b1 78 6f 3e
       0.057624184 0.16506225 0.12465058 0.23385884
0003e0 b8 4d 8f 3e 1e 81 9f 3e 9f c2 67 3e e0 a3 4f 3e
       0.27988982 0.31153196 0.22632836 0.20277357
0003f0 14 e8 56 3e 57 f2 57 3e a0 57 82 3d b3 9d cc 3d
       0.20986968 0.21088539 0.063643694 0.09991016

fc.weight f4 [1, 64]
000000 76 09 8a 42 1e e0 8b c2 96 d3 8b c2 2a 73 8a c2
       69.01848 -69.93773 -69.91325 -69.22493
000010 55 ac 89 c2 9e a6 8b 42 e8 e8 8a 42 01 32 8c c2
       -68.836586 69.825424 69.454895 -70.097664
000020 ea 18 8a 42 51 52 8b c2 73 3b 8b 42 51 66 8a 42
       69.04866 -69.660774 69.61611 69.19984
000030 4e 65 8b 42 95 7a 8b c2 9c a6 8a c2 3e 1b 8b c2
       69.69786 -69.73942 -69.32541 -69.55321
000040 d9 22 8c c2 56 e8 8b c2 28 18 8b c2 41 7f 8b c2
       -70.06806 -69.95378 -69.54718 -69.74854
000050 39 df 8a c2 80 e1 89 c2 f4 20 8b 42 a2 33 8b c2
       -69.43598 -68.94043 69.56436 -69.600845
000060 8b cb 89 c2 f5 4e 8c c2 10 47 8a 42 68 03 8c c2
       -68.897545 -70.15421 69.138794 -70.00665
000070 02 c3 8b 42 48 77 8b c2 48 20 8a 42 5a c7 8b c2
       69.880875 -69.73297 69.06305 -69.88936
000080 bc 3e 8b c2 3c 66 8c c2 25 ec 8a 42 36 5d 8a 42
       -69.62253 -70.19968 69.46122 69.18205
000090 ae d4 8a 42 87 e8 86 42 5a 5b 89 c2 78 90 8a c2
       69.41539 67.454155 -68.67842 -69.282166
0000a0 85 7f 8a 42 84 e0 89 c2 27 be 8a c2 bf 02 8b c2
       69.24906 -68.93851 -69.37139 -69.50536
0000b0 5a 18 8a c2 0d cb 89 42 06 28 8c 42 29 28 8c 42
       -69.04756 68.89658 70.07817 70.07844
0000c0 8e 02 8c c2 a5 8c 89 c2 62 e6 8b 42 14 63 8a c2
       -70.00499 -68.7747 69.94997 -69.19351
0000d0 42 a9 89 c2 0a 85 8a c2 8e 18 8b c2 8e 8b 80 c2
       -68.83058 -69.25984 -69.54796 -64.27257
0000e0 82 ba 72 c2 4f d2 8c 42 34 4c 8c c2 c8 1b 8a c2
       -60.682137 70.41076 -70.148834 -69.05426
0000f0 da f7 89 42 08 4f 8c 42 21 8e 8b 42 83 da 8a 42
       68.984085 70.15436 69.777596 69.42678
