LSTM_MODEL/LITM_DT_model.pt (torch, 90430 bytes, 5 tensors)

lstm.weight_ih_l0 f4 [256, 20]
-1.7887545 -0.47071704 0.11357914 -0.04917553 -0.032288194 0.096184656 0.09132315 1.5332235
-2.2079496 -0.4188813 -2.39194 -1.6121076 -1.7264124 -1.3678541 -1.3049603 -2.2056355
-0.8558233 -1.2216967 -0.16097292 -1.7965624 -1.1561816 -8.944889 0.07269101 -0.033497706
-0.0688781 -0.04858084 0.038007393 1.1851503 1.9502001 -1.5048186 -3.67368 -0.6129199
-1.0328835 -0.81961 -0.29966322 -1.0750148 -0.13775216 -4.3171606 -1.1871246 -1.2210083
-1.7549511 -1.3786174 0.057937384 0.10284527 -0.09510781 0.034121394 0.10404457 -0.4387634
-1.5940543 -1.6713625 -1.4993144 -1.969893 -2.034946 -1.8773632 -1.9900802 -1.899133
-1.9727315 -1.3149087 -1.4332752 -1.8396969 -1.0804006 5.2498364 0.007859737 0.08579682
-0.045090318 0.07757945 0.04467565 -1.3879484 0.9746381 -1.4556421 0.6680086 0.9611625
1.3965609 0.65317005 1.0649359 2.813456 -1.0216901 -6.220844 -3.9839082 -1.2157302
-2.0595634 -0.9853285 -0.106960624 -0.10619557 -0.12210852 0.11996716 0.064271644 -0.9896863
-1.0314249 -1.3379296 -1.9557413 -1.8564914 -1.6517445 -1.9524819 -1.6867286 -1.7486656
-1.574872 -2.6305084 -1.1782861 -2.093546 -1.301958 3.897216 -0.112320125 0.06856856
-0.111163616 -0.03209074 -0.044431075 -3.684265 -0.9235819 0.13448115 -0.69086605 -0.67698497
-0.5737368 -0.90125686 -0.7217957 -0.6970575 -1.0275251 -1.6391265 -0.2263643 -1.3276569
-1.5241978 -0.2477269 -0.030984208 0.11708589 -0.024531841 -0.061204165 0.0431145 -1.5744137
-0.5868203 -1.7559758 -1.3172709 -1.1297859 -0.8498276 -1.3444238 -1.2934119 -0.83947116
-1.5458431 -1.5248585 -2.0767105 -1.4951552 -0.2105145 6.1531415 0.0904865 -0.08840074
-0.0058610737 -0.061669245 0.101123735 -1.0795494 -3.2879272 -0.7278348 0.0033426383 0.0035058863
-0.11245951 -0.002001484 -0.101379015 0.63437766 -0.72624415 0.25151563 -0.45798036 -0.19399868
-1.9435751 -1.5195888 -0.06904262 0.0101916045 0.052449927 -0.013978481 0.10368757 -1.6033728
-0.32035935 -1.7800533 -2.2057345 -1.8048397 -1.5301305 -1.952004 -1.6404269 -1.9490747
-1.8424206 -1.5957527 -1.6592573 -2.0266838 -1.0827905 -1.1644915 0.07099411 0.073465794
0.114135355 -0.092114314 0.027247518 -2.1939805 -0.8354292 -0.9440456 -0.8400595 -0.7343871
-0.6251998 -0.87431175 -0.5446989 0.05796554 -1.4927199 -2.3216577 -2.4950266 -1.2749548
-2.6440306 -2.4282436 0.062332734 -0.039674133 0.018979698 0.027428508 -0.11090377 -2.4168012
1.5485822 -1.1038046 -3.9278667 -2.2352977 -1.9686896 -2.2829854 -1.7229058 -2.5508173
-1.7293571 -2.2820513 -1.6158009 -2.671041 -1.6483737 1.2099453 -0.06904322 -0.12451595
0.019925505 0.005090937 0.12235804 -3.2732673 -2.3412266 1.2139329 -2.4134362 -2.580819
-2.407371 -1.9675748 -1.4872565 -3.5683904 -1.5900413 1.0013944 -0.6955009 -1.3228292
-1.0992193 -0.3677766 0.10592544 0.11548595 0.0034118146 -0.12140705 0.043982416 -6.018053
-5.2522845 0.85844445 0.33818978 0.45738515 0.63738024 0.2028216 0.42556393 1.9578154
00000000: e8f5 e4bf d301 f1be 2e9c e83d 486c 49bd
00000010: a040 04bd 76fc c43d a207 bb3d ab40 c43f
00000020: 0c4f 0dc0 9c77 d6be 8c15 19c0 8b59 cebf
00000030: 15fb dcbf d815 afbf f008 a7bf 2229 0dc0
00000040: 3c17 5bbf 8f60 9cbf 16d6 24be c2f5 e5bf
00000050: c2fd 93bf 441e 0fc1 06df 943d e434 09bd
00000060: f60f 8dbd b4fc 46bd a4ad 1b3d 01b3 973f
00000070: 28a0 f93f e59d c0bf 931d 6bc0 52e8 1cbf
00000080: 8735 84bf f6d1 51bf 756d 99be 169a 89bf
00000090: e70e 0dbe 2e26 8ac0 b3f3 97bf 004a 9cbf
000000a0: 3da2 e0bf 8976 b0bf c04f 6d3d 8aa0 d23d
000000b0: e2c7 c2bd e0c2 0b3d 5215 d53d 99a5 e0be
000000c0: f909 ccbf 35ef d5bf 89e9 bfbf 7425 fcbf
000000d0: 8e3c 02c0 704d f0bf f3ba febf ca16 f3bf
000000e0: 7782 fcbf ee4e a8bf 9075 b7bf 307b ebbf
000000f0: 914a 8abf a9fe a740 20c6 003c 3eb6 af3d
00000100: a0b0 38bd fae1 9e3d d0fd 363d 4ba8 b1bf
00000110: e281 793f 7b52 babf 9d02 2b3f bf0e 763f
00000120: 82c2 b23f 2736 273f d24f 883f aa0f 3440
00000130: bec6 82bf 2711 c7c0 5af8 7ec0 0c9d 9bbf
00000140: e3cf 03c0 7d3e 7cbf 2c0e dbbd 107d d9bd
00000150: 0814 fabd 58b1 f53d daa0 833d 155c 7dbf
00000160: bb05 84bf 4741 abbf bb55 fabf 83a1 edbf
00000170: 5d6c d3bf edea f9bf b9e6 d7bf 46d4 dfbf
00000180: 6895 c9bf 405a 28c0 14d2 96bf a8fc 05c0
00000190: 8fa6 a6bf fd6b 7940 1808 e6bd ac6d 8c3d
000001a0: c0a9 e3bd 9471 03bd 5cfd 35bd ffca 6bc0
000001b0: dd6f 6cbf 6db5 093e 99dc 30bf e34e 2dbf
000001c0: 6ae0 12bf c5b8 66bf 9ac7 38bf 5c72 32bf
000001d0: f185 83bf e6ce d1bf 0bcc 67be a9f0 a9bf
000001e0: ea18 c3bf 1fac 7dbe 98d2 fdbc baca ef3d
000001f0: 00f7 c8bc 38b1 7abd d498 303d 6386 c9bf
00000200: db39 16bf d1c3 e0bf 559c a8bf d39c 90bf
00000210: 4d8e 59bf 1416 acbf 858e a5bf 95e7 56bf
00000220: 30de c5bf 902e c3bf d3e8 04c0 3f61 bfbf
00000230: 1d91 57be 89e6 c440 fc50 b93d 720b b5bd
00000240: 400e c0bb e498 7cbd f619 cf3d ad2e 8abf
00000250: 666d 52c0 6253 3abf 2a10 5b3b 03c3 653b
00000260: 2c51 e6bd 542b 03bb cd9f cfbd 9366 223f
00000270: 23eb 39bf a8c6 803e 677c eabe 97a7 46be
00000280: 12c7 f8bf e381 c2bf 3866 8dbd b0fa 263c
00000290: bcd5 563d 0006 65bc 265a d43d 523b cdbf
000002a0: 2406 a4be c9d8 e3bf c12a 0dc0 fd04 e7bf
000002b0: 51db c3bf 44db f9bf 82f9 d1bf 487b f9bf
000002c0: 70d4 ebbf a041 ccbf 8b62 d4bf 30b5 01c0
000002d0: e198 8abf 0f0e 95bf 5c65 913d 3c75 963d
000002e0: ccbf e93d 6ea6 bcbd 3036 df3c 2d6a 0cc0
000002f0: b0de 55bf f9ac 71bf 240e 57bf cb00 3cbf
00000300: 180d 20bf e5d2 5fbf 6371 0bbf 466d 6d3d
00000310: 7211 bfbf 0a96 14c0 84ae 1fc0 b831 a3bf
00000320: cc37 29c0 5868 1bc0 9c50 7f3d 5881 22bd
00000330: 507b 9b3c c0b1 e03c 8421 e3bd dfac 1ac0
00000340: f137 c63f 7849 8dbf 2b62 7bc0 1e0f 0fc0
00000350: 05fe fbbf 6f1c 12c0 2d88 dcbf 9740 23c0
00000360: 935b ddbf 210d 12c0 90d2 cebf 56f2 2ac0
00000370: e9fd d2bf 7ddf 9a3f 8866 8dbd 3802 ffbd
00000380: d03a a33c e0d1 a63b da96 fa3d 367d 51c0
00000390: a8d6 15c0 2762 9b3f bd75 1ac0 232c 25c0
000003a0: 5e12 1ac0 7ed9 fbbf 6c5e bebf 8260 64c0
000003b0: 7986 cbbf b12d 803f 590c 32bf 7852 a9bf
000003c0: 38b3 8cbf 374d bcbe 70ef d83d e683 ec3d
000003d0: c098 5f3b 42a4 f8bd e826 343d e493 c0c0
000003e0: b712 a8c0 04c3 5b3f 3627 ad3e 632e ea3e
000003f0: 5a2b 233f 77b0 4f3e 84e3 d93e b299 fa3f

lstm.weight_hh_l0 f4 [256, 64]
-1.4119713 1.7187237 -0.20322376 -0.5168162 -0.66505504 0.17271452 -0.351744 -0.7990593
-0.5186791 -0.03012124 0.88433 -0.028101288 -1.8317541 0.4817805 -0.11390602 -0.5040941
1.4287483 0.3278199 0.13072217 -0.27714303 -0.37879166 0.35286033 1.1667907 1.351512
0.5405743 -0.5223842 2.305587 -2.1466556 0.022083908 0.8289612 0.11129207 -1.0558809
1.0266705 1.1974635 -1.3322397 0.17648081 1.3902845 0.68908584 1.0051217 -0.01985072
-0.44445708 -0.5925887 -0.0733998 0.8147329 -0.8380278 0.25242028 -0.15809081 1.006884
0.15995283 -0.5711686 -0.9534261 0.6674907 0.077160984 1.3627594 0.6573699 -0.54608107
-0.76573086 -1.0766715 -0.38609314 1.2065984 1.6343801 0.07023229 0.37892964 0.51264286
-2.2577815 4.9242373 0.50391704 -3.1079948 -2.7173624 -1.3004777 -0.7077885 0.16335806
-1.0046753 0.62339437 2.2751293 0.23832001 1.0734351 -3.8992271 0.1386158 0.35402897
4.7231345 -1.751026 2.8220356 -0.77841115 4.4941487 1.2631286 -0.55352795 2.1107473
-1.5714538 -1.1935642 1.9109762 -3.970894 0.15445383 -1.2866609 -3.5732508 0.39512184
-1.6355958 -2.3442717 -2.4756713 -2.722121 0.45380268 1.7417524 3.6610339 1.4794227
1.7148618 -2.6104124 -0.98730606 2.3821492 -0.5421177 -3.0348122 -1.3943448 -2.562942
2.3731146 0.8177486 0.81641924 -1.7290694 1.8870652 2.5175838 -3.4837918 -3.315528
-0.5771358 -2.778055 2.3740838 0.23098402 -1.2474139 -0.50915915 -0.9573354 0.538071
-0.4585213 -0.6625194 -0.2901336 -0.14668177 -0.2667657 -0.6798244 0.26123643 -0.32223082
-0.0072694817 0.14118233 0.22077274 -0.287432 -0.80053556 -0.6651603 -0.41194025 0.45699757
-0.120753 -0.022603247 0.03755983 -0.098968945 0.30136538 -0.08692585 0.1343918 -0.5718206
-0.37609872 0.18765552 0.079063535 0.43272182 -0.05299328 -0.14459108 0.06761139 0.30830166
-0.4344501 0.25316486 -0.25372645 -0.40493843 0.620894 0.18818459 -0.24461615 -0.18667382
0.004934748 -0.23758788 -0.49032277 -0.39349625 -0.078767315 -0.15788405 0.061471693 0.19415632
-0.4952201 -0.15724678 -0.23394448 0.49309143 0.115465455 0.60594666 -0.626566 -0.2534637
0.34616655 -0.47080207 0.6493864 0.53003824 -0.21267849 -0.35880515 -0.5518695 -0.27669272
3.4254725 1.4216601 0.43147326 1.7274712 0.9064934 4.349923 0.13694185 2.5070667
1.9215015 -0.5819467 -2.1272006 3.6258392 0.9558742 4.005727 0.11013183 -1.7577914
-1.810561 -0.98861927 -1.8259877 3.5559597 0.3399309 1.5296432 -0.23920223 4.5331044
0.4412869 -1.3171401 -2.143495 0.615237 4.044035 -1.6307024 0.8671116 -1.7217826
1.4463955 4.3154573 -0.09021724 2.4650867 -6.421298 -3.6370132 2.9810839 3.8772898
-4.4932227 3.9583988 0.6175931 -2.4308596 0.36034817 0.3978388 -0.47321805 0.6814676
2.6046305 1.3105034 5.4086146 -2.5088475 -0.56600666 -0.22591506 4.273479 4.92384
0.47153068 0.45821345 -0.08451933 -1.3353158 -3.6992333 1.4615035 4.7685394 -0.28123316
00000000: 7abb b4bf 23ff db3f e419 50be 114e 04bf
00000010: 0c41 2abf 13dc 303e ca17 b4be 268f 4cbf
00000020: 27c8 04bf d2c0 f6bc 7363 623f ac34 e6bc
00000030: eb76 eabf efab f63e 8f47 e9bd 500c 01bf
00000040: 39e1 b63f 03d8 a73e 08dc 053e b1e5 8dbe
00000050: fbf0 c1be 1caa b43e 6659 953f 58fe ac3f
00000060: 1463 0a3f f9ba 05bf bd8e 1340 ce62 09c0
00000070: 50e9 b43c cd36 543f 19ed e33d 1b27 87bf
00000080: f069 833f 7c46 993f d586 aabf 63b7 343e
00000090: d8f4 b13f ee67 303f d4a7 803f fa9d a2bc
000000a0: e18f e3be e5b3 17bf a252 96bd 5692 503f
000000b0: fd88 56bf 3b3d 813e 8fe2 21be 93e1 803f
000000c0: adca 233e 1b38 12bf bc13 74bf ace0 2a3f
000000d0: 9406 9e3d e66e ae3f 6549 283f f8cb 0bbf
000000e0: f006 44bf 5fd0 89bf 00ae c5be d171 9a3f
000000f0: 5e33 d13f f2d5 8f3d 1103 c23e 903c 033f
00000100: 7e7f 10c0 5a93 9d40 b500 013f 63e9 46c0
00000110: 44e9 2dc0 0e76 a6bf a131 35bf 5647 273e
00000120: 3399 80bf c696 1f3f b89b 1140 290a 743e
00000130: 5266 893f f08c 79c0 4df1 0d3e 4943 b53e
00000140: eb23 9740 9f21 e0bf 3b9c 3440 f445 47bf
00000150: 11d0 8f40 33ae a13f 02b4 0dbf 7c16 0740
00000160: 6625 c9bf b6c6 98bf de9a f43f 2123 7ec0
00000170: 2529 1e3e 4eb1 a4bf 24b0 64c0 694d ca3e
00000180: 345b d1bf 8c08 16c0 6671 1ec0 3b37 2ec0
00000190: d358 e83e bef1 de3f 614e 6a40 b95d bd3f
000001a0: 9780 db3f ff10 27c0 17c0 7cbf 2275 1840
000001b0: 3ac8 0abf 5d3a 42c0 e479 b2bf 3e07 24c0
000001c0: 1ce1 1740 f957 513f da00 513f 2552 ddbf
000001d0: 5a8b f13f 1820 2140 72f6 5ec0 9c31 54c0
000001e0: 2cbf 13bf a7cb 31c0 fdf0 1740 1387 6c3e
000001f0: 42ab 9fbf 4158 02bf ef13 75bf 05bf 093f
00000200: 4ec3 eabe df9a 29bf 648c 94be bf33 16be
00000210: 8495 88be f908 2ebf c8c0 853e 70fb a4be
00000220: d534 eebb 1a92 103e 4012 623e 492a 93be
00000230: e6ef 4cbf f247 2abf d5e9 d2be 96fb e93e
00000240: 594d f7bd 722a b9bc 56d8 193d 3bb0 cabd
00000250: 904c 9a3e 2e06 b2bd 019e 093e d662 12bf
00000260: 0390 c0be c528 403e 10ec a13d b78d dd3e
00000270: 7b0f 59bd af0f 14be d777 8a3d b7d9 9d3e
00000280: 3e70 debe d39e 813e 6fe8 81be 1754 cfbe
00000290: e9f2 1e3f 76b3 403e a87c 7abe 6c27 3fbe
000002a0: abb3 a13b 3d4a 73be 960b fbbe 5778 c9be
000002b0: c250 a1bd 5bac 21be bec9 7b3d ead0 463e
000002c0: 7d8d fdbe 4d05 21be 248f 6fbe 7b76 fc3e
000002d0: 2779 ec3d 521f 1b3f a166 20bf fec5 81be
000002e0: be3c b13e f80c f1be 303e 263f 96b0 073f
000002f0: 64c8 59be 4fb5 b7be 5247 0dbf abaa 8dbe
00000300: f13a 5b40 f5f8 b53f 10ea dc3e c71d dd3f
00000310: f40f 683f 9232 8b40 7c3a 0c3e c873 2040
00000320: c3f3 f53f 75fa 14bf 0e24 08c0 c00d 6840
00000330: 2cb4 743f ea2e 8040 cc8c e13d 4fff e0bf
00000340: 76c0 e7bf 2716 7dbf f7b9 e9bf d894 6340
00000350: 6c0b ae3e 59cb c33f 6ef1 74be 310f 9140
00000360: 5bf0 e13e 0c98 a8bf 062f 09c0 2c80 1d3f
00000370: bc68 8140 dbba d0bf 07fb 5d3f 5f63 dcbf
00000380: 7d23 b93f 3a18 8a40 d1c3 b8bd fbc3 1d40
00000390: 467b cdc0 d3c4 68c0 14ca 3e40 8425 7840
000003a0: 7bc8 8fc0 6856 7d40 951a 1e3f 3493 1bc0
000003b0: 8e7f b83e 87b1 cb3e a349 f2be a974 2e3f
000003c0: 44b2 2640 93be a73f 5f13 ad40 f590 20c0
000003d0: d0e5 10bf 4756 67be 57c0 8840 1990 9d40
000003e0: 786c f13e f49a ea3e 7818 adbd a1eb aabf
000003f0: 3dc0 6cc0 8c12 bb3f e097 9840 cbfd 8fbe

lstm.bias_ih_l0 f4 [256]
0.26101324 -0.14197893 -1.7802258 0.5374239 -1.1236775 -0.5770499 -1.7157121 -1.3648272
-1.4941336 -1.4891752 -1.0890543 0.08867991 -0.61350006 -0.18656093 -1.8604432 -0.54014117
0.67839605 -0.68977004 -0.8382079 -0.48582438 1.1659977 -1.132234 -1.1884823 -1.7625494
0.4436533 -1.3833393 -0.94826645 -0.5654003 -1.0382606 -1.2789531 -1.3304352 -0.3057134
1.2651837 -1.0153835 -0.3869859 -1.2167913 0.017270144 -0.63219947 0.022251036 0.17558585
-0.7727987 -0.33299205 -1.5737039 -1.3448644 -1.851088 -1.2685293 -1.7670964 -0.81143326
-0.5972071 -1.7526262 0.76105344 -1.3271198 -0.8799436 -2.031777 -1.0647831 -0.78038716
-0.44874948 -1.1613503 -1.1576768 -0.62284815 -0.967795 -0.68695164 -0.5210979 -1.5266457
0.13888904 0.6368833 -0.7577923 0.1029017 -0.7301743 -0.97052056 -0.5815414 -0.96648973
-0.83342385 -1.1458279 -0.04201341 -0.3776974 0.9906509 -1.5998608 -1.0057111 -1.1851221
0.43027297 -0.39866394 -0.93934524 -1.6986253 0.5607904 -0.99182576 -1.6760814 1.4226658
-0.8720133 -1.4854853 -0.7977377 -0.4264652 -0.9118388 -0.9459975 -1.5264666 -2.0004332
-1.5461102 0.2553459 -0.299847 0.77268547 -1.5787024 -1.0488743 -0.2821188 -0.5318135
-1.8573214 -1.423815 -0.34619692 -0.9135357 -0.742304 -0.92921424 -0.7348146 -1.9996352
-0.7004335 -0.91361046 1.2040762 -0.9874881 -1.2915651 -0.44762012 0.24583326 0.8860068
-0.8877883 -0.64574045 -1.2984393 -0.464029 0.21924718 -1.2916255 -1.6561083 -0.8937884
0.18207213 -0.25746602 0.05707712 0.1975868 0.1366494 1.4550587 -0.4628435 -0.088263
-0.0978048 0.086234696 -0.31270468 1.3486276 -0.7386443 0.07488239 -0.28424957 -0.056813296
-0.09483798 -0.47075906 -0.48786178 0.91342026 -0.6611209 0.9216191 -0.1442591 0.6754352
-0.257096 -0.31825605 -0.66955745 0.06318365 1.0540847 -0.33129382 -0.08535689 -0.035931055
0.13812052 -0.10063486 0.69811904 -0.2757676 -0.50656325 -0.6166736 0.44539467 1.3426495
-1.1476679 0.80150455 0.630949 -0.053254988 0.24424961 -0.5962045 -0.11309691 -0.014356446
1.1823297 0.27055705 0.26546782 -0.7414515 0.34448487 -0.22972007 0.18902382 1.3816017
0.5708502 0.47122502 -0.6718953 -0.91992795 -0.8522251 1.07958 0.6261283 0.027523294
-0.7714344 0.9279182 -1.7675723 0.3054835 -1.2701658 -0.64259684 -1.649991 -1.6361907
-1.4404773 -1.5261562 -1.3037138 -0.09223722 0.09152167 -0.38581398 -1.7601911 -0.80230594
-0.45055312 -0.34948704 -1.0147345 -0.4109812 -0.26385608 -0.43190768 -1.3345666 1.0977231
-0.57683057 -1.249379 -0.86447287 -1.2504263 -1.1387639 -1.3294107 -1.2290523 -0.6642542
-0.2883053 -0.045492437 -0.3901884 0.14885765 -0.6294199 -0.6248063 0.04078644 0.06594618
-1.0235778 -0.80636376 -0.6637448 -1.1670779 -1.8738616 -1.1953254 -1.6397495 -0.7273134
0.5637921 -1.7598251 -0.4870121 -1.3461225 -0.5861322 -1.6600456 -0.9919172 0.19772002
-0.73610663 -1.14652 -1.3496242 -0.6436875 -0.46881005 -1.4996771 -0.9563014 -1.4517847
00000000: 87a3 853e ed62 11be 70de e3bf 9d94 093f
00000010: aad4 8fbf 8bb9 13bf 749c dbbf a8b2 aebf
00000020: c53f bfbf 4b9d bebf 2266 8bbf d09d b53d
00000030: 570e 1dbf d409 3fbe 0123 eebf b146 0abf
00000040: 5dab 2d3f c594 30bf cb94 56bf f9bd f8be
00000050: 6a3f 953f 0bed 90bf 3020 98bf 389b e1bf
00000060: 8626 e33e 4311 b1bf 97c1 72bf 13be 10bf
00000070: b9e5 84bf bcb4 a3bf b34b aabf 7786 9cbe
00000080: 8af1 a13f 16f8 81bf 0423 c6be d1bf 9bbf
00000090: 1e7a 8d3c d3d7 21bf ce47 b63c c7cc 333e
000000a0: 23d6 45bf ef7d aabe 216f c9bf 8424 acbf
000000b0: 74f0 ecbf 2b5f a2bf 3730 e2bf 17ba 4fbf
000000c0: 91e2 18bf 0e56 e0bf 66d4 423f 10df a9bf
000000d0: fc43 61bf a208 02c0 d04a 88bf 74c7 47bf
000000e0: 7ec2 e5be 20a7 94bf c12e 94bf fa72 1fbf
000000f0: 6ac1 77bf 10dc 2fbf ac66 05bf 2069 c3bf
00000100: ee38 0e3e c90a 233f adfe 41bf 20be d23d
00000110: b4ec 3abf 0974 78bf e6df 14bf df6b 77bf
00000120: 445b 55bf 7daa 92bf 4116 2cbd 8e61 c1be
00000130: 4c9b 7d3f 3dc8 ccbf 24bb 80bf 15b2 97bf
00000140: bd4c dc3e ae1d ccbe ee78 70bf 8e6c d9bf
00000150: f68f 0f3f 4be8 7dbf d689 d6bf ea19 b63f
00000160: 433c 5fbf 6224 bebf 8a38 4cbf a659 dabe
00000170: 456e 69bf e42c 72bf 4263 c3bf 1907 00c0
00000180: f0e6 c5bf b3bc 823e 8c85 99be b7ce 453f
00000190: ec12 cabf 8341 86bf e071 90be ee24 08bf
000001a0: b5bc edbf 923f b6bf b940 b1be 7add 69bf
000001b0: a307 3ebf fce0 6dbf cf1c 3cbf 0cf4 ffbf
000001c0: 9c4f 33bf 60e2 69bf 2b1f 9a3f 05cc 7cbf
000001d0: 0152 a5bf 772e e5be b7bb 7b3e 57d1 623f
000001e0: 1846 63bf 3f4f 25bf 4233 a6bf 3695 edbe
000001f0: 5582 603e fc53 a5bf 5bfb d3bf 51cf 64bf
00000200: 1e71 3a3e 96d2 83be b3c9 693d 3254 4a3e
00000210: d2ed 0b3e 5d3f ba3f d3f9 ecbe 3bc3 b4bd
00000220: e24d c8bd d19b b03d d41a a0be d49f ac3f
00000230: cb17 3dbf f05b 993d 2989 91be 0fb5 68bd
00000240: 6a3a c2bd 5507 f1be 05c9 f9be e9d5 693f
00000250: 383f 29bf 3bef 6b3f a8b8 13be 52e9 2c3f
00000260: 16a2 83be 75f2 a2be 1e68 2bbf 6e66 813d
00000270: 3fec 863f 589f a9be 98cf aebd 712c 13bd
00000280: 776f 0d3e a619 cebd eeb7 323f 6931 8dbe
00000290: 21ae 01bf 52de 1dbf c50a e43e f0db ab3f
000002a0: c8e6 92bf 672f 4d3f e085 213f e721 5abd
000002b0: 921c 7a3e dca0 18bf 5a9f e7bd 4d37 6bbc
000002c0: 9456 973f 7486 8a3e 66eb 873e c4cf 3dbf
000002d0: 5260 b03e bd3b 6bbe 768f 413e 53d8 b03f
000002e0: 3d23 123f 6844 f13e 5501 2cbf 6680 6bbf
000002f0: 6d2b 5abf ad2f 8a3f f249 203f 8878 e13c
00000300: ba7c 45bf 0c8c 6d3f cf3f e2bf 5568 9c3e
00000310: cb94 a2bf 3a81 24bf e832 d3bf b26e d1bf
00000320: 8f61 b8bf 1659 c3bf 18e0 a6bf dee6 bcbd
00000330: b76f bb3d 6989 c5be f14d e1bf ec63 4dbf
00000340: e6ae e6be f7ef b2be d2e2 81bf 216c d2be
00000350: 2518 87be 0123 ddbe 14d3 aabf 3182 8c3f
00000360: 2bab 13bf a7eb 9fbf 184e 5dbf f80d a0bf
00000370: 04c3 91bf 212a aabf 9651 9dbf 900c 2abf
00000380: c19c 93be 4756 3abd c6c6 c7be 246e 183e
00000390: aa21 21bf 4ef3 1fbf af0f 273d ca0e 873d
000003a0: 9904 83bf db6d 4ebf 2eeb 29bf cf62 95bf
000003b0: b2da efbf 6c00 99bf 50e3 d1bf 3631 3abf
000003c0: ae54 103f f341 e1bf a659 f9be be4d acbf
000003d0: c30c 16bf 607c d4bf 49ee 7dbf 1e77 4a3e
000003e0: 7c71 3cbf 2bc1 92bf 7cc0 acbf b4c8 24bf
000003f0: df07 f0be 6bf5 bfbf 2bd0 74bf 15d4 b9bf

lstm.bias_hh_l0 f4 [256]
0.05355341 0.05731824 -1.6600189 0.38490823 -1.0886418 -0.70475525 -1.5673229 -1.4703512
-1.4246296 -1.6735612 -1.0938277 0.048638314 -0.45387182 -0.15806375 -1.7722968 -0.49091062
0.63695437 -0.8736776 -0.8637452 -0.4418751 1.0470859 -1.0652118 -1.081652 -1.6991544
0.41209856 -1.3453839 -0.9213542 -0.64317197 -1.0698913 -1.1373713 -1.2640142 -0.341815
1.1147556 -1.1010954 -0.45483023 -1.1965601 0.15280469 -0.60651827 0.048602954 0.27147985
-0.92837524 -0.4341362 -1.6193631 -1.2919244 -1.7746552 -1.2276781 -1.8088784 -0.9368998
-0.58975345 -1.6319801 0.9150608 -1.4119121 -0.90675896 -1.9621912 -1.0296166 -0.80095136
-0.47462192 -0.9591797 -1.3207781 -0.50565755 -0.8069588 -0.62480533 -0.69924086 -1.5948112
0.15275219 0.66130805 -0.60670525 0.0871494 -0.7478479 -1.0200459 -0.6777695 -0.9408339
-0.74420875 -1.2661752 -0.028726552 -0.40030003 0.9660835 -1.5068555 -1.0365715 -1.3683105
0.331827 -0.49222967 -1.0855029 -1.8697281 0.44190562 -0.9977972 -1.7359946 1.193112
-0.8533493 -1.4829426 -0.9596016 -0.53123766 -0.839927 -0.97114915 -1.63197 -2.1208782
-1.3736639 0.31865028 -0.119217634 0.77257746 -1.705921 -1.1871809 -0.19545548 -0.5655757
-1.7452974 -1.4171112 -0.36683396 -0.90368724 -0.8512774 -0.8023576 -0.84156287 -2.1220062
-0.57064146 -1.081863 1.0897663 -0.89265275 -1.4212242 -0.30907786 0.11529848 0.7978794
-0.74702287 -0.5417785 -1.179665 -0.25989228 0.45253998 -1.4025699 -1.60768 -1.1005882
0.15025343 -0.21234563 -0.035841584 0.054814905 0.19250046 1.393721 -0.2795363 -0.101737104
-0.13081016 0.047430336 -0.21612217 1.2820274 -0.8360988 0.06889151 -0.26627207 -0.11175767
-0.22946906 -0.27582246 -0.44162783 0.77891976 -0.6022368 0.9249238 -0.10470628 0.7641728
-0.16003145 -0.23323551 -0.65174884 0.0925184 1.0565732 -0.26426962 -0.09409704 -0.15281567
0.08837105 -0.049338438 0.78648704 -0.30944118 -0.7205984 -0.6621408 0.5863416 1.4803292
-0.9643717 0.7523851 0.7085107 -0.15060192 0.18810974 -0.59498245 0.11844785 -0.08914275
0.99623215 0.15672931 0.3649199 -0.7804531 0.36674246 -0.2959335 0.08071847 1.3746767
0.48813426 0.465208 -0.6082061 -0.7130847 -0.8474494 1.1377276 0.66252095 0.13938273
-0.7138712 0.85577667 -1.7387173 0.40084586 -1.31784 -0.5436421 -1.651399 -1.6707761
-1.6594833 -1.6367495 -1.2715471 0.04481784 -0.015922911 -0.23390125 -1.7471852 -0.8607287
-0.48963553 -0.4053848 -0.98928696 -0.20889793 -0.44937918 -0.42132226 -1.362632 1.1768672
-0.73764247 -1.2881484 -0.8211514 -1.3193208 -1.1727701 -1.2590313 -1.3534303 -0.59034836
-0.1872356 -0.2155402 -0.4443513 0.08519376 -0.6372679 -0.6877422 0.17658041 0.11353195
-1.0804381 -0.65728056 -0.8517917 -1.4044557 -1.7563927 -1.2374886 -1.7716312 -0.6450375
0.46347404 -1.5698625 -0.6606312 -1.4351974 -0.7484569 -1.6055127 -0.9859218 0.14556554
-0.925716 -1.0052372 -1.225626 -0.77684575 -0.4023607 -1.3319007 -1.012155 -1.426895
00000000: d25a 5b3d 88c6 6a3d 807b d4bf b112 c53e
00000010: 9d58 8bbf d76a 34bf 099e c8bf 7834 bcbf
00000020: 435a b6bf 4137 d6bf 8c02 8cbf f838 473d
00000030: e361 e8be 77db 21be 9fda e2bf a358 fbbe
00000040: 710f 233f 56a9 5fbf 681e 5dbf 743d e2be
00000050: e906 863f dc58 88bf 9373 8abf e47d d9bf
00000060: 95fe d23e 8a35 acbf dedd 6bbf eba6 24bf
00000070: 33f2 88bf 6295 91bf 38cb a1bf 6002 afbe
00000080: 50b0 8e3f b2f0 8cbf 82df e8be e228 99bf
00000090: d578 1c3e c844 1bbf e413 473d 68ff 8a3e
000000a0: 00aa 6dbf 1a47 debe 4a47 cfbf c75d a5bf
000000b0: e727 e3bf 8e24 9dbf 5489 e7bf aad8 6fbf
000000c0: 15fa 16bf b9e4 d0bf 6d41 6a3f 89b9 b4bf
000000d0: 5b21 68bf 1529 fbbf 7aca 83bf 260b 4dbf
000000e0: a501 f3be cd8c 75bf 420f a9bf c672 01bf
000000f0: da94 4ebf 3ef3 1fbf 7301 33bf c622 ccbf
00000100: 126b 1c3e 7c4b 293f 0951 1bbf 627b b23d
00000110: f672 3fbf dd90 82bf 4d82 2dbf 7eda 70bf
00000120: 7784 3ebf 0712 a2bf f253 ebbc 20f4 ccbe
00000130: 4051 773f a4e0 c0bf 60ae 84bf cc24 afbf
00000140: 3be5 a93e 8705 fcbe c2f1 8abf 4053 efbf
00000150: 7441 e23e a36f 7fbf 1235 debf e5b7 983f
00000160: 1a75 5abf 10d1 bdbf 73a8 75bf 31ff 07bf
00000170: 7505 57bf 3b9d 78bf 65e4 d0bf 78bc 07c0
00000180: 38d4 afbf 2126 a33e 6028 f4bd a3c7 453f
00000190: 9f5b dabf 8bf5 97bf 7b25 48be 92c9 10bf
000001a0: e865 dfbf e663 b5bf a9d1 bbbe 0c58 67bf
000001b0: 51ed 59bf 4f67 4dbf aa70 57bf f3ce 07c0
000001c0: 8f15 12bf 7d7a 8abf 767d 8b3f e484 64bf
000001d0: adea b5bf 743f 9ebe 9c21 ec3d d341 4c3f
000001e0: e43c 3fbf ffb1 0abf 43ff 96bf 9a10 85be
000001f0: 52b3 e73e 6987 b3bf 75c8 cdbf 13e0 8cbf
00000200: 09dc 193e 2271 59be a0ce 12bd 9885 603d
00000210: d71e 453e 7365 b23f 621f 8fbe 8b5b d0bd
00000220: 19f3 05be 5046 423d 214f 5dbe 7919 a43f
00000230: 920a 56bf fe16 8d3d d054 88be 35e1 e4bd
00000240: f0f9 6abe 9a38 8dbe 0b1d e2be 4967 473f
00000250: 312c 1abf cec7 6c3f 3f70 d6bd d4a0 433f
00000260: 49df 23be 4ad5 6ebe 03d9 26bf 497a bd3d
00000270: ca3d 873f 594e 87be f3b5 c0bd b67b 1cbe
00000280: e2fb b43d 1a17 4abd 3757 493f 136f 9ebe
00000290: 2379 38bf 0f82 29bf 7c1a 163f 6d7b bd3f
000002a0: 10e1 76bf 4f9c 403f f560 353f 6437 1abe
000002b0: d79f 403e c550 18bf c994 f23d 7990 b6bd
000002c0: 1209 7f3f a67d 203e c8d6 ba3e c6cb 47bf
000002d0: abc5 bb3e 9984 97be ba4f a53d 68f5 af3f
000002e0: bcec f93e be2f ee3e 65b3 1bbf b88c 36bf
000002f0: 72f2 58bf 0fa1 913f f99a 293f 59ba 0e3e
00000300: 43c0 36bf 2e14 5b3f 4a8e debf ab3b cd3e
00000310: fbae a8bf 212c 0bbf 0b61 d3bf fedb d5bf
00000320: f369 d4bf 0281 d1bf 0ec2 a2bf e992 373d
00000330: c470 82bc cf83 6fbe c4a3 dfbf b758 5cbf
00000340: 82b1 fabe 998e cfbe e941 7dbf 57e9 55be
00000350: 0715 e6be 8db7 d7be ba6a aebf 96a3 963f
00000360: 23d6 3cbf 0ce2 a4bf fa36 52bf 81df a8bf
00000370: 551d 96bf f027 a1bf 343d adbf 1221 17bf
00000380: b0ba 3fbe 92b6 5cbe 0382 e3be 117a ae3d
00000390: fd23 23bf df0f 30bf 7fd1 343e 7083 e83d
000003a0: cc4b 8abf 8a43 28bf 050f 5abf 34c5 b3bf
000003b0: 7ad1 e0bf 0766 9ebf d0c4 e2bf 2d21 25bf
000003c0: 784c ed3e 41f1 c8bf 201f 29bf 8cb4 b7bf
000003d0: df9a 3fbf 7181 cdbf 5f65 7cbf 220f 153e
000003e0: b9fb 6cbf 9dab 80bf 50e1 9cbf 5ddf 46bf
000003f0: 3902 cebe b97b aabf 4c8e 81bf 7fa4 b6bf

fc.weight f4 [1, 64]
0.2922009 -0.14203826 -0.13155992 0.052617967 0.493826 0.08404404 0.31351766 -0.015367924
0.17477591 0.32245556 0.3877185 0.15539691 -0.39889196 -0.16211018 -0.034255363 -0.14520618
0.17844443 -1.4927406 -0.88259715 0.0974875 -0.23411189 -0.26581806 0.2982008 -0.35418564
0.37525865 0.9459568 0.78111416 -0.17006987 -0.5705693 -0.03058899 0.40937585 -0.010558425
0.54561996 0.008753608 -0.045396704 -0.10866171 0.22719564 0.16382279 -0.33341908 -0.20912522
0.43313396 0.32673848 0.211289 0.04292422 -0.13853341 0.502272 0.20340005 -0.16156192
-0.60324186 -0.11220114 -0.8422778 0.12412474 1.0944893 -0.7417817 0.040875707 0.85569453
-0.028690288 -0.13881783 0.3096809 0.30379063 -0.13929056 0.29522908 -1.1538943 0.08677705
00000000: 5b9b 953e 7a72 11be a5b7 06be f085 573d
00000010: c3d6 fc3e 481f ac3d 6385 a03e bfc9 7bbc
00000020: 75f8 323e e518 a53e 0a83 c63e 5e20 1f3e
00000030: 913b ccbe 3600 26be 5a4f 0cbd eeb0 14be
00000040: 23ba 363e 2012 bfbf e3f1 61bf 87a7 c73d
00000050: 07bb 6fbe 4e19 88be c6ad 983e d257 b5be
00000060: e721 c03e 3a2a 723f 19f7 473f cc26 2ebe
00000070: d410 12bf c395 fabc b699 d13e 3ffd 2cbc
00000080: c0ad 0b3f 4b6b 0f3c e5f1 39bd 088a debd
00000090: f9a5 683e 29c1 273e e8b5 aabe ec24 56be
000000a0: bcc3 dd3e 444a a73e 255c 583e 4fd1 2f3d
000000b0: b4db 0dbe e694 003f 1a48 503e 7d70 25be
000000c0: 0f6e 1abf b6c9 e5bd 859f 57bf 1d35 fe3d
000000d0: 3a18 8c3f 68e5 3dbf 496d 273d cc0e 5b3f
000000e0: e507 ebbc 4326 0ebe 7f8e 9e3e 728a 9b3e
000000f0: 2fa2 0ebe 4428 973e cfb2 93bf 2ab8 b13d
