LSTM_MODEL/LTIM_model.pt (torch, 89385 bytes, 5 tensors)

lstm.weight_ih_l0 f4 [256, 19]
0.12925366 0.13544828 -0.023826286 0.100639924 -0.0523787 0.009216234 0.05057344 -0.013098557
0.04592682 0.035773456 0.1475205 0.05180523 0.13439202 0.106051885 0.07781957 0.075573586
0.1339065 0.14741065 -0.038177043 0.10818475 0.12179445 -0.12230916 0.00097185373 -0.0830351
0.04572457 0.008407131 0.13602255 0.105936244 0.22271252 0.04952994 0.15443757 0.10156714
0.12973434 0.04283382 0.09777403 0.03894535 -0.019214952 0.17853457 0.122415036 0.045532826
-0.06814952 -0.06982416 -0.023880884 0.1006998 -0.024726331 0.0467548 0.2099218 0.09310716
-0.025685105 0.12143902 -0.05494574 0.14160287 0.041920215 0.09144437 0.19392975 0.19459854
0.086029306 0.15407631 0.070757404 0.12034091 0.097451 0.03225623 -0.043630525 0.12395498
0.13113527 0.24608168 0.23467162 0.1758652 0.18707529 0.22000633 0.06525337 0.2223479
0.05973311 0.12551469 0.02544236 0.18283468 0.087009184 0.17200297 -0.072106436 0.015344143
0.07214634 0.011474326 0.029704824 0.1373371 -0.0057045175 -0.016659701 0.15627424 0.11178764
0.10089851 0.029859753 0.13832262 0.008916559 0.01648482 0.044263747 0.07372773 0.12820275
0.053307917 -0.021547556 -0.03171715 -0.033334702 0.057728738 -0.011054441 0.17566916 0.15136527
0.14798802 0.182873 0.15534812 0.1643045 0.06268668 0.0618045 0.10043146 -0.03373865
0.19080687 0.09914679 0.019919021 0.10437357 0.07768646 -0.08989692 -0.08831614 -0.0023558885
0.0832888 0.054754984 0.05427133 0.17193377 0.095373705 0.17034708 0.08593149 0.17562743
-0.0071664248 0.109529674 0.103549205 0.086539686 0.020762354 0.097891875 0.12833536 0.034181103
-0.016861737 0.051486015 0.002517134 -0.09404063 0.03090713 -0.04810586 0.13922843 0.016390448
-0.02277288 0.1705014 0.081748456 0.18224163 0.007304336 -0.009904639 -0.052786388 0.17152935
0.2258976 0.114828706 -0.012009561 0.052193478 -0.019159764 -0.01908034 0.03654559 0.13944158
0.13101885 0.07127755 0.15708032 0.0911844 0.13517082 0.13048759 0.14962524 0.124581434
0.17463836 0.16607755 0.22417612 -0.010251449 0.06909574 0.0930229 -0.112076 -0.048404038
-0.055179015 -0.07620902 0.10380732 0.084514305 0.04810344 -0.027282078 0.07457108 0.18668813
0.17786393 0.20646124 0.05109859 0.033173185 0.004408947 0.12983412 0.089624755 0.1025707
0.10812272 0.054177597 0.032448545 -0.03430897 -0.0719651 0.13021462 0.17466368 0.07174474
0.1005873 0.19967642 0.07740205 0.21204728 0.1324588 0.066996425 0.05247643 0.06508014
0.015066475 0.08093196 0.063709185 -0.12477355 0.07183157 -0.105331555 0.09502284 -0.051662683
0.0795504 0.028152723 0.21281803 0.0603683 0.038037613 0.15463367 0.0014455074 0.14544523
0.12711063 0.15752713 0.079459906 0.0506694 0.19259681 0.15313654 0.10944708 -0.0674424
-0.04650645 0.1172079 0.06300922 0.10523747 0.053611256 0.15681568 0.2310483 0.10972537
0.25461122 0.05548556 0.021390548 0.05956162 0.08001475 0.12844577 0.04530404 0.0072995895
0.07527679 0.0520491 -0.058294207 -0.051965743 -0.08635712 0.09200938 0.05293785 -0.049451366
00000000: 125b 043e f4b2 0a3e 582f c3bc 4e1c ce3d
00000010: 0c8b 56bd b0ff 163c 1826 4f3d 549b 56bc
00000020: c31d 3c3d 3087 123d 9d0f 173e b931 543d
00000030: 109e 093e bb31 d93d de5f 9f3d 53c6 9a3d
00000040: c91e 093e d1f2 163e 885f 1cbd f78f dd3d
00000050: 5e6f f93d 3a7d fabd 00c4 7e3a 4e0e aabd
00000060: b049 3b3d 10be 093c 7f49 0b3e 1af5 d83d
00000070: c00e 643e e8df 4a3d e224 1e3e 6f02 d03d
00000080: 14d9 043e 8472 2f3d c03d c83d 2985 1f3d
00000090: ad68 9dbc c4d1 363e bcb4 fa3d a180 3a3d
000000a0: fa91 8bbd f8ff 8ebd d8a1 c3bc b23b ce3d
000000b0: e08e cabc f681 3f3d bef5 563e f7ae be3d
000000c0: 9269 d2bc 05b5 f83d c90e 61bd 5800 113e
000000d0: 88b4 2b3d 3047 bb3d 8595 463e d744 473e
000000e0: 2230 b03d 2ec6 1d3e 42e9 903d 4c75 f63d
000000f0: 6494 c73d 1c1f 043d ecb5 32bd 1cdc fd3d
00000100: 5348 063e d6fc 7b3e c24d 703e 0216 343e
00000110: aa90 3f3e 5749 613e 8fa3 853d 2baf 633e
00000120: b5aa 743d ec86 003e 7f6c d03c 0439 3b3e
00000130: df31 b23d 8c21 303e 8aac 93bd 0066 7b3c
00000140: 76c1 933d d0fe 3b3c 8857 f33c 19a2 0c3e
00000150: f6ec babb ed79 88bc 5b06 203e ebf0 e43d
00000160: e1a3 ce3d 719c f43c 72a4 0d3e c216 123c
00000170: 2c0b 873c e74d 353d 90fe 963d 9547 033e
00000180: 6759 5a3d 8084 b0bc d8e9 01bd f889 08bd
00000190: f874 6c3d b01d 35bc 9ee2 333e 7fff 1a3e
000001a0: 2c8a 173e 0f43 3b3e 9413 1f3e 703f 283e
000001b0: e061 803d b726 7d3d 02af cd3d 8a31 0abd
000001c0: e062 433e 790d cb3d 372d a33c cfc1 d53d
000001d0: 141a 9f3d e01b b8bd 18df b4bd 4065 1abb
000001e0: 5293 aa3d c346 603d 9d4b 5e3d 680f 303e
000001f0: 4a53 c33d 776f 2e3e d9fc af3d add7 333e
00000200: 54d4 eabb 1851 e03d 9b11 d43d b83b b13d
00000210: d015 aa3c 897b c83d 586a 033e 7c01 0c3d
00000220: a021 8abc 00e3 523d 80f6 243b 6098 c0bd
00000230: f330 fd3c a60a 45bd e691 0e3e 4345 863c
00000240: 318e babc eb97 2e3e bc6b a73d 8d9d 3a3e
00000250: 3659 ef3b 1147 22bc 8a36 58bd 64a5 2f3e
00000260: b351 673e 502b eb3d c0c3 44bc d4c8 553d
00000270: f0f4 9cbc 604e 9cbc d4b0 153d c6c9 0e3e
00000280: ce29 063e f7f9 913d aad9 203e e3be ba3d
00000290: 386a 0a3e 8a9e 053e 5c37 193e 8d24 ff3d
000002a0: 66d4 323e 3c10 2a3e 6d8e 653e b2f5 27bc
000002b0: 1182 8d3d ca82 be3d 1a88 e5bd 5043 46bd
000002c0: 6403 62bd 7a13 9cbd ef98 d43d d615 ad3d
000002d0: 1d08 453d aa7e dfbc b9b8 983d 2c2b 3f3e
000002e0: f621 363e 936a 533e c14c 513d 9be0 073d
000002f0: ee78 903b 3cf3 043e 2f8d b73d 9610 d23d
00000300: 726f dd3d 54e9 5d3d c4e8 043d 9087 0cbd
00000310: 7062 93bd fb56 053e 09db 323e e8ee 923d
00000320: b700 ce3d fa77 4c3e f784 9e3d ec22 593e
00000330: 48a3 073e 6c35 893d 86f1 563d bd48 853d
00000340: 60d9 763c a8bf a53d f679 823d 4689 ffbd
00000350: 6e1c 933d 12b8 d7bd 569b c23d 409c 53bd
00000360: 52eb a23d 8aa0 e63c f8ec 593e c044 773d
00000370: 54cd 1b3d 4a58 1e3e 2e77 bd3a 98ef 143e
00000380: 4a29 023e cb4e 213e e0bb a23d b78a 4f3d
00000390: 1938 453e d3cf 1c3e ca25 e03d 3e1f 8abd
000003a0: 8c7d 3ebd b20a f03d fa0a 813d be86 d73d
000003b0: 7a97 5b3d 4a94 203e ed97 6c3e b2b7 e03d
000003c0: 675c 823e d444 633d 3b3b af3c e3f6 733d
000003d0: c6de a33d 4a87 033e bb90 393d 6531 ef3b
000003e0: b82a 9a3d 7031 553d e8c5 6ebd 08da 54bd
000003f0: 00dc b0bd 6a6f bc3d 5cd5 583d 848d 4abd

lstm.weight_hh_l0 f4 [256, 64]
-0.13659805 -0.03717785 0.18136257 -0.14746027 -0.23935644 0.10808031 0.09474536 0.026219593
-0.03156372 -0.14595649 -0.07709868 0.05609045 -0.02920998 -0.12445072 -0.02490756 -0.045387756
-0.16441265 0.12936768 -0.23475508 -0.19161674 0.08150932 0.1228161 -0.055706237 0.07922642
-0.14964347 0.033666313 -0.23386534 0.14971119 0.080294706 -0.21929352 -0.04349323 0.07234003
-0.15537794 -0.019348497 0.17035206 -0.097756036 0.12376409 0.2021724 0.023981212 -0.0357583
0.016936028 0.13010181 0.190915 0.012552903 0.197924 0.05436855 0.037010614 0.1077847
-0.014101381 0.0148943225 -0.19705212 -0.08051622 0.10006709 -0.0018548673 -0.011530344 0.17569649
0.15295683 0.14345556 -0.12896124 -0.11773353 -0.23855516 0.12247733 0.13529225 0.16174507
-0.1133585 -0.11695552 0.01915671 -0.16790135 -0.16362667 0.12888958 -0.014712858 -0.20049094
0.19561581 -0.13192631 -0.031684924 0.10923178 -0.021709614 -0.16421801 -0.16779731 0.031081889
-0.047965173 0.124876276 -0.020336768 -0.06842073 -0.027513461 0.20460734 -0.013650516 0.04573702
0.0026139608 0.15649143 -0.10836508 0.1043877 0.19643275 -0.17232102 -0.12195977 0.0570015
-0.17626144 -0.083093315 0.03498511 -0.14734992 0.03863803 0.15329166 0.0617467 -0.11558679
0.004513134 0.082633525 -0.029227344 0.0893225 0.13485639 -0.009362108 0.042828806 0.20007476
-0.017020777 -0.024622085 0.0030526586 -0.0030749636 0.18799245 -0.0063634883 -0.029744823 0.07684187
0.13422063 0.1289743 -0.0627391 -0.18397942 0.03077623 0.19093923 0.16496187 0.1553002
-0.14502841 -0.010731089 0.026246337 -0.14566472 -0.25380245 0.14718856 0.24230126 -0.09157382
0.19654977 -0.16202416 -0.05835294 0.044524133 -0.13879727 -0.19069885 -0.08423682 0.0024159893
-0.18846212 0.12303778 -0.16106889 -0.042054005 0.08943479 0.03878106 -0.058714546 0.24149331
-0.09279286 0.17203437 -0.1808525 0.0067274547 0.019480575 -0.074771404 -0.0073354905 -0.018447636
0.020347225 -0.17911775 0.13361841 -0.11901351 0.119900346 0.1459899 0.18483754 0.0035386016
-0.01771305 0.10831786 0.09905774 0.054567702 0.094124384 -0.03671116 0.009505596 0.013056698
-0.014343167 0.064539395 0.0043465514 -0.18311793 0.20345248 0.14661577 0.05409723 0.06319466
0.001961271 0.04629918 -0.1316835 -0.12408185 -0.23057894 0.03400843 0.115954444 0.15837097
-0.13388762 -0.073870316 0.008100215 -0.19732854 -0.03721707 0.17984009 -0.07090614 -0.1450654
0.115010776 -0.047594022 -0.024045914 0.0063107484 -0.17204681 -0.15981846 -0.0029957143 -0.20238616
-0.047811873 -0.023771094 -0.06321494 -0.10366582 0.023172533 -0.011151884 -0.16348112 0.16843043
-0.18207467 0.007907667 0.010944031 0.037946858 0.20856099 -0.112724334 -0.17617387 0.02828711
-0.23895627 -0.14129719 0.12728387 -0.063729785 0.048792534 0.14450699 0.13876677 -0.16439182
-0.1453172 0.031094022 0.14248343 0.11989272 0.015022368 0.046026967 0.11111026 0.09489302
0.15002078 -0.048685867 -0.10093 -0.052346904 0.21155998 -0.008086377 0.035804857 0.106268995
-0.0008148957 0.16100965 0.019615285 -0.11899243 -0.03362842 0.05463878 0.17560011 0.19365098
00000000: 5ce0 0bbe cd47 18bd 1cb7 393e d3ff 16be
00000010: db19 75be 3659 dd3d db09 c23d 79ca d63c
00000020: f648 01bd 9e75 15be eae5 9dbd 1abf 653d
00000030: c549 efbc 05e0 febd f00a ccbc 83e8 39bd
00000040: ca5b 28be f678 043e a363 70be 2e37 44be
00000050: 5cee a63d 0287 fb3d 392c 64bd 7641 a23d
00000060: 233c 19be b0e5 093d 657a 6fbe e44d 193e
00000070: 8d71 a43d 7b8e 60be f525 32bd 0227 943d
00000080: 651b 1fbe bd80 9ebc c570 2e3e 5134 c8bd
00000090: 0778 fd3d 4806 4f3e 3f74 c43c 4c77 12bd
000000a0: 6dbd 8a3c 6939 053e 397f 433e b1aa 4d3c
000000b0: 97ac 4a3e 8fb1 5e3d 7198 173d 3abe dc3d
000000c0: 7b09 67bc 5107 743c 08c8 49be b0e5 a4bd
000000d0: f9ef cc3d 051f f3ba c5e9 3cbc c8e9 333e
000000e0: b7a0 1c3e 04e6 123e 6a0e 04be 471e f1bd
000000f0: ce47 74be 65d5 fa3d 0d8a 0a3e 80a0 253e
00000100: 8028 e8bd 6086 efbd 88ee 9c3c 55ee 2bbe
00000110: c08d 27be a1fb 033e 330e 71bc 7f4d 4dbe
00000120: 834f 483e b117 07be 0dc8 01bd e9b4 df3d
00000130: 5cd8 b1bc c428 28be 0fd3 2bbe 729f fe3c
00000140: 2177 44bd 22bf ff3d 4b99 a6bc 2b20 8cbd
00000150: e963 e1bc 9684 513e 6aa6 5fbc be56 3b3d
00000160: fc4e 2b3b 4a3f 203e 83ee ddbd 38c9 d53d
00000170: ab25 493e ec74 30be 0bc6 f9bd 687a 693d
00000180: e17d 34be d42c aabd 8c4c 0f3d e6e2 16be
00000190: e942 1e3d 7df8 1c3e 1cea 7c3d c4b8 ecbd
000001a0: e9e2 933b c43b a93d 2f6e efbc b7ee b63d
000001b0: cb17 0a3e 8763 19bc 426d 2f3d 66e0 4c3e
000001c0: 286f 8bbc 41b4 c9bc 1d0f 483b 5485 49bb
000001d0: 1881 403e cf84 d0bb 6aab f3bc 455f 9d3d
000001e0: 2271 093e d711 043e 5b7d 80bd 1a65 3cbe
000001f0: 6f1e fc3c 9385 433e c4eb 283e 0407 1f3e
00000200: 5482 14be 73d1 2fbc 8f02 d73c 2229 15be
00000210: 65f2 81be 99b8 163e d21d 783e 0e8b bbbd
00000220: 5844 493e a9e9 25be 7e03 6fbd f05e 363d
00000230: df20 0ebe 8f46 43be 5b84 acbd 9355 1e3b
00000240: 37fc 40be 3bfb fb3d 3eef 24be d240 2cbd
00000250: 9629 b73d e4d8 1e3d aa7e 70bd 064a 773e
00000260: 2f0a bebd c729 303e 6631 39be fb71 dc3b
00000270: ba95 9f3c c021 99bd 8e5e f0bb 7f1f 97bc
00000280: 39af a63c a56a 37be 44d3 083e 5bbd f3bd
00000290: 508e f53d 607e 153e 0d46 3d3e e2e7 673b
000002a0: f51a 91bc c1d5 dd3d c9de ca3d 6282 5f3d
000002b0: 49c4 c03d 715e 16bd 5cbd 1b3c c3eb 553c
000002c0: 9aff 6abc 3b2d 843d 846d 8e3b 4483 3bbe
000002d0: d955 503e 7222 163e 0f95 5d3d 346c 813d
000002e0: ab88 003b 35a4 3d3d 0ad8 06be a01e febd
000002f0: e31c 6cbe 6c4c 0b3d 8679 ed3d 002c 223e
00000300: d619 09be 5249 97bd c4b6 043c 7e10 4abe
00000310: ed70 18bd 0028 383e 3d37 91bd 068c 14be
00000320: c58a eb3d f3f1 42bd f0fb c4bc 65ca ce3b
00000330: 0a2d 30be 73a7 23be bf53 44bb 513e 4fbe
00000340: 62d6 43bd 99bb c2bc d676 81bd bf4e d4bd
00000350: 53d4 bd3c 64b6 36bc 9867 27be 0779 2c3e
00000360: c871 3abe 298f 013c 984e 333c 2a6e 1b3d
00000370: 0391 553e 04dc e6bd ec66 34be 5fba e73c
00000380: f4b0 74be 36b0 10be b456 023e c384 82bd
00000390: aeda 473d a4f9 133e e018 0e3e 5456 28be
000003a0: 08ce 14be e4b8 fe3c 2de7 113e 508a f53d
000003b0: 6120 763c c686 3c3d c78d e33d 4657 c23d
000003c0: 0c9f 193e d56a 47bd 63b4 cebd b569 56bd
000003d0: 2ea3 583e b97c 04bc 1da8 123d 8fa3 d93d
000003e0: ba9e 55ba b7df 243e 3cb0 a03c 4eb2 f3bd
000003f0: f4bd 09bd eacc 5f3d 84d0 333e 714c 463e

lstm.bias_ih_l0 f4 [256]
0.03068133 0.036380056 0.06292852 0.2205686 0.089296706 0.03100048 -0.043729935 0.017862123
0.18885678 0.119402714 0.11824512 0.12737836 0.031604618 0.18600255 0.08202377 -0.056176282
0.010490408 0.020358978 0.034774695 0.15290034 0.0074967113 0.103320025 0.07244588 -0.018429192
0.0067732357 0.043410756 0.048204347 0.042097814 0.021649228 0.32565734 0.05718602 0.0036955564
-0.00018460237 0.08717725 0.17549348 0.074165754 -0.016912125 0.0041532326 0.18116203 0.15469787
0.042828612 0.12263547 -0.032321494 0.12496637 0.009768373 0.025568817 0.17212056 -0.0031456014
0.09405321 0.16454573 0.051753182 0.09344966 -0.02352782 0.010396134 0.11203732 -0.016903367
0.07305126 0.19416013 -0.013317012 0.050725356 -0.049347293 0.11198956 0.010801523 0.08460681
0.11642734 0.09758993 -0.0317612 0.22475985 0.18139817 -0.02940296 0.20206448 -0.0014312355
0.1967827 0.09598927 -0.0016546533 0.04262733 0.0165271 0.062886246 0.14282236 0.099823855
-0.008532584 0.10788623 0.20672081 0.13316396 0.04125599 0.15306969 -0.015969802 0.13934003
0.084544465 0.22667623 0.004479273 0.05632945 0.18616486 0.23677829 0.12250868 -0.011350465
0.1631821 0.1740576 0.07781428 0.07687071 0.028875543 0.13336998 0.10648408 0.13170177
0.020979142 0.029471751 0.06696001 0.19828497 0.14863822 0.20334542 -0.0010482505 0.16870661
0.02950107 0.07571547 0.12314667 0.16042016 0.1338363 0.11985093 -0.002259776 -0.020648617
0.15127611 0.15312682 0.057412446 0.17526782 -0.009117492 0.08040064 0.013000818 0.17639102
-0.20844811 -0.034865327 0.07169243 -0.16053493 -0.012987189 0.044077568 0.023994602 -0.116693065
0.20811021 -0.029880468 -0.06786381 0.03186394 -0.112247504 -0.076810725 0.037941426 -0.05169001
-0.12452977 0.06526125 0.0003758998 -0.055815864 0.21330209 0.17256781 -0.22228263 0.21957678
-0.22489378 -0.0054268697 -0.02468118 0.05914924 0.15662578 0.030962974 -0.003125974 0.13722207
-0.0722216 -0.124498226 0.025927454 -0.22037028 0.14206901 0.18702058 -0.03221074 -0.2004586
-0.1135966 0.14381102 0.105131544 0.036385994 0.019634167 0.12090192 0.19044302 0.19896364
0.17941548 -0.0016199246 -0.05723555 -0.111459725 0.16212259 0.051141 0.08243666 0.055038355
0.01962065 0.14416711 -0.0028267314 -0.13131334 -0.118152 0.22178568 0.19333133 0.13431017
0.09086367 0.114820264 0.14174087 0.09089299 0.20722383 0.10576191 0.2745232 0.22789323
0.1170046 0.2248579 0.081019856 0.19664465 0.16462214 0.15403718 0.29115385 0.15645967
0.17990702 0.08331639 0.16863953 0.17279659 0.23307209 0.08288193 0.13454722 0.10894984
0.26804933 0.24046838 0.11672873 0.22333175 0.054484684 0.29861748 0.18358894 0.22639608
0.24561395 0.15289085 0.1022454 0.24789156 0.037036523 0.07442494 0.14114158 0.09633784
0.16247754 0.26214227 0.23790419 0.20879455 0.21142349 0.2045394 0.22300698 0.0491351
0.0890661 0.24376062 0.105916835 0.18719299 0.16816056 0.1390737 0.05635707 0.08981598
0.15394591 0.25397655 0.06582569 0.059155647 0.2028144 0.20449416 0.19226177 0.26961127
00000000: 6a57 fb3c 4103 153d abe0 803d bcdc 613e
00000010: 31e1 b63d b8f4 fd3c 291e 33bd 9653 923c
00000020: ac63 413e 6989 f43d 7f2a f23d 796f 023e
00000030: d873 013d 7477 3e3e 14fc a73d 1a19 66bd
00000040: f6df 2b3c dfc7 a63c e96f 0e3d e891 1c3e
00000050: f9a6 f53b 7399 d33d 815e 943d d1f8 96bc
00000060: 05f2 dd3b 7acf 313d ec71 453d c26e 2c3d
00000070: b959 b13c 8fbc a63e e33b 6a3d 2631 723b
00000080: d291 41b9 fc89 b23d 90b4 333e 37e4 973d
00000090: 4c8b 8abc d717 883b 8a82 393e 1e69 1e3e
000000a0: 0e6d 2f3d 4e28 fb3d 8b63 04bd 5eee ff3d
000000b0: 870b 203c b275 d13c 5f40 303e 6f26 4ebb
000000c0: f89e c03d ad7e 283e 25fb 533d 8962 bf3d
000000d0: 6abd c0bc 8c54 2a3c d373 e53d ee78 8abc
000000e0: e69b 953d ead1 463e 992f 5abc 64c5 4f3d
000000f0: 6320 4abd c85a e53d dff8 303c 5646 ad3d
00000100: 7571 ee3d 3bdd c73d 0818 02bd 7227 663e
00000110: 71c0 393e 7ade f0bc fee9 4e3e 4b98 bbba
00000120: 6781 493e 0696 c43d f4e0 d8ba ff99 2e3d
00000130: d763 873c 81ca 803d 0640 123e 7370 cc3d
00000140: 40cc 0bbc 75f3 dc3d 9fae 533e 225c 083e
00000150: 0afc 283d 4dbe 1c3e 1ad3 82bc 27af 0e3e
00000160: a625 ad3d d01d 683e dec6 923b b6b9 663d
00000170: 00a2 3e3e 0276 723e d5e5 fa3d 4df7 39bc
00000180: 3519 273e 283c 323e 185d 9f3d 646e 9d3d
00000190: 678c ec3c 2492 083e 5314 da3d d4dc 063e
000001a0: 73dc ab3c be6e f13c 5422 893d 370b 4b3e
000001b0: 9e34 183e c839 503e 7365 89ba 6dc1 2c3e
000001c0: 3aac f13c b610 9b3d 5234 fc3d 2f45 243e
000001d0: 620c 093e 6874 f53d c018 14bb 4a27 a9bc
000001e0: 20e8 1a3e 47cd 1c3e 5029 6b3d 6879 333e
000001f0: 8861 15bc 17a9 a43d 6201 553c d99f 343e
00000200: 6c73 55be f2ce 0ebd 7bd3 923d 4563 24be
00000210: 38c8 54bc ae8a 343d 5490 c43c c6fc eebd
00000220: d81a 553e e2c7 f4bc 2efc 8abd c383 023d
00000230: 05e2 e5bd f14e 9dbd 7868 1b3d e7b8 53bd
00000240: 7709 ffbd b1a7 853d 6b14 c539 2d9f 64bd
00000250: dd6b 5a3e 9eb5 303e 0f9e 63be bcd8 603e
00000260: 8e4a 66be e2d3 b1bb 3030 cabc 7946 723d
00000270: 8262 203e 10a6 fd3c 24dd 4cbb f183 0c3e
00000280: ebe8 93bd edf8 febd d065 d43c bfa8 61be
00000290: 8a7a 113e 5382 3f3e 69ef 03bd 0545 4dbe
000002a0: 56a5 e8bd 3243 133e 354f d73d 7b09 153d
000002b0: d5d7 a03c 6d9b f73d 7f03 433e 20bd 4b3e
000002c0: b1b8 373e a653 d4ba d36f 6abd ff44 e4bd
000002d0: 7703 263e 3a79 513d 8dd4 a83d e66f 613d
000002e0: 7cbb a03c 8ba0 133e af40 39bb 0177 06be
000002f0: adf9 f1bd c91b 633e a6f8 453e 9b88 093e
00000300: bb16 ba3d e326 eb3d 8524 113e 1b26 ba3d
00000310: 7c32 543e b399 d83d 4e8e 8c3e d85c 693e
00000320: 1ca0 ef3d 2641 663e bded a53d 375d 493e
00000330: b592 283e ecbb 1d3e 1e12 953e f736 203e
00000340: 8c39 383e c9a1 aa3d d7af 2c3e 97f1 303e
00000350: 73aa 6e3e 00be a93d bfc6 093e 1821 df3d
00000360: c33d 893e 583d 763e 790f ef3d 14b1 643e
00000370: 552b 5f3d 64e4 983e bdfe 3b3e 60d4 673e
00000380: 3982 7b3e 6b8f 1c3e 0966 d13d 49d7 7d3e
00000390: 9cb3 173d 1a6c 983d 6b87 103e c64c c53d
000003a0: 8360 263e 8337 863e 289d 733e 3dce 553e
000003b0: 667f 583e c772 513e f15b 643e e341 493d
000003c0: 4a68 b63d 629c 793e edea d83d 85af 3f3e
000003d0: 4832 2c3e 5669 0e3e acd6 663d 71f1 b73d
000003e0: ffa3 1d3e 3709 823e 9fcf 863d 314d 723d
000003f0: 94ae 4f3e eb66 513e 45e0 443e 7d0a 8a3e

lstm.bias_hh_l0 f4 [256]
0.17423315 0.13456191 -0.0006091231 0.11289244 0.16208982 0.11926394 0.0038596343 0.15785441
0.05535042 -0.010725319 0.07790995 0.044898305 0.18913114 0.21729848 0.14060414 0.026473058
0.10594981 0.095473476 -0.028584808 0.011123939 0.097397454 0.10905946 0.061489705 0.08698279
0.18211873 0.029640086 0.060113832 0.15255065 0.2114841 0.30121636 0.14113112 0.22970735
0.15590529 0.21357551 0.044992156 0.21168675 0.17248592 0.038056467 0.0054850345 0.2176944
0.018911095 0.12924312 0.17225458 0.08591471 0.16773115 0.004903487 0.15667601 0.021154633
0.2272435 0.13553186 0.100223064 0.07072529 0.16213086 0.027416455 0.030999612 0.083384246
0.16513263 0.107698284 0.08791906 0.044283047 0.11655395 0.10437259 0.18941073 0.12327623
0.19761673 0.021085441 -0.008153653 0.016943289 0.07609597 0.06431549 0.017329246 0.13245457
0.06430409 0.18506004 0.03697834 -0.014276482 0.21740538 0.1888578 0.059909333 0.059114575
0.061003283 0.17410037 0.024480408 0.08896243 0.056229524 0.071603544 0.15539524 -0.008833408
0.218282 0.027856303 0.04893816 0.046466865 0.0017443051 0.2979713 0.22245066 0.22067638
0.1906247 0.20223321 0.029110333 0.11233291 0.08223763 0.19282946 0.17858616 0.15478489
0.11488504 0.10497182 0.0065983166 0.05976166 0.15573126 0.090957664 0.116208576 0.11682465
-0.01129056 0.05515581 0.058605567 0.053998858 0.14797606 -0.0034892475 0.1370117 0.076175936
0.034312993 0.06656925 0.14735164 0.19834843 0.07514937 -0.00022812832 0.14644791 0.0692452
-0.12686074 -0.22611445 0.11801795 -0.21678619 -0.054287963 0.02377432 0.1071736 -0.03121803
0.12256287 -0.039111603 -0.079982825 0.13365805 -0.042577907 -0.16768071 -0.08423332 -0.13176471
-0.10260398 0.15248308 -0.065472096 0.010355334 0.18062782 0.21035379 -0.190316 0.032318883
-0.1846289 0.18959108 -0.19065626 0.17855398 0.118447974 0.038307637 -0.22401485 0.15817338
-0.1615542 -0.07790415 0.25629774 -0.112124056 0.22456013 0.118363656 0.03865976 -0.13236615
-0.19808841 0.09534905 0.14670788 0.04627639 0.12537237 0.18206125 0.13408387 0.20957845
0.062431637 0.18011943 -0.18407078 -0.1886436 0.034675047 0.02011201 0.14788902 0.12825073
0.18017939 0.16210526 -0.09446631 0.0073026624 -0.019432055 0.023364393 0.18337403 0.167898
0.12440538 0.18939964 0.197702 0.112205915 0.110879734 0.3051259 0.18633822 0.2296524
0.22653088 0.26608992 0.24682349 0.2084297 0.14700936 0.2710513 0.08155496 0.19541496
0.08377284 0.18269093 0.27776602 0.17599298 0.18465611 0.15829104 0.27553275 0.21667296
0.30157256 0.16767922 0.20948002 0.11082651 0.042514633 0.26363328 0.1685097 0.28295138
0.049368814 0.27194694 0.12697554 0.08657004 0.18209797 0.2539474 0.07821407 0.3103169
0.21684027 0.13568345 0.18532713 0.24242836 0.11781726 0.12389057 0.19691129 0.18875058
0.16877651 0.25773573 0.2664249 0.14607713 0.098606795 0.27895734 0.100883335 0.27598315
0.31748578 0.24037018 0.23311779 0.113550134 0.12380908 0.09786934 0.31087422 0.18401638
00000000: 2d6a 323e 99ca 093e 8fad 1fba 2734 e73d
00000010: e0fa 253e a740 f43d ebf1 7c3b 96a4 213e
00000020: 1fb7 623d 40b9 2fbc 408f 9f3d 49e7 373d
00000030: 98ab 413e 7e83 5e3e 88fa 0f3e 07de d83c
00000040: 37fc d83d 9987 c33d b02a eabc 2f41 363c
00000050: 5178 c73d 915a df3d a1dc 7b3d 0824 b23d
00000060: 557d 3a3e c4cf f23c ec39 763d 3d36 1c3e
00000070: 4a8f 583e 0839 9a3e ad84 103e 6738 6b3e
00000080: a3a5 1f3e 8ab3 5a3e b249 383d 69c4 583e
00000090: 26a0 303e 19e1 1b3d cebb b33b 48eb 5e3e
000000a0: 71eb 9a3c 4f58 043e 8163 303e 0df4 af3d
000000b0: b7c1 2b3e 6ead a03b ad6f 203e 7b4c ad3c
000000c0: 85b2 683e ddc8 0a3e c041 cd3d 6cd8 903d
000000d0: a205 263e 7998 e03c e6f2 fd3c 5cc5 aa3d
000000e0: 8718 293e eb90 dc3d e80e b43d 2462 353d
000000f0: d6b3 ee3d 4cc1 d53d e3f4 413e 4078 fc3d
00000100: 0a5c 4a3e 60bb ac3c e696 05bc a7cc 8a3c
00000110: 34d8 9b3d d7b7 833d 10f6 8d3c 2ca2 073e
00000120: ddb1 833d 6180 3d3e 9a76 173d e8e7 69bc
00000130: 849f 5e3e f063 413e 7d63 753d 2022 723d
00000140: 94de 793d 5e47 323e 238b c83c ef31 b63d
00000150: ee50 663d e1a4 923d ee1f 1f3e 00ba 10bc
00000160: 5185 5f3e e732 e43c 6173 483d 0a54 3e3d
00000170: 2ba1 e43a b28f 983e 1bca 633e fdf8 613e
00000180: 1f33 433e 3916 4f3e cb78 ee3c cc0e e63d
00000190: 346c a83d 1675 453e 4adf 363e ee7f 1e3e
000001a0: d948 eb3d 77fb d63d b136 d83b a4c8 743d
000001b0: 0478 1f3e 0348 ba3d c3fe ed3d c341 ef3d
000001c0: 0afc 38bc 0feb 613d 640c 703d e82d 5d3d
000001d0: 0987 173e dcab 64bb cc4c 0c3e 2102 9c3d
000001e0: c88b 0c3d 7555 883d 59e3 163e da1b 4b3e
000001f0: eae7 993d bb35 6fb9 71f6 153e 6dd0 8d3d
00000200: c8e7 01be 8c8a 67be 65b3 f13d 33fd 5dbe
00000210: 0e5d 5ebd 5dc2 c23c d57d db3d f4bc ffbc
00000220: 3e02 fb3d 7d33 20bd 09ce a3bd a8dd 083e
00000230: 2c66 2ebd 7eb4 2bbe 8582 acbd 54ed 06be
00000240: 0922 d2bd 8624 1c3e 3c16 86bd 6ba9 293c
00000250: 80f6 383e fc66 573e 33e2 42be ce60 043d
00000260: 5c0f 3dbe 2a24 423e 653b 43be dbd6 363e
00000270: da94 f23d 78e8 1c3d 2664 65be 34f8 213e
00000280: 776e 25be 368c 9fbd 7539 833e 4ca1 e5bd
00000290: 17f3 653e a568 f23d b259 1e3d fe8a 07be
000002a0: b0d7 4abe 5d46 c33d 973a 163e 508c 3d3d
000002b0: 9d61 003e 446e 3a3e 484d 093e bc9b 563e
000002c0: 51b8 7f3d 3a71 383e 0d7d 3cbe ca2b 41be
000002d0: 6c07 0e3d f1c1 a43c 3870 173e 2954 033e
000002e0: f280 383e ecfe 253e 8e77 c1bd 2c4b ef3b
000002f0: f92f 9fbc af66 bf3c 67c6 3b3e 74ed 2b3e
00000300: 3fc8 fe3d fbf1 413e 6572 4a3e 37cc e53d
00000310: ea14 e33d 7639 9c3e 72cf 3e3e 002a 6b3e
00000320: b6f7 673e f03c 883e 4cbf 7c3e 986e 553e
00000330: 9f89 163e 3cc7 8a3e 4906 a73d dc1a 483e
00000340: 1891 ab3d 5513 3b3e 5937 8e3e 8137 343e
00000350: 7e16 3d3e 0c17 223e a112 8d3e 84df 5d3e
00000360: b867 9a3e 1ab4 2b3e ee81 563e 02f9 e23d
00000370: d323 2e3d f1fa 863e cf8d 2c3e 01df 903e
00000380: f436 4a3d a13c 8b3e e005 023e a24b b13d
00000390: e477 3a3e 6505 823e b32e a03d dbe1 9e3e
000003a0: 600b 5e3e 9af0 0a3e 65c6 3d3e 243f 783e
000003b0: 2d4a f13d 57ba fd3d 1da3 493e d547 413e
000003c0: c0d3 2c3e f0f5 833e d868 883e 3e95 153e
000003d0: 5cf2 c93d 7fd3 8e3e ec9b ce3d aa4d 8d3e
000003e0: 7f8d a23e 9a23 763e 6eb6 6e3e f98c e83d
000003f0: 9d8f fd3d b86f c83d e82a 9f3e ca6e 3c3e

fc.weight f4 [1, 64]
-91.526276 -91.47556 91.58703 -91.55808 -91.57093 91.60774 91.58824 -91.50102
91.61673 -91.57503 -91.76756 91.5647 -91.561386 -91.568855 -91.52242 -91.4629
-91.528465 91.54155 -91.550766 -91.616905 91.57508 91.48818 -91.50368 91.56012
-91.531586 91.59544 -91.60095 91.456474 91.49216 -86.57595 -91.542694 91.582184
-91.47756 -91.53516 91.54544 -91.55423 91.47782 91.56401 91.60605 -91.547935
-91.525154 91.54811 91.48617 91.516716 91.503365 91.51628 91.561386 91.495415
91.51329 91.599976 -91.4996 -91.53581 91.5399 91.52821 91.4922 91.5873
91.628845 91.503555 -91.62661 -91.49533 -91.574394 91.62731 91.56234 91.52883
00000000: 740d b7c2 7df3 b6c2 8f2c b742 bd1d b7c2
00000010: 5124 b7c2 2a37 b742 2e2d b742 8600 b7c2
00000020: c43b b742 6a26 b7c2 fe88 b7c2 2021 b742
00000030: 6e1f b7c2 4123 b7c2 7b0b b7c2 01ed b6c2
00000040: 930e b7c2 4615 b742 fe19 b7c2 db3b b7c2
00000050: 7126 b742 f3f9 b642 e201 b7c2 c81e b742
00000060: 2c10 b7c2 de30 b742 b033 b7c2 b7e9 b642
00000070: fcfb b642 e326 adc2 dc15 b7c2 142a b742
00000080: 83f4 b6c2 0012 b7c2 4417 b742 c41b b7c2
00000090: a5f4 b642 c620 b742 4c36 b742 8b18 b7c2
000000a0: e10c b7c2 a218 b742 ebf8 b642 8f08 b742
000000b0: b901 b742 5608 b742 6e1f b742 a7fd b642
000000c0: ce06 b742 3033 b742 ccff b6c2 5612 b7c2
000000d0: 6e14 b742 720e b742 02fc b642 b32c b742
000000e0: f841 b742 d201 b742 d340 b7c2 9cfd b6c2
000000f0: 1726 b7c2 2f41 b742 eb1f b742 c30e b742
