LSTM_MODEL/LTIM_SGD_Test_model.pt (torch, 89448 bytes, 5 tensors)

lstm.weight_ih_l0 f4 [256, 19]
00000000: 1152 49bc 63a9 ce3c 4884 ce3c 1242 db3d
00000010: 88a3 46bd 88e1 ca3d 04af c13d 6d84 223e
00000020: cf83 1c3e f277 cc3c c5b0 6d3e 6892 a33d
00000030: ffd5 873b 5b05 0b3e bd5c 1c3e 9639 fb3d
00000040: c79f b63d 7438 e5bc dc62 543e 8f7d 063d
00000050: aefd f8bd f852 a73d 4888 593d b03f c6bc
00000060: 8868 da3c c0aa 8bbd a25d 66bd 745e 963d
00000070: 321f 88bd 2848 203e d532 af3d 71c9 b3bd
00000080: a042 49bb ab31 b3bd 558c f03d c075 c53d
00000090: ddeb 02b8 0b97 9dbd 0dcb 0e3e 691d abbd
000000a0: c20b c3bd 4244 9ebd 76db c3bd e0e8 6cbc
000000b0: d4d8 723d f61f 423d c9a5 e1bc 81e0 673e
000000c0: 2567 1e3e 48da d63b 2b23 0f3e dff8 023e
000000d0: 5f87 f1bc 5d8d 293e f34b 4b3d 2ce7 213e
000000e0: 0b79 06bb ce01 cfbd 82bf 12bd 30e7 6f3d
000000f0: a0df 803d 8edd b3bd 10ce 47bc f2f8 fcbd
00000100: 29fe dd3c 9451 c0bd e760 183e 95ad 6d3d
00000110: 1c77 d03d 8fa5 8b3d 5269 abbd 3393 33bd
00000120: eae0 203d dcf2 803d 423c 003e 4757 e03d
00000130: 07ad 88ba 98e1 f9bd b8ee ea3d ac52 bebd
00000140: 407e 81bc 0071 b03d 4041 7b3c 2c52 433d
00000150: 7942 6a3c 5af9 0c3c f499 a4ba 300e 7a3c
00000160: c85d 7d3c c5a3 203d 5b79 ab3d 27a9 153e
00000170: 3a6e 493e 57d8 0cbd 9b78 3d3e b880 4c3d
00000180: 71fb 22bd c85e 423d a6c9 cebd b4d9 b2bd
00000190: 50d0 29bc aad2 8cbd 8abc 95bb 907c b039
000001a0: ede1 343e 4b7d 40bd fd2d 1fbd c209 b3bd
000001b0: dff6 f53d 77ee 2b3d 1f98 c5bb 6f98 60bd
000001c0: e2e4 6b3d 43ff bf3d 2d78 1abe dbd9 d1bd
000001d0: 2058 cd3b 0ef0 fbbd 9478 87bd 8879 49bd
000001e0: 2098 3b3c 94a2 babd 39da 90bd 3d70 debd
000001f0: a5ea 26be 38c8 1bbc a8fb 82bc 8de9 fabd
00000200: f766 21bd 31d1 2bbe abac 1cbe 2ea4 13be
00000210: 1f8e 56be 1b99 063d 66af 533d 145c dabd
00000220: 549a 6b3d 749f 26bd ba13 963d f0a1 743c
00000230: a068 163e 37e9 eb3d 0c22 013e fc76 293e
00000240: 055d b13c ec69 1b3d 31e9 9b3d b2b4 0abd
00000250: 5dca 833d 226e c53c dbf7 013e 1e93 3c3e
00000260: 22d4 af3d e4ae 62bd a0f6 fd3c 8ca3 c5bd
00000270: b054 863d acde e4bd 841d ad3d 2a67 dcbd
00000280: a2aa 073e f160 2a3e 694d ef3d be36 fa3d
00000290: c842 aabd e671 d63d cafc c8bc 0d24 7bbd
000002a0: c91a 5dbd dbca dd3d 01f8 6d3d 8b07 a1bc
000002b0: e976 f83d 942e 6cbd ca41 bebd 7011 053c
000002c0: 202d db3b 68fe e6bd c475 fd3d d207 e8bd
000002d0: 32de 183d 7ed8 ea3d 526a cc3c 10db 713c
000002e0: 2b80 c33d 08bc 083e ba49 633d 0259 92bd
000002f0: 31e9 cabd 7129 2fbb a348 e6bb bbd4 2e3d
00000300: 42c1 a43d 1cb8 bf3d 8428 243d 507c 66bd
00000310: 7a55 aabd 09f3 f2bc 5b3a 74bd 3abd 1d3e
00000320: 1d90 b83d dbd0 9b3c 0069 c93d 67e3 47bd
00000330: e2ad 6cbd 4017 25bd 0abb e63d 9e92 66bd
00000340: ead7 c63c 1014 b83a 6f3b 4bbd acae eabd
00000350: 7812 a03c 0409 3d3d 589b 233d 00aa 5a3c
00000360: 44c0 0fbd fb38 873d a0ad 283d ee12 83bd
00000370: e840 9c3d 280d 95bb 36dd 6abd e2f7 923d
00000380: 1380 50bc 3314 183d 2c7b 20bd 07e2 8dbc
00000390: 5f42 053d 9538 7fbc c081 203d a49f 2b3d
000003a0: 3cbc a8bd 4017 8f3c da4e 86bd a368 d2bd
000003b0: 72bd 7dbd 0f7a b2bd f807 043e 59a7 a6bd
000003c0: ce3a 093e a5a2 113b cab8 34bd 7a6f fb3d
000003d0: 491c 45bd baaf 613d 6ce1 14bd 09a7 cc3c
000003e0: 4bee ae3a a0c0 d8bc 44a0 a3bd a044 93bc
000003f0: 4aa4 ecbd 80bf ff3b ee4d 893d 1131 043d
-0.012287633 0.025227254 0.025209561 0.10705961 -0.0484958 0.09906298 0.0945721 0.15870829
0.15284656 0.024959538 0.23211963 0.07986909 0.0041453834 0.13576262 0.15269752 0.12266843
0.08917194 -0.02798102 0.20740837 0.032834586 -0.121577606 0.08170122 0.053108484 -0.02420029
0.026661173 -0.06819677 -0.05624164 0.07342234 -0.06646575 0.15652525 0.08554617 -0.08778656
-0.0030709878 -0.08749708 0.11745516 0.096416 -3.121408e-05 -0.07694825 0.13944645 -0.08355219
-0.09523727 -0.07727863 -0.09563343 -0.014459819 0.059288815 0.04739376 -0.027544873 0.22644235
0.15469034 0.006556783 0.1397826 0.1279025 -0.029483495 0.16557832 0.049632978 0.15810841
-0.0020518925 -0.10107766 -0.035827167 0.058570087 0.06292653 -0.087824926 -0.012195125 -0.1235217
0.027098732 -0.0939056 0.14880715 0.05802687 0.10178968 0.06818687 -0.08369698 -0.043841552
0.039276995 0.06296322 0.12522987 0.10954147 -0.0010427543 -0.12201232 0.11471313 -0.09293112
-0.015807271 0.08615303 0.015335381 0.047685787 0.014298075 0.008604372 -0.0012558089 0.015262172
0.015464254 0.039218683 0.08372756 0.14615308 0.19670954 -0.034386005 0.18503039 0.049927443
-0.039790574 0.04745367 -0.10097055 -0.0873293 -0.010364607 -0.068761185 -0.0045695947 0.00033662142
0.17664309 -0.04699449 -0.038862217 -0.087420955 0.120099775 0.041975465 -0.006030097 -0.054832872
0.057591327 0.09374859 -0.15084906 -0.10246631 0.006266609 -0.12301646 -0.06614795 -0.049188167
0.011449844 -0.091130406 -0.07072873 -0.108612515 -0.16300447 -0.009508185 -0.01598914 -0.122515775
-0.039404836 -0.16779019 -0.15300243 -0.14418098 -0.20952652 0.032860857 0.051680945 -0.10662094
0.057520226 -0.04067941 0.07327981 0.014931187 0.14688349 0.115190916 0.12610644 0.16549295
0.0216508 0.03794281 0.07612837 -0.03386373 0.06435082 0.024100367 0.12692206 0.18415496
0.08585383 -0.05534257 0.031001389 -0.09650335 0.065591216 -0.11175284 0.08452895 -0.107618645
0.13248685 0.16638543 0.11684687 0.122174725 -0.08313519 0.10470943 -0.024534602 -0.061313678
-0.053980622 0.10829707 0.058097843 -0.019656917 0.12132055 -0.057661608 -0.09289892 0.008121833
0.006688729 -0.11278993 0.12375978 -0.113296166 0.037321277 0.11467074 0.024953041 0.014761701
0.095459305 0.13352978 0.055490233 -0.07145883 -0.09907759 -0.0026727582 -0.007027702 0.042683344
0.080446735 0.09361288 0.0400777 -0.056270897 -0.083170846 -0.029656904 -0.059625965 0.15404215
0.090118624 0.019020488 0.0983448 -0.048800852 -0.057783015 -0.040305376 0.112661436 -0.05629217
0.024272878 0.0014044065 -0.049617227 -0.11459097 0.019540057 0.046151176 0.03994307 0.013346195
-0.03509547 0.06602665 0.041181207 -0.06400095 0.076295674 -0.0045486875 -0.05733987 0.07176186
-0.012725848 0.03712864 -0.039179966 -0.017319692 0.032534 -0.015577455 0.03918624 0.041900292
-0.08239028 0.017467141 -0.065580085 -0.10273864 -0.061948247 -0.08714687 0.12893665 -0.08137388
0.13401338 0.0022222188 -0.04412154 0.12277122 -0.048122678 0.055099227 -0.03634779 0.024981992
0.0013346163 -0.026459038 -0.079895526 -0.017977059 -0.11554773 0.007804811 0.06704317 0.032273356

lstm.weight_hh_l0 f4 [256, 64]
00000000: 0a95 aebd 68ed 2e3c a265 173e 96ce 723d
00000010: 767a 56be de3e 483d 74a0 ae3d 4939 8c3c
00000020: 6691 1cbe be18 4b3e 3af0 023e 3992 33be
00000030: 52a1 7fbc e803 3fbe c35d 56bd 0927 75bd
00000040: c542 0bbe c36d 553d 6ab6 153e 05e6 77be
00000050: 2fa9 33be b213 ae3d 2a40 d93d 3409 f63d
00000060: 61aa 533d 1262 8bbd 69c9 61be 555e 3fbe
00000070: add7 f63d 7dab a4bc a7e0 81bd 4969 18be
00000080: 1d7d 913d e93b 62be 3cf8 493e ec31 1cbe
00000090: 06a2 a3bc 1803 b43b dbb5 14be 05be f2bc
000000a0: 4ffa 0f3e a2ad 463d 44d8 0fbd 8e41 4ebe
000000b0: 9c1f c93d 93af cabc 0cc6 b5bd 7d47 6a3c
000000c0: e17f 2cbe 0195 e4bd 9204 723e 9ef3 8c3c
000000d0: 4878 09be 4dcd 23be 1680 653e b96b 8f3d
000000e0: bdfd cdbd abf9 363e 5cf1 323e 30bd 0e3c
000000f0: 6689 09be b9d0 67be 7abf 23be 93bf 79bc
00000100: 458d 843d 10ab bb3d d824 e53d 05f9 18bc
00000110: fcce b73d 8046 b33b 54f2 d03d c22b 913d
00000120: b9a3 02be 0a8b 12bd 7b55 0d3d bf5c 393d
00000130: fcf9 4ebd f631 673d 637c 00be 1d83 ffbd
00000140: ddb4 2d3d 6f30 fe3d 63d8 0f3e 0330 8abc
00000150: 5690 77bd 6069 a73d 6359 68ba d244 153e
00000160: 3840 57bd 50ec abbd f14e 3fbd 7efd f1bd
00000170: 0255 273e 30ad 35bd 98d9 25be c28a 933d
00000180: 4925 afbc 4b4e 87bd 8d31 c13d e9c6 a9bb
00000190: 8ad2 0cbe 19fa 733d 2dfe 973d f5b2 1abe
000001a0: c8b1 8bbd fd2a 94bd 9e80 04be ff7f 09be
000001b0: fd2e fcbc 3b04 20be cf42 323d e017 c73d
000001c0: 4c5c a03d cab0 0ebd b658 69bc 3a66 243d
000001d0: 672c b1bd a2b2 96bc 4e61 43bd bb4b ea3d
000001e0: ad00 0abe 628e 9bbd d8f4 07bd 4652 bdbd
000001f0: ad26 e0bd d01c 933d e750 fdbd e12b 87bd
00000200: 5306 a73b b879 dfbb 561d 1d3e 17f0 6a3e
00000210: 7a85 2bbd 7901 043e aef0 853d e339 5e3e
00000220: 539c 61be ad2e 243e 6059 533e 2954 1abd
00000230: 3a27 3bbe 56a1 58be 0b8b 15bc 0796 9f3b
00000240: ef48 8ebd f403 c43d d69b 6f3e 9b46 85bd
00000250: 032d a2bd cca0 593e cdd4 c53c 455d d63d
00000260: 82ac 873d 3018 16be 2f34 0dbe e1d6 48be
00000270: 18ce 463e ea54 22be 7744 59bd cd34 09bd
00000280: 92e9 aebc 34e4 0bbd b53d 263d 4a1a 87bb
00000290: 2638 16be 4009 acbd 42d0 58be b82f 3bbe
000002a0: 15e3 853d a94f 463d 6209 103a 6871 d3bd
000002b0: 34a1 793c 54a0 b8bd e756 1ebe ce9b 323d
000002c0: d9cb 7dbd 7843 c0bd ac25 583d 8be4 e23d
000002d0: d85c 94bd 0ffd d3bd cc23 df3c d1f7 ff3d
000002e0: 42c8 2a3c 0af6 603e c3bc 9a3d 168f 7abd
000002f0: 13ac 9dbd 1a59 aa3c 542b f73c ea7b 57be
00000300: 61c3 0b3e 6beb ddbd f6ce 043c 4f4d e1bc
00000310: ffe0 0cbd dbae 853d 3076 b1bd 7bfa a93d
00000320: 267b d73d 691a fc3d 11aa 86bd 2a18 963d
00000330: d076 22bc f664 01be 103c 19bc 626b 4cbd
00000340: dd77 c93d af8c 93bd caa1 b73d 1f4c 7e3d
00000350: 34b8 eb3c f699 c0bd e138 fd3d d0d8 3e3d
00000360: cb77 0c3e 81fd c33d ec66 26bb 5f3f 0f3c
00000370: 7253 97bd 7e02 f2bd d0c3 913c 2733 0bbe
00000380: 1f79 37bd cbbf e23b 32c5 66bc b322 bcbc
00000390: 225a 613d d4ca b83d b80e 78bd 01c4 20bd
000003a0: 22e3 893d 8a42 e23d 6309 7eba 5a19 cc3c
000003b0: 733f 0eba c6af 13bd 88cf dabd d171 d33d
000003c0: 619f d7bd 5ca9 b13d d5be a93d b0fe c0bc
000003d0: bb63 a53d 54e5 94bd 912a e53d fe78 8bbb
000003e0: dc77 0bbe 4559 013e 51d3 973d a60b 73bd
000003f0: 9544 45bc dc3b d4bb 0863 d1bd a953 023d
-0.08524521 0.010676719 0.14784864 0.059279047 -0.20945153 0.04888808 0.08526698 0.01711716
-0.1528984 0.19833657 0.12786952 -0.17536248 -0.015602427 -0.18653834 -0.052335512 -0.05985168
-0.1359969 0.05210663 0.14620367 -0.24208839 -0.17545007 0.0849985 0.106079414 0.12013474
0.051676158 -0.06805815 -0.22049488 -0.18688329 0.12052856 -0.020101303 -0.06341677 -0.14883913
0.071039416 -0.22093166 0.197236 -0.15253419 -0.01997472 0.005493533 -0.14522497 -0.029631624
0.14060329 0.048505433 -0.035118356 -0.20142195 0.09820482 -0.024741923 -0.08875665 0.014299271
-0.16845657 -0.11161233 0.23634556 0.01720601 -0.1342479 -0.15996285 0.22412142 0.07002968
-0.10058162 0.17868678 0.17474884 0.008712098 -0.1343132 -0.22638215 -0.15991011 -0.015243429
0.064722575 0.09163487 0.11188668 -0.009336715 0.08975026 0.0054710507 0.102024704 0.07088424
-0.12757768 -0.03577713 0.03450535 0.045254465 -0.050531372 0.05644413 -0.1254745 -0.1247618
0.042408813 0.12411582 0.14047389 -0.016868597 -0.060440384 0.081743956 -0.00088634173 0.14577034
-0.05255148 -0.083946824 -0.046706144 -0.11815928 0.16341022 -0.044354618 -0.16196287 0.072042
-0.021380084 -0.0660673 0.09433279 -0.0051811826 -0.1375219 0.059564684 0.07421527 -0.15107329
-0.068210185 -0.07234762 -0.12939689 -0.13427733 -0.030784125 -0.15626614 0.043520745 0.09721351
0.07830104 -0.034836568 -0.014242342 0.040136553 -0.08651047 -0.018395726 -0.04770022 0.11440226
-0.1347682 -0.07595517 -0.033192486 -0.09244208 -0.10944877 0.0718323 -0.123689465 -0.06600166
0.0050971895 -0.00681993 0.15343222 0.2294315 -0.04187534 0.12891187 0.06540047 0.2170177
-0.22032289 0.1603343 0.20639563 -0.037677918 -0.18276682 -0.21155295 -0.009127389 0.0048701796
-0.06947505 0.095710665 0.2339929 -0.065076075 -0.079187416 0.21252745 0.024149323 0.104670085
0.066247 -0.14657664 -0.13789438 -0.1961322 0.19414556 -0.15852705 -0.05304381 -0.03349762
-0.02135161 -0.03415318 0.040586192 -0.004123007 -0.14669856 -0.08400202 -0.21173194 -0.18279922
0.06537453 0.048415814 0.0005494562 -0.10324365 0.015236188 -0.09014955 -0.15462838 0.04360562
-0.061961982 -0.09387869 0.0527703 0.11078747 -0.07244271 -0.103510015 0.027238749 0.12498439
0.010423722 0.21968856 0.07555535 -0.061171614 -0.07698836 0.02079444 0.030172028 -0.21043363
0.1364875 -0.10835918 0.008105984 -0.027502684 -0.03439426 0.06527492 -0.086651206 0.082997285
0.105215356 0.12309725 -0.06575406 0.07328828 -0.009916022 -0.1263617 -0.009352699 -0.049907096
0.09837315 -0.07204568 0.08966406 0.062084313 0.028774358 -0.09404366 0.123643644 0.046593487
0.13717572 0.095698364 -0.0025390936 0.008743136 -0.07388963 -0.118168816 0.017793566 -0.13593732
-0.044793244 0.006919836 -0.014085101 -0.022965765 0.055017598 0.090230614 -0.060560912 -0.039249424
0.06732775 0.110478476 -0.000969073 0.024914432 -0.0005426325 -0.036056302 -0.10684115 0.10324443
-0.10528446 0.08674881 0.082883514 -0.023558944 0.08075663 -0.07270303 0.111897595 -0.0042563668
-0.13619941 0.1263171 0.07413352 -0.05933728 -0.012040277 -0.0064768624 -0.10223967 0.031818066

lstm.bias_ih_l0 f4 [256]
00000000: 440b 5b3e 2853 913d 1628 2b3e a945 c73d
00000010: 3788 313e 6946 233d b71c cdbd 1430 783e
00000020: 3d8a 75bd 829e e13d 66aa 3dbc e305 3c3e
00000030: 3953 803d a409 fb3d df85 ca3d ba7f 263e
00000040: 4879 c43d 11b1 2b3e 1a0e d03d 8bd7 cbbe
00000050: f696 ed3d 7d74 19bd 60a6 703e 2a74 f63d
00000060: 4f05 c83d 8a97 d43d df7c 7e3e 2d57 f3bd
00000070: 1fe0 c3bc dd15 2c3d 1ef4 08bd 4ec8 693d
00000080: 5cd8 693a 0ff8 bc3d 4c8b 5d3e 9213 2d3d
00000090: 35a0 8b3e 835a 4ebb ca59 923d a4f3 733e
000000a0: 84a1 353e 7305 903d 46e8 37bd 5ceb 2a3d
000000b0: 0b46 8b3e a93e 073c 37ac ce3d b09a 553e
000000c0: c575 70bd d79f 643e 940b b53d dddb 3a3e
000000d0: d422 363e 7355 7d3e 586f a23e 02e4 3b3d
000000e0: 26e4 ed3d 5889 d83d 9759 5f3d 9e00 1ebd
000000f0: 21e9 133e af59 8a3e 083c 833e 95d9 843e
00000100: 8437 f13d d446 0d3e 2b95 573e c813 053e
00000110: 4e6e 573d e803 21bd 8585 31be a217 703e
00000120: f235 1ebc 0fdc ea3d 44c0 2e3e d53b 603e
00000130: 13cc b53d 6b19 d43d 615e 40bc f15c 1a3d
00000140: 6492 833b a92e 0e3d 9530 d23c f7f9 65be
00000150: 8884 ee3d 6a9c 82bb 5e85 883d 5058 ff3d
00000160: d649 333e 2fec 093d 08c0 873d b1c0 25be
00000170: dcff 943c 9baa 7b3d 5687 9f3d e443 433a
00000180: 4c98 193d 4544 1c3c 9558 4e3d 33d1 d93d
00000190: f158 103e cb10 283d ad16 223c 975d 553e
000001a0: 0e7a 393e 6707 b93d 1207 7abd c46e 8f3d
000001b0: 7f66 bdbd 7a72 113d f709 ba3d 3d7a ab3c
000001c0: ed30 4abd 60b6 d33d 9eff 593d 1d20 2c3a
000001d0: a661 f03d a2e5 573e dde6 513d 6305 183e
000001e0: f13b 853e f395 283e 801f 01bd 7979 bf3d
000001f0: 076f 38bd 6391 3f3e 1494 033e a707 493e
00000200: c31d a03d e2d7 953d 591d a93e d69a dd3d
00000210: 29ec f1bd a3bd 653e 8ff4 0bbc b161 0f3e
00000220: 5a4a 97bd db56 6f3e 67c4 453e 9482 81be
00000230: bcaf 8ebd 7138 85be d9ae 06be e229 e2bd
00000240: dbe3 23be b2d6 803e e045 4f3e 2db1 34be
00000250: 5ca2 4bbe 28da abbd 5d7c a33e 1a27 a13d
00000260: 84ae 973e 3d08 ffbd ca2d a1be c0cb 783d
00000270: e272 72bb b299 163d 9211 8bbd d050 66be
00000280: ec57 523e 0393 f3bd c66d 8d3e 4e19 a4bd
00000290: 582f 4abe 7222 d9bc b244 37be a401 abbe
000002a0: d271 643d 2d28 0c3d 8f87 e1bd 0ae1 72be
000002b0: dc98 5bbe 7df8 d8bd c31f 2abe 8875 ae3e
000002c0: 5a3d 7ebd 6050 10be 35df 2b3e 0f8a 363e
000002d0: 3657 35be dbf5 97be feca d8bd 7466 3f3e
000002e0: fe92 68be 5f53 303e 154e 0fbc aab7 89be
000002f0: a1e5 57be ba08 86be 4ef8 69be 68c6 99bd
00000300: f19a 453e 4835 3b3e b9c6 bc3d 2a33 a63e
00000310: 96bd c43d ae7c 903e 59c7 283e fa75 853e
00000320: c1fc 8c3e c6a6 573e 8d5c 4c3e edd5 903e
00000330: 66b6 553e 0310 703e 096d fb3d 5764 c23d
00000340: 0e94 be3e d85b a33e 4c84 82bb 5b49 693e
00000350: 0265 993e a2a9 573e 06c3 bc3e 24ca 0d3e
00000360: 9339 3d3e ab5c 463e f69b 8f3e 1b8e 9c3e
00000370: 33e8 453e ae80 5f3e 8180 d83d 9610 7b3e
00000380: 4eeb 733e fe30 2d3e cb55 8d3e 89f0 763e
00000390: 5eb3 f93d e828 043e 4110 543e 32d8 2d3e
000003a0: 3397 aa3d 9d84 973e 56b8 783e e1d8 293e
000003b0: adc0 523e 919b 483e 5f4d ef3d 0c45 b73d
000003c0: a5dc 6e3e 6efe 693e 97ae a23e a3eb 013e
000003d0: ad7f 743e ee2f 783e 94a4 f53d 9a15 933d
000003e0: 0b79 103e b835 b23e a158 203e 2c9b 003e
000003f0: 1d41 ce3d d137 993e 0f8b 8c3e a44c b33d
0.21391016 0.07095939 0.1671451 0.097300835 0.17337118 0.03986207 -0.100152425 0.2423709
-0.059946287 0.11016561 -0.011576271 0.1836162 0.062658735 0.12257698 0.09888815 0.16259661
0.09593445 0.16766764 0.1015894 -0.39812884 0.11601059 -0.037464608 0.23500967 0.12033875
0.097666375 0.10380466 0.24852322 -0.11881862 -0.02391058 0.042013038 -0.033435933 0.05707579
0.00089204847 0.09227001 0.21635169 0.04225499 0.27270666 -0.0031487055 0.07146032 0.2382341
0.17737395 0.07032289 -0.044899248 0.041728362 0.27201876 0.008254685 0.10091441 0.2085979
-0.058706064 0.22326599 0.08840099 0.18247934 0.17786723 0.24739628 0.31725574 0.045871742
0.116157815 0.10573071 0.0545288 -0.038574807 0.144444 0.27021548 0.25631738 0.25947252
0.11778167 0.1379655 0.21052997 0.12995827 0.05259543 -0.039310366 -0.1733609 0.23446515
-0.009656416 0.11467754 0.17065531 0.21897824 0.08876815 0.103564106 -0.011741252 0.037686292
0.004015254 0.034712467 0.025657931 -0.22458635 0.11646372 -0.003985931 0.06666063 0.12468016
0.17508635 0.033672508 0.06628424 -0.16186787 0.01818841 0.061442 0.07789485 0.0007448776
0.037498757 0.009537761 0.050377447 0.10635605 0.14096428 0.04103164 0.009893102 0.20836483
0.18112966 0.09034615 -0.0610419 0.07003549 -0.09248065 0.035509564 0.09083932 0.020932311
-0.049363066 0.1033752 0.05322229 0.00065660645 0.11737375 0.21083692 0.05124556 0.14845805
0.26022294 0.16463451 -0.03152418 0.09349341 -0.04502776 0.18707804 0.12849456 0.19631825
0.078181766 0.07316567 0.33030203 0.10820548 -0.11812622 0.22435622 -0.008542194 0.1400211
-0.07387228 0.23372976 0.19313203 -0.25294936 -0.069671124 -0.26019624 -0.13152637 -0.11043145
-0.16004889 0.251638 0.20241499 -0.17645712 -0.19886154 -0.083912194 0.3193082 0.07868786
0.29625332 -0.12452743 -0.31480247 0.060741186 -0.0036994745 0.03676767 -0.06790461 -0.22491765
0.20541352 -0.11893275 0.27622813 -0.08012639 -0.19744623 -0.026505683 -0.17897299 -0.3339969
0.05577261 0.034218002 -0.11012184 -0.23718658 -0.2144503 -0.105942704 -0.16613679 0.34074044
-0.06207023 -0.1409316 0.16784365 0.17826103 -0.1770905 -0.2967976 -0.10585593 0.18691427
-0.22712323 0.17219304 -0.008746644 -0.26897937 -0.2108369 -0.26178533 -0.22848627 -0.07508546
0.19297387 0.18282044 0.09217591 0.3246091 0.09606473 0.28220123 0.16482295 0.2606657
0.27536586 0.21059713 0.1995718 0.28288212 0.2087036 0.23443608 0.12276656 0.094917946
0.37222332 0.3190601 -0.003983056 0.22781889 0.29959875 0.21060804 0.3686754 0.13846642
0.18478994 0.19371288 0.28048676 0.30577168 0.19326858 0.21826431 0.10571385 0.24518046
0.2382023 0.1691322 0.27604517 0.24115194 0.12192415 0.1290623 0.20709325 0.16977003
0.0832962 0.29593363 0.24289069 0.16586639 0.20581312 0.19590594 0.11684679 0.089487165
0.23326357 0.22850963 0.31773826 0.12687545 0.2387683 0.24237034 0.119942814 0.071818545
0.14108674 0.3480661 0.15658809 0.12559193 0.10071013 0.29925397 0.27449843 0.087548524

lstm.bias_hh_l0 f4 [256]
00000000: c3e1 a73d 9987 1a3e 2886 433d 5f06 243e
00000010: d65f 643e 6c5d 433d 6b58 63be e056 053e
00000020: afb5 0bbd 58f4 eb3d 7b89 50bd f680 213e
00000030: b293 1f3e 7e0f ff3d 3551 d73d bec4 cd3c
00000040: 087b 443e 420c a2bc aff0 543e 81ff 96be
00000050: e8e7 073e 8db3 99bd d746 bb3d 0810 243e
00000060: f7e2 6a3e 2fb0 ca3d 81e3 1f3e 8b70 6fbe
00000070: 439f 783c 20c8 6c3d 52d0 81bc d8ad c53d
00000080: 1fb9 dd3d 6e70 cbbc cb55 ec3d 2945 7f3e
00000090: b8cb 393e d933 a73d 5217 783d 51c9 8f3e
000000a0: 818d 343e c619 d33c 0f1f a1bd d074 923d
000000b0: 689e 013e 66ab 5ebd 56ab a23d 8c32 d83d
000000c0: e090 1a3e 7d0a 323e d00b 363e 9d19 da3d
000000d0: ca99 38bc 79b3 783e bcfa 9a3e 01a2 813d
000000e0: 0bba 753e 370d 09bd e3e5 9c3d 404c 253e
000000f0: c847 893d 4bea da3d d874 923d 690d b23d
00000100: a8b5 1e3e 67f7 2b3e 6ef8 893e 7ad3 303e
00000110: 1f92 263e 2d2c 373e d0d6 9cbd e84e 5b3e
00000120: 0a92 e23d bc1e 04bc d3ac e63d 5343 823e
00000130: 7a6c 023d 8986 c03d 8393 5d3d d8a8 123e
00000140: 2f81 963d b8d3 543e ab02 833e 5d14 9bbd
00000150: 667f ff3d 6572 f43d 8cc4 583e 6dbb b23d
00000160: 57dc bd3c e55e 433e 9adf 733e 8b06 293d
00000170: 4650 073e fd79 04bd dc49 a73d c934 eb3d
00000180: b10a 803b 989c e03c c452 003e e6ba 263e
00000190: e1c0 4a3d 9aa8 6c3d 9252 52bd d852 293d
000001a0: 95bd 263e 16f0 373e 2673 52bd bf1c 253e
000001b0: 430d c3bd 544c 493d 5a10 bcbc d99a 6f3e
000001c0: b311 493d 0ebd c93d 87da f83b fed3 2d3e
000001d0: 37ed 0d3e 5801 f33d a54f e33d de8a 323e
000001e0: 8fc4 973d 7f9e b6bc a890 23bd 4fee 263e
000001f0: 1f00 103e 413e db3d e71a 273d 5612 143d
00000200: 95e8 523e 7dff 853e c5ef 823e 4161 1b3d
00000210: a296 f3bd 4734 6c3e 38fc 293d 1c0f 543e
00000220: 6f10 7abe b1f2 0c3d 8568 7e3e 13b3 85be
00000230: b81a 31be 961e 99bd a307 92be d4e6 a5be
00000240: b6fd 92be 4d5e 743e 7a94 9d3e 84dc 0abe
00000250: 62fb 1ebe 1d84 a0bd 2985 223e e9d0 793d
00000260: feae ac3e 8103 64be 55ba 08be d769 043e
00000270: 9aad fe3d 55b5 f3bd 15cd fbbd cfd6 6cbd
00000280: e453 2b3e 2227 06be dfd7 383e 81be 1e3b
00000290: a74c 87bd 9f3f 3bbe 0ad1 51be 7eb7 9abe
000002a0: 0f67 a43d f58c 31bd dd13 5b3c 2524 c5bd
000002b0: 977e 60be 8d0a 3fbe 8af2 3abe ea34 ab3e
000002c0: 6dd8 edbd 6064 96bd 2278 ff3d 422f 9f3d
000002d0: f9c8 91be 84e9 b2be d223 e3bd c9fc 863e
000002e0: 86e9 5abe acde 393e 52a1 5e3e 1d6c d8bd
000002f0: 3b9f 48be b45d 87be 1c3b 31be 5697 29be
00000300: 399f 0d3e 9446 4b3e 826f 203e 9408 af3e
00000310: ae30 8c3e f0de 8c3e 37fb a23d 7199 933e
00000320: 2018 ba3d 0939 943e 6b49 8a3e ff7d ae3e
00000330: 89fe 2a3e 7d7e 733e 60a6 5d3e da86 8d3e
00000340: 28db b53e 478b 623e 2767 1e3e a801 c63e
00000350: 1cfe fd3d 5a92 b13d 8607 ce3e 47b1 9c3e
00000360: a02c 0d3e 8fa7 f53d a60b 233e 76af 1f3e
00000370: 7863 4d3e c678 803e 8f59 5e3e 3cb8 a23e
00000380: 42dd a93e 19f3 313e 4dbd 9b3e ae63 b83d
00000390: b7fe 213e 05e1 8c3e 5fdf 853e 3f0a 073e
000003a0: 59e7 0a3e 5f0c 6f3e 8ce0 433e b323 913e
000003b0: f537 933e 3ace 863e bec8 8b3e 1857 7abd
000003c0: 259b 393e 95c5 3b3e 0395 243e 0625 183e
000003d0: 6204 633e 879a ae3e 27cb 4f3e 0143 1e3e
000003e0: 79d1 a43e 3842 9e3e 5600 473e 68b0 723d
000003f0: e4dc a43e 06b3 a33e 610d 893e cd6c 5e3e
0.081973575 0.15090789 0.047735363 0.16018055 0.22302184 0.047696516 -0.22201698 0.13021421
-0.034108814 0.11521214 -0.05091236 0.15771851 0.15583685 0.12454127 0.10513536 0.025118228
0.19187558 -0.019781236 0.20794939 -0.2949181 0.13272059 -0.0750495 0.09144371 0.1602174
0.22938143 0.098968856 0.1561413 -0.23382775 0.01517469 0.05780804 -0.015846405 0.09652299
0.10826325 -0.024833884 0.11539801 0.24928726 0.18144119 0.08164186 0.060569115 0.2808328
0.17632104 0.025769126 -0.07867252 0.071511865 0.12658083 -0.054362677 0.07942836 0.10556516
0.15094328 0.17386813 0.17777944 0.106494166 -0.011267135 0.24287213 0.3026942 0.06329728
0.23996751 -0.03345987 0.07661035 0.16142368 0.06703144 0.10689219 0.071511924 0.08693964
0.15498984 0.16793595 0.2694735 0.17268172 0.16266678 0.17887945 -0.0765816 0.21416819
0.11063011 -0.008063968 0.11263432 0.2544199 0.031841733 0.094006605 0.054095756 0.14322221
0.073488586 0.2078389 0.25587973 -0.07572243 0.12475471 0.119358815 0.21168727 0.08727155
0.023176355 0.19079168 0.23815766 0.041266005 0.13214216 -0.0323429 0.081683844 0.11484677
0.0039075245 0.02741842 0.12531573 0.16282234 0.04950035 0.05777798 -0.051348276 0.04133877
0.16283257 0.1796268 -0.051379345 0.16124247 -0.09524014 0.049145058 -0.022957016 0.23398913
0.049089145 0.098505124 0.00759441 0.169754 0.13860022 0.11865491 0.11099175 0.17435786
0.074105375 -0.022292374 -0.039932877 0.16301845 0.14062546 0.10705233 0.04079714 0.0361503
0.20596536 0.26171485 0.25573555 0.037934545 -0.11893965 0.23066817 0.0415003 0.20708889
-0.24420331 0.034411136 0.24844559 -0.26113185 -0.17295349 -0.07476537 -0.2852145 -0.3240267
-0.2870919 0.23864098 0.3077734 -0.13560683 -0.15525582 -0.078376986 0.15871109 0.060990248
0.33727258 -0.22266962 -0.1335233 0.12931 0.124354556 -0.11899821 -0.12294976 -0.057822045
0.1673122 -0.13100865 0.18051098 0.0024222436 -0.06606417 -0.18285988 -0.20489898 -0.30218118
0.08027469 -0.043347318 0.013371435 -0.09626035 -0.2192329 -0.18656369 -0.18256584 0.33438808
-0.116135456 -0.07343364 0.124740854 0.077726856 -0.28473642 -0.34943783 -0.110908166 0.26364735
-0.21378145 0.18151349 0.21741226 -0.10567496 -0.19591992 -0.26438677 -0.17307705 -0.16561636
0.1383027 0.19851142 0.15667537 0.34186232 0.2738089 0.27513838 0.07958072 0.28828004
0.09086633 0.28949764 0.27009138 0.34080502 0.1669866 0.2377872 0.21645498 0.27641946
0.35518765 0.22123443 0.15469037 0.3867314 0.12401983 0.086704925 0.40240115 0.30604002
0.13786554 0.1199485 0.15922412 0.15594277 0.20057476 0.25092143 0.21713851 0.31781185
0.3317662 0.1737789 0.30417863 0.090033874 0.15819822 0.27515426 0.2614698 0.13187502
0.13564815 0.23344563 0.19128627 0.2834755 0.2875363 0.26329213 0.27301592 -0.061118215
0.18125589 0.1833709 0.16072468 0.14857873 0.2216964 0.3410227 0.2029234 0.15455247
0.32191065 0.30909896 0.19433722 0.059250265 0.32199776 0.31972522 0.2676802 0.21721192

fc.weight f4 [1, 64]
00000000: 9176 cd42 303e cd42 51b8 cd42 ddd1 ce42
00000010: c78b ccc2 4eea ce42 dbf8 b442 4ea3 ce42
00000020: b1cf cdc2 63fd cd42 a7a3 cd42 a6f6 cec2
00000030: a132 cdc2 955d cec2 1726 cec2 2adb cdc2
00000040: cf7a cec2 2436 cf42 e24c ce42 dbb6 d9c2
00000050: f1d4 ccc2 946a cc42 0a32 cf42 bf42 cd42
00000060: a4a7 ce42 89dc cdc2 5e8e cdc2 9cfa b8c2
00000070: b7aa cd42 f12c cdc2 e011 cec2 f7d0 cdc2
00000080: 8e18 ce42 8f29 cdc2 9ea7 ce42 73ae cbc2
00000090: d44a cec2 f405 ccc2 fb40 cec2 7a7c cec2
000000a0: e25a cd42 989e cc42 c4e2 cdc2 46c8 cdc2
000000b0: c0b2 b942 5551 cec2 51f4 cdc2 7cdb cc42
000000c0: 0985 cdc2 da0d cdc2 074a ce42 bdf8 cd42
000000d0: 25ba cec2 3980 cfc2 41f5 b942 b74c ce42
000000e0: e055 cec2 2342 ce42 4f97 cc42 93b4 ccc2
000000f0: ec01 cec2 8e8b cdc2 40c1 ccc2 aacd cdc2
102.731575 102.62146 102.85999 103.40989 -102.273 103.45763 90.486046 103.318954
-102.90565 102.994896 102.81963 -103.481735 -102.598885 -103.18278 -103.074394 -102.928055
-103.23986 103.60574 103.15016 -108.85714 -102.4159 102.20816 103.59773 102.63036
103.32742 -102.93073 -102.77806 -92.48947 102.83343 -102.587776 -103.03491 -102.908134
103.04796 -102.58117 103.32738 -101.84072 -103.14615 -102.01163 -103.126915 -103.24312
102.677505 102.30975 -102.9429 -102.89116 92.84912 -103.15885 -102.97718 102.42868
-102.759834 -102.527054 103.144585 102.98582 -103.36356 -103.750435 92.97901 103.14983
-103.167725 103.12917 102.295525 -102.352684 -103.00375 -102.77257 -102.37744 -102.90169
