LSTM_MODEL/PERSISTENT_SGD_Test_model.pt (torch, 89554 bytes, 5 tensors)

lstm.weight_ih_l0 f4 [256, 19]
0.061992787 0.072399214 0.04377137 -0.0307305 -0.07504451 0.014718279 0.0034468025 0.04077273
0.004626338 0.14167374 0.12151117 0.22141717 0.2319093 0.09960159 0.13391335 0.22089435
0.033395287 0.18266644 0.13956553 -0.1548309 0.07816025 -0.12284632 -0.04439287 -0.05813752
0.00058346987 0.10499722 -0.034510013 -0.041845888 -0.030878974 -0.16998354 -0.20949669 0.016311258
0.0035938434 -0.06358671 -0.07231936 -0.071906336 -0.14938986 -0.041038312 -0.030111566 0.061873846
-0.04703468 0.124994054 -0.004142225 0.08606961 0.108941436 0.09630691 0.03885723 0.077779815
-0.06442682 -0.096266136 0.12066867 -0.01965543 -0.07184994 -0.07981402 -0.055537976 0.086090155
-0.040549655 0.10568254 0.021785162 -0.09162344 -0.019854799 0.09834002 0.04680498 0.082216755
0.05095733 -0.01613825 0.02540267 0.07075034 0.011112883 -0.061092246 -0.011633535 0.06907385
0.017907215 -0.03936641 -0.021051088 0.027130757 0.031078545 0.058336712 0.11322798 0.105096534
-0.12253708 0.112343475 0.10194886 -0.06734973 0.08635873 0.15833658 0.03775909 -0.038142957
0.11379555 0.032954242 0.090494454 -0.03865467 0.07753506 -0.0806034 0.04943081 0.0553604
-0.05333488 -0.06692314 -0.10817732 -0.022027224 -0.10369524 0.037108928 0.07232684 0.033582743
-0.05687013 0.038048796 -0.0124850245 0.10456968 -0.096174546 0.12039195 0.00718003 0.042160507
-0.08907387 0.07441081 -0.0674763 -0.028444422 0.03103675 0.112835914 -0.052580267 -0.02504468
-0.1143945 -0.09666733 0.12985806 0.101106 -0.09224732 -0.030073076 0.11158534 -0.0148459375
0.12059519 0.055146873 -0.0936671 -0.041182652 0.03480302 0.13521382 -0.013612448 0.0507714
-0.122409776 0.06049803 -0.0676965 -0.100673646 0.107598014 -0.047058385 0.01763826 0.039347943
0.10215075 -0.028887898 0.05013616 0.1643973 0.047167253 0.04735085 -0.05657846 -0.039565627
0.13170192 0.059706856 0.111066684 0.10425724 -0.107412115 -0.093257815 -0.07886581 -0.03330289
-0.022207282 0.0970819 0.05498864 0.13002487 0.16587763 0.21773462 0.18088633 0.18982704
0.22383206 0.11445244 0.07491508 -0.061221756 0.10607349 -0.041728362 0.10342044 0.01915595
-0.04322052 0.038508162 0.1214355 0.049783766 -0.049802206 0.11397477 0.13515656 0.06727506
-0.013812612 -0.09005066 -0.095536344 -0.017804358 -0.032893572 0.06419612 0.21363777 -0.09490041
-0.047092304 -0.10865022 -0.06269656 0.095739976 -0.07836144 0.10013906 0.0068470472 -0.02713556
0.016240777 0.13442154 0.14138167 0.17847061 0.16233936 0.2036026 0.10360476 0.13829646
0.167808 0.11197927 -0.01305081 -0.07003656 0.06786442 -0.10561679 -0.068540156 0.051716328
-0.100324444 0.040419474 -0.0813981 0.09275294 -0.101378225 0.002636887 -0.10990809 0.027279982
-0.078646556 0.07136316 -0.0053909337 -0.08526549 0.0427191 -0.049547687 0.10566619 0.10949628
-0.058467016 0.044652507 0.083597854 -0.0031239914 -0.09119014 0.044455163 0.06709383 -0.02692291
0.16645631 0.04524747 0.08102662 -0.034348533 0.09779955 -0.03018752 -0.014097866 -0.054601517
-0.118650295 0.029657215 0.029935613 -0.0048209727 0.10402115 0.08361162 0.015250509 0.0061444854
00000000: 26ec 7d3d 0a46 943d 9c49 333d 88be fbbc
00000010: f0b0 99bd f024 713c c0e3 613b 4e01 273d
00000020: 8998 973b ec12 113e d9da f83d 2fbb 623e
00000030: a279 6d3e ebfb cb3d 9520 093e 2132 623e
00000040: 7fc9 083d e90c 3b3e 44ea 0e3e fe8b 1ebe
00000050: 7b12 a03d da96 fbbd 4cd5 35bd 9c21 6ebd
00000060: 00f4 183a c808 d73d 5f5a 0dbd 9866 2bbd
00000070: e7f5 fcbc 2a10 2ebe 4d86 56be 309f 853c
00000080: b086 6b3b c039 82bd 2c1c 94bd a143 93bd
00000090: a8f9 18be ca17 28bd 88ac f6bc 6e6f 7d3d
000000a0: 70a7 40bd e2fc ff3d 80bb 87bb 4445 b03d
000000b0: b01c df3d 8f3c c53d c228 1f3d 064b 9f3d
000000c0: 35f2 83bd 2e27 c5bd 2321 f73d 6d04 a1bc
000000d0: 1026 93bd 8875 a3bd ca7b 63bd 0950 b03d
000000e0: 6517 26bd 1670 d83d cc76 b23c 12a5 bbbd
000000f0: 88a6 a2bc 7e66 c93d 94b6 3f3d 4261 a83d
00000100: a2b8 503d 5d34 84bc 4319 d03c 8ee5 903d
00000110: cf12 363c dd3b 7abd 959a 3ebc 9776 8d3d
00000120: 27b2 923c ac3e 21bd 5573 acbc 5241 de3c
00000130: 6f98 fe3c 7af2 6e3d 12e4 e73d da3c d73d
00000140: b8f4 fabd 5614 e63d 90ca d03d a8ee 89bd
00000150: d9dc b03d fc22 223e 47a9 1a3d ca3b 1cbd
00000160: a40d e93d 07fb 063d 2855 b93d 5c54 1ebd
00000170: b4ca 9e3d 6513 a5bd f677 4a3d 96c1 623d
00000180: ad75 5abd 000f 89bd 128c ddbd 7072 b4bc
00000190: 2c5e d4bd 88ff 173d 1820 943d 0f8e 093d
000001a0: a7f0 68bd 0ed9 1b3d fd8d 4cbc a128 d63d
000001b0: 29f7 c4bd 0e90 f63d 7546 eb3b 7fb0 2c3d
000001c0: 5c6c b6bd b264 983d 0431 8abd 4704 e9bc
000001d0: c840 fe3c 8416 e73d 685e 57bd 802a cdbc
000001e0: aa47 eabd 85f9 c5bd 83f9 043e aa10 cf3d
000001f0: 2aec bcbd d05b f6bc db86 e43d 603c 73bc
00000200: 9cfa f63d b0e1 613d 89d4 bfbd 24af 28bd
00000210: 9d8d 0e3d 7e75 0a3e bf06 5fbc acf5 4f3d
00000220: fab1 fabd c8cc 773d 76a4 8abd fc2d cebd
00000230: 595c dc3d 4bc0 40bd 1d7e 903c 4f2b 213d
00000240: 6a34 d13d 50a6 ecbc 935b 4d3d c457 283e
00000250: 7332 413d f7f2 413d d1be 67bd 910f 22bd
00000260: dedc 063e 2d8f 743d ee76 e33d d284 d53d
00000270: e2fa dbbd f4fd bebd 6684 a1bd 9c68 08bd
00000280: 0cec b5bc e0d2 c63d c53b 613d 3d25 053e
00000290: d3db 293e d3f5 5e3e 443a 393e 0562 423e
000002a0: 3b34 653e 0a66 ea3d 146d 993d aac3 7abd
000002b0: 0f3d d93d 5ceb 2abd 18ce d33d f0ec 9c3c
000002c0: 0008 31bd bcba 1d3d 2db3 f83d 10ea 4b3d
000002d0: 66fd 4bbd 9b6b e93d 7b66 0a3e 82c7 893d
000002e0: 4b4e 62bc 7b6c b8bd 8fa8 c3bd 72da 91bc
000002f0: 69bb 06bd 4179 833d dcc3 5a3e 255b c2bd
00000300: dce3 40bd 0284 debd 0e67 80bd 5213 c43d
00000310: f67b a0bd b515 cd3d 325d e03b 654b debc
00000320: 610b 853c cda5 093e 5bc6 103e 00c1 363e
00000330: 4a3c 263e 337d 503e bb2e d43d 969d 0d3e
00000340: dcd5 2b3e 6355 e53d 11d3 55bc 546f 8fbd
00000350: 80fc 8a3d 9e4d d8bd c85e 8cbd 80d4 533d
00000360: e776 cdbd e48e 253d 0cb4 a6bd 41f5 bd3d
00000370: 639f cfbd 9fcf 2c3b 7e17 e1bd 457a df3c
00000380: 7211 a1bd d926 923d 6ea6 b0bb ac9f aebd
00000390: 39fa 2e3d 84f2 4abd 8467 d83d 963f e03d
000003a0: 1c7b 6fbd 8ce5 363d 5a35 ab3d e1bb 4cbb
000003b0: e5c1 babd 9e16 363d 7d68 893d 6f8d dcbc
000003c0: 8673 2a3e 6955 393d 49f1 a53d 0cb1 0cbd
000003d0: 214b c83d d14b f7bc bcfa 66bc d7a5 5fbd
000003e0: edfe f2bd b0f3 f23c 883b f53c 40f9 9dbb
000003f0: 0a09 d53d 923c ab3d 45dd 793c ae57 c93b

lstm.weight_hh_l0 f4 [256, 64]
0.054431275 -0.13872786 -0.063232295 -0.25014564 0.058723908 0.07885133 0.25804618 -0.09887527
0.25397047 -0.22836602 0.21162394 0.06171995 0.025621733 -0.13270928 0.19041616 -0.09132537
0.04864063 0.25512666 -0.2618043 -0.118735276 0.21558364 -0.23735361 -0.03393664 0.020202236
0.26978818 0.080800205 -0.08828682 -0.11964326 0.14006622 -0.15996565 0.18220593 -0.15982309
0.09045461 0.19006835 -0.14860417 0.07515357 -0.13608229 -0.042793337 -0.10537513 0.21835157
0.05957902 0.23840939 -0.21668893 -0.25468802 -0.25671902 -0.16626509 -0.25021976 0.14562415
-0.2448534 0.027246796 -0.09436293 -0.14300802 -0.025671527 -0.07778394 0.054079488 -0.1800332
0.113686435 -0.122963615 -0.22415014 0.08782744 -0.24356599 -0.17208205 0.23523049 -0.07371847
-0.18137987 0.007819432 0.26598677 0.06847756 -0.29093307 -0.17554538 -0.28479737 0.16668366
-0.12915903 0.0865708 -0.07370104 -0.08496892 -0.0768957 0.17337734 -0.20922904 0.29436275
-0.11220129 -0.25940466 0.24014625 0.08292862 -0.1206786 0.23423837 0.19466825 -0.22970274
-0.21370548 -0.17633674 0.18192308 0.25083238 -0.13786434 0.24362281 -0.080916986 0.13902052
-0.14009431 -0.18679024 0.15092638 -0.24881601 0.2328179 0.19567393 0.19293974 -0.24690005
-0.08989825 -0.2622742 0.16209765 0.21197124 0.13449614 0.19122386 0.28098023 -0.24049634
0.09058353 -0.27204448 0.18567702 0.22614282 0.07568567 0.04796344 -0.085935436 0.1748546
-0.28763086 0.06736664 0.07333485 -0.079902306 0.068353064 0.03750953 -0.25621492 0.13180886
-0.0142856585 -0.13193001 0.087241516 -0.051198576 -0.05602437 -0.0818206 0.026440734 0.10145816
-0.08977751 -0.116953544 0.048453383 0.016113922 0.0788597 0.070682205 0.11374129 0.022640131
0.12390016 0.056384943 0.023489831 0.03532882 -0.061263476 0.092472695 0.057394378 -0.0035576026
-0.005047662 -0.006737868 0.07837144 0.0010650739 0.039049063 0.087878905 -0.056926567 -0.10321782
-0.06482471 0.11107039 -0.07723419 -0.009407231 -0.11700656 -0.15092966 0.08680745 0.10690919
0.074207306 0.12968452 -0.11127918 -0.12956205 -0.012697452 -0.012469088 0.006133814 0.08811306
-0.12901409 -0.013344989 -0.079808384 0.07594236 0.043478344 -0.15136783 -0.056017555 -0.14470151
-0.10140245 0.07598732 -0.107506745 -0.010446472 -0.0068411184 0.08931052 0.07051874 0.027082164
0.013167129 0.03772438 -0.12085366 0.022782687 -0.0011748349 0.022810226 0.15483741 -0.064120464
0.0280277 -0.06435262 0.12840337 -0.064118415 0.11354535 0.0521609 0.03785274 0.041478254
0.05040577 0.011359697 0.08577033 -0.012367657 -0.08754983 -0.039325017 -0.05765489 -0.081323236
-0.07310743 0.13545866 0.066852845 0.10130932 0.05423901 -0.015900139 -0.017716978 0.039572388
-0.06745033 -0.026855499 -0.12771301 0.11620248 -0.11119722 0.056588333 0.0640627 0.124471545
0.15635018 0.08474571 0.017178038 -0.046892434 -0.05482026 -0.08368859 0.08979183 0.14112091
0.066404924 -0.035484664 -0.06913113 -0.010989831 0.07764353 0.043343876 -0.06407285 0.04269652
0.091645874 -0.12238012 -0.026302444 -0.06939008 0.05659505 -0.032441895 0.13685232 0.05042839
00000000: 54f3 5e3d ad0e 0ebe ef7f 81bd 1713 80be
00000010: 7b88 703d ce7c a13d a11e 843e 1e7f cabd
00000020: 6b08 823e c8d8 69be f2b3 583e 0fce 7c3d
00000030: abe4 d13c f1e4 07be 74fc 423e cc08 bbbd
00000040: 663b 473d f69f 823e 370b 86be 7b2b f3bd
00000050: f5c1 5c3e d30c 73be 2501 0bbd 297f a53c
00000060: ad21 8a3e 947a a53d b8cf b4bd 8707 f5bd
00000070: 856d 0f3e 09ce 23be 3194 3a3e aaa8 23be
00000080: 4440 b93d 47a1 423e b12b 18be 1dea 993d
00000090: 2859 0bbe 1148 2fbd ebce d7bd 8e97 5f3e
000000a0: 2109 743d 9721 743e b4e3 5dbe 7866 82be
000000b0: ad70 83be 6541 2abe ce1c 80be 7f1e 153e
000000c0: daba 7abe ac34 df3c 5a41 c1bd b270 12be
000000d0: 184d d2bc 304d 9fbd 7482 5d3d a05a 38be
000000e0: 6fd4 e83d 59d4 fbbd 9d87 65be dfde b33d
000000f0: 5d69 79be 4736 30be 43e0 703e b6f9 96bd
00000100: a5bb 39be 131d 003c 6b2f 883e f73d 8c3d
00000110: 2ef5 94be 2bc2 33be f6d0 91be 1faf 2a3e
00000120: 4442 04be 084c b13d 92f0 96bd 2f04 aebd
00000130: 7e7b 9dbd d489 313e 2340 56be b7b6 963e
00000140: cac9 e5bd b0d0 84be e6e8 753e 7bd6 a93d
00000150: 5826 f7bd 2fdc 6f3e 1d57 473e 3237 6bbe
00000160: 9cd5 5abe 9e91 34be 0b4a 3a3e 1a6d 803e
00000170: 4f2c 0dbe 4278 793e ceb7 a5bd 655b 0e3e
00000180: e274 0fbe f145 3fbe 728c 1a3e a0c9 7ebe
00000190: d167 6e3e bf5e 483e ff91 453e 5ed3 7cbe
000001a0: 931c b8bd ce48 86be edfc 253e fd0e 593e
000001b0: 5bb9 093e 30d0 433e a4dc 8f3e ac44 76be
000001c0: dc83 b93d 6a49 8bbe 1e22 3e3e fc91 673e
000001d0: 1701 9b3d 5075 443d ebfe afbd 160d 333e
000001e0: 5a44 93be 85f7 893d 9530 963d d2a3 a3bd
000001f0: b1fc 8b3d 98a3 193d 9a2e 83be e7f8 063e
00000200: 650e 6abc a918 07be aeab b23d 99b5 51bd
00000210: cf79 65bd 8f91 a7bd 3d9a d83c 4cc9 cf3d
00000220: 45dd b7bd 5785 efbd 0e77 463d 5801 843c
00000230: 3281 a13d d5c1 903d 32f1 e83d cc77 b93c
00000240: 5ebf fd3d e6f3 663d bf6d c03c f4b4 103d
00000250: 69ef 7abd 5362 bd3d 5e16 6b3d ab26 69bb
00000260: dc66 a5bb 55c9 dcbb 3581 a03d f399 8b3a
00000270: e9f1 1f3d dbf9 b33d d52b 69bd dd63 d3bd
00000280: d1c2 84bd df78 e33d f62c 9ebd c920 1abc
00000290: 23a1 efbd 4e8d 1abe 1bc8 b13d 35f3 da3d
000002a0: 00fa 973d 05cc 043e 57e6 e3bd eaab 04be
000002b0: f908 50bc 254b 4cbc 29fe c83b 9f74 b43d
000002c0: 451c 04be f1a4 5abc 9472 a3bd ab87 9b3d
000002d0: 5916 323d 2b00 1bbe aa72 65bd a22c 14be
000002e0: 16ac cfbd 3d9f 9b3d 7f2c dcbd ae27 2bbc
000002f0: 762b e0bb 6fe8 b63d 216c 903d 6adb dd3c
00000300: f1ba 573c e184 1a3d 2082 f7bd c2a2 ba3c
00000310: ebfc 99ba 83dc ba3c b38d 1e3e 9751 83bd
00000320: 599a e53c 4ecb 83bd 2c7c 033e 8450 83bd
00000330: 778a e83d aba6 553d 7a0b 1b3d 1ae5 293d
00000340: 4876 4e3d 061e 3a3c 5ba8 af3d b7a1 4abc
00000350: 534d b3bd 4513 21bd 8927 6cbd cc8c a6bd
00000360: 59b9 95bd adb5 0a3e 25ea 883d 437b cf3d
00000370: b929 5e3d 0241 82bc 3223 91bc a816 223d
00000380: 6623 8abd 1000 dcbc 33c7 02be 91fb ed3d
00000390: 5ebb e3bd 2bc9 673d 4e33 833d f0ea fe3d
000003a0: 431a 203e 298f ad3d f5b8 8c3c 4812 40bd
000003b0: 358b 60bd ec64 abbd c7e4 b73d 0082 103e
000003c0: 4eff 873d 5e58 11bd 9f94 8dbd b10e 34bc
000003d0: 9203 9f3d 5989 313d a038 83bd 8ce2 2e3d
000003e0: d5b0 bb3d 6ea2 fabd 3978 d7bc 631c 8ebd
000003f0: 36d0 673d cbe1 04bd 0423 0c3e 008e 4e3d

lstm.bias_ih_l0 f4 [256]
0.15694791 -0.053220704 0.1504985 -0.0011611314 -0.04472247 0.012478461 0.12265415 -0.06901887
0.089866675 -0.018261218 0.14766338 0.057159074 0.2693459 0.11798994 -0.010563393 -0.06988514
0.21504354 0.067996114 0.066448264 0.14537734 0.12556964 -0.025636088 0.08700061 0.13495067
0.30714205 -0.027422918 -0.057489112 -0.009143896 0.15907334 0.007857775 -0.008997486 -0.041249737
-0.066187285 0.046886913 0.13960913 0.29169118 0.0048614806 0.08768631 -0.071176946 0.113831446
0.11470712 -0.029616445 0.10325758 0.08303724 0.14100705 -0.005430655 0.09214899 -0.040789764
0.011698869 -0.063641466 0.2737061 0.18332478 0.06292811 0.16819695 0.16941911 0.10107196
-0.00962061 0.36475787 0.10437475 0.12799056 0.09108009 -0.0986693 0.0962691 0.09406756
0.047698874 -0.03559989 0.1089047 -0.038845353 0.01435212 0.05359038 0.03659741 0.11796912
0.13096552 0.0130154565 0.09310731 -0.017928327 0.17223455 0.13232397 0.1132661 -0.032807313
0.17818476 0.101562336 0.11179455 0.14027242 -0.018848024 -0.07896616 0.06705939 0.023736237
0.18780524 0.19652371 0.230031 0.09493879 0.0017331248 0.13639323 0.07184462 0.008864713
-0.01312834 0.09372023 0.05107067 0.23242943 -0.0036531896 0.1142487 0.059947766 0.07606438
-0.0049451855 0.082807735 0.1045603 0.05880304 0.05042573 0.10620343 0.055072494 0.029852612
0.09411236 0.0071091037 0.2374488 0.18178628 0.0076520257 0.20418221 0.061712544 0.106162794
0.18141647 -0.16047364 -0.014727901 -0.026345698 0.12129811 0.1567395 0.0793639 0.11491691
0.094657704 0.011962197 -0.23293093 -0.0949616 0.19737664 0.10759411 0.08618842 0.074803405
0.24501893 -0.06694808 -0.04384091 -0.00057601975 0.22281802 -0.18026847 -0.093928516 -0.120809026
0.109277494 0.19332066 -0.25697163 -0.07892235 0.044702645 -0.08121838 0.11515745 0.12879162
0.2678314 0.053828623 -0.13351956 -0.06643909 0.23834133 -0.099732146 0.21698259 -0.27873686
0.1779009 0.08850222 -0.07899168 0.04371702 -0.058209393 -0.12194987 -0.15303807 0.14361872
0.24666609 0.05566037 -0.07025992 -0.19872338 -0.17510709 -0.1556931 -0.09495955 0.24565843
-0.22121389 -0.04613056 -0.2068615 -0.12892717 -0.17045218 0.009023572 0.22500479 -0.1331899
0.057182476 -0.19112928 -0.04846597 0.014227923 0.020926729 -0.023869928 0.024997635 -0.09276947
0.2140373 0.3014292 0.2623171 0.04359044 0.09848204 0.19456264 0.33355457 0.24651802
0.115871765 0.1862792 0.27085063 0.20296717 0.25021818 0.18420294 0.26190823 0.28039238
0.14403532 0.291433 -0.15304522 0.27435398 0.23869494 0.24539153 0.14705841 0.16014937
-0.006218804 0.15945953 0.26691002 0.2588369 0.123358004 0.21596403 0.3081962 0.28388995
0.25104702 0.13090685 0.2888108 0.20883599 0.023474904 0.043585066 0.24922624 0.29683328
0.3500284 0.1405282 0.29511818 0.24226998 -0.14966492 0.25233024 0.11308882 0.2590756
0.104103155 -0.100879796 0.261617 0.2910725 0.28800392 0.13534294 0.19128071 0.3277507
0.2932655 0.33105677 0.25289482 0.23948489 0.13398583 0.15422222 0.1835259 0.08172819
00000000: f4b6 203e f4fd 59bd 471c 1a3e 1b31 98ba
00000010: e92e 37bd 7572 4c3c 1932 fb3d c459 8dbd
00000020: 050c b83d 8d98 95bc 1235 173e a21f 6a3d
00000030: b5e7 893e b6a4 f13d 1512 2dbc f11f 8fbd
00000040: 6034 5c3e 8c41 8b3d 0716 883d ccdd 143e
00000050: 5495 003e c602 d2bc 602d b23d 8230 0a3e
00000060: b941 9d3e 07a6 e0bc b479 6bbd 48d0 15bc
00000070: 1fe4 223e e6bd 003c 316a 13bc 7cf5 28bd
00000080: 338d 87bd 7e0c 403d b2f5 0e3e 8c58 953e
00000090: 0e4d 9f3b e194 b33d 38c5 91bd 7620 e93d
000000a0: 91eb ea3d 309e f2bc b678 d33d 6e0f aa3d
000000b0: 2764 103e a3f3 b1bb 9cb8 bc3d 2b13 27bd
000000c0: 9dac 3f3c 7556 82bd 3523 8c3e 7eb9 3b3e
000000d0: 74e0 803d d23b 2c3e 347c 2d3e d1fe ce3d
000000e0: c39f 1dbc 8bc1 ba3e 6ec2 d53d f50f 033e
000000f0: 3388 ba3d 2113 cabd bc28 c53d 7ea6 c03d
00000100: e55f 433d 31d1 11bd 6d09 df3d 4e1c 1fbd
00000110: 2825 6b3c 9681 5b3d 2ae7 153d cb99 f13d
00000120: d31b 063e c83e 553c 0caf be3d 6dde 92bc
00000130: 415e 303e ef7f 073e 0ff8 e73d f660 06bd
00000140: 1176 363e eaff cf3d 8bf4 e43d 93a3 0f3e
00000150: 2c67 9abc 03b9 a1bd 6f56 893d 7f72 c23c
00000160: 0450 403e 833d 493e 3f8d 6b3e 456f c23d
00000170: 052a e33a abaa 0b3e 4623 933d 4d3d 113c
00000180: 4018 57bc 64f0 bf3d 7b2f 513d fb01 6e3e
00000190: 5a6a 6fbb 39fb e93d ca8b 753d a4c7 9b3d
000001a0: 390b a2bb 1a97 a93d b623 d63d 75db 703d
000001b0: 368b 4e3d 2f81 d93d b293 613d 778d f43c
000001c0: fbbd c03d 7cf3 e83b c725 733e 2f26 3a3e
000001d0: d8bd fa3b 2415 513e 4bc6 7c3d e16b d93d
000001e0: 3dc5 393e 3453 24be 4b4d 71bc efd2 d7bc
000001f0: 256b f83d 5280 203e 8a89 a23d 8f59 eb3d
00000200: e6db c13d 17fd 433c 7285 6ebe 3a7b c2bd
00000210: 1a1d 4a3e 4d5a dc3d 8e83 b03d 8732 993d
00000220: 3ee6 7a3e 131c 89bd 8792 33bd 0800 17ba
00000230: 682a 643e 4c98 38be 985d c0bd b96a f7bd
00000240: e1cc df3d daf5 453e c991 83be 0ba2 a1bd
00000250: 1f1a 373d d255 a6bd abd7 eb3d f3e1 033e
00000260: 3221 893e 677b 5c3d 5ab9 08be 3811 88bd
00000270: c00f 743e 5e40 ccbd af30 5e3e 99b6 8ebe
00000280: a72b 363e a740 b53d 64c6 a1bd 9e10 333d
00000290: f96c 6ebd dac0 f9bd 03b6 1cbe c910 133e
000002a0: 0996 7c3e 21fc 633d 6fe4 8fbd 247e 4bbe
000002b0: 464f 33be 036e 1fbe 277a c2bd e28d 7b3e
000002c0: e585 62be 66f3 3cbd 80d3 53be 7c05 04be
000002d0: 048b 2ebe 9bd7 133c a867 663e ef62 08be
000002e0: 2c38 6a3d 65b7 43be 4184 46bd 3c1c 693c
000002f0: 886e ab3c de8a c3bc d7c7 cc3c ebfd bdbd
00000300: 982c 5b3e ee54 9a3e 6d4e 863e e48b 323d
00000310: f4b0 c93d 6e3b 473e aac7 aa3e 386f 7c3e
00000320: 2d4e ed3d f9bf 3e3e efac 8a3e a0d6 4f3e
00000330: 991c 803e b29f 3c3e d618 863e 978f 8f3e
00000340: ff7d 133e b536 953e e3b7 1cbe 2078 8c3e
00000350: 726c 743e eb47 7b3e 7b96 163e 32fe 233e
00000360: 1cc7 cbbb 5c49 233e 6ea8 883e 4586 843e
00000370: 1fa3 fc3d ad25 5d3e e4cb 9d3e 065a 913e
00000380: 3c89 803e 720c 063e 02df 933e 1ad9 553e
00000390: 714e c03c 4186 323d 2a35 7f3e 88fa 973e
000003a0: ec36 b33e a0e6 0f3e bb19 973e 9f15 783e
000003b0: c341 19be 6e31 813e 1c9b e73d 8fa5 843e
000003c0: 0934 d53d 119a cebd aaf2 853e 7407 953e
000003d0: 4075 933e 5797 0a3e 17df 433e f1ce a73e
000003e0: e526 963e 4680 a93e 6e7b 813e 873b 753e
000003f0: 9533 093e 6eec 1d3e 37ee 3b3e 1c61 a73d

lstm.bias_hh_l0 f4 [256]
0.054935798 -0.15467033 0.16032848 -0.07654847 0.16757299 -0.009220673 0.086026505 0.11453358
0.22932439 0.051171873 0.088555306 -0.07045062 0.2574436 0.060852304 -0.02723288 -0.038842913
0.059445307 0.13667408 0.09649446 0.028542582 0.018739749 -0.03266003 0.15943137 0.17196925
0.31268835 0.038717233 -0.040294178 0.06682755 0.18859135 -0.0744171 0.2111907 0.11860451
0.03759569 0.17331114 0.093382746 0.16914675 0.04107526 0.1644348 0.11196695 0.15192601
0.14579988 0.093118005 -0.06578186 0.07865829 0.12153081 0.046343375 -0.05475618 -0.039151244
0.06389384 0.08266769 0.24353322 0.20635335 0.057844732 0.017353524 0.20609155 0.048700962
0.09417102 0.53661126 -0.0060118865 0.020007398 -0.065356806 0.08080181 0.04455767 -0.048933618
0.066712745 0.0044313357 0.07578813 0.17730805 0.1750314 0.124240726 0.019381246 0.18689984
0.0912498 0.03845825 0.18593949 0.1629394 0.19476761 0.07894308 0.00495502 0.10474759
0.1339834 0.085011065 0.14434895 0.17531635 0.09085725 0.029027 0.18916954 0.024361253
0.23301095 0.0059994324 0.20821601 0.0920694 0.2222897 -0.008210633 0.16462745 0.10707334
0.12746723 -0.008846804 0.1550668 0.0530851 0.02894438 0.088732734 0.082016006 0.078473754
0.17596877 0.018041369 0.09008667 0.1688597 0.17774734 0.14317475 0.0346937 0.1804809
0.12600115 0.0540751 0.15710846 0.18134739 0.14289853 0.0073198425 -0.03306602 0.010327369
0.05008206 -0.08919694 0.16458346 -0.17986135 -0.036112305 0.06866278 0.057978828 0.05746096
0.15807591 -0.1057504 -0.1464708 -0.09901107 -0.030416774 -0.049502537 0.15752229 0.026827624
0.11136322 -0.035578243 0.08075024 0.12962347 0.28073755 -0.06271126 0.087496005 -0.04949932
0.24153185 0.109089784 -0.1480426 0.020667708 0.10470996 0.025158484 -0.055860914 0.2759625
0.27243432 -0.02248521 -0.1505977 -0.1492493 0.3612274 -0.12708578 0.26273385 -0.16975592
0.01067035 0.10637653 -0.04528956 0.21825786 -0.22323756 -0.18497969 -0.109783925 0.12381755
0.25047112 -0.13577199 -0.19486006 -0.034238607 -0.20755537 -0.13678315 -0.030411847 0.19997409
-0.18410502 0.105121195 -0.062325288 -0.1733546 -0.106812835 -0.20607667 0.0732897 -0.19972482
0.20556219 -0.30549306 -0.21312696 -0.04821654 -0.08240551 -0.045670293 0.1381639 0.112301
0.23319311 0.2104188 0.14335757 0.043372557 0.14843553 0.16606297 0.32799026 0.2947803
0.20424047 0.23839831 0.14139026 0.22533755 0.09059546 0.1934862 0.084278755 0.16538179
0.20092875 0.29172888 -0.0935373 0.10623257 0.2702167 0.082687184 0.18390702 0.24678232
-0.09281525 0.1339004 0.24101591 0.054678723 0.064423226 0.07828843 0.20206349 0.2812624
0.30111665 0.13135915 0.17405608 0.22443995 0.041749947 0.20996602 0.34077984 0.18097882
0.22829215 0.28929046 0.290142 0.18400846 -0.08336003 0.12698989 0.18889481 0.19923349
0.09969968 -0.07014068 0.17669122 0.07691675 0.20859787 0.30373636 0.14950027 0.13472837
0.085570544 0.30512935 0.16523087 0.26165643 0.10619987 0.18534106 0.2981436 0.25198478
00000000: 5c04 613d e661 1ebe 262d 243e 72c5 9cbd
00000010: 4198 2b3e 4e12 17bc aa2e b03d 9590 ea3d
00000020: 03d4 6a3e 9999 513d 7c5c b53d 6a48 90bd
00000030: a6cf 833e 4440 793d 7d17 dfbc bf19 1fbd
00000040: ec7c 733d 4af4 0b3e e39e c53d 22d2 e93c
00000050: 1a84 993c 86c6 05bd fa41 233e b518 303e
00000060: b018 a03e f695 1e3d 820b 25bd e2dc 883d
00000070: 171e 413e fe67 98bd 6042 583e ece6 f23d
00000080: f0fd 193d 7a78 313e 743f bf3d ce34 2d3e
00000090: 883e 283d 9961 283e ee4e e53d 7e92 1b3e
000000a0: 904c 153e a7b4 be3d a4b8 86bd 9917 a13d
000000b0: 25e5 f83d 8dd2 3d3d 0448 60bd 0e5d 20bd
000000c0: c6da 823d ae4d a93d c660 793e 4b4e 533e
000000d0: 99ee 6c3d fa28 8e3c aa09 533e a97a 473d
000000e0: bcdc c03d 5b5f 093f 5cff c4bb 8ee6 a33c
000000f0: cad9 85bd 6b7b a53d 1a82 363d 9e6e 48bd
00000100: b1a0 883d bd34 913b cf36 9b3d 3e90 353e
00000110: 6e3b 333e ec71 fe3d 6bc5 9e3c ac62 3f3e
00000120: 2de1 ba3d 6686 1d3d ec66 3e3e 96d9 263e
00000130: 2971 473e e9ac a13d b85d a23b e885 d63d
00000140: f232 093e 481a ae3d 36d0 133e 2186 333e
00000150: 5e13 ba3d 08ca ed3c a9b5 413e 4091 c73c
00000160: 6c9a 6e3e e396 c43b 9436 553e e28e bc3d
00000170: e99f 633e e485 06bc 1994 283e 4449 db3d
00000180: c586 023e 2ff2 10bc d5c9 1e3e c36f 593d
00000190: c41c ed3c 82b9 b53d 02f8 a73d d9b6 a03d
000001a0: 2831 343e 7ecb 933c 5c7f b83d 8fe9 2c3e
000001b0: 6603 363e 679c 123e fb1a 0e3d fccf 383e
000001c0: 7206 013e da7d 5d3d 0ae1 203e 21b3 393e
000001d0: fe53 123e 4adb ef3b 3c70 07bd 2034 293c
000001e0: d922 4d3d e3ac b6bd 9188 283e 932d 38be
000001f0: 7fea 13bd 129f 8c3d 357b 6d3d 2f5c 6b3d
00000200: a7de 213e aa93 d8bd 71fc 15be 51c6 cabd
00000210: 992c f9bc 2cc3 4abd 864d 213e 9bc5 db3c
00000220: 6612 e43d 7eba 11bd 6260 a53d 04bc 043e
00000230: d5bc 8f3e c36e 80bd 1b31 b33d cdbf 4abd
00000240: 2054 773e 776a df3d 7b98 17be 534f a93c
00000250: 2d72 d63d 2a19 ce3c 6ace 64bd f54a 8d3e
00000260: 837c 8b3e e732 b8bc 4936 1abe cfd4 18be
00000270: ccf2 b83e c622 02be 0d85 863e 7fd4 2dbe
00000280: b1d2 2e3c f0db d93d 8c81 39bd fd7e 5f3e
00000290: 6398 64be 516b 3dbe 65d6 e0bd 0e94 fd3d
000002a0: c03d 803e d007 0bbe 6589 47be c83d 0cbd
000002b0: 6589 54be e210 0cbe 4422 f9bc 02c6 4c3e
000002c0: 0786 3cbe c849 d73d cd48 7fbd de83 31be
000002d0: b0c0 dabd c305 53be e918 963d aa84 4cbe
000002e0: e57e 523e 9669 9cbe f43d 5abe b57e 45bd
000002f0: 38c4 a8bd c610 3bbd d67a 0d3e 11fe e53d
00000300: 2dca 6e3e 0778 573e 54cc 123e 6ca7 313d
00000310: 7cff 173e 690c 2a3e 57ee a73e 72ed 963e
00000320: 6a24 513e b01e 743e 9cc8 103e e3be 663e
00000330: 1d8a b93d 3f21 463e 579a ac3d d859 293e
00000340: 44c0 4d3e 7d5d 953e 7c90 bfbd 7690 d93d
00000350: d859 8a3e e657 a93d 1f52 3c3e 81b4 7c3e
00000360: ec15 bebd 301d 093e e0cc 763e ccf6 5f3d
00000370: 53f0 833d af55 a03d bbe9 4e3e a001 903e
00000380: f62b 9a3e 0383 063e c23b 323e 96d3 653e
00000390: fe01 2b3d 5501 573e b27a ae3e 8352 393e
000003a0: 6bc5 693e e11d 943e 7e8d 943e b76c 3c3e
000003b0: aab8 aabd a309 023e a46d 413e dd03 4c3e
000003c0: 592f cc3d eba5 8fbd 8bee 343e 8786 9d3d
000003d0: ae9a 553e 5583 9b3e 9916 193e 3cf6 093e
000003e0: 9c3f af3d ea39 9c3e 4832 293e d5f7 853e
000003f0: 517f d93d 0cca 3d3e 47a6 983e 2604 813e

fc.weight f4 [1, 64]
95.293465 -88.716866 -95.83591 -95.40975 94.97422 95.2264 95.73589 -95.06766
95.30473 -95.16822 95.26866 95.46817 95.65466 -95.74419 93.81703 -94.989395
95.513565 95.81531 -95.82999 -95.03587 95.17547 -94.82334 -94.1267 95.68881
95.766945 95.483246 -95.76672 -94.930084 97.0816 -94.94958 96.064354 -95.78667
94.720215 95.41523 -95.42416 95.60605 -95.52066 -95.73737 -95.83666 95.58591
95.80273 95.11304 -95.08129 -95.56876 -95.801765 -95.76296 -94.25001 95.6598
-95.20449 93.22735 -95.11142 -95.07549 -95.95574 -95.70488 95.07447 -95.78975
95.238914 -105.31014 -95.682755 88.1601 -94.22515 -95.62567 95.68292 -93.368004
00000000: 4196 be42 096f b1c2 fcab bfc2 cbd1 bec2
00000010: cdf2 bd42 eb73 be42 c778 bf42 a422 bec2
00000020: 069c be42 2156 bec2 8e89 be42 b4ef be42
00000030: 304f bf42 067d bfc2 52a2 bb42 92fa bdc2
00000040: f206 bf42 70a1 bf42 f4a8 bfc2 5e12 bec2
00000050: d759 be42 8da5 bdc2 df40 bcc2 ac60 bf42
00000060: ad88 bf42 6cf7 be42 9088 bfc2 34dc bdc2
00000070: c729 c242 2fe6 bdc2 f320 c042 c692 bfc2
00000080: c070 bd42 99d4 be42 2bd9 bec2 4c36 bf42
00000090: 940a bfc2 8979 bfc2 5fac bfc2 fc2b bf42
000000a0: ff9a bf42 e039 be42 9f29 bec2 3523 bfc2
000000b0: 819a bfc2 a386 bfc2 0180 bcc2 d151 bf42
000000c0: b368 bec2 6774 ba42 0c39 bec2 a726 bec2
000000d0: 57e9 bfc2 e668 bfc2 2126 be42 5a94 bfc2
000000e0: 537a be42 cb9e d2c2 925d bfc2 f951 b042
000000f0: 4773 bcc2 5840 bfc2 a85d bf42 6bbc bac2
