LSTM_MODEL/PERSISTENT_model.pt (torch, 89427 bytes, 5 tensors)

lstm.weight_ih_l0 f4 [256, 19]
0.123876475 0.16064546 -0.0304396 0.048163444 0.06381278 -0.065703034 0.10073407 0.055526428
0.09210083 0.2102861 0.05188028 0.033105705 0.20559214 0.097373165 0.13062155 0.036888562
0.02856435 0.20559438 0.13400534 0.14985386 0.019119157 -0.0033777654 0.04899995 0.03855394
-0.048996106 -0.04632938 0.15457566 0.11755532 0.011586335 0.014046697 0.07633903 0.058741726
0.0014216303 0.05973148 0.0076342905 0.08942601 0.18397608 0.13875812 0.1934165 0.19645256
-0.011039689 0.04418038 0.111227915 0.12349743 0.08431174 0.05637068 0.056262776 0.00018472514
0.02975277 0.21356888 0.17944936 0.011885849 0.10767801 0.09119379 0.10159662 0.069266945
0.16097666 0.11826246 0.06931847 -0.11140388 0.06302722 0.09311037 0.054785535 -0.07579823
0.03292144 -0.018367333 0.03858585 0.04248631 0.07677813 0.043567374 0.05828298 0.16046456
0.06007968 0.20136847 0.04871821 -0.008143222 -0.27362204 -0.21793179 0.09434751 0.12190567
0.0032796264 0.0028748065 -0.0837249 -0.21335909 -0.14312819 -0.13064283 -0.17300424 -0.14911808
-0.38386562 -0.19808975 -0.30184796 -0.32537618 -0.16401489 -0.22348838 -0.063767135 0.17997481
0.033857398 0.11564383 -0.10738221 -0.058579326 0.052284464 -0.08449805 0.073808946 0.020044453
0.033911146 -0.00014689696 0.17464085 0.061117206 0.058959357 -0.01706999 0.19348945 0.12641896
0.17531212 0.007622078 -0.01981043 0.03872865 -0.112944424 -0.020505413 0.008137271 -0.028068379
-0.118948385 0.21883914 0.08586941 0.15421638 0.012219367 0.11230513 -0.0017944832 0.15673672
0.11050864 0.035910435 -0.027269883 0.14482978 0.01997131 0.21990201 0.20223245 -0.06358664
0.059204444 0.10059796 0.06243214 -0.0019705892 -0.0067772097 0.0034680213 0.04065232 0.11492485
0.08926014 0.1342231 0.024362104 0.1554663 0.1972172 0.10273305 0.05454186 0.07076211
0.016695153 0.21343781 -0.12102388 0.11859587 0.04037538 -0.03326121 0.082399786 0.12619716
0.20401154 -0.0068724775 0.18983229 0.031434383 0.05561311 0.13507263 0.16245952 0.03866573
0.21784784 0.1261603 0.04758922 0.18241622 0.006367616 0.08647862 0.10052602 0.10138865
0.04479283 -0.110462576 0.15154208 0.06714714 0.017123507 0.19076422 0.06856876 0.06923102
0.23112069 0.1583955 0.14340524 0.1820264 0.060204323 0.17660469 -0.015477061 0.0063054343
0.07987189 -0.066410646 -0.02353336 0.08515811 -0.05051647 0.20177945 0.00018335995 0.09287083
-0.015819719 0.19108117 0.18409176 -0.004430265 0.06870814 0.18111703 0.15891778 -0.012832599
0.047969487 0.26236367 0.28179362 -0.089105785 -0.01642415 -0.0285462 -0.07318051 0.093266875
0.14775114 0.21552 0.31393188 0.2266366 0.30957186 0.10105745 0.12543909 0.28585315
0.24294558 0.15832905 0.27776536 0.3448892 0.16686398 0.19440332 0.026455179 -0.1139293
0.011658713 -0.07301937 -0.07758184 0.013243237 0.1409544 0.10100718 0.009755093 0.15835267
0.17567258 0.02397899 0.15674211 0.07308142 0.049843524 0.10562624 0.02621107 0.15266688
0.1494038 -0.056515634 0.0081314 0.030075505 -0.0758754 0.085648835 -0.0236717 0.2302973
00000000: f3b2 fd3d 3e80 243e 785c f9bc 0847 453d
00000010: 46b0 823d 508f 86bd aa4d ce3d ae6f 633d
00000020: 5c9f bc3d 3d55 573e 6b80 543d d999 073d
00000030: bf86 523e 956b c73d a8c1 053e 7618 173d
00000040: c9ff e93c 5587 523e b238 093e 4a73 193e
00000050: c79f 9c3c 805d 5dbb 2cb4 483d bcea 1d3d
00000060: 24b0 48bd e0c3 3dbd 1549 1e3e d8c0 f03d
00000070: 9cd4 3d3c 1e24 663c a357 9c3d 2a9b 703d
00000080: ff55 ba3a ffa8 743d 1229 fa3b fc24 b73d
00000090: 3a64 3c3e 9c16 0e3e fa0e 463e dc2a 493e
000000a0: d0df 34bc 7cf6 343d 76cb e33d 38ec fc3d
000000b0: a2ab ac3d f1e4 663d cc73 663d c7b2 4139
000000c0: 15bc f33c cdb1 5a3e 93c1 373e ddbc 423c
000000d0: 4a86 dc3d cfc3 ba3d e411 d03d d4db 8d3d
000000e0: 11d7 243e 9733 f23d d8f6 8d3d b827 e4bd
000000f0: 6a14 813d a6b0 be3d cc66 603d 1a3c 9bbd
00000100: a2d8 063d 1777 96bc 320c 1e3d 2006 2e3d
00000110: da3d 9d3d b473 323d 22ba 6e3d d250 243e
00000120: 1c16 763d 8933 4e3e bf8c 473d 266b 05bc
00000130: 3018 8cbe 8329 5fbe 4439 c13d aea9 f93d
00000140: 00ef 563b 4067 3c3b f677 abbd ce7a 5abe
00000150: 3290 12be 3cc7 05be 0628 31be 69b2 18be
00000160: 098a c4be 0ad8 4abe d18b 9abe b597 a6be
00000170: 85f3 27be 23da 64be 5898 82bd 514b 383e
00000180: 0eae 0a3d acd6 ec3d 34eb dbbd e0f0 6fbd
00000190: 3c28 563d 500d adbd 2529 973d 4434 a43c
000001a0: 6ae6 0a3d 5a08 1ab9 0dd5 323e 0956 7a3d
000001b0: 5e7f 713d 5dd6 8bbc 1922 463e f973 013e
000001c0: 0585 333e a0c2 f93b 7c49 a2bc efa1 1e3d
000001d0: 684f e7bd f8fa a7bc 3052 053c a8ef e5bc
000001e0: 369b f3bd 5e17 603e 4ddc af3d e6ea 1d3e
000001f0: bd33 483c 3b00 e63d dd34 ebba 977f 203e
00000200: 5b52 e23d d216 133d 1765 dfbc 424e 143e
00000210: df9a a33c fe2d 613e 0616 4f3e b639 82bd
00000220: 5c80 723d 4e06 ce3d d8b8 7f3d 0025 01bb
00000230: 5b13 debb be47 633b 0c83 263d b85d eb3d
00000240: 05ce b63d c871 093e 0993 c73c 8f32 1f3e
00000250: 4ef3 493e b565 d23d 4967 5f3d baeb 903d
00000260: 46c4 883c 718f 5a3e 5edb f7bd 64e2 f23d
00000270: a860 253d e83c 08bd 38c1 a83d d439 013e
00000280: 67e8 503e 8532 e1bb 6563 423e 57c1 003d
00000290: 93ca 633d 7b50 0a3e ca5b 263e f55f 1e3d
000002a0: 8113 5f3e 2a30 013e eaec 423d 51cb 3a3e
000002b0: 6fa7 d03b b41b b13d 96e0 cd3d daa4 cf3d
000002c0: b078 373d 343a e2bd d92d 1b3e 7184 893d
000002d0: 9946 8c3c b257 433e c76d 8c3d fec8 8d3d
000002e0: e7aa 6c3e 6e32 223e d3d8 123e 2165 3a3e
000002f0: cf98 763d dcd7 343e 8093 7dbc d19d ce3b
00000300: e093 a33d 4e02 88bd 08c9 c0bc 6067 ae3d
00000310: 5cea 4ebd 469f 4e3e 5044 4039 1033 be3d
00000320: 5b98 81bc c8aa 433e 8d82 3c3e c22b 91bb
00000330: dab6 8c3d be76 393e 58bb 223e d23f 52bc
00000340: a77b 443d 8854 863e 4147 903e 187d b6bd
00000350: f08b 86bc b8d9 e9bc aadf 95bd b402 bf3d
00000360: 134c 173e 46b1 5c3e aebb a03e 6d13 683e
00000370: 3480 9e3e 35f7 ce3d 1b73 003e 585b 923e
00000380: bac6 783e 0321 223e 4337 8e3e 5195 b03e
00000390: 64de 2a3e aa11 473e 88b8 d83c c453 e9bd
000003a0: 3004 3f3c 2e8b 95bd 3ae3 9ebd 29fa 583c
000003b0: 5a56 103e dadc ce3d d3d3 1f3c 3427 223e
000003c0: 83e3 333e 966f c43c 0181 203e b6ab 953d
000003d0: b928 4c3d 9252 d83d 99b8 d63c b554 1c3e
000003e0: 4ffd 183e f07c 67bd 9039 053c e860 f63c
000003f0: 9064 9bbd a868 af3d 27eb c1bc 0ed3 6b3e

lstm.weight_hh_l0 f4 [256, 64]
-0.021715013 -0.109647885 0.13228685 0.008407776 -0.064249784 0.21457721 0.016744412 0.14211713
0.08248953 0.050512742 0.004624339 -0.01152271 0.089975506 -0.21087778 -0.14445372 0.18515569
-0.038030624 -0.020125236 -0.14073887 0.011276358 0.026337205 0.19871058 0.17741533 0.1900927
0.059903916 -0.11943396 0.156418 0.052876167 0.10873638 0.0524417 0.07374411 -0.05184836
0.027143735 0.112356216 0.07872358 0.1551848 0.02146936 -0.083497696 -0.013707195 -0.07578176
-0.07178531 -0.07152674 0.017157173 0.09414958 -0.08049572 0.18692379 0.0018891745 0.12230835
-0.0543154 0.024801524 0.11189848 -0.026689753 0.15340759 0.12895249 -0.16679887 0.033918247
0.15942886 0.21501952 0.13978864 0.09177123 -0.06773163 -0.11981017 0.090931505 -0.039808035
-0.24013202 0.103441544 0.20657417 0.056774482 -0.050241157 0.047284544 -0.13422693 0.21247342
0.25023034 0.08403032 0.09887164 0.015172037 0.100199535 -0.099437885 -0.21647505 0.27009496
-0.18595187 0.26596564 -0.19535673 0.21706875 0.020115994 0.22590506 0.10166017 0.24202849
0.047589276 -0.18245526 0.1984425 0.027789032 0.09293918 -0.07321319 0.04390798 -0.0507066
-0.1801398 0.036317885 0.20867562 0.16783059 0.13440788 0.098832116 -0.055797417 -0.02147302
-0.04262563 -0.044601638 0.06034154 0.074732475 -0.014248521 0.007831798 0.08172755 0.049305543
-0.146358 0.19127604 0.14887068 0.17836918 0.058358062 0.15751056 -0.115623675 -0.21307151
0.037019685 0.23389472 0.030244628 0.15552576 0.019473944 0.20731519 0.21898635 -0.14940344
-0.089585 -0.010895607 0.23654975 0.24207191 -0.020903623 0.032114077 -0.24003346 0.21416712
0.27789733 0.005510399 -0.0011949809 0.18299975 0.08526925 -0.089993365 -0.041987974 0.15479669
-0.035244614 0.18822101 -0.039995056 0.043514203 0.08001387 0.11173292 0.16140665 0.17757472
0.09181792 -0.11526814 0.23478875 -0.019214857 -0.007326679 -0.23921914 0.044624068 -0.12808785
-0.0552715 -0.015021021 0.26911798 -0.009861496 0.15970136 0.06992159 -0.16436794 -0.05700998
-0.013499007 -0.16843055 0.05428534 0.008665114 -0.1728491 0.11527214 0.15911287 0.13665643
-0.021483397 0.15936044 0.13103491 0.19065408 0.19405605 0.10813454 0.017435297 -0.23385964
0.10829602 0.07386395 -0.010478082 0.08024348 0.040269006 0.20302466 0.071878485 -0.2115484
-0.14866076 0.042867333 0.23463738 0.10182211 -0.009644108 0.111173965 -0.23547484 0.18971868
0.15349254 0.14518432 0.06673764 0.17088057 0.16697885 -0.04971231 -0.11383077 0.17591467
-0.016063847 0.16861445 -0.09338033 0.19620126 0.12968504 0.060258854 0.057614233 0.21039024
0.13685553 0.00796802 0.26034513 0.013385426 0.13270289 -0.14252345 -0.022813864 0.010438699
-0.1819601 0.17383175 0.22279178 0.1891426 0.21930517 0.16160122 0.009597529 -0.045075223
-0.1926901 -0.13554181 0.09080678 0.07289831 -0.18664537 0.14534615 -0.01754153 0.00803894
-0.2001416 0.14079714 0.026933935 0.044295136 0.14095291 0.061349466 -0.031563308 -0.0206959
0.17150517 0.056076307 0.14088917 0.06756764 -0.10526106 0.17919317 0.047462035 -0.17076677
00000000: afe3 b1bc 128f e0bd 3476 073e c5c0 093c
00000010: 6495 83bd 21ba 5b3e 942b 893c 2787 113e
00000020: 45f0 a83d 73e6 4e3d c487 973b c0c9 3cbc
00000030: 1445 b83d 58f0 57be adeb 13be 7499 3d3e
00000040: 00c6 1bbd aedd a4bc da1d 10be 79c0 383c
00000050: 1fc1 d73c c97a 4b3e 5dac 353e a9a7 423e
00000060: cf5d 753d cb99 f4bd 0a2c 203e ae94 583d
00000070: 2eb1 de3d 1ccd 563d 2707 973d f25e 54bd
00000080: 8a5c de3c 041b e63d d439 a13d c4e8 1e3e
00000090: 83e0 af3c d700 abbd 2594 60bc 7833 9bbd
000000a0: 2d04 93bd 9d7c 92bd 338d 8c3c 7fd1 c03d
000000b0: f1da a4bd f368 3f3e 2d9e f73a cd7c fa3d
000000c0: d379 5ebd 912c cb3c 082b e53d 78a4 dabc
000000d0: e116 1d3e 1f0c 043e 53cd 2abe dced 0a3d
000000e0: 5241 233e 142e 5c3e c124 0f3e 8ef2 bb3d
000000f0: e1b6 8abd 095f f5bd 4c3a ba3d c00d 23bd
00000100: 2be5 75be 29d9 d33d 2e88 533e 5c8c 683d
00000110: acc9 4dbd 70ad 413d c972 09be a292 593e
00000120: 311e 803e 1718 ac3d 377d ca3d 2394 783c
00000130: 6a35 cd3d 17a6 cbbd a3ab 5dbe e349 8a3e
00000140: 2b6a 3ebe a62c 883e 980b 48be 4547 5e3e
00000150: 4cca a43c a853 673e 3533 d03d 51d6 773e
00000160: f9ec 423d 8dd5 3abe 8334 4b3e d3a5 e33c
00000170: e656 be3d ccf0 95bd dbd8 333d b9b1 4fbd
00000180: 9176 38be 10c2 143d 10af 553e c8db 2b3e
00000190: 38a2 093e 7e68 ca3d d58b 64bd 30e8 afbc
000001a0: 3698 2ebd 35b0 36bd b128 773d 570d 993d
000001b0: a172 69bc f150 003c c660 a73d 9cf4 493d
000001c0: dfde 15be dedd 433e 8e71 183e 69a6 363e
000001d0: dd08 6f3d 734a 213e 1bcc ecbd 6b2f 5abe
000001e0: f4a1 173d 1982 6f3e 95c3 f73c 2542 1f3e
000001f0: d287 9f3c 6f4a 543e f53d 603e 37fd 18be
00000200: 5778 b7bd 7d83 32bc 193a 723e b3e1 773e
00000210: 133e abbc 0d8a 033d 55cb 75be a04e 5b3e
00000220: 8f48 8e3e 9490 b43b e8a0 9cba 4964 3b3e
00000230: a5a1 ae3d 714e b8bd 95fb 2bbd 0683 1e3e
00000240: a85c 10bd 02bd 403e dbd1 23bd f33b 323d
00000250: 50de a33d 3bd4 e43d c947 253e 26d6 353e
00000260: 090b bc3d b411 ecbd 766c 703e 7a68 9dbc
00000270: a314 f0bb ddf5 74be bac7 363d 7629 03be
00000280: 5e64 62bd ba1a 76bc d5c9 893e 1d92 21bc
00000290: c188 233e 0d33 8f3d 1250 28be 4c83 69bd
000002a0: f02a 5dbc 0f79 2cbe 4e5a 5e3d 1ff8 0d3c
000002b0: 5bff 30be cd13 ec3d 7cee 223e aaef 0b3e
000002c0: f3fd afbc 622f 233e 042e 063e d33a 433e
000002d0: a1b6 463e a475 dd3d 78d4 8e3c e778 6fbe
000002e0: 4eca dd3d fc45 973d 43ac 2bbc b256 a43d
000002f0: 1df1 243d b2e5 4f3e 0735 933d 25a0 58be
00000300: 873a 18be a895 2f3d c844 703e 1c88 d03d
00000310: 5202 1ebc 2daf e33d 5120 71be 9d45 423e
00000320: 262d 1d3e 33ab 143e bead 883d 51fb 2e3e
00000330: 81fc 2a3e 239f 4bbd 1b20 e9bd fa22 343e
00000340: 5498 83bc 44a9 2c3e 303e bfbd fce8 483e
00000350: 28cc 043e fdd1 763d e7fc 6b3d 8a70 573e
00000360: db23 0c3e 4c8c 023c f54b 853e 8c4e 5b3c
00000370: 44e3 073e abf1 11be 24e4 babc 1407 2b3c
00000380: c053 3abe f300 323e 8723 643e 99ae 413e
00000390: 8991 603e ca7a 253e f43e 1d3c cca0 38bd
000003a0: 8e50 45be 79cb 0abe e8f8 b93d b64b 953d
000003b0: f71f 3fbe 9fd5 143e 41b3 8fbc c2b5 033c
000003c0: ebf1 4cbe 202d 103e 8ea4 dc3c d16e 353d
000003d0: f655 103e 9449 7b3d 8748 01bd 738a a9bc
000003e0: 0d9f 2f3e 45b0 653d 4045 103e e760 8a3d
000003f0: 1c93 d7bd 6a7e 373e 8d67 423d 7cdd 2ebe

lstm.bias_ih_l0 f4 [256]
0.14489974 0.11746283 -0.011677443 0.17215328 -0.20354253 0.070634976 0.1149728 0.06606015
0.1355949 0.22300301 0.06759223 0.2905965 0.07827223 0.021219254 0.21764283 0.20180984
0.13706669 0.11063541 0.14185058 0.16745579 -0.008895038 0.035571165 0.045192253 0.13659777
0.21933624 0.067765445 -0.043272726 0.35431612 -0.006272442 0.10241886 0.37022522 0.02404511
0.12778866 0.020044282 0.055223413 0.11524455 0.2023168 0.08259133 0.15375388 0.1505474
-0.020048222 0.10080164 0.18214777 0.07173229 0.0006487953 0.08614053 0.14019375 0.08595974
0.18327838 0.06373172 0.16077006 0.059621096 0.10580936 -0.029657932 0.13172115 0.1356694
0.116588175 0.14155495 -0.015158307 0.21165095 -0.18905434 0.1161417 0.20289634 0.04275109
0.1031661 -0.009353192 0.10138557 -0.0077100927 -0.006439201 0.09125496 0.10643869 0.009106159
0.1466121 0.13933648 0.1464857 0.16409117 0.046701413 0.028231502 0.071683146 0.1067124
0.124058604 0.006582135 0.11345722 0.08749165 0.07050394 0.09130073 0.13103223 0.06876859
-0.026646499 0.117937215 0.031869344 0.32230905 0.1939962 0.20016666 0.29818916 0.06812531
0.068191566 -0.009462173 0.03654775 0.06206546 0.101711765 0.016604312 0.17997071 0.12636805
0.02531385 0.030593093 0.1784394 0.17867072 0.15361813 0.06254589 -0.0039141327 0.09987954
0.06832157 0.110942364 0.0013554696 -0.0057535283 0.18778926 -0.015211972 0.051536597 -0.05045208
0.22427185 0.16313566 0.004746858 0.004660651 -0.1391093 -0.051928565 0.104106575 0.07912769
-0.14021268 0.087479815 0.15013035 0.020990148 0.038287688 0.11328325 -0.03915963 0.19861886
-0.0024037065 0.15060583 0.14567173 -0.011237535 0.07304354 -0.14179096 -0.192687 0.12081143
-0.18509966 0.1761155 -0.16864005 0.014735903 0.18917228 0.21812104 0.14491923 0.043132577
0.047760528 -0.12731257 0.12128663 0.0784697 0.09893753 -0.07245397 0.01009283 -0.14172131
-0.14394298 0.22045761 -0.019240512 0.13987836 0.18115821 0.043690734 -0.14445439 -0.059330348
-0.017013777 -0.113852255 0.23401715 0.1871915 -0.2291288 -0.011392642 0.17516333 0.23062783
-0.069133475 0.16372241 0.12943937 0.13004075 0.10456548 0.11654947 -0.17135833 0.054293994
0.23696208 0.18494381 0.108778276 0.2056217 -0.07110689 -0.01578737 0.039800417 -0.09433618
0.27278718 0.17151226 0.061362233 0.2530827 -0.19942696 0.21181247 0.081078306 0.053136777
0.1246349 0.12065219 0.19407642 0.35238588 0.07312727 0.098480806 0.2608653 0.21110429
0.1894623 0.11190589 0.13780954 0.29059196 0.19945484 0.30998233 0.15929426 0.09258777
0.052284673 0.15746757 0.19183321 0.2435898 0.0744031 0.13034901 0.43299517 0.23909941
0.049815767 0.13577561 0.1606441 0.23055452 0.15113465 0.16276968 0.28881687 0.11933991
0.2423097 0.21911779 0.24439317 0.07721501 0.25444388 0.25841367 0.1865037 0.27358812
0.10109817 0.13336846 0.08500416 0.09831977 0.2289729 0.24947539 0.14551835 0.043767303
0.30724502 0.2601712 0.054648377 0.066398695 -0.055494517 0.050352074 0.14569624 0.04899664
00000000: 9960 143e 5a90 f03d bf52 3fbc f348 303e
00000010: 746d 50be 12a9 903d dc76 eb3d 8b4a 873d
00000020: 64d9 0a3e e75a 643e cc6d 8a3d 10c9 943e
00000030: 314d a03d 00d4 ad3c c3dd 5e3e 3da7 4e3e
00000040: 365b 0c3e d194 e23d 4741 113e 8879 2b3e
00000050: 7ebc 11bc 12b3 113d 831b 393d 49e0 0b3e
00000060: ae99 603e 9cc8 8a3d be3e 31bd ec68 b53e
00000070: 0f89 cdbb fbc0 d13d 298e bd3e 40fa c43c
00000080: 08db 023e e833 a43c f231 623d 5605 ec3d
00000090: 232c 4f3e a525 a93d a871 1d3e 1929 1a3e
000000a0: 2b3c a4bc 1771 ce3d f284 3a3e 61e8 923d
000000b0: ea13 2a3a 726a b03d f38e 0f3e a90b b03d
000000c0: 54ad 3b3e c785 823d e8a0 243e 4035 743d
000000d0: 94b2 d83d 31f5 f2bc e9e1 063e ebec 0a3e
000000e0: c8c5 ee3d c8f3 103e 8c5a 78bc 07bb 583e
000000f0: 7697 41be b3db ed3d 0fc4 4f3e c41b 2f3d
00000100: c048 d33d 213e 19bc 3da3 cf3d f2a4 fcbb
00000110: efff d2bb e1e3 ba3d 87fc d93d 0032 153c
00000120: 7b21 163e 39ae 0e3e 5900 163e 8407 283e
00000130: fb49 3f3d c045 e73c 9dce 923d 088c da3d
00000140: 7012 fe3d f3ae d73b 425c e83d d22e b33d
00000150: 5f64 903d e1fb ba3d 502d 063e 8cd6 8c3d
00000160: c249 dabc 1189 f13d 6e89 023d b105 a53e
00000170: f1a6 463e 7df8 4c3e 40ac 983e 4885 8b3d
00000180: 05a8 8b3d 3b07 1bbc 18b3 153d 5a38 7e3d
00000190: 424e d03d c405 883c 3e4a 383e a066 013e
000001a0: fe5e cf3c 5e9e fa3c d1b8 363e 75f5 363e
000001b0: 124e 1d3e 0f18 803d 2042 80bb a58d cc3d
000001c0: 2eec 8b3d c035 e33d 03aa b13a 1888 bcbb
000001d0: d44b 403e a33b 79bc 0a18 533d d7a6 4ebd
000001e0: 85a7 653e 090d 273e 888b 9b3b 60b8 983b
000001f0: ab72 0ebe 0cb3 54bd d435 d53d b30d a23d
00000200: ea93 0fbe 9e28 b33d c5bb 193e 88f3 ab3c
00000210: 8dd3 1c3d 0c01 e83d d965 20bd be62 4b3e
00000220: 8187 1dbb 6a38 1a3e f82a 153e a31d 38bc
00000230: da97 953d a631 11be be4f 45be fc6b f73d
00000240: c48a 3dbe 9f57 343e faaf 2cbe db6e 713c
00000250: 61b6 413e 1f5b 5f3e b565 143e c9ab 303d
00000260: 8ba0 433d 3a5e 02be 2065 f83d b9b4 a03d
00000270: c29f ca3d bf62 94bd 665c 253c 641f 11be
00000280: ca65 13be a4bf 613e 479e 9dbc 463c 0f3e
00000290: 8a81 393e 0ef5 323d daeb 13be 6104 73bd
000002a0: 7a60 8bbc 5f2b e9bd 31a2 6f3e 21af 3f3e
000002b0: bda0 6abe 34a8 3abc 045e 333e b429 6c3e
000002c0: da95 8dbd d9a6 273e c18b 043e 6729 053e
000002d0: 6d26 d63d 7db1 ee3d 8f78 2fbe 6163 5e3d
000002e0: 30a6 723e e961 3d3e 25c7 de3d 7f8e 523e
000002f0: 7da0 91bd 8454 81bc c305 233d 5433 c1bd
00000300: c3aa 8b3e e9a0 2f3e f756 7b3d 0e94 813e
00000310: 9536 4cbe 5ee5 583e 620c a63d f3a5 593d
00000320: 9540 ff3d 7f18 f73d f8bb 463e ec6b b43e
00000330: c0c3 953d 4eb0 c93d 2390 853e b92b 583e
00000340: 6802 423e ea2e e53d f21d 0d3e 78c8 943e
00000350: e43d 4c3e 01b6 9e3e 091e 233e a89e bd3d
00000360: 7428 563d 2e3f 213e ed6f 443e 9b6f 793e
00000370: a760 983d 367a 053e 8bb1 dd3e 7ad6 743e
00000380: 9e0b 4c3d c308 0b3e e37f 243e 7c16 6c3e
00000390: 0bc3 1a3e 18ad 263e cedf 933e 7c68 f43d
000003a0: 0920 783e 6a60 603e 3442 7a3e e722 9e3d
000003b0: 7846 823e cc4e 843e d3fa 3e3e be13 8c3e
000003c0: 8f0c cf3d be91 083e a916 ae3d e05b c93d
000003d0: df77 6a3e 7a76 7f3e c302 153e 5845 333d
000003e0: 384f 9d3e 2935 853e fad6 5f3d 0afc 873d
000003f0: 384e 63bd fa3d 4e3d 6531 153e b3b0 483d

lstm.bias_hh_l0 f4 [256]
0.16671221 0.19136842 0.09585825 0.14730857 0.0027517423 0.16697788 0.1344283 0.08456656
0.058938377 0.1891066 0.005282029 0.21806988 0.07223049 0.22651666 0.18860225 0.16655292
0.21349956 0.17232247 -0.0037759528 0.09358173 -0.013662619 -0.0056589325 0.06962279 0.09722084
0.11396923 0.035065856 -0.0056783655 0.38203534 0.052334465 0.20925309 0.4583548 -0.02292468
0.07734376 0.07419434 0.028795794 0.12671025 0.07811318 0.11932262 0.17575541 0.064210355
0.07322287 0.14607614 0.044961784 0.13300776 0.061791494 0.04701482 0.123999745 0.09625005
0.22170444 0.15532584 0.07998351 0.012943488 -0.023924118 0.09597382 0.16015251 0.112371065
0.04725749 0.16269583 0.02010205 0.018686736 -0.16058175 0.061913732 0.11521787 0.03852028
0.09507018 0.09944437 -0.0034923905 0.029003417 -0.04237248 0.09632509 0.09727187 0.12398398
0.09552958 0.13310891 0.193097 0.0983309 0.106234714 0.1652379 0.026922975 0.0076555223
0.0064977156 -0.008722177 0.096928 0.20983382 0.11226792 -0.006010181 0.012637389 0.20982176
0.08731599 0.03504305 -0.043826886 0.39162865 0.07523298 0.17121546 0.3850144 0.07834714
0.21443982 0.0692901 0.13520713 0.15338355 -0.0033163296 0.10102027 0.001787219 0.12370156
-0.0073536816 0.16064608 0.17212445 -0.0007669303 0.15465778 0.22694947 0.17801435 0.098614015
0.14756887 0.19526641 0.08981666 -0.0028271035 0.030219836 0.18000753 0.16848792 0.09898159
0.16778897 0.20859052 0.082847595 0.16547628 -0.2054369 -0.008055082 0.15276639 0.06055296
-0.18048494 0.13032664 0.057408318 0.04787115 0.06905381 0.17031595 -0.056107137 0.21169843
0.14006881 0.109563105 0.18118356 0.15432459 0.109630875 -0.1629954 -0.23358811 0.0030969318
-0.1328325 0.042310707 -0.057341795 0.15589224 0.17789292 0.121723585 0.058615115 0.18181135
0.025929242 -0.16335036 0.08437865 0.11440396 0.16804527 -0.18205178 0.021057077 -0.061800137
-0.23372886 0.19268043 0.07856516 0.18244894 0.018027663 0.20260896 -0.10430387 -0.21525076
-0.18183467 0.06535416 0.18429998 0.14628416 -0.13768324 0.20464635 0.15364735 0.04830953
-0.21938923 0.1311789 0.17864744 0.14746137 -0.043238144 0.07130224 -0.102922216 -0.17689888
0.23764355 0.12083276 0.18774088 0.23644572 0.0885277 -0.04455903 0.22702466 -0.22621447
0.19760162 0.17273706 0.199416 0.18937527 0.0105544645 0.28880164 0.26671222 0.24743174
0.09060644 0.18094045 0.27196097 0.38001195 0.09632702 0.0983261 0.29504165 0.2146021
0.14248486 0.18339919 0.31155786 0.13021155 0.12459002 0.21305053 0.15170589 0.28169674
0.25685602 0.22297423 0.11917441 0.328043 0.16648643 0.3067715 0.4032626 0.07646764
0.116157785 0.08486268 0.14119643 0.21420804 0.19788907 0.22245125 0.12276997 0.24117458
0.08970757 0.15134393 0.13285951 0.27992246 0.14631443 0.2806261 0.18455686 0.29037312
0.14349964 0.13457616 0.25849527 0.17076625 0.17250015 0.11878655 0.09005592 0.09833095
0.05781362 0.1264442 0.21993297 0.06341612 -0.2361977 0.112388745 0.15449932 0.08758758
00000000: 9bb6 2a3e 15f6 433e 5551 c43d 0fd8 163e
00000010: 9356 343b 40fc 2a3e 93a7 093e 3c31 ad3d
00000020: 5e69 713d 29a5 413e df14 ad3b b64d 5f3e
00000030: 94ed 933d fcf3 673e f320 413e d98c 2a3e
00000040: a19f 5a3e 4d75 303e fa75 77bb c7a7 bf3d
00000050: 2dd9 5fbc 916e b9bb 6596 8e3d b81b c73d
00000060: b368 e93d 37a1 0f3d 9511 babb 239a c33e
00000070: aa5c 563d 7146 563e 7bad ea3e 8acc bbbc
00000080: 6866 9e3d 34f3 973d 28e5 eb3c 55c0 013e
00000090: cef9 9f3d 6b5f f43d 3af9 333e b880 833d
000000a0: dff5 953d fc94 153e d929 383d 3033 083e
000000b0: 1419 7d3d 9d92 403d 94f3 fd3d bf1e c53d
000000c0: 7d06 633e bd0d 1f3e 65ce a33d ec10 543c
000000d0: 83fc c3bc ec8d c43d 05ff 233e cd22 e63d
000000e0: 1291 413d bc99 263e 0ead a43c ed14 993c
000000f0: 8b6f 24be 4199 7d3d 59f7 eb3d 71c7 1d3d
00000100: 28b4 c23d 7da9 cb3d 97e0 64bb 9398 ed3c
00000110: c48e 2dbd 1746 c53d 7936 c73d 50eb fd3d
00000120: 03a5 c33d b44d 083e 38bb 453e b661 c93d
00000130: 9691 d93d 2034 293e 928d dc3c 2ddb fa3b
00000140: caea d43b 76e7 0ebc 3082 c63d adde 563e
00000150: b9ec e53d 0df1 c4bb 0d0d 4f3c 84db 563e
00000160: bad2 b23d 4d89 0f3d d283 33bd 8d83 c83e
00000170: c013 9a3d 1b53 2f3e 9c20 c53e 7774 a03d
00000180: 1d96 5b3e f8e7 8d3d bd73 0a3e 9410 1d3e
00000190: c756 59bb b7e3 ce3d 1e41 ea3a 3e57 fd3d
000001a0: 27f7 f0bb 6880 243e 6441 303e d20b 49ba
000001b0: 9c5e 1e3e 7165 683e 6549 363e 25f6 c93d
000001c0: 4b1c 173e ebf3 473e ccf1 b73d ed46 39bb
000001d0: 978f f73c e553 383e 1988 2c3e dcb6 ca3d
000001e0: dfd0 2b3e c198 553e 00ac a93d 9d72 293e
000001f0: 0d5e 52be 76f9 03bc cb6e 1c3e 6106 783d
00000200: 0bd1 38be 5974 053e fc24 6b3d 8a14 443d
00000210: 156c 8d3d 4e67 2e3e 99d0 65bd 79c7 583e
00000220: 336e 0f3e 9f62 e03d 2f88 393e 4407 1e3e
00000230: 2786 e03d 44e8 26be b931 6fbe e5f5 4a3b
00000240: 3e05 08be fe4d 2d3d 3bdf 6abd 37a2 1f3e
00000250: 9029 363e 374a f93d 6716 703d c12c 3a3e
00000260: 9069 d43c 5145 27be b7ce ac3d a04c ea3d
00000270: 0f14 2c3e c86b 3abe e47f ac3c 2422 7dbd
00000280: 9e56 6fbe 054e 453e c5e6 a03d e5d3 3a3e
00000290: c0ae 933c b978 4f3e 449d d5bd b26a 5cbe
000002a0: de32 3abe 67d8 853d 22b9 3c3e 84cb 153e
000002b0: d6fc 0cbe d08e 513e bb55 1d3e 37e0 453d
000002c0: 92a7 60be c353 063e 5bef 363e 1d00 173e
000002d0: 7b1a 31bd e906 923d e2c8 d2bd fb24 35be
000002e0: d558 733e 2b77 f73d 253f 403e d41e 723e
000002f0: 034e b53d 8883 36bd 2779 683e c4a4 67be
00000300: 1458 4a3e fce1 303e b533 4c3e 97eb 413e
00000310: a2ec 2c3c cfdd 933e 818e 883e bf5e 7d3e
00000320: df8f b93d 7448 393e 783e 8b3e ed90 c23e
00000330: 1a47 c53d 325f c93d b30f 973e a7c0 5b3e
00000340: 8de7 113e ffcc 3b3e 8384 9f3e 2d56 053e
00000350: 0d29 ff3d eb29 5a3e ca58 1b3e 8e3a 903e
00000360: a282 833e 5b53 643e b711 f43d 41f5 a73e
00000370: 6b7b 2a3e 2711 9d3e 6f78 ce3e 119b 9c3d
00000380: 22e4 ed3d 7ccc ad3d cc95 103e 5a59 5b3e
00000390: 6fa3 4a3e 43ca 633e d26e fb3d 78f6 763e
000003a0: 9ab8 b73d e7f9 1a3e 530c 083e ff51 8f3e
000003b0: 73d3 153e 39ae 8f3e 79fc 3c3e c9ab 943e
000003c0: 92f1 123e 55ce 093e 7e59 843e 59dd 2e3e
000003d0: e1a3 303e 5d46 f33d 3d6f b83d bd61 c93d
000003e0: f9cd 6c3d 977a 013e 1c36 613e 50e0 813d
000003f0: cfdd 71be 122c e63d 1235 1e3e 1e61 b33d

fc.weight f4 [1, 64]
-91.23751 91.30365 91.286736 91.303154 -0.052707836 91.16888 -91.294 91.1583
91.34663 91.24026 91.20181 92.37875 91.19395 -91.28769 -91.23658 91.27127
-91.18344 91.27154 -91.23314 91.22457 91.27709 91.28209 91.22864 91.25228
91.29447 -91.15959 91.2885 84.99594 91.22035 -91.258064 -72.184135 -91.17296
-91.21141 91.280014 91.26072 91.219154 91.18517 91.27128 -91.22508 -91.23046
-91.26535 -91.21461 91.27783 91.19147 -91.24231 91.159325 91.29214 91.283134
-91.179 91.17168 91.18245 91.19719 91.238434 91.208694 -91.16372 -91.14018
91.275764 91.17046 91.23331 91.27902 0.12794454 91.29996 91.25972 -91.23258
00000000: 9b79 b6c2 789b b642 cf92 b642 379b b642
00000010: 2ce4 57bd 7756 b642 8796 b6c2 0d51 b642
00000020: 79b1 b642 037b b642 5467 b642 ecc1 b842
00000030: 4d63 b642 4c93 b6c2 2179 b6c2 e48a b642
00000040: ec5d b6c2 078b b642 5e77 b6c2 fb72 b642
00000050: df8d b642 6e90 b642 1075 b642 2b81 b642
00000060: c596 b642 b651 b6c2 b693 b642 ecfd a942
00000070: d270 b642 2184 b6c2 475e 90c2 8e58 b6c2
00000080: 3e6c b6c2 5e8f b642 7d85 b642 3570 b642
00000090: cf5e b642 e58a b642 3e73 b6c2 ff75 b6c2
000000a0: dc87 b6c2 e16d b6c2 408e b642 0862 b642
000000b0: 107c b6c2 9351 b642 9395 b642 f790 b642
000000c0: a65b b6c2 e657 b642 6a5d b642 f664 b642
000000d0: 147a b642 da6a b642 d353 b6c2 c647 b6c2
000000e0: 318d b642 4757 b642 7477 b642 dc8e b642
000000f0: e503 033e 9499 b642 fa84 b642 1577 b6c2
