LSTM_MODEL/SUPER_SGD_Test_model.pt (torch, 89455 bytes, 5 tensors)

lstm.weight_ih_l0 f4 [256, 19]
-0.0067609134 0.12315282 0.09546885 0.067407236 -0.04474047 0.06495765 -0.0053705275 -0.072483025
0.056835562 0.037040282 0.03500617 0.17978996 0.049711708 0.19133796 0.016184384 0.03209538
0.20539194 0.06551995 0.028655972 0.22587065 0.036455065 -0.025056988 0.029662058 0.021742716
0.0067059547 -0.120759875 -0.08962355 -0.0009599135 0.2791118 0.14252847 0.15683147 0.08287983
0.2630442 0.098013856 0.17279239 0.05545792 0.076397136 0.2162213 0.06836468 0.052069027
0.09110464 -0.08088048 0.09988953 0.059440225 0.05800493 -0.16016425 -0.16961849 0.08091065
0.20346548 0.10540186 0.061442498 0.06449232 0.14866658 0.18401642 0.24492839 -0.16574652
-0.021267112 0.31867218 0.15700397 0.06499635 0.09165713 0.030613065 0.01886651 -0.12396903
-0.035372563 -0.062041346 0.029475162 0.43200374 0.1697168 0.3092321 0.2624234 0.14874323
0.1266576 0.27894866 0.21540974 0.23142633 0.14016055 -0.013471159 -0.016047597 -0.09446022
-0.05230443 -0.055529416 0.056030646 -0.056173477 -0.096738994 0.03990807 -0.055624496 0.03407998
0.088016786 0.046704005 0.019573731 0.12754032 -0.008233277 0.18333739 0.19796328 -0.046712223
-0.059149954 0.018252462 0.038298547 0.10873915 0.08371939 -0.041948363 -0.058849245 0.015757658
0.15326577 0.1250847 -0.019560585 0.019015202 0.107355475 0.09252764 0.18712291 0.16531295
0.015670719 -0.015610454 0.09644047 0.045849085 -0.014672145 -0.12016079 0.038470596 0.12368803
-0.048217848 0.028914642 -0.03916163 0.15570399 0.13593212 0.078834675 0.15563062 0.07398794
0.25449935 0.13357776 0.19965024 0.01601682 0.13510375 0.11754495 0.07365797 -0.06728256
-0.011655465 0.015623271 -0.108124495 0.033712074 -0.1196876 -0.016277812 0.18384713 0.08131492
0.043135397 0.15584977 0.13557856 0.13505478 0.1431254 0.15916984 0.037622247 0.06590487
0.1204775 0.077954724 0.008627608 -0.0036234558 0.0817153 0.01203014 0.114996344 0.06306442
0.09293567 0.20844562 0.043231282 0.106043294 0.1465975 0.066484764 0.066876404 0.22453696
0.095492825 0.08096476 0.19133979 0.21072482 -0.04432214 -0.054622725 0.020976812 -0.034752637
-0.09381513 0.021615833 0.092051655 0.02440187 0.14992194 -0.018502971 0.17301731 0.18549278
0.0936348 0.0774025 0.16297576 0.1406383 0.20866086 0.07568073 0.14718479 -0.07405559
-0.0038437694 0.035555065 0.087604836 0.11282204 -0.07172774 0.021965655 0.04782373 0.12489571
-0.030607728 0.10962135 -0.058235954 -0.025489476 0.08863939 -0.08450516 0.13575225 -0.09198444
0.06286291 0.08975596 -0.091652915 0.12409845 -0.007503003 0.06437811 0.114407405 -0.041379303
0.12546606 0.07809167 0.09549764 -0.018931186 0.04829879 0.15662067 0.13760541 0.03938949
0.032682367 0.03247582 -0.07810669 0.09948701 0.088029586 0.044498242 -0.124086305 -0.08292107
0.10984473 0.11844951 0.09772554 -0.080439 -0.101500824 -0.06202502 0.10977045 -0.091873795
0.08548638 0.118830465 0.09710688 0.14386661 0.029328601 0.11622991 0.070877165 0.17098561
0.08825801 -0.1238603 -0.05793652 -0.06294118 -0.014228404 0.11519782 0.037675973 0.052068766
00000000: a78a ddbb 8c37 fc3d 2c85 c33d ce0c 8a3d
00000010: c841 37bd 8408 853d 40fb afbb fb71 94bd
00000020: 68cc 683d 8db7 173d a162 0f3d dc1a 383e
00000030: 819e 4b3d 19ee 433e 1d95 843c 7276 033d
00000040: 4452 523e 532f 863d eebf ea3c a34a 673e
00000050: e851 153d 5044 cdbc d8fd f23c c81d b23c
00000060: a0bd db3b f450 f7bd 8d8c b7bd b4a2 7bba
00000070: bee7 8e3e fcf2 113e 6e98 203e e6bc a93d
00000080: bbad 863e 7dbb c83d 7df0 303e d827 633d
00000090: 1a76 9c3d 1e69 5d3e c802 8c3d 5546 553d
000000a0: 1295 ba3d aaa4 a5bd e292 cc3d 9877 733d
000000b0: 9496 6d3d 1902 24be 78b0 2dbe 7cb4 a53d
000000c0: 4159 503e eedc d73d 21ab 7b3d 8d14 843d
000000d0: 0d3c 183e cd6e 3c3e 82ce 7a3e 75b9 29be
000000e0: 5e38 aebc 0029 a33e a6c5 203e ce1c 853d
000000f0: bcb6 bb3d 40c8 fa3c f08d 9a3c 7ae3 fdbd
00000100: d2e2 10bd 111f 7ebd e575 f13c 982f dd3e
00000110: 3eca 2d3e ab53 9e3e 5c5c 863e 2550 183e
00000120: 88b2 013e 5cd2 8e3e 5f94 5c3e 06fb 6c3e
00000130: 3f86 0f3e 23b6 5cbc 4076 83bc 5c74 c1bd
00000140: 2c3d 56bd d072 63bd 6480 653d 2916 66bd
00000150: 181f c6bd a576 233d 83d6 63bd 7397 0b3d
00000160: 2542 b43d b34c 3f3d 1759 a03c ee99 023e
00000170: dee4 06bc ccbc 3b3e e3b6 4a3e 5155 3fbd
00000180: 3947 72bd 3086 953c f0de 1c3d a2b2 de3d
00000190: 1275 ab3d 0cd2 2bbd e80b 71bd 3416 813c
000001a0: b4f1 1c3e 3416 003e 853d a0bc c5c5 9b3c
000001b0: 30dd db3d 227f bd3d 269d 3f3e cc47 293e
000001c0: e15f 803c fdc2 7fbc 9582 c53d 40cc 3b3d
000001d0: 7063 70bc dc16 f6bd 5893 1d3d 2650 fd3d
000001e0: 1480 45bd 66de ec3c f267 20bd de70 1f3e
000001f0: ca31 0b3e 1374 a13d a25d 1f3e fd86 973d
00000200: bd4d 823e 9cc8 083e 1d71 4c3e b535 833c
00000210: a358 0a3e 68bb f03d fdd9 963d 70cb 89bd
00000220: 90f6 3ebc c0f8 7f3c 6070 ddbd ac15 0a3d
00000230: c61e f5bd 0c59 85bc 6c42 3c3e 7088 a63d
00000240: beae 303d 1597 1f3e 1bd5 0a3e cd4b 0a3e
00000250: 778f 123e 6bfd 223e c919 1a3d 22f9 863d
00000260: e8bc f63d baa6 9f3d d05a 0d3c 8077 6dbb
00000270: 5a5a a73d 101a 453c 3483 eb3d eb27 813d
00000280: 0e55 be3d c572 553e 4913 313d 3a2d d93d
00000290: a81d 163e 2a29 883d 7ff6 883d 04ed 653e
000002a0: be91 c33d dad0 a53d 94ee 433e 3fc8 573e
000002b0: 228b 35bd 14bc 5fbd 90d7 ab3c c858 0ebd
000002c0: 2622 c0bd b013 b13c 9485 bc3d 6ee6 c73c
000002d0: 2385 193e 8b93 97bc 732b 313e d2f1 3d3e
000002e0: 9ac3 bf3d 3485 9e3d 1ee3 263e 7d03 103e
000002f0: 31ab 553e 80fe 9a3d 9cb7 163e 75aa 97bd
00000300: c0e7 7bbb 30a2 113d 2a6a b33d 3e0f e73d
00000310: fee5 92bd 51f1 b33c d1e2 433d 52c9 ff3d
00000320: 0fbd fabc 2981 e03d d388 6ebd 4ecf d0bc
00000330: 9288 b53d 0b11 adbd a302 0b3e 5762 bcbd
00000340: 45be 803d f9d1 b73d 86b4 bbbd 5427 fe3d
00000350: c0db f5bb acd8 833d 6e4e ea3d 587d 29bd
00000360: 2d7a 003e 87ee 9f3d 4494 c33d 9315 9bbc
00000370: f4d4 453d 2b61 203e 6fe8 0c3e e056 213d
00000380: f2dd 053d 5e05 053d 66f6 9fbd d8bf cb3d
00000390: db48 b43d ca43 363d f620 febd 86d2 a9bd
000003a0: 46f6 e03d a895 f23d 5424 c83d 34bd a4bd
000003b0: aadf cfbd f30d 7ebd 54cf e03d 5428 bcbd
000003c0: 7c13 af3d 635d f33d f9df c63d c551 133e
000003d0: 8942 f03c f209 ee3d 0c28 913d da16 2f3e
000003e0: 9ec0 b43d 78aa fdbd d84e 6dbd 4ee7 80bd
000003f0: 401e 69bc d6ec eb3d 1f52 1a3d 0f46 553d

lstm.weight_hh_l0 f4 [256, 64]
0.028519686 0.06701532 -0.13329196 -0.04267073 -0.05351663 0.076332934 -0.0033701067 0.2069217
0.1381338 0.18828438 -0.018286707 0.14868195 0.08585282 0.158985 -0.1175906 -0.0011902754
0.07938478 -0.112099335 -0.1011737 -0.098252945 -0.060989395 -0.057764385 0.13739762 0.009848041
0.022955634 -0.16817811 0.049344894 0.062078934 -0.13036744 -0.11692908 -0.010410676 -0.03182014
0.0906132 0.015024958 0.05209426 0.22360873 -0.12577818 0.16599219 0.06720137 -0.18922485
0.0263333 -0.14306696 0.07904222 -0.057049196 -0.10349206 -0.06962072 -0.007442342 0.043037187
0.1570341 0.08004951 0.054395862 0.04518477 -0.1524592 0.18681505 -0.17981032 0.056162976
0.037017554 -0.05431922 -0.16516154 -0.019279158 0.028557548 0.11674122 -0.15915868 0.07530194
-0.21140984 -0.043842927 -0.12424292 -0.14156456 0.10433305 0.15359049 0.17361571 0.071172275
0.25734723 0.16119738 0.17525896 0.110862605 0.2014528 0.15783049 -0.032048773 0.103986494
0.114950314 -0.27152705 -0.08875345 -0.25832617 -0.050331097 0.097441755 0.20357153 0.021645006
0.037538517 -0.23769914 0.22402664 -0.06406204 -0.2323307 -0.105096154 0.22544467 -0.062696174
0.19888009 0.2391761 0.14931108 0.23235224 -0.20999452 0.08217069 0.225108 -0.06260363
0.07233169 -0.14235029 0.057519548 0.08447428 -0.21978097 -0.10445656 -0.26121673 -0.2770433
0.11586965 0.11204688 0.17459759 -0.23392536 -0.16045664 0.13636547 -0.1573539 -0.20476866
0.04891695 0.073105425 -0.28181455 0.062118933 -0.060611773 0.26827675 -0.21581133 -0.053077433
0.3185007 -0.24160522 -0.16447441 0.054091237 0.30708325 0.10303541 0.017488295 0.10336759
-0.31629837 -0.21143846 0.08487553 0.12163608 -0.036902793 0.3157844 0.16998623 0.2678119
0.3576527 -0.060032208 -0.20651568 0.08417559 0.08187834 0.05638129 -0.040283997 0.012846872
-0.11420575 -0.028118169 0.4311862 -0.07334201 -0.10965093 -0.05403044 -0.365593 0.3410727
-0.08803739 0.049187485 0.046296712 -0.119385645 0.051531915 -0.17029606 -0.18192607 -0.10233127
0.069400586 0.0013704617 0.20390677 -0.00223178 0.17549178 0.07403439 0.18402046 -0.25220713
-0.27429834 0.060716897 -0.20457196 -0.44739777 0.12880635 0.27321842 0.31412613 -0.1740217
-0.26423556 0.36863166 0.0428986 -0.27458805 0.11762984 0.080675416 -0.17450853 -0.17498377
0.11493659 -0.28020394 -0.032455724 0.18185923 0.48921588 0.12651046 -0.043666363 0.11494307
-0.15725553 -0.37352204 -0.042790793 0.13593788 -0.0357542 0.48525605 0.12718964 0.43626085
0.3800114 0.109449804 -0.15405443 -0.26967454 0.06210351 0.10305456 0.016691241 -0.17097886
-0.11848153 -0.26079476 0.21990702 -0.07733694 -0.1211959 -0.33575866 -0.26125515 0.2531459
-0.0032687655 0.16554128 0.06891488 -0.06774513 -0.07336335 -0.3729155 -0.1381527 -0.016975408
-0.06647104 -0.24044606 0.2854192 0.29989463 0.17099728 0.09716105 0.0035637133 -0.23542827
-0.18735264 -0.09204887 -0.020213014 -0.2771156 -0.09456133 0.29266268 0.04808928 -0.041482013
-0.23662786 0.33731234 0.14502697 -0.057032313 -0.15039863 -0.086863615 -0.50407284 -0.06476977
00000000: 1ea2 e93c 543f 893d b07d 08be 81c7 2ebd
00000010: 4134 5bbd 7154 9c3d 02dd 5cbb 48e3 533e
00000020: f272 0d3e 9fcd 403e 01ce 95bc 1540 183e
00000030: 9ad3 af3d f7cc 223e 57d3 f0bd 0403 9cba
00000040: 7d94 a23d 5694 e5bd 2834 cfbd d738 c9bd
00000050: 04d0 79bd 599a 6cbd f6b1 0c3e ae59 213c
00000060: 740d bc3c e236 2cbe df1d 4a3d 7b46 7e3d
00000070: 0b7f 05be 8378 efbd 8a91 2abc d655 02bd
00000080: 6a93 b93d 3e2b 763c ca60 553d b0f9 643e
00000090: ffcb 00be dbf9 293e dfa0 893d 29c4 41be
000000a0: efb8 d73c 2580 12be e3e0 a13d 6bac 69bd
000000b0: a5f3 d3bd 4f95 8ebd e4de f3bb c347 303d
000000c0: 8ccd 203e fff0 a33d 32ce 5e3d aa13 393d
000000d0: 441e 1cbe 724c 3f3e 3220 38be 260b 663d
000000e0: b89f 173d d57d 5ebd 1b20 29be 53ef 9dbc
000000f0: 85f1 e93c 0516 ef3d 7efa 22be e737 9a3d
00000100: d27b 58be a494 33bd 1273 febd 4df6 10be
00000110: 91ac d53d d346 1d3e 51c8 313e c5c2 913d
00000120: 04c3 833e ed10 253e 1677 333e ef0b e33d
00000130: a549 4e3e 519e 213e 9345 03bd dff6 d43d
00000140: 126b eb3d 9805 8bbe 5ec4 b5bd 5443 84be
00000150: fb27 4ebd 8b8f c73d 0e75 503e de50 b13c
00000160: fdc1 193d 6767 73be 3d67 653e f532 83bd
00000170: 19e8 6dbe a73c d7bd f8da 663e da66 80bd
00000180: 39a7 4b3e 94ea 743e 01e5 183e bfed 6d3e
00000190: ce08 57be 1b49 a83d b682 663e 5536 80bd
000001a0: a322 943d 46c4 11be 9e99 6b3d da00 ad3d
000001b0: 430e 61be 52ed d5bd 33be 85be 9fd8 8dbe
000001c0: 114d ed3d d678 e53d b6c9 323e 218a 6fbe
000001d0: bf4e 24be 64a3 0b3e 6121 21be e0ae 51be
000001e0: 245d 483d 4cb8 953d ff49 90be 6c70 7e3d
000001f0: 0d44 78bd 925b 893e a5fd 5cbe b967 59bd
00000200: 8612 a33e 5c67 77be fb6b 28be c68e 5d3d
00000210: 043a 9d3e 3b04 d33d 9d43 8f3c 63b2 d33d
00000220: dcf1 a1be 5383 58be 39d3 ad3d 561c f93d
00000230: 6227 17bd 7eae a13e df10 2e3e a41e 893e
00000240: 411e b73e 55e4 75bd d978 53be 4064 ac3d
00000250: d5af a73d 11f0 663d d500 25bd b07b 523c
00000260: b4e4 e9bd 1358 e6bc 70c4 dc3e 5634 96bd
00000270: ab90 e0bd 064f 5dbd 012f bbbe 15a1 ae3e
00000280: f24c b4bd d178 493d 9fa1 3d3d 7680 f4bd
00000290: 2113 533d 1762 2ebe d44a 3abe 0f93 d1bd
000002a0: e521 8e3d 10a1 b33a f0cc 503e 0e43 12bb
000002b0: 1eb4 333e 589f 973d dc6f 3c3e 4b21 81be
000002c0: d570 8cbe 48b2 783d 507b 51be 5211 e5be
000002d0: d0e5 033e 49e3 8b3e 24d5 a03e bf32 32be
000002e0: e249 87be 4abd bc3e 71b6 2f3d ce96 8cbe
000002f0: eae7 f03d 2739 a53d 5db2 32be f22e 33be
00000300: e063 eb3d e476 8fbe 4bf0 04bd 4e39 3a3e
00000310: 817a fa3e f58b 013e 80db 32bd 4667 eb3d
00000320: 9807 21be 483e bfbe 6645 2fbd 4d33 0b3e
00000330: ff72 12bd 7b73 f83e 003e 023e 955d df3e
00000340: db90 c23e 3827 e03d 72c0 1dbe c812 8abe
00000350: 4060 7e3d 450e d33d 12bc 883c 1515 2fbe
00000360: 72a6 f2bd e486 85be 4e2f 613e d462 9ebd
00000370: 8e35 f8bd 8fe8 abbe 3cc3 85be 579c 813e
00000380: c938 56bb a783 293e 3f23 8d3d f5bd 8abd
00000390: 863f 96bd c8ee bebe e777 0dbe 0310 8bbc
000003a0: f821 88bd 7e37 76be 7722 923e ca8b 993e
000003b0: e919 2f3e 5ffc c63d 308d 693b 1c14 71be
000003c0: 5fd9 3fbe 1e84 bcbd c395 a5bc 19e2 8dbe
000003d0: 5fa9 c1bd e2d7 953e 44f9 443d 0be9 29bd
000003e0: 934e 72be 34b4 ac3e f381 143e b79a 69bd
000003f0: 1902 1abe 8de5 b1bd eb0a 01bf 03a6 84bd

lstm.bias_ih_l0 f4 [256]
0.23507608 0.3431602 -0.28607208 -0.119083464 0.09616655 0.013809122 0.23986657 -0.04462035
0.183338 0.26658493 0.1317448 0.111141056 0.13077076 0.07684576 -0.039271083 0.04846815
0.27175352 0.22202069 -0.10057202 0.21173373 0.27314794 -0.50391513 -0.31549665 0.3236435
-0.36019728 0.08074653 -0.0023477636 0.010092324 0.08155818 0.07568699 0.21655767 0.29904056
0.0879049 0.18789646 -0.14267278 0.11302513 0.16342735 0.097247355 0.14358532 -0.223972
0.000815377 0.036589585 0.036393683 0.09504891 0.0824639 0.4136626 0.15493473 0.26085684
0.14207572 0.07059542 0.3223904 0.22449441 -0.104190685 0.26210535 0.17653431 -0.024515877
0.100355454 -0.3846281 0.3448477 0.1933812 0.028584741 -0.43228212 0.07850693 0.065634154
0.18617924 0.27102703 -0.095688865 -0.19060454 0.21478306 0.21841954 0.24293807 0.060687274
0.10573783 0.085209474 0.14234088 0.07443841 0.0059522465 0.14171688 0.0041532144 0.17031181
0.0531377 0.07980086 -0.042009138 0.0948464 0.09702763 -0.23513137 -0.18167575 0.1679366
-0.3157203 -0.009137039 0.025789341 -0.05563883 0.06544354 0.097939014 0.20145336 0.21620059
0.11585136 0.10338328 -0.0014558084 0.23924401 0.14482707 0.120776184 0.20700958 0.09712077
0.1866038 0.21620563 0.20591453 0.076268375 0.2575744 -0.19541548 0.224396 -0.022428753
0.14251181 0.19276445 -0.1220162 -0.24653076 -0.12869109 0.017150894 -0.010232276 0.08356923
0.118482634 0.012715976 -0.31252092 0.078438245 0.07359594 -0.10694919 0.15909109 0.026354587
-0.25098106 0.3704887 -0.23906252 -0.30636418 0.14991973 0.29609278 0.2560251 0.23247333
0.14934249 0.33853287 0.09838842 0.21331784 0.18341398 0.16889156 0.03699936 0.08933707
-0.25889826 -0.17854787 0.10836704 -0.22056127 -0.29714853 -0.060943175 0.29068226 0.36677915
-0.06346525 0.066129014 0.073848926 0.096866705 -0.15885602 -0.12219665 0.24186653 -0.24302816
0.2030848 0.3330429 0.013141004 0.33970484 -0.26946548 0.031992882 0.1621327 -0.05463875
0.11087905 -0.12751985 0.028135039 0.06280796 -0.21907614 -0.2784007 -0.29412672 -0.0776002
0.19617873 0.23156568 0.27321547 -0.07126522 -0.12713717 0.09062892 -0.117690235 0.13832921
0.22422945 0.014906072 -0.46336624 0.28270996 0.028084913 -0.045331646 -0.073384166 0.18833782
0.73445034 -0.77030987 -1.06884 0.32772976 0.54041445 -0.49877223 -0.0067352885 -0.36401045
0.5702314 0.67610013 -0.3424653 -0.6210549 -0.45016176 0.5935631 0.37541083 0.40439877
0.5229424 -0.28551704 0.30195588 -0.36969012 0.46883938 0.302969 0.3096996 -0.21800743
0.17133154 -0.05970403 0.61803186 0.11395366 -0.37896925 0.48873308 0.65765476 0.5188368
-0.26451862 -0.49215654 -0.0011433773 0.5114535 -0.31151184 0.21240097 0.3455809 0.0666317
-0.38462523 -0.44674498 0.5676693 0.43030757 -0.39322996 0.49284276 0.8195722 0.86064285
0.2790812 -0.4854691 0.46008417 -0.1244281 0.20109671 0.41156578 0.2876622 0.45107627
0.5276192 0.48172 0.43749288 -0.4484988 -0.32062027 0.32301238 0.5707442 -0.246225
00000000: c9b7 703e b2b2 af3e 0a78 92be 08e2 f3bd
00000010: f8f2 c43d a83f 623c 959f 753e d4c3 36bd
00000020: f5bc 3b3e d27d 883e 1ce8 063e ec9d e33d
00000030: c5e8 053e 4f61 9d3d b7da 20bd 8a86 463d
00000040: 4723 8b3e 6459 633e b4f8 cdbd bad0 583e
00000050: 0cda 8b3e 9500 01bf c788 a1be 9ab4 a53e
00000060: c76b b8be 705e a53d f0dc 19bb 465a 253c
00000070: fa07 a73d c801 9b3d 4bc1 5d3e d81b 993e
00000080: 7c07 b43d ee67 403e d018 12be b879 e73d
00000090: 8059 273e 9f29 c73d 0808 133e ea58 65be
000000a0: 06bf 553a f6de 153d 8b11 153d 01a9 c23d
000000b0: d5e2 a83d 96cb d33e 36a7 1e3e 078f 853e
000000c0: 4c7c 113e 5594 903d 5b10 a53e dde1 653e
000000d0: ed61 d5bd ac32 863e 69c5 343e 85d5 c8bc
000000e0: 2987 cd3d f9ed c4be e18f b03e b905 463e
000000f0: 8c2a ea3c 1554 ddbe 3ec8 a03d 336b 863d
00000100: c5a5 3e3e 0ec4 8a3e 86f8 c3bd d62d 43be
00000110: 17f0 5b3e 5fa9 5f3e c2c4 783e 3893 783d
00000120: 138d d83d 4e82 ae3d cfc1 113e 2a73 983d
00000130: 100b c33b 3b1e 113e b017 883b 3866 2e3e
00000140: eba6 593d a26e a33d c611 2cbd d43e c23d
00000150: 6cb6 c63d 47c6 70be 3509 3abe 92f7 2b3e
00000160: 17a6 a1be 85b3 15bc 2b44 d33c 8be5 63bd
00000170: 4307 863d 4094 c83d ca49 4e3e b063 5d3e
00000180: 7a43 ed3d 9dba d33d d3d0 beba 62fc 743e
00000190: 8c4d 143e 8159 f73d 52fa 533e 41e7 c63d
000001a0: 1115 3f3e 0265 5d3e 42db 523e 9832 9c3d
000001b0: cbe0 833e ff1a 48be 11c8 653e 81bc b7bc
000001c0: 9eee 113e 0b64 453e a1e3 f9bd 8f72 7cbe
000001d0: 99c7 03be 0880 8c3c 47a5 27bc 5826 ab3d
000001e0: 06a7 f23d ab56 503c be02 a0be 3ba4 a03d
000001f0: 78b9 963d 2d08 dbbd c6e8 223e 93e5 d73c
00000200: 9780 80be b2b0 bd3e cecc 74be c4db 9cbe
00000210: 8f84 193e 7999 973e b915 833e 7d0d 6e3e
00000220: 3ded 183e 2e54 ad3e de7f c93d fe6f 5a3e
00000230: e0d0 3b3e e9f1 2c3e a48c 173d 5bf6 b63d
00000240: 508e 84be 41d5 36be 8aef dd3d d0da 61be
00000250: da23 98be 8d9f 79bd 4ed4 943e 7aca bb3e
00000260: 12fa 81bd a66e 873d 1b3e 973d 0d62 c63d
00000270: 27ab 22be 3d42 fabd dcab 773e 60dc 78be
00000280: 76f5 4f3e 9984 aa3e 5e4d 573c cbed ad3e
00000290: 61f7 89be f80a 033d 1d06 263e e2cc 5fbd
000002a0: 8e14 e33d 9094 02be 747b e63c 76a1 803d
000002b0: 7f55 60be 898a 8ebe c797 96be dbec 9ebd
000002c0: 14e3 483e 8e1f 6d3e e6e2 8b3e 80f3 91bd
000002d0: 3f30 02be a89b b93d 9407 f1bd 2ca6 0d3e
000002e0: 689c 653e 9938 743c 573e edbe 5cbf 903e
000002f0: 5512 e63c adad 39bd 704a 96bd a1db 403e
00000300: f004 3c3f 0733 45bf c0cf 88bf 32cc a73e
00000310: 9a58 0a3f 135f ffbe b2b3 dcbb 945f babe
00000320: affa 113f e614 2d3f 9d57 afbe 74fd 1ebf
00000330: 9a7b e6be c0f3 173f d935 c03e 5b0d cf3e
00000340: 8edf 053f 4a2f 92be f699 9a3e 0648 bdbe
00000350: b70b f03e c11e 9b3e f290 9e3e 573d 5fbe
00000360: 8971 2f3e 378c 74bd 5637 1e3f 8960 e93d
00000370: 4208 c2be 393b fa3e 105c 283f 7dd2 043f
00000380: fc6e 87be f1fb fbbe 60dd 95ba 9eee 023f
00000390: 7b7e 9fbe a47f 593e fbef b03e 3376 883d
000003a0: 99ed c4be c2bb e4be c652 113f 4651 dc3e
000003b0: 7055 c9be e355 fc3e 7ccf 513f 1753 5c3f
000003c0: bbe3 8e3e 688f f8be 2790 eb3e 29d4 febd
000003d0: 4cec 4d3e c0b8 d23e 7648 933e 78f3 e63e
000003e0: 0d12 073f 01a4 f63e 11ff df3e a2a1 e5be
000003f0: 5728 a4be e161 a53e 4b1c 123f 6822 7cbe

lstm.bias_hh_l0 f4 [256]
0.09483477 0.18615328 -0.17760427 -0.08570123 0.16739412 0.23654085 0.11517428 -0.038776882
0.27120924 0.10695688 0.09127923 -0.035476513 0.0007138209 0.068380535 -0.24276581 0.06324777
0.26408044 0.004120266 -0.1162554 0.13227594 0.26339734 -0.47504917 -0.1970612 0.19184585
-0.23788406 -0.05496829 0.123429574 0.08142593 0.116736315 0.19751087 0.10935917 0.2176405
0.27702177 -0.00534809 -0.036513835 0.09478186 0.19969659 0.06085101 0.13529234 -0.26924816
0.1988224 0.016392574 0.20040749 0.23243454 0.21461095 0.37092072 0.1340465 0.32058644
0.17986403 0.16106737 0.34176347 0.41647577 -0.2481026 0.0901581 0.15191616 0.024839943
0.16743124 -0.2167274 0.34019592 0.16655141 0.08632793 -0.45259693 0.025019813 0.30244324
0.17693011 0.09913723 -0.15300722 -0.11964976 0.0055463393 0.17830923 0.25837967 0.07239578
0.07656907 0.31371886 0.15554166 0.10181308 0.19695427 0.09613467 0.09557342 0.094973415
0.034743086 0.12400951 0.038719025 0.04206997 0.2970973 -0.24123819 -0.2182306 0.09201526
-0.112614214 0.073931046 0.15788734 0.056769997 0.18301237 0.17598823 0.1029757 0.11498858
0.013375329 0.20216809 0.0045370357 0.08257463 0.19134705 0.11180249 0.13135923 -0.029121434
0.09058763 -0.008762394 0.10446649 0.10920031 0.09980169 -0.15231386 0.11860834 -0.046254348
0.17709556 -0.023634803 -0.041398186 -0.23705186 0.06500952 0.02658091 0.16522108 -0.023001987
0.24492101 0.1657569 -0.11934289 -0.010310303 -0.031318266 -0.13801016 0.23337856 0.09995945
-0.2760127 0.35283503 -0.22149068 -0.251707 -0.021664664 0.06691464 0.28333113 0.029832851
0.1488015 0.25150266 0.3256439 0.2528914 0.2791944 -0.056253914 -0.09312555 -0.030661324
-0.14488511 -0.24591774 0.012866281 -0.3568356 -0.18075408 0.04676591 0.21583188 0.27301988
-0.10782662 0.073637314 -0.036673598 0.07539423 -0.092963845 0.07335727 0.17792028 -0.23123464
0.1848 0.22339083 0.1700355 0.19153455 -0.22157718 -0.063411936 0.10640503 -0.054421753
0.18660972 -0.10370736 0.08979972 -0.07165441 -0.18403251 -0.31728056 -0.22709413 -0.12932914
0.2213558 0.18478222 0.22534308 -0.0109687075 -0.20190507 -0.06811571 -0.14463857 0.1268337
0.23808824 0.0014875565 -0.3511785 0.10188138 -0.17962484 0.14102839 0.01545267 0.090470105
0.7465572 -0.9036779 -0.9763519 0.3740232 0.47312453 -0.481333 -0.159419 -0.52446747
0.6974715 0.7439944 -0.3715265 -0.7711817 -0.5401928 0.6264148 0.47346777 0.5772022
0.51273876 -0.19534138 0.3308756 -0.28592306 0.5830323 0.23834094 0.28314987 -0.34877676
0.08568288 -0.25361958 0.54761636 0.069404 -0.5620795 0.5261814 0.708706 0.66788083
-0.28124034 -0.2795496 0.06903512 0.3577668 -0.49346313 0.17520097 0.426864 0.16279718
-0.5465664 -0.5657733 0.48384088 0.43881375 -0.28061366 0.45444643 0.86833173 0.720865
0.48420924 -0.44433475 0.49869463 -0.08674813 0.17168966 0.38758776 0.29631895 0.45865953
0.52308035 0.48882082 0.47464722 -0.33979997 -0.2844909 0.23899998 0.39634418 -0.23499018
00000000: bb38 c23d f79e 3e3e e5dd 35be 2084 afbd
00000010: 5d69 2b3e c437 723e 7ee0 eb3d 82d4 1ebd
00000020: f0db 8a3e 350c db3d 9bf0 ba3d d24f 11bd
00000030: b61f 3b3a 180b 8c3d 9a97 78be 0c88 813d
00000040: 8d35 873e 4c03 873b 5017 eebd 5873 073e
00000050: 04dc 863e a539 f3be 69ca 49be 3d73 443e
00000060: e197 73be 6e26 61bd a5c8 fc3d a3c2 a63d
00000070: 7313 ef3d 4a40 4a3e b3f7 df3d 27dd 5e3e
00000080: ccd5 8d3e 083f afbb 888f 15bd fe1c c23d
00000090: 437d 4c3e e93e 793d 138a 0a3e e5da 89be
000000a0: 1998 4b3e b849 863c 9f37 4d3e 5203 6e3e
000000b0: f9c2 5b3e 52e9 bd3e 7c43 093e e823 a43e
000000c0: 472e 383e d8ee 243e 9ffb ae3e 503c d53e
000000d0: 9c0e 7ebe cfa4 b83d e98f 1b3e 237d cb3c
000000e0: 1873 2b3e caed 5dbe 292e ae3e 748c 2a3e
000000f0: b3cc b03d c9ba e7be 5af6 cc3c d7d9 9a3e
00000100: 2b2d 353e 7608 cb3d edad 1cbe ef0a f5bd
00000110: 11be b53b b296 363e 574a 843e 3d44 943d
00000120: 3fd0 9c3d c29f a03e 5046 1f3e 6083 d03d
00000130: 61ae 493e 41e2 c43d ffbb c33d 6c81 c23d
00000140: c44e 0e3d b3f8 fd3d d797 1e3d 9051 2c3d
00000150: 231d 983e 2507 77be d877 5fbe 7f72 bc3d
00000160: 48a2 e6bd 2969 973d 38ad 213e a887 683d
00000170: 9867 3b3e 4236 343e ece4 d23d 227f eb3d
00000180: 3224 5b3c 2705 4f3e 6aab 943b e31c a93d
00000190: 7bf0 433e b4f8 e43d 0983 063e 1390 eebc
000001a0: 0286 b93d 2590 0fbc 87f2 d53d 6aa4 df3d
000001b0: d464 cc3d 2af8 1bbe eee8 f23d 3375 3dbd
000001c0: 8a58 353e c69d c1bc 2591 29bd b9bd 72be
000001d0: b623 853d 35c0 d93c b72f 293e aa6e bcbc
000001e0: 93cc 7a3e 2dbc 293e 0c6a f4bd 8cec 28bc
000001f0: 9547 00bd 8952 0dbe cafa 6e3e 8ab7 cc3d
00000200: 8951 8dbe cba6 b43e 74ce 62be bddf 80be
00000210: 187a b1bc 8b0a 893d c710 913e 0664 f43c
00000220: 6c5f 183e f5c4 803e ccba a63e fb7a 813e
00000230: 92f2 8e3e 816a 66bd 9cb8 bebd 752d fbbc
00000240: c35c 14be dcd1 7bbe 18cd 523c 28b3 b6be
00000250: 9917 39be 9c8d 3f3d 0803 5d3e 43c9 8b3e
00000260: 34d4 dcbd 29cf 963d 0e37 16bd 4a68 9a3d
00000270: d463 bebd 563c 963d bc30 363e c6c8 6cbe
00000280: 363c 3d3e 91c0 643e c91d 2e3e a221 443e
00000290: 21e5 62be 1ede 81bd e1ea d93d 58e9 5ebd
000002a0: 9e16 3f3e 8664 d4bd eae8 b73d 8cbf 92bd
000002b0: 0573 3cbe 9972 a2be 5d8b 68be dc6e 04be
000002c0: 18ab 623e 8d37 3d3e 56c0 663e 18b6 33bc
000002d0: 34c0 4ebe 4080 8bbd 221c 14be b2e0 013e
000002e0: 67cd 733e 1dfa c23a abcd b3be 2fa7 d03d
000002f0: 93ef 37be bf69 103e 322d 7d3c 6448 b93d
00000300: 5f1e 3f3f 6f57 67bf 33f2 79bf f87f bf3e
00000310: 613d f23e 4771 f6be bc3e 23be 8043 06bf
00000320: 7e8d 323f 6b76 3e3f b938 bebe 2a6c 45bf
00000330: 134a 0abf b85c 203f 5e6a f23e 86c3 133f
00000340: d942 033f 9207 48be 8768 a93e 8264 92be
00000350: 9b41 153f a60f 743e 05f9 903e de92 b2be
00000360: 817a af3d 6dda 81be 9630 0c3f af23 8e3d
00000370: 71e4 0fbf d3b3 063f c26d 353f 3dfa 2a3f
00000380: bcfe 8fbe 2021 8fbe 4962 8d3d 362d b73e
00000390: 33a7 fcbe e267 333e eb8d da3e 4eb4 263e
000003a0: c7eb 0bbf 85d6 10bf feb9 f73e 32ac e03e
000003b0: 98ac 8fbe 34ad e83e fd4a 5e3f 9c8a 383f
000003c0: 46ea f73e d87f e3be e754 ff3e 01a9 b1bd
000003d0: 6acf 2f3e e771 c63e 1eb7 973e 6cd5 ea3e
000003e0: 98e8 053f b946 fa3e f604 f33e 43fa adbe
000003f0: cba8 91be 69bc 743e a0ed ca3e 44a1 70be

fc.weight f4 [1, 64]
-116.23401 104.88385 -114.181854 -112.437996 112.08612 113.959435 113.61806 114.67563
114.29842 115.43077 113.57794 112.0555 113.715515 112.3807 61.259693 111.90666
111.47715 -113.59196 -66.204865 -111.526184 -115.59565 -65.358086 112.52492 106.18741
70.870255 -113.71996 110.08153 -31.139994 -112.67308 -111.633446 114.47377 -114.63494
114.07869 114.89138 113.99787 116.81357 -113.46075 40.02474 116.200966 -114.35646
113.8345 -114.604645 112.40115 111.45089 -115.71645 -114.94717 -116.804504 -112.862526
116.49535 113.75446 115.973 -108.83923 -114.69881 112.129845 -115.924484 -67.77909
116.38711 63.571323 -116.40129 80.047485 -113.76058 72.102486 -111.83528 101.794655
00000000: d077 e8c2 88c4 d142 1c5d e4c2 41e0 e0c2
00000010: 182c e042 3beb e342 723c e342 ec59 e542
00000020: cb98 e442 8edc e642 e827 e342 6a1c e042
00000030: 586e e342 ebc2 e042 ed09 7542 36d0 df42
00000040: 4df4 de42 152f e3c2 e468 84c2 680d dfc2
00000050: f930 e7c2 57b7 82c2 c20c e142 f45f d442
00000060: 92bd 8d42 9f70 e3c2 be29 dc42 b51e f9c1
00000070: 9e58 e1c2 5344 dfc2 92f2 e442 1745 e5c2
00000080: 4a28 e442 63c8 e542 e9fe e342 8ca0 e942
00000090: e7eb e2c2 5519 2042 e566 e842 82b6 e4c2
000000a0: 44ab e342 9435 e5c2 64cd e042 dbe6 de42
000000b0: d36e e7c2 f3e4 e5c2 e89b e9c2 9db9 e1c2
000000c0: 9ffd e842 4982 e342 2df2 e742 b0ad d9c2
000000d0: ca65 e5c2 7b42 e042 56d9 e7c2 e58e 87c2
000000e0: 33c6 e842 0949 7e42 76cd e8c2 5018 a042
000000f0: 6b85 e3c2 7934 9042 aaab dfc2 dd96 cb42
