LSTM_MODEL/TCS_SGD_Test_model.pt (torch, 89441 bytes, 5 tensors)

lstm.weight_ih_l0 f4 [256, 19]
00000000: 069f b8bc 9164 fd3d 2c85 c33d ce0c 8a3d
00000010: c841 37bd 8408 853d 40fb afbb 73b2 acbd
00000020: 1124 253d fad1 8f3c 3ab7 a13c 02ea 263e
00000030: c333 043d a7b2 323e a58f 9dba 01e2 913c
00000040: 9cbd 3e3e 91fc 883d 8031 953c 7049 5c3e
00000050: 0952 073d 5044 cdbc d8fd f23c c81d b23c
00000060: a0bd db3b f450 f7bd 3f46 bbbd b5c2 b0bb
00000070: 20c1 743e becc 093e 48b9 163e e191 973d
00000080: 3c6f 813e ae6e b43d b6c5 283e 8d29 343d
00000090: 8e87 6b3d b18e 473e b8f7 95bd 028d fa3c
000000a0: 1295 ba3d aaa4 a5bd e292 cc3d 9877 733d
000000b0: 9496 6d3d 5369 83bd 635b d3bd 408c 67bd
000000c0: 9c6e 61bc 3bfd f4bc 466b 90bd 6d30 96bd
000000d0: 22f5 c53c f0f7 8b3d 61a9 c73d d45d 99bd
000000e0: 53be 153d ede7 d03d ade6 da3d ce1c 853d
000000f0: bcb6 bb3d 40c8 fa3c f08d 9a3c 7ae3 fdbd
00000100: fa0c a23a 7a26 d7bd eb35 49bd 13fb e13d
00000110: f6e4 1ebd 7c01 fd3d 1dcf 4b3d 85af 67bc
00000120: 7984 78bd e26b 673d 70ec b03d a755 72bd
00000130: 016c f73d ba10 9fbc 4076 83bc 5c74 c1bd
00000140: 2c3d 56bd d072 63bd 6480 653d 0d91 adbd
00000150: 1bc4 e2bd 4f07 77bd 2fa7 79bd 04bc 843c
00000160: 96e0 8e3d c428 ea3c 59d7 8bba e8fc e23d
00000170: 0a58 e9bc 7f1c 053e bf6c 133e a558 64bd
00000180: 5787 7ebd 3086 953c f0de 1c3d a2b2 de3d
00000190: 1275 ab3d 0cd2 2bbd 922f 59bd cfe4 8f3c
000001a0: 6f66 143e cfe7 db3d f851 ebbc f471 2f3c
000001b0: e23a c93d d967 ad3d d890 363e f19e 1f3e
000001c0: cf69 223c 8f23 00bd 1d52 c13d 9918 3b3d
000001d0: 7063 70bc dc16 f6bd 5893 1d3d 2650 fd3d
000001e0: 1480 45bd 75ac f23c 49a7 20bd 4912 1d3e
000001f0: ad06 0a3e b55d 9d3d 966a 1d3e 5750 933d
00000200: 4645 813e 25d7 063e d151 4a3e 7613 6b3c
00000210: 2901 083e c5e2 923d abcb 823d 70cb 89bd
00000220: 90f6 3ebc c0f8 7f3c 6070 ddbd ac15 0a3d
00000230: bcfa dfbd 198d e2bb 7a43 f43d c417 93bb
00000240: 7ddd 35bb 9bd6 e93d 745d b73d 3cb5 c03d
00000250: dd32 d13d 4bcc df3d 92ae 913c 3393 043c
00000260: 7a76 ed3d f744 a13d d05a 0d3c 8077 6dbb
00000270: 5a5a a73d 101a 453c 3483 eb3d fc67 803d
00000280: 7c91 a43d 7590 4e3e 7536 233d 5ffe ce3d
00000290: 96fd 103e 5928 7c3d 3ff8 7d3d 482d 623e
000002a0: 1f71 b63d 53ed a73d ffdd 3c3e 01e3 503e
000002b0: 741b 35bd 14bc 5fbd 90d7 ab3c c858 0ebd
000002c0: 2622 c0bd b013 b13c e2a8 b03d b6cb 133c
000002d0: f52c 0f3e 85da c6bc 3e46 2a3e 28e4 373e
000002e0: 9613 b23d 3b8f 923d 2783 203e e063 083e
000002f0: d39a 483e 248e 693d 5db3 0e3e 9d01 9bbd
00000300: c0e7 7bbb 30a2 113d 2a6a b33d 3e0f e73d
00000310: fee5 92bd 5ac4 ba3c 1557 483d a3b4 f03d
00000320: ab1b 2fbd c610 d03d 7bd3 86bd 5fbb 08bd
00000330: 5dcb a63d 4c51 bcbd b872 023e fe92 bcbd
00000340: 37d0 5a3d 512a 833d e53c c5bd 5427 fe3d
00000350: c0db f5bb acd8 833d 6e4e ea3d 587d 29bd
00000360: a03a f53d 4a7a ac3d f317 7d3d 6d0f 66bd
00000370: 9908 ab3c 011b 043e 06e7 e23d 1074 503c
00000380: 260c f13b c358 9c3b 4185 6ebd 3ef7 ca3d
00000390: 8b01 a83d ed31 303d f620 febd 86d2 a9bd
000003a0: 46f6 e03d a895 f23d 5424 c83d 6124 a5bd
000003b0: 024d d3bd 7e83 8ebd dce2 cf3d 5b59 c8bd
000003c0: 4c55 a33d 1223 e73d 2234 bc3d 1daa 0d3e
000003d0: 8c41 bb3c 920f e03d ed5a 6d3d 5d6c e73d
000003e0: 2d98 ac3d 78aa fdbd d84e 6dbd 4ee7 80bd
000003f0: 401e 69bc d6ec eb3d 8c11 253d f5c0 a33d
-0.022536766 0.12372697 0.09546885 0.067407236 -0.04474047 0.06495765 -0.0053705275 -0.08432474
0.0403176 0.01755618 0.01974069 0.16300204 0.032275926 0.17450963 -0.0012020959 0.017807962
0.18627018 0.06688798 0.01821208 0.21512389 0.03303722 -0.025056988 0.029662058 0.021742716
0.0067059547 -0.120759875 -0.09144258 -0.0053943046 0.23901796 0.13457009 0.14719117 0.07400871
0.25280178 0.08810173 0.1648167 0.04398494 0.057502322 0.19488026 -0.07322639 0.030584816
0.09110464 -0.08088048 0.09988953 0.059440225 0.05800493 -0.064165734 -0.10320165 -0.056530237
-0.0137592815 -0.029905906 -0.07051711 -0.07333455 0.02416474 0.068344 0.09749103 -0.074885994
0.03655846 0.10200486 0.10688529 0.06499635 0.09165713 0.030613065 0.01886651 -0.12396903
0.0012363486 -0.10505386 -0.049123686 0.11034217 -0.038792573 0.12353799 0.049758065 -0.014140968
-0.06067321 0.05649937 0.08638847 -0.059163716 0.12081147 -0.019417156 -0.016047597 -0.09446022
-0.05230443 -0.055529416 0.056030646 -0.08474932 -0.110725604 -0.060309704 -0.060950454 0.016202934
0.0697643 0.028583892 -0.0010669037 0.11083394 -0.028484363 0.12999152 0.14396952 -0.0557486
-0.06214079 0.018252462 0.038298547 0.10873915 0.08371939 -0.041948363 -0.053023882 0.01756516
0.144922 0.10737573 -0.02872561 0.010708321 0.09825684 0.08467073 0.17828691 0.15587975
0.009912922 -0.03128391 0.0943949 0.045677755 -0.014672145 -0.12016079 0.038470596 0.12368803
-0.048217848 0.02962325 -0.039222036 0.15339006 0.13479109 0.07683889 0.1537269 0.07193058
0.25248164 0.13168009 0.19757773 0.014347902 0.13281693 0.07172159 0.06386503 -0.06728256
-0.011655465 0.015623271 -0.108124495 0.033712074 -0.10936496 -0.006913793 0.11926933 -0.004488917
-0.0027750426 0.11417886 0.08953372 0.09409568 0.102147795 0.10927638 0.017783437 0.008091736
0.11594863 0.07874482 0.008627608 -0.0036234558 0.0817153 0.01203014 0.114996344 0.062698334
0.080355614 0.20172293 0.039846856 0.10107111 0.14159235 0.061561916 0.062004324 0.22087586
0.08908295 0.08199563 0.1844406 0.20399095 -0.044215634 -0.054622725 0.020976812 -0.034752637
-0.09381513 0.021615833 0.08625962 0.009020736 0.13981993 -0.02427412 0.16628358 0.17958128
0.08695142 0.07156225 0.1567503 0.1331935 0.19590311 0.05702032 0.13935609 -0.07568667
-0.0038437694 0.035555065 0.087604836 0.11282204 -0.07172774 0.022798706 0.048911173 0.11753204
-0.042750996 0.10159449 -0.065833054 -0.033381816 0.08144257 -0.09195194 0.12739074 -0.09207724
0.053421225 0.064045556 -0.09630755 0.12409845 -0.007503003 0.06437811 0.114407405 -0.041379303
0.119740725 0.08421762 0.061790418 -0.056167055 0.020878123 0.12900926 0.110792205 0.012722984
0.0073561845 0.0047713234 -0.05823255 0.09910439 0.08203419 0.043016363 -0.124086305 -0.08292107
0.10984473 0.11844951 0.09772554 -0.08063579 -0.103174224 -0.06958674 0.10150692 -0.09782668
0.079752535 0.11285986 0.09189631 0.13834424 0.022858404 0.1094047 0.05794804 0.112999655
0.08427463 -0.1238603 -0.05793652 -0.06294118 -0.014228404 0.11519782 0.040299937 0.07995788

lstm.weight_hh_l0 f4 [256, 64]
00000000: 746d 353d 855a 663d c29a 11be 22a3 33bd
00000010: 982a 25bd 743d 993d 4dd9 90bb 8e3e 523e
00000020: e36e f63d f86a 323e b820 9cbc f976 163e
00000030: dc98 ad3d c9f0 343e 9305 cfbd f309 533c
00000040: 63ce bd3d 503f e3bd b8eb f4bd f03f c6bd
00000050: 0dcc 0abd e0c1 63bd f6a6 0a3e 0485 2a3c
00000060: 5689 ce3c 1149 39be cccf 853d ccde 423d
00000070: 7894 04be 2fcd 06be cc39 e5bc e271 68bc
00000080: afe1 b93d ebe8 5f3c f7e1 623d c3a7 553e
00000090: dcb1 ffbd c077 2f3e 95d9 4d3d bffa 45be
000000a0: 0e40 cc3c b175 11be e3d1 cd3d 0de8 35bd
000000b0: b409 b0bd 6b03 7ebd f071 293c 29bc d33c
000000c0: 48c8 0f3e 3178 a13d e2b4 4b3d 3032 da3c
000000d0: 2c4d 1dbe 0892 4f3e 87ba 2bbe 67f4 1c3d
000000e0: 7b4a e03c c856 26bd 11ef 1ebe 65f3 1fbd
000000f0: b961 f23c aa57 eb3d 6b4e 30be e2a2 9b3d
00000100: 1e05 58be 5854 1dbd 2bf7 febd dd00 11be
00000110: e2cb d63d 2b6e 1d3e 6301 323e 7ad7 913d
00000120: f287 833e 26c9 243e 68ac 333e 2aac e33d
00000130: 7864 4e3e f776 223e 73c4 04bd e058 d63d
00000140: 2436 ed3d 5519 8bbe b4b4 b5bd 5a68 84be
00000150: 3c28 4fbd 44f3 c63d 05d8 503e b409 b23c
00000160: f038 1b3d d3a3 73be 48f5 653e c8e0 84bd
00000170: 330a 6ebe 63c3 d7bd 1865 663e 1612 7fbd
00000180: 34ac 4b3e cd33 753e 0a15 193e 66b4 6d3e
00000190: 9344 57be f045 aa3d 9414 663e 9f6d 80bd
000001a0: 771d 943d f4e0 11be 2c72 6d3d fcff ad3d
000001b0: 07a0 61be 8cfe d4bd 7895 85be 8225 8ebe
000001c0: fd9d ec3d 90c3 e53d a49f 323e ceb4 70be
000001d0: 756c 24be bd60 0c3e 05c3 20be 48f6 51be
000001e0: 81ac 473d b81b 983d db36 90be 6e39 7f3d
000001f0: 3976 78bd 2d93 893e f6d2 5dbe 5a7a 59bd
00000200: 98a9 073d ba33 e53a ffd3 acbd 54fc cbbb
00000210: ce8d 523d 6e97 ac3d b1b3 9d3c 511a d23d
00000220: 9761 97bc b9fa 473d 0def 9d3d bf68 983d
00000230: cfff 20bd b075 503c fab6 d7bb 8dab 0b3a
00000240: 1aa1 b93d e7a6 78bd 9a7a 98bc 6d10 9c3d
00000250: 5afe e8bd d43d 9c3c 20fb 95bc 19d8 c43c
00000260: 16ac e4bd dcc4 cbbd ac87 fd3d ea9b d93d
00000270: b838 d2bd 5527 0a3d 8d30 82bd 0994 303d
00000280: 6806 4dbd 19d4 5f3d e9fa ff3d d025 193e
00000290: de45 723d 9efd a7bd 48e4 db3d c19a 15be
000002a0: 8609 8c3d 4533 b03b 3102 de3d aa0a a8bd
000002b0: 613d 69bd 2f54 c9bd a872 f9bd 84c7 08be
000002c0: 6e72 2f3c 41c4 753d 8f7d b7bd 2c4f dcbd
000002d0: f90c 863d 4d10 083c 25d5 9c3d 2d57 c5ba
000002e0: d3d6 4abd 5716 d53d b1d1 1ebe fd5d aabc
000002f0: 60e3 a23d 7797 eb3d 454c cc3d 55e8 9ebd
00000300: d445 c93c b6bd a1bd 2aaa 40bd ce63 a03b
00000310: b016 ca3d 9a5b 0a3e 627f 28bd 2eb8 8bbd
00000320: 9a91 113e 517c 87bd 6e98 19bd 754a 193e
00000330: 0b84 dabc f7d2 bd3d a1d6 b7bb 1c95 f53b
00000340: c0d9 33bc d531 bb3d 56b3 bfbd 1cce 19be
00000350: 2419 9ebd 0f95 993c 05cc 033e 78dc 32bd
00000360: 5032 6eb8 59c8 b7bd 0b8a 293d 0a9c d1bd
00000370: 0d42 efbd 81ac 3fbc fae8 193d 766c 2dbd
00000380: ce64 91bd c450 59bc 7ee2 62bd 6e73 9c3d
00000390: 276f 8cbd eb5a 9abd 44d0 cc39 ba78 993d
000003a0: 1152 6bbd 1f42 c4bd 2c0c 003d 32a0 84bd
000003b0: 5ba4 e0bc 2f78 3bbd c324 d1bd fe7f 07bc
000003c0: 91ea 37bd e2fe b6bd 30b0 063e 893a 8d3d
000003d0: 3dc4 0fbd 45f8 42bd a1c0 d2bd a0cd 303d
000003e0: 7284 87bd 80e3 243e 2e3f 043c b82d e43d
000003f0: 8151 48bc 1176 ef3d 8f20 dabd 08b5 973d
0.044293836 0.05623867 -0.14219192 -0.043856747 -0.040323824 0.074824244 -0.0044204355 0.20531675
0.12032869 0.17423618 -0.01905857 0.14693822 0.08476421 0.17669977 -0.10108485 0.01288079
0.09267881 -0.1109606 -0.11959022 -0.09680164 -0.033886004 -0.055604815 0.13540253 0.01040769
0.025211971 -0.18094279 0.06533775 0.047575757 -0.12947261 -0.13164209 -0.027981661 -0.014187308
0.09076249 0.013666372 0.055391278 0.20864777 -0.12485096 0.17135525 0.05025633 -0.19333933
0.024932887 -0.14205052 0.10049798 -0.044410754 -0.08595601 -0.06201498 0.010342106 0.025846558
0.14041245 0.07884253 0.04973305 0.02663526 -0.1536147 0.2027055 -0.16770373 0.038319018
0.027379265 -0.040610105 -0.15520884 -0.03905048 0.029587613 0.1149133 -0.17217414 0.07599427
-0.21095702 -0.038410515 -0.12449487 -0.14160486 0.10488106 0.15374057 0.17383341 0.07121177
0.25689656 0.16092357 0.17546237 0.11116822 0.20155513 0.15865694 -0.03241391 0.1046617
0.11582592 -0.27167764 -0.08872357 -0.25860864 -0.05057548 0.09714368 0.20394905 0.021733142
0.037896097 -0.23792963 0.22456849 -0.06488186 -0.23246078 -0.10535314 0.22499502 -0.062273107
0.19889909 0.23945542 0.14949432 0.23213348 -0.21022253 0.08314121 0.22468787 -0.062709086
0.072321825 -0.14245969 0.05797021 0.08496091 -0.22033702 -0.104001135 -0.26090598 -0.2776299
0.115535714 0.11218941 0.1744371 -0.23506472 -0.16056998 0.13708778 -0.15699394 -0.20504105
0.048748497 0.07427162 -0.2816685 0.06231063 -0.06065962 0.268701 -0.21662506 -0.0530952
0.03312072 0.0017486729 -0.084388725 -0.006225148 0.051404767 0.084273204 0.019250723 0.10258926
-0.018479152 0.048823092 0.07711611 0.07441854 -0.039306458 0.012723371 -0.006583092 0.0005327992
0.09063931 -0.060706045 -0.018613148 0.076203205 -0.11376639 0.01907245 -0.018308222 0.024028825
-0.11165635 -0.09949657 0.12379393 0.10625441 -0.102647245 0.033728916 -0.063569166 0.043109927
-0.050054938 0.05464563 0.12499029 0.1495583 0.05914866 -0.082026705 0.107369006 -0.14609815
0.06837754 0.0053772056 0.10840262 -0.08205159 -0.0569433 -0.0983051 -0.12180072 -0.13357359
0.0107084345 0.060001615 -0.08959495 -0.10757288 0.06545443 0.008304668 0.076578416 -0.0015055888
-0.04952128 0.104046516 -0.15509678 -0.02079677 0.079535246 0.11503499 0.09975485 -0.077591576
0.02456943 -0.078975126 -0.04703728 0.00489471 0.098676085 0.13511506 -0.041137107 -0.06822239
0.14215699 -0.06615508 -0.037498884 0.1496981 -0.026674291 0.09268754 -0.0056103026 0.007494582
-0.010977209 0.09140364 -0.093603775 -0.1502003 -0.07719639 0.018747834 0.12870796 -0.043667287
-5.679048e-05 -0.0897376 0.041391414 -0.1023484 -0.1168252 -0.011698843 0.0375757 -0.042339765
-0.07099305 -0.013263885 -0.05539178 0.07639204 -0.06857138 -0.075368725 0.00039065082 0.0749373
-0.05745131 -0.09582924 0.031261608 -0.06475867 -0.02742212 -0.045768913 -0.1021209 -0.008270262
-0.044901434 -0.08935334 0.13153148 0.0689593 -0.035099257 -0.04760005 -0.10290647 0.04316485
-0.06617059 0.1610241 0.008071704 0.11141533 -0.012226463 0.11692441 -0.10650741 0.07407576

lstm.bias_ih_l0 f4 [256]
00000000: 6964 593e b0b2 9b3e d350 b73c 06de 963b
00000010: 3901 fcbc 2c20 ac39 1993 6f3e f3a0 aabd
00000020: 1eab 303e c005 793e 2ace f83d e784 e43d
00000030: a45e ec3d 8093 af3c 8c4c 53bd edc7 81bd
00000040: dc04 c23d eab3 4c3e a95c 21be 4d65 b13d
00000050: d1ca 2d3e 0086 4bbe 3ed9 4f3c d33c a2bb
00000060: 048a d13c 7c5c 513e 4a8a cabd 70b6 9a3d
00000070: 2645 953d d1f8 293d c3f9 583e 552d 963e
00000080: fcef ad3d db63 0b3e b525 1cbd babd c63d
00000090: 625a 213e b7ce ebbb 5a8e 0b3e 1e82 59bc
000000a0: 86c8 2bbc 73c8 923c 2087 ebbc 8545 693c
000000b0: ad79 953d 8ed1 a13d f2d4 0c3e 73cc 50bc
000000c0: 0e13 013e f68f 803d ba16 0f3e 9a45 24bd
000000d0: 5090 2b3e e268 3a3e 24d1 3a3e c154 cbbd
000000e0: 2434 a23d 9ecd 94be 22d2 413e 44cf 1b3e
000000f0: e5b4 d93c 9916 fd3d 347b e0bc 98d5 58be
00000100: 2717 1c3e a170 853e 4947 913d 047a b7bb
00000110: e60c 313e 56a9 553e 2a72 763e 68c4 ed3c
00000120: dc33 933d b490 2c3d 2eae 123e c3ca 9c3d
00000130: 4129 e8bb 6fa2 903d dfe5 26bd 14c1 903d
00000140: 508d 2abd 5f95 883d 9e86 d4bd b922 57bd
00000150: 0e5b ab3c 5ee2 1abe 00aa 2e3e e93b 033d
00000160: 563e 42bd 336e d13d 64b3 79bd c06a c3ba
00000170: 0083 7a3d 0e63 453d a4df 2b3e 7ae9 3e3e
00000180: 0a3b fa3d 9209 a13d b1da 473d d75b 623e
00000190: e16f 143e 62da 5b3d a381 493e ef1e 423e
000001a0: a871 3c3e acf4 4d3e 4c2f 3f3e 4e2d c3bc
000001b0: 8337 653e 7ee7 9b3d 87fc 4e3e a417 573e
000001c0: e69c cb3d 9ae7 3e3e 21b3 223e ff7e 583d
000001d0: 2e33 dabb 97a1 093b 93ac 3abd 9e28 93bb
000001e0: 12e9 af3d bbdc a3bd e12a 55bc 8b0a 7c3d
000001f0: 23ba 973d 1da5 f53d 542a b53d 799f 2bbe
00000200: b107 46be f1be 9b3e 8ea6 49be 44a1 8abe
00000210: 6d5e 6f3e 168a 893e 16d2 733e 9d25 403e
00000220: d547 173e 43d2 9c3e 7620 353d 1c9a 573e
00000230: 6c46 103e bcd4 843e 5bba df3d e458 033e
00000240: c534 f5bd 98d5 ffbd 8353 cd3d 7b2b 57be
00000250: 690e 8ebe 08a8 b2bd f44e 773e c0c2 ec3d
00000260: d3b2 f23c 38a7 2f3d 70bc d63d 8143 04bd
00000270: 988b efbd d6b8 3bbe f121 733e c64c 6fbe
00000280: 3c4b 4b3e 0747 993e 4392 fa3c ad43 a43e
00000290: c246 81be 3d14 c43d 5206 033e c53f 98bd
000002a0: 32f3 aa3d bab3 2dbd f8d9 c23d 8794 b63d
000002b0: e555 07be da38 06be 8926 88be fb60 70be
000002c0: 23c4 393e 946b 543e 5d53 3c3e 68bf 8cbe
000002d0: a0b0 f5bd dc30 343e 8996 d0bd f467 fa3d
000002e0: b846 513e c672 353e 934d d1be 3fef 2c3e
000002f0: f8f6 863d 8877 713c 8fc1 19be 6937 0f3d
00000300: dc61 623e 7712 6bbe a800 333b cd71 873e
00000310: 21b9 433e 6692 e63d a99f b03e d54d 673e
00000320: b436 1b3e cdd1 893e 0d00 6e3e 7c87 4b3e
00000330: ad8d 1c3e baff 873e 77ce 3f3e 3226 ba3d
00000340: efa9 3c3e 96ca 613e 9f45 c23d afa9 493e
00000350: 6ebf ca3d 6a42 883e d86a 3f3e 9e1b 893e
00000360: 94e2 833e b87e 633e 49ac c43d 4c07 8f3e
00000370: 675c 583e 6359 1a3e 144a 823e 0926 1c3e
00000380: 6cfe 523d 51e0 6e3d cf83 533e ac13 b13e
00000390: 1b0e 933e d08c 4b3e 25c2 0d3e 4d97 413e
000003a0: 5165 523e 395e 4d3e d515 7f3e 7179 e53d
000003b0: 075d c33d 6360 913e 02ab a73e 2cfe 963e
000003c0: bbd7 e53d 8e55 923d 7a40 8b3e ec81 01be
000003d0: b143 893e e819 9f3d 3738 c33d b100 8d3e
000003e0: 7389 a53e fd67 593e 7503 8f3e 103c 763d
000003f0: 6369 f33c 22d3 4c3e fdcd 863e 35c6 e23d
0.2122971 0.30409765 0.022377407 0.004604104 -0.030762302 0.00032830366 0.23395957 -0.0833148
0.17252776 0.243186 0.12148698 0.111581616 0.11541489 0.021432638 -0.051586673 -0.06336961
0.09473583 0.19990507 -0.15758003 0.086619 0.169719 -0.19875336 0.012686072 -0.0049510985
0.025578506 0.20445436 -0.09889658 0.075543284 0.0728858 0.041497055 0.21189027 0.2933146
0.08493039 0.1361231 -0.038121898 0.09704156 0.15757135 -0.007196273 0.13628522 -0.013275651
-0.01048482 0.017917847 -0.028750956 0.014237766 0.072985984 0.079012975 0.13753107 -0.012744057
0.12604925 0.06277458 0.13973513 -0.04010544 0.1675427 0.18204072 0.18243843 -0.09928275
0.07920101 -0.29063123 0.18927816 0.15215784 0.026575515 0.12357826 -0.027402498 -0.2117523
0.15243207 0.26062492 0.07093675 -0.005599262 0.17290077 0.20865378 0.24066988 0.029024318
0.07187626 0.042130187 0.14324257 0.07655861 -0.007084996 0.07062232 -0.040746566 0.07068077
-0.041638672 0.06669115 -0.10377239 -0.05252335 0.020917442 -0.15125415 0.17057037 0.032039557
-0.04742273 0.10226097 -0.060962096 -0.0014909133 0.061160088 0.04819017 0.16784531 0.18643752
0.12218292 0.078631535 0.048792545 0.22105347 0.14495803 0.053675063 0.19678359 0.18957113
0.18402731 0.20112866 0.18670386 -0.023825314 0.22384457 0.07612513 0.20213519 0.21005112
0.099420354 0.18643036 0.15888645 0.052855488 -0.006658933 0.0021000856 -0.045574736 -0.004490926
0.085893765 -0.08001085 -0.013010711 0.061533492 0.0740855 0.119943835 0.08845964 -0.16760053
-0.19338872 0.30419114 -0.19692442 -0.2707616 0.23375864 0.26863164 0.2381061 0.18764348
0.14773495 0.30629167 0.04422041 0.21054882 0.14089364 0.25943553 0.10924216 0.12826878
-0.119729556 -0.12491912 0.10025694 -0.2101268 -0.2774537 -0.08723456 0.24151212 0.11560583
0.029626286 0.04288408 0.1048516 -0.03229094 -0.11696547 -0.18332228 0.23743416 -0.2336913
0.19852918 0.29937002 0.030587321 0.32082883 -0.25249296 0.09574173 0.1279538 -0.07434038
0.08347167 -0.04240773 0.095142305 0.08915048 -0.1321636 -0.13107625 -0.265919 -0.23474495
0.18141226 0.20744163 0.18391176 -0.2748978 -0.11996579 0.17596763 -0.10184962 0.12226859
0.20437133 0.17719564 -0.40879497 0.1688814 0.06590074 0.014737971 -0.15015243 0.034964953
0.22107643 -0.22956263 0.0027313624 0.2645401 0.1911359 0.11258392 0.3449681 0.22588284
0.15157586 0.26917878 0.23242207 0.19875902 0.1528842 0.2656229 0.18731104 0.090893164
0.184242 0.22049937 0.094859354 0.19693635 0.098997936 0.2661317 0.18693101 0.26778883
0.25758803 0.22216308 0.09603173 0.27935255 0.21128999 0.15073161 0.25447142 0.15248884
0.051512167 0.058319394 0.2065575 0.3458532 0.287217 0.19877934 0.13843592 0.18905373
0.20546462 0.20055474 0.24910672 0.11204804 0.09539228 0.2839385 0.32747656 0.29490793
0.11222788 0.071452245 0.2719763 -0.12647218 0.26809457 0.07768613 0.095322065 0.2753959
0.32331428 0.21231075 0.27932325 0.060115874 0.029713338 0.20002416 0.26329032 0.11072961

lstm.bias_hh_l0 f4 [256]
00000000: 358e 933d a59d 163e 98fc 053e d897 1b3d
00000010: b5bd 253d 306a 643e 48c4 df3d 2fa9 9ebd
00000020: 1555 853e dc1b ab3d 1ef0 a53d 1881 0fbd
00000030: 0dec 6fbc 3476 543c 8a9a 82be 1608 47bd
00000040: 074e b23d da70 93bc 016c 31be 2dab ea3b
00000050: a6ce 233e 2ff7 2dbe 1447 063e 4606 0cbe
00000060: e56f 173e 25c5 8c3d 2034 dc3c 2c66 163e
00000070: 9f50 dd3d a13e 273e e467 d63d 0efc 583e
00000080: 4850 8c3e 2cf8 69bd 8757 8b3d 0061 a13d
00000090: 257e 463e ce8c 32bd 6510 033e ccd2 6fbd
000000a0: 7707 403e b957 15bb 0d83 0a3e 5e43 1b3e
000000b0: 8b10 523e e087 143d 46e1 ee3d d776 403d
000000c0: 09c5 273e 13ed 1c3e 55ed 223e e685 1b3e
000000d0: e488 c13c 8458 253c a49b 213e eb81 4cbd
000000e0: 20cb 153e b85b fbbd bd0e 3d3e 0d56 003e
000000f0: deaf ac3d 397c d33d 1da8 a5bd 953a cd3c
00000100: 929e 123e 79b1 b53d f420 5f3c 8ed8 853d
00000110: b9d1 14bd a996 2c3e 2022 833e 97d6 263d
00000120: c8ec 2e3d 8693 8a3e af32 203e f9da d43d
00000130: bc55 3c3e 8b26 cd3c 0f8f 4f3d 7189 98bb
00000140: 73e5 75bd 8c1f e33d 90c2 bcbc aca7 d7bd
00000150: 2d49 623e 3c23 21be 3c3b 093e 7cb8 33bd
00000160: 1a6b 1f3e 9ec7 3d3e 86ad 913d 9d28 e33d
00000170: 2305 373e 3446 013e ac0d 8e3d cb87 ae3d
00000180: 0066 a13c c2ac 353e 8066 603d 8ed9 833d
00000190: d012 443e 5418 373d d811 f83d 87b0 813d
000001a0: 073e b43d 5054 c3bc d19a ae3d 6f34 153c
000001b0: 094e 873d 422d f43d 3550 c53d 06b2 3e3e
000001c0: e338 093e 3787 f5bc b840 753e 2e53 7f3d
000001d0: 9888 3f3e c3e8 3c3c 8e00 053e 6375 e3bd
000001e0: 1f6e 593e c094 953d b47e 383e e9f3 debc
000001f0: 4693 fcbc dd06 b63d cca7 263e d280 c0bd
00000200: b8aa 5fbe 0ab5 923e 41a8 37be e74a 5dbe
00000210: 9e9f 7e3d 1599 213d 1ae4 873e 19d3 75bc
00000220: 04ba 163e f484 603e 1f00 8b3e e20f 803e
00000230: 2a5a 723e 3568 0c3d 5a11 abbc 8a67 073c
00000240: 3d98 bbbb 67e7 44be 62f6 9b3b 455e b1be
00000250: b0ec 24be 15b9 a73c 90a7 2a3e 5d02 b33c
00000260: 886c 71bc 8b68 4e3d 6cf4 b9bb 3238 5cbd
00000270: 032f 51bd 9a7d 483c c1a5 313e 1d38 63be
00000280: fc91 383e a543 423e 66fc 3f3e 80cb 303e
00000290: 7881 51be 2a74 af39 f9e9 933d 01ce 97bd
000002a0: d606 233e 9a55 98bc 1f92 203e c29a 39bd
000002b0: 29e6 c6bd 2c0a 2ebe a4a5 4bbe afac 92be
000002c0: 278c 533e 9383 243e f94d 0b3e 62c0 5bbe
000002d0: 3e68 47be 4810 8d3c b7e3 03be 64de e23d
000002e0: b777 5f3e e9b4 273e e7dc 97be 0ceb 43bc
000002f0: ec36 11be 89ec 4d3e 5e22 7bbd 4cd3 80bd
00000300: cec7 6e3e b4d1 b9be eb01 c33d 9825 9f3e
00000310: 84a2 fd3d 9624 053e 19e5 443e 76fe 853d
00000320: 14c1 8e3e b194 ac3e d63d 503e bf33 473d
00000330: 31bc 803d 9ad1 983e 321d 923e 5d03 873e
00000340: 3637 323e bf10 9f3e d47f fd3d bfb7 8f3e
00000350: 5e4f 5a3e bd55 4e3e 703b 243e 1e50 0c3e
00000360: a010 303e ce5d e73c 02c7 d13c f36f 703e
00000370: 1dde e63c e1b1 403e 4d6d 9c3e e262 9a3e
00000380: 2480 0e3d c5b6 8a3e 2fb0 8d3e 9ac5 443e
00000390: b790 d73d 5676 253e 91fd 603e be07 923e
000003a0: ba40 323d 80f5 a63d 8e3e 293e 8ee5 f63d
000003b0: 11ff 543e 056f 7b3e eba1 c03e 9ee3 1e3e
000003c0: a17c a23e b593 e63d ee05 9f3e 23d8 b5bd
000003d0: 9f6a 743e 23fe 5b3d aaf2 d43d a2e2 903e
000003e0: 9236 a33e 4dad 603e 5d09 a23e c2db 2c3e
000003f0: dcd8 863d 7194 ed3d 350e b63d 99c8 f93d
0.07204858 0.14708574 0.13084638 0.037986606 0.04046412 0.22306132 0.109261096 -0.07747113
0.26041475 0.08354923 0.08102439 -0.035035223 -0.014643681 0.012967635 -0.2550853 -0.048591696
0.08706289 -0.017998148 -0.17326356 0.007161519 0.15996799 -0.16988824 0.13113052 -0.13674268
0.14788778 0.0687354 0.026880324 0.14687413 0.10806393 0.16332485 0.10469034 0.21189901
0.27405 -0.05712144 0.06803804 0.078798294 0.19384058 -0.043591313 0.12799223 -0.05855064
0.18752848 -0.0022787882 0.13526554 0.15162417 0.20514123 0.036262393 0.11664061 0.046988335
0.16383757 0.15324812 0.15910847 0.15187797 0.023624845 0.010091905 0.15782028 -0.049928587
0.14628267 -0.12273353 0.18462653 0.12532826 0.084319815 0.10326428 -0.08088706 0.025052348
0.14318302 0.08871741 0.0136186965 0.06535445 -0.03633282 0.16854347 0.25611973 0.040731993
0.04270628 0.27065676 0.15644334 0.10393328 0.1839208 0.025042793 0.05067354 -0.004655056
-0.060033273 0.110900015 -0.023041993 -0.10530028 0.22098227 -0.15736097 0.13401502 -0.04387711
0.155682 0.18533179 0.07113175 0.11091731 0.17873053 0.12624437 0.069362015 0.08521994
0.019701958 0.17741683 0.05478525 0.0643798 0.19147801 0.044700935 0.121127784 0.06332498
0.08800893 -0.023843914 0.08525623 0.009106739 0.06606681 0.11922695 0.09634439 0.18622598
0.13400607 -0.029971702 0.2395047 0.062335186 0.1870445 0.011530104 0.12988493 -0.11106374
0.21233414 0.073037624 0.18017083 -0.027215915 -0.030831944 0.08888028 0.16274947 -0.093995705
-0.21842468 0.28653747 -0.17935278 -0.21610604 0.06216394 0.03945263 0.26541215 -0.015003943
0.14719397 0.21925718 0.2714853 0.25012118 0.23667207 0.034279067 -0.020882297 0.008264432
-0.0057249353 -0.19228898 0.0047595957 -0.34642234 -0.16105914 0.020473996 0.16665483 0.021851713
-0.0147353485 0.05039267 -0.0056748893 -0.05376453 -0.051070224 0.012236977 0.17348386 -0.22189374
0.18024439 0.18971117 0.18748626 0.17265129 -0.20459545 0.0003346515 0.07222361 -0.07412339
0.15920576 -0.018595506 0.15680741 -0.045313604 -0.09711868 -0.16996068 -0.19887406 -0.28647372
0.20658933 0.16065817 0.13603963 -0.21460107 -0.19473359 0.017219678 -0.12879835 0.11077574
0.21823011 0.16377605 -0.29660723 -0.011957895 -0.14181107 0.20109762 -0.061312072 -0.06290302
0.23318407 -0.36292803 0.0952185 0.3108337 0.12384513 0.13002238 0.19228019 0.06542675
0.27881682 0.33707193 0.20336089 0.048633333 0.06285895 0.29847413 0.285379 0.26369753
0.17403874 0.31067464 0.12377897 0.28069875 0.21319339 0.20149894 0.16038299 0.13702437
0.17193842 0.028242972 0.02560759 0.23480205 0.028182084 0.18817855 0.3055214 0.30153567
0.034790173 0.27092567 0.2767348 0.19216004 0.10525649 0.16158423 0.21971728 0.28521532
0.04351876 0.08152294 0.16527769 0.12055503 0.20800425 0.2455407 0.37623534 0.15516517
0.3173571 0.11258642 0.31059211 -0.088791154 0.23868798 0.05370916 0.10397847 0.28297907
0.3187757 0.21941109 0.3164777 0.16880706 0.065843314 0.116005786 0.088894285 0.12196464

fc.weight f4 [1, 64]
00000000: 9186 92c2 fc3e 9342 6695 92c2 5662 93c2
00000010: 3c34 9242 2cc3 9342 04d7 9342 5a9b 9242
00000020: 2727 9242 42a6 9342 15e9 9242 bbfa 9242
00000030: c32a 9342 c268 9242 f345 7d42 b2d4 9142
00000040: 4d37 9042 7e64 93c2 d590 88c2 9337 92c2
00000050: ebf7 92c2 0bbb 82c2 ee0a 9342 6504 8742
00000060: 7ed0 8f42 978b 91c2 0be3 9042 2474 90c2
00000070: 9a9d 91c2 6875 91c2 1a53 9342 8548 93c2
00000080: 7e44 9242 5a09 9342 e818 9242 84a9 9342
00000090: 554f 93c2 c84f 9142 c76f 9242 96d1 92c2
000000a0: 9567 9342 e473 92c2 9f07 9342 2c10 9142
000000b0: bae1 92c2 5ba8 91c2 41a8 93c2 97fe 92c2
000000c0: 3206 9342 d133 9342 d1fd 9242 f22a 92c2
000000d0: bb81 93c2 515f 9242 5ae4 91c2 97b5 8bc2
000000e0: c5d1 9242 a9f4 8242 1fd5 93c2 6983 9242
000000f0: 7694 91c2 4377 9242 01a9 91c2 ddf9 7f42
-73.262825 73.62302 -73.291794 -73.69206 73.10202 73.881195 73.91995 73.30342
73.07647 73.82472 73.45524 73.48971 73.58352 73.204605 63.31831 72.91542
72.10801 -73.69627 -68.282875 -73.10854 -73.484215 -65.36532 73.52135 67.50858
71.90721 -72.77264 72.44344 -72.22684 -72.807816 -72.72931 73.66231 -73.64164
73.13377 73.518265 73.048645 73.831085 -73.654945 72.65582 73.218315 -73.40935
73.70231 -73.22635 73.514885 72.531586 -73.44087 -72.82882 -73.82862 -73.497246
73.5121 73.601204 73.495735 -73.08388 -73.75338 73.186165 -72.946 -69.85467
73.409706 65.47785 -73.91625 73.25666 -72.78996 73.23293 -72.830086 63.994007
