LSTM_MODEL/TCS_WS100_DT_E500_model.pt (torch, 89540 bytes, 5 tensors)

lstm.weight_ih_l0 f4 [256, 19]
0	0x3e1fc384	0.15601927
1	0x3e28aefd	0.16473003
2	0x3d825706	0.06364255
3	0x3df5b104	0.11996654
4	0x3db5ac64	0.088707715
5	0xbde50a9e	-0.11183666
6	0xbcbe6440	-0.023241162
7	0x3e58a664	0.21157223
8	0xbcc3a235	-0.023881057
9	0x3dd96194	0.10614315
10	0x3c4f1d17	0.012641213
11	0x3d48da34	0.04903622
12	0x3e1d98ac	0.15390271
13	0x3dd999a7	0.1062501
14	0x3e620762	0.22073129
15	0xbabd7d95	-0.0014456982
16	0x3df365fb	0.118846856
17	0x3c8d702a	0.017265398
18	0x3e1fa0b2	0.15588644
19	0x3dfa41ba	0.122195676
20	0x3d895fa7	0.06707697
21	0x3dfb837e	0.122809395
22	0x3dd1ce62	0.102444425
23	0x3dda0484	0.106453925
24	0xbc4428a0	-0.011972576
25	0x3d3986d4	0.045294598
26	0x3de7e3e6	0.11322765
27	0xbd637d54	-0.055539444
28	0x3e363b4a	0.17796054
29	0x3e87e8e2	0.26544863
30	0x3d96bf29	0.0736068
31	0x3db66301	0.08905602
32	0x3e17802e	0.1479499
33	0x3dbfe5ba	0.09369989
34	0x3e0b90f3	0.13629512
35	0x3e45d0f6	0.19317994
36	0x3d210386	0.03931
37	0x3e062d13	0.13103132
38	0x3e6bbaa9	0.23020424
39	0x3e329333	0.17438965
40	0xbd9e8626	-0.077404305
41	0xbcdbc458	-0.026827022
42	0xbc1379e0	-0.009001225
43	0x3bbc6800	0.0057497025
44	0x3dd006f4	0.10157576
45	0x3e3c5daa	0.18395105
46	0x3e470e9c	0.19439167
47	0x3dc50c7d	0.096215226
48	0x3e215b5d	0.15757509
49	0x3e2a5d9a	0.16637269
50	0x3d5778cf	0.052605446
51	0x3df2f09d	0.118622996
52	0x3dc13141	0.094332226
53	0x3e08187f	0.13290595
54	0x3e3f9b90	0.18711686
55	0x3e16faec	0.14744157
56	0x3db83935	0.089952864
57	0x3e231199	0.15924682
58	0x3e3d2976	0.18472847
59	0x3d689b34	0.05678864
60	0xbdd69b7c	-0.10478875
61	0xbdb2cb70	-0.08730209
62	0xbd961658	-0.073284805
63	0xbc941080	-0.018074274
64	0x3d87a2a6	0.066228196
65	0x3d3ec48f	0.04657417
66	0x3e482f6f	0.19549344
67	0x3e55646f	0.20839094
68	0x3e21a4d8	0.15785539
69	0x3d4e854d	0.050420094
70	0x3e637833	0.22213821
71	0x3da511c9	0.08060033
72	0xbaa715a2	-0.0012747536
73	0x3e58438d	0.21119519
74	0x3e2f2de4	0.1710735
75	0x3dae69ae	0.085162506
76	0x3cad1dad	0.021132315
77	0x3dd8314b	0.10556277
78	0xbc0e57d0	-0.008687928
79	0xbdb967aa	-0.090529755
80	0xbd9b2a1a	-0.075763896
81	0xbdb160b4	-0.08661023
82	0xbd475bfc	-0.048671708
83	0x3d930a6d	0.07179723
84	0x3e256834	0.16153032
85	0x3dd7165f	0.10502314
86	0x3e6b2dea	0.22966734
87	0x3e5528be	0.20816323
88	0x3d83a941	0.06428767
89	0xb8e9ed06	-0.00011154455
90	0x3cd90dbd	0.026495809
91	0x3e13f62e	0.14449379
92	0xbc1bebab	-0.009516637
93	0x3e2565cb	0.16152112
94	0x3e456826	0.1927801
95	0xbd6966c8	-0.056982785
96	0x3dead9e5	0.11467341
97	0xbd1f7f08	-0.038939506
98	0xbdf93670	-0.12168586
99	0xbc258080	-0.010101438
100	0x3cd8c9b0	0.02646336
101	0x3dd59530	0.10428846
102	0xbd78ff20	-0.06079018
103	0xbd79fd32	-0.06103248
104	0xbda167a7	-0.07881098
105	0x3e22eb3b	0.15910046
106	0x3d40bb5e	0.047053687
107	0x3b6e1129	0.0036326146
108	0x3dcb6e40	0.09933138
109	0x3cc3bb04	0.023892887
110	0x3dbf5641	0.093426235
111	0xbcfd8446	-0.030946862
112	0x3da28052	0.079346314
113	0x3df20b1d	0.11818526
114	0x3d545449	0.051838193
115	0x3dcc213f	0.09967279
116	0xbd9e827c	-0.07739732
117	0xbda9c628	-0.082897484
118	0xbda614c6	-0.08109431
119	0xbdc073c4	-0.093970805
120	0x3dfab458	0.12241429
121	0x3e82fa9b	0.25581822
122	0xbd8b9e15	-0.06817261
123	0x3d6d8020	0.057983518
124	0x3dcaaf16	0.09896676
125	0xbd0553ed	-0.03255074
126	0x3e28d03b	0.16485684
127	0x3e232151	0.15930678
128	0x3d71ec92	0.0590635
129	0x3d17116b	0.036881845
130	0x3d2e0acf	0.042490777
131	0x3e38ebb8	0.1805867
132	0x3e1268c7	0.14297782
133	0x3e61d181	0.22052576
134	0x3e490d70	0.19634032
135	0xbd4547c0	-0.04816413
136	0x3c9875c0	0.018610835
137	0xbd1eb6d4	-0.038748577
138	0xbd82a5ea	-0.06379302
139	0xbd77963c	-0.06044601
140	0x3e0b1a51	0.13584258
141	0x3dc84aba	0.09779878
142	0x3e4ce58e	0.20009443
143	0x3dc53d02	0.09630777
144	0x3dbb1645	0.09135107
145	0x3e452053	0.19250612
146	0x3de185d0	0.11011851
147	0x3df6c462	0.12049176
148	0x3e24e6e5	0.16103704
149	0x3e391aef	0.1807668
150	0x3cdda0ab	0.027054152
151	0x3dcc9dd1	0.099910386
152	0x3e055178	0.13019359
153	0x3e3aab18	0.1822933
154	0xbd8898f8	-0.066698015
155	0xbd93e62c	-0.07221636
156	0x3d499928	0.049218327
157	0xbdc821e6	-0.097720906
158	0xbbc0c760	-0.0058831424
159	0x3d85c593	0.06531825
160	0x3e1a4649	0.15065874
161	0x3e6ab17d	0.22919269
162	0x3e60be93	0.21947698
163	0x3e4a9203	0.19782262
164	0x3d8da9e7	0.06917172
165	0x3d89d31a	0.067297176
166	0x3e652871	0.22378708
167	0x3ddde4d2	0.1083466
168	0x3db3b2e7	0.08774357
169	0x3dde5568	0.10856134
170	0x3e1da403	0.15394597
171	0x3d9ea844	0.07746938
172	0xbc9da202	-0.01924229
173	0x3d81d05c	0.063385695
174	0xbdf90a02	-0.12160112
175	0x3d301ed4	0.04299815
176	0xbc1dba20	-0.009626895
177	0x3cb83100	0.022484303
178	0x3c92983b	0.017894855
179	0x3e5aa9d5	0.21353848
180	0x3dbbaca2	0.091637865
181	0x3e2b054b	0.16701238
182	0xbc59dc97	-0.013297222
183	0xbc711a41	-0.014715732
184	0x3e466c03	0.1937714
185	0xbd1288f6	-0.035775147
186	0x3e10af8a	0.14129463
187	0x3d81d624	0.06339672
188	0xbc671a18	-0.014105342
189	0x3e2be1ed	0.16785403
190	0x3ee22524	0.4416896
191	0x3ef0a93f	0.47004125
192	0x3c24a1a0	0.0100483
193	0x3d15bddc	0.036558017
194	0x3ddd1dd6	0.107967064
195	0x3de9e926	0.11421423
196	0xbd1f70e4	-0.03892602
197	0x3ee308b4	0.44342577
198	0x3eb99b06	0.36251086
199	0x3ed84704	0.4224168
200	0x3eb4f17d	0.3534049
201	0x3e73cccc	0.23808593
202	0x3ec50cff	0.38486478
203	0x3e927172	0.28602177
204	0x3e764509	0.24049772
205	0x3ebcab22	0.36849314
206	0x3ece757a	0.40324003
207	0x3ec8c1ab	0.39210257
208	0x3e945900	0.28974152
209	0x3e30be77	0.17260157
210	0x3e256674	0.16152364
211	0xbd413fd4	-0.047180012
212	0xbd57aefc	-0.052657112
213	0x3d70b4c8	0.058766156
214	0xbd23be98	-0.039976686
215	0xbd55b360	-0.05217302
216	0x3e100f77	0.140684
217	0x3db0afdc	0.086272925
218	0x3e1b1f9d	0.15148778
219	0x3e2ee04e	0.17077753
220	0x3d1cdd7d	0.038297165
221	0xbd1a124a	-0.037615098
222	0x3e391e10	0.18077874
223	0x3c9f11a2	0.019417588
224	0x3ddbb636	0.10728113
225	0x3e262e03	0.1622849
226	0x3caa837c	0.02081465
227	0x3e42d476	0.1902636
228	0x3ee368ca	0.44415885
229	0x3ec756ec	0.38933504
230	0x3de9d276	0.11417095
231	0x3dbd4024	0.092407495
232	0xbd82f54c	-0.06394443
233	0x3de9a622	0.114086404
234	0xbdf0298e	-0.11726676
235	0x3edbc22d	0.42921582
236	0x3ec69bdf	0.38790795
237	0x3e9b9cbc	0.30393016
238	0x3eac0281	0.3359566
239	0x3ee944ce	0.45560306
240	0x3ef262fa	0.47341138
241	0x3ef40265	0.47658077
242	0x3eff351c	0.49845207
243	0x3ec82059	0.3908718
244	0x3eda6c4f	0.42660758
245	0x3e833847	0.25628874
246	0x3edbe1ae	0.42945617
247	0x3e27062d	0.1631095
248	0xbe060678	-0.13088405
249	0xbc079880	-0.008276105
250	0x3deafe56	0.11474292
251	0x3cad4518	0.02115111
252	0x3dbf8c94	0.09352985
253	0x3dafc6f4	0.08582869
254	0xbc8e004b	-0.017334124
255	0x3d920f60	0.07131839

lstm.weight_hh_l0 f4 [256, 64]
0	0x3e41657c	0.1888637
1	0x3dbdccab	0.09267553
2	0x3e1354e1	0.14387847
3	0x3cc6a375	0.024247864
4	0x3c84424a	0.01614489
5	0xbdcd3d18	-0.10021418
6	0x3e00ae3d	0.12566467
7	0xbdc55df6	-0.09637062
8	0x3db159e0	0.086597204
9	0xbd11bf92	-0.035583086
10	0x3c368a50	0.011141375
11	0xbe21f0a6	-0.15814456
12	0x3ce9b608	0.028529182
13	0xbdb72136	-0.08941881
14	0xbd89c10f	-0.06726276
15	0xbe3ae634	-0.18251878
16	0xbe1615f7	-0.14656816
17	0x3ddab465	0.10678939
18	0x3e3e79bc	0.18601125
19	0xbe2cd297	-0.16877209
20	0xbd3ddc20	-0.046352506
21	0x3d520b08	0.05128005
22	0xbb23dc0c	-0.0025002984
23	0xbd8f6f8e	-0.07003699
24	0x3cea7297	0.028619094
25	0xbd8ca27f	-0.06866931
26	0xbe52ce95	-0.20586617
27	0x3dc8589a	0.097825244
28	0x3df29b01	0.11845971
29	0xbd57a9ea	-0.052652277
30	0xbe44399f	-0.19162606
31	0x3cfcfac0	0.030881286
32	0x3e28dc44	0.16490275
33	0xbc7c0891	-0.015382902
34	0x3e4802a1	0.19532253
35	0xbe051bbe	-0.12998864
36	0x3be496e9	0.0069759977
37	0x3dbd5fc3	0.09246781
38	0xbdd11a51	-0.102100976
39	0xbdb6e987	-0.089312606
40	0xbe2a8c95	-0.1665519
41	0xbe0b0af6	-0.135784
42	0x3d2d0cd8	0.042248577
43	0xbe57f3c2	-0.2108908
44	0x3dd6471e	0.10462783
45	0x3e41a5ee	0.18910953
46	0x3e3c4a6e	0.18387768
47	0x3e22b857	0.15890633
48	0x3d201eea	0.039091982
49	0xbe1c6e1e	-0.15276381
50	0x3e000117	0.12500416
51	0x3d810efe	0.06301688
52	0xbda2faf7	-0.07958024
53	0xbdc3dddc	-0.09563801
54	0xbdb19dde	-0.08672689
55	0x3d6330e6	0.055466555
56	0x3e4647ba	0.19363299
57	0x3d5dfba9	0.05419508
58	0x3e590a0d	0.2119524
59	0x3cee0eca	0.029059786
60	0x3e087257	0.13324867
61	0xbe3d767e	-0.18502232
62	0xbe0a54ff	-0.13508986
63	0xbdf8249f	-0.1211636
64	0x3d381503	0.044941913
65	0x3dd1411b	0.10217496
66	0x3d9ab488	0.07553965
67	0x3e878566	0.26468962
68	0x3dae14c9	0.08500058
69	0xbed094e0	-0.40738583
70	0x3eb19c8f	0.34689757
71	0xbe14df55	-0.1453832
72	0x3df0ab93	0.11751475
73	0x3ec62c27	0.3870556
74	0x3d20c282	0.039247997
75	0xbe3e9001	-0.1860962
76	0x3c232428	0.009957351
77	0x3e005bc7	0.1253501
78	0xbe028ba7	-0.12748586
79	0xbd3ab17c	-0.04557942
80	0xbe7fb78f	-0.24972366
81	0x3e05abd0	0.13053823
82	0x3e89b237	0.2689378
83	0xbe707395	-0.23481591
84	0xbe23924b	-0.15973775
85	0xbd132477	-0.035923447
86	0x3e26c596	0.1628631
87	0x3e6d9193	0.23200063
88	0x3eac1ff0	0.33618116
89	0xbdab3d31	-0.08361281
90	0xbe2e4085	-0.170168
91	0x3ea3cca3	0.31992063
92	0x3daf8ac6	0.08571391
93	0xbe5f8ffe	-0.21832272
94	0xbe82f492	-0.25577217
95	0xbdf8823e	-0.12134217
96	0x3daf5fd8	0.085632026
97	0x3e88f5ac	0.26749933
98	0x3dd75e00	0.10515976
99	0x3cf884f0	0.030336827
100	0x3e208ddf	0.1567912
101	0x3e7a0226	0.24414882
102	0x3ea744a3	0.32669553
103	0xbdb7a6e0	-0.08967376
104	0xbe65ac4d	-0.22429009
105	0xbd5f6292	-0.054537363
106	0x3e30b829	0.17257752
107	0xbdfdd1cc	-0.12393531
108	0x3e731702	0.23739246
109	0x3e839fe8	0.25707936
110	0x3ddacfb1	0.10684145
111	0x3d0b841a	0.03406153
112	0xbe725086	-0.2366353
113	0xbe75a2d8	-0.23987901
114	0x3dde10c9	0.10843045
115	0x3e58b128	0.2116133
116	0xbe7ed619	-0.2488636
117	0xbe2de546	-0.16981992
118	0xbe31cc1c	-0.17363018
119	0x3e1d1c30	0.15342784
120	0x3d9c649f	0.076363795
121	0x3e8a2f8c	0.269894
122	0x3d5c8313	0.05383594
123	0x3ec38a6a	0.3819154
124	0x3e83aa5b	0.25715908
125	0xbe577f6e	-0.21044704
126	0xbe3e0f7b	-0.18560593
127	0xbea1e305	-0.31618515
128	0x3e1cdfd9	0.15319766
129	0x3dfb6bbb	0.12276407
130	0x3b124618	0.002231961
131	0x3d3cc095	0.046082098
132	0x3c1c213d	0.009529409
133	0x3c1f7196	0.009731671
134	0x3e3f4d83	0.18681912
135	0xbd5b3efe	-0.05352687
136	0x3e40855e	0.18800876
137	0x3c9bc834	0.019016363
138	0xbd6049a7	-0.05475774
139	0xbe216633	-0.15761642
140	0x3c089bbd	0.008337912
141	0x3e0a3d90	0.13500047
142	0xbcf07aaf	-0.029355375
143	0xbc8892f9	-0.016671645
144	0xbe15179b	-0.14559786
145	0x3de49fb2	0.11163272
146	0x3e2cbd82	0.16869166
147	0xbe387d3f	-0.18016528
148	0xbbc38eed	-0.005967966
149	0xbd3e1d8c	-0.046414897
150	0x3dd77c3d	0.105217434
151	0xbca9554e	-0.02067056
152	0xbd9be9c8	-0.076129496
153	0xbe305007	-0.17218028
154	0xbd6621de	-0.056184642
155	0x3c66ead5	0.014094074
156	0x3bdc47cb	0.0067224256
157	0xbe0d5d64	-0.13805157
158	0x3d80d406	0.0629044
159	0xbe2b2b29	-0.16715683
160	0x3b1dcf3e	0.0024079825
161	0x3e41762d	0.18892737
162	0x3e62f6d4	0.2216447
163	0xbc8bf165	-0.01708288
164	0x3e050a93	0.12992315
165	0x3deaffaf	0.11474549
166	0xbe0b27a4	-0.1358934
167	0x3da8e432	0.0824665
168	0xbe4b1400	-0.19831848
169	0xbe4b638f	-0.19862197
170	0x3de6829f	0.11255383
171	0xbce60100	-0.028076649
172	0x3d4ef713	0.050528597
173	0xbc5fa6fb	-0.013650651
174	0x3d1a333e	0.037646525
175	0x3cb845ef	0.022494284
176	0xbe254f06	-0.16143426
177	0xbdce9d25	-0.10088567
178	0x3e1bdc42	0.1522074
179	0x3e2db79f	0.16964577
180	0xbddb7c80	-0.10717106
181	0x3d8dae96	0.06918065
182	0x389b8b1e	7.4168885e-05
183	0x3db46e7d	0.088101365
184	0x3d2c2cc2	0.042034872
185	0xbdae0e45	-0.084988154
186	0x3d8e0ee1	0.06936432
187	0x3daf82c2	0.08569862
188	0xbcfbe6c3	-0.030749684
189	0xbc04236d	-0.008065087
190	0xbe1558d4	-0.14584666
191	0xbe6f3570	-0.23360229
192	0x3d13b64d	0.036062527
193	0xbde417dd	-0.11137364
194	0x3d1dde0b	0.038541835
195	0x3df2abdd	0.118491866
196	0x3cb5d16f	0.022194592
197	0xbdf7da7f	-0.12102222
198	0xbc9079d8	-0.017636225
199	0xbdf76d8a	-0.1208144
200	0x3caba0a5	0.020950625
201	0x3cc216aa	0.023692448
202	0xbdd9786f	-0.10618674
203	0xbce365ac	-0.027758442
204	0x3dff3f5e	0.12463258
205	0x3da685be	0.08130978
206	0xbdbbbcf4	-0.09166899
207	0xbd9e8de5	-0.07741908
208	0x3c544e0b	0.01295806
209	0x3bd54d6e	0.0065094745
210	0x3e5641a2	0.20923474
211	0xbe21742f	-0.15766977
212	0x3cebb549	0.028772967
213	0x3d93358c	0.07187948
214	0x3b2db2d5	0.0026504297
215	0x3cd34d47	0.025793685
216	0x3c855eae	0.016280498
217	0x3ba4f51f	0.0050341035
218	0xbda4a3df	-0.080390684
219	0xbc80874b	-0.015689513
220	0x3e31a1a1	0.17346813
221	0x3ca0d2a9	0.0196317
222	0xbde6c68a	-0.11268337
223	0xbe377fcf	-0.17919849
224	0x3ddceb36	0.107870504
225	0xbc7153b4	-0.014729429
226	0x3dfdada9	0.12386639
227	0xbd15cd9a	-0.03657303
228	0x3dc761c3	0.097354434
229	0x3e5270c8	0.20550835
230	0xbe693f28	-0.22777998
231	0x3d76c9fa	0.060251214
232	0x3cd979c8	0.026547328
233	0xbe05da83	-0.13071637
234	0xbd07b6a7	-0.033133175
235	0xbdf116fa	-0.117719606
236	0x3e15703c	0.14593595
237	0x3e343aeb	0.176006
238	0x3dc972a1	0.09836317
239	0xbd2cc611	-0.04218108
240	0x3d3ecd02	0.04658223
241	0xbe161f3b	-0.14660351
242	0xbc32ba4e	-0.010908676
243	0x3e4cff91	0.20019366
244	0xbe2e24c7	-0.17006217
245	0xb958c288	-0.00020671834
246	0xbdf19fe4	-0.11798075
247	0x3e335696	0.17513499
248	0x3e25c495	0.16188271
249	0x3d520a0d	0.051279116
250	0xbcb7199e	-0.022351082
251	0x3e053f9b	0.13012545
252	0xbd48ad5e	-0.04899346
253	0xbe45840e	-0.19288656
254	0xbdca2f38	-0.098722875
255	0xbe53eff7	-0.20697008

lstm.bias_ih_l0 f4 [256]
0	0xbb3d17a1	-0.0028853195
1	0xbbae89ee	-0.005326501
2	0x3dc49cb4	0.09600201
3	0x3e0b65d4	0.13613063
4	0x3d5faf1b	0.054610353
5	0x3d3b6533	0.045750808
6	0xbcf39949	-0.029736178
7	0x3e08ee73	0.13372211
8	0x3d8215f8	0.063518465
9	0x3d8776d3	0.06614461
10	0x3ea3dfc5	0.3200666
11	0x3e12736d	0.14301844
12	0x3eabf1de	0.33582968
13	0x3ddf56c5	0.10905222
14	0x3cfa11ef	0.03052613
15	0x3d8cab15	0.06868569
16	0x3de24ecc	0.110501856
17	0x3d8a103a	0.06741376
18	0x3d57b46c	0.052662298
19	0xbc81fafa	-0.015866745
20	0x3ddba32d	0.10724483
21	0xbdbe88f7	-0.09303468
22	0x3d174349	0.036929403
23	0x3d2a933d	0.041644324
24	0xbd32f6a3	-0.043692242
25	0x3d6026e3	0.054724585
26	0x3e64bc2c	0.22337407
27	0x3debff26	0.11523275
28	0x3da0642f	0.078316085
29	0x3df24277	0.118290834
30	0x3e1b8edd	0.15191217
31	0xbb86b5ad	-0.004111013
32	0x3e2a9b30	0.16660762
33	0xbd31469e	-0.043280236
34	0x3db77270	0.08957374
35	0x3d91b65f	0.07114863
36	0x3df3e4d3	0.11908879
37	0x3e11b511	0.14229228
38	0x3bd89537	0.0066095847
39	0xbd97e626	-0.07416944
40	0x3e3fee7e	0.18743321
41	0x3d97285a	0.07380743
42	0x3d0a826a	0.03381578
43	0x3d91f6be	0.071271405
44	0x3e558552	0.20851639
45	0x3e434606	0.1906968
46	0x3e74e753	0.23916368
47	0x3e29604a	0.16540638
48	0x3e2f31d5	0.17108853
49	0x3e2a0586	0.1660367
50	0xbb87eb60	-0.004147932
51	0xbb4ca845	-0.0031228226
52	0x3e6c88d2	0.23099068
53	0xb993c45d	-0.00028184327
54	0x3e33f340	0.17573261
55	0x3d8d1d74	0.06890383
56	0x3e231b8b	0.15928476
57	0xbdc9fd2c	-0.09862742
58	0x3e041084	0.12896925
59	0x3e189012	0.14898708
60	0x3c244b71	0.010027752
61	0x3dfe9a38	0.12431759
62	0x3e418227	0.18897305
63	0x3de14d67	0.110010915
64	0x3e344500	0.17604446
65	0x3cfb7202	0.030694012
66	0x3d4f7370	0.0506472
67	0x3e480e8e	0.19536802
68	0x3dce829d	0.10083506
69	0x3bd37f93	0.006454417
70	0x395c25c4	0.00020994904
71	0x3e54fbd3	0.20799188
72	0x3c8f5e68	0.017501071
73	0x3e596e8b	0.21233575
74	0x3ecf8409	0.40530422
75	0x3da7bcf9	0.081903405
76	0x3f05fe38	0.5234103
77	0x3dbb00b4	0.091309935
78	0x3e428e5f	0.18999623
79	0x3e224354	0.15845996
80	0x3dfcb7e0	0.12339759
81	0x3e4e97fd	0.20175166
82	0x3deca891	0.11555589
83	0x3c3bd502	0.011464359
84	0x3cf88e02	0.030341152
85	0x3d8a685c	0.06758186
86	0x3d272936	0.040810786
87	0x3dca4344	0.09876111
88	0xbdbbda8e	-0.091725454
89	0x3e292004	0.16516119
90	0x3e2ef640	0.17086124
91	0x3de9a36a	0.11408122
92	0x3d0cebf3	0.034404706
93	0x3e2de2ad	0.16981001
94	0x3e01a0e6	0.12659034
95	0x3d06cc61	0.032909755
96	0x3de44a04	0.1114693
97	0x3e03a168	0.1285454
98	0x3c6021df	0.0136799505
99	0x3d7aa4bd	0.061192263
100	0x3e2ec899	0.1706871
101	0xbc53a1d0	-0.012916997
102	0x3d72af79	0.059249375
103	0x3d981947	0.07426696
104	0x3c44bae9	0.0120074535
105	0x3bb55d90	0.005534835
106	0xbc14fdd5	-0.009093721
107	0x3ddb51ab	0.10708936
108	0x3e4f5b05	0.20249565
109	0x3e4d79ce	0.20065996
110	0x3e044e75	0.12920554
111	0x3e0d6761	0.13808967
112	0x3d8921d0	0.06695902
113	0x3e1b763a	0.15181819
114	0x3e2f4bc6	0.17118749
115	0x3d19df02	0.037566192
116	0x3e3c625c	0.18396896
117	0xbd3f9a56	-0.046778046
118	0x3e0dc82f	0.13845895
119	0xbd0c0408	-0.034183532
120	0x3c883f9a	0.01663189
121	0x3da2ba50	0.079456925
122	0x3e6f8002	0.23388675
123	0x3e024bb8	0.12724197
124	0xbc64ccb2	-0.013964819
125	0x3e56e0c6	0.20984182
126	0x3e529cff	0.20567702
127	0x3dde9a0b	0.10869225
128	0x3e570e67	0.21001588
129	0x3e0498f4	0.12948972
130	0x3e0aa7a9	0.1354052
131	0x3e1f8f79	0.15582074
132	0x3e0e4a09	0.1389543
133	0xbd741467	-0.05958977
134	0x3d9c6336	0.076361105
135	0xbe1f38d6	-0.15549025
136	0x3e347199	0.17621459
137	0x3d8581b4	0.065188795
138	0x3db11723	0.08646991
139	0xbcd3789b	-0.025814345
140	0xbdee2f6c	-0.11630139
141	0xbd241490	-0.040058672
142	0xbd60c5e9	-0.05487624
143	0xbe3060a7	-0.1722437
144	0xbe6fb700	-0.23409653
145	0x3cbd746c	0.023126803
146	0x3e708927	0.2348982
147	0xbe142ffb	-0.14471428
148	0xbe6beadd	-0.23038812
149	0xbda98772	-0.08277787
150	0x3e6db259	0.23212565
151	0xbd2ee71e	-0.04270088
152	0xbc824fa0	-0.015907109
153	0xbe794941	-0.2434435
154	0xbe1364e5	-0.14393957
155	0x3e0d7a9e	0.13816306
156	0x3e2ba91a	0.16763726
157	0xbe14b9fc	-0.14524072
158	0xbe2131c2	-0.15741637
159	0xbe0ed7df	-0.13949536
160	0x3ddc824e	0.10767041
161	0x3dfa3c9a	0.1221859
162	0x3e4a9233	0.19782333
163	0xbdce9027	-0.10086089
164	0x3e10bc4e	0.14134333
165	0x3dbb9ea3	0.09161117
166	0x3d280072	0.04101605
167	0x3d63cb86	0.055614017
168	0xbe5c80bb	-0.21533482
169	0xbcb14019	-0.02163701
170	0x3c9e2270	0.01930353
171	0xbe68c7a0	-0.22732401
172	0x3e18a97b	0.14908402
173	0x3e4714f8	0.19441593
174	0x3e33ce7d	0.17559238
175	0xbd6fe564	-0.058568373
176	0xbca40028	-0.020019606
177	0xbe46c773	-0.19412021
178	0x3e184386	0.14869508
179	0x3e5d1775	0.2159098
180	0xbe1c2bfd	-0.15251155
181	0xbc5af18d	-0.013363254
182	0xbe467472	-0.19380358
183	0x3dd8fbba	0.10594888
184	0x3dfe9adb	0.1243188
185	0x3c316adf	0.010828703
186	0x3e658bfd	0.22416683
187	0x3d3817f5	0.044944722
188	0x3df490d4	0.11941686
189	0xbe6b4e0d	-0.22978993
190	0xbdb52168	-0.08844262
191	0xbe149af9	-0.14512242
192	0xbf36c9d0	-0.7140169
193	0x3e5e2121	0.21692325
194	0x3e6d7cfd	0.2319221
195	0x3e0d3b55	0.13792165
196	0x3e38819a	0.18018189
197	0x3e5e6457	0.21717964
198	0x3ebadcba	0.36496526
199	0xbeab0297	-0.33400413
200	0x3de8bf57	0.1136462
201	0x3ebd8141	0.37012675
202	0x3ebe3614	0.37150633
203	0x3ef8757d	0.48527136
204	0x3ef7c624	0.48393357
205	0x3e512219	0.20423163
206	0x3eaaf292	0.3338819
207	0x3e8a0025	0.26953235
208	0x3e99da2c	0.30049264
209	0x3e97e42e	0.29666275
210	0x3e85a139	0.26099566
211	0x3ea4c454	0.32181036
212	0x3d821dbf	0.0635333
213	0x3dbd39ad	0.092395164
214	0xbf0d7bbc	-0.5526693
215	0x3ea0921f	0.31361482
216	0x3e52c8c3	0.20584397
217	0x3d93dca7	0.072198205
218	0x3ea4eae1	0.32210448
219	0x3e9bed41	0.30454448
220	0x3e391700	0.1807518
221	0xbf1b3a03	-0.60635394
222	0x3e4fbfbd	0.20287986
223	0x3e280a4e	0.16410181
224	0x3e576461	0.21034385
225	0x3ec45ec9	0.38353565
226	0x3e0e0696	0.138697
227	0xbcc480aa	-0.023987133
228	0x3e7b96ab	0.24569194
229	0x3e89de13	0.26927242
230	0x3e313cbf	0.17308329
231	0xbf4b0ed2	-0.7931949
232	0x3ed7b1aa	0.42127734
233	0x3ead92a5	0.33900943
234	0x3f15569b	0.58335274
235	0x3f00dbb3	0.50335234
236	0x3e672e7f	0.2257633
237	0x3f17eb21	0.59343153
238	0x3f0074dc	0.50178313
239	0xbf2d7086	-0.6774982
240	0x3ef53b2a	0.478967
241	0xbebd161e	-0.36930937
242	0xbf3fdcb1	-0.74946123
243	0x3ecf9a6c	0.40547502
244	0x3eaf99c1	0.34296992
245	0x3e83c8bf	0.25739095
246	0x3e923162	0.285533
247	0x3e964269	0.29347542
248	0x3e65d6d1	0.22445227
249	0x3e3b1da8	0.18273032
250	0x3d7cea2c	0.06174676
251	0x3e8604ce	0.2617554
252	0x3e8c04fc	0.27347553
253	0x3e4b5e00	0.19860077
254	0x3e8ab64c	0.27092206
255	0x3ec079e1	0.37592986

lstm.bias_hh_l0 f4 [256]
0	0x3deb19c2	0.11479522
1	0x3bc53875	0.006018693
2	0x3e0991f0	0.13434577
3	0x3e288362	0.16456369
4	0x3debaffa	0.11508174
5	0x3da546d9	0.08070154
6	0x3d7bad9d	0.061444867
7	0x3e4fc111	0.20288493
8	0x3e4ac9a4	0.19803482
9	0x3e130359	0.14356746
10	0x3eaea84b	0.34112772
11	0x3e2e3c17	0.1701511
12	0x3edd6f82	0.43249136
13	0x3daea27c	0.08527085
14	0x3e449e69	0.19201054
15	0x3dc3f14a	0.095675066
16	0x3bec71e9	0.0072157276
17	0x3e2a56ab	0.16634624
18	0x3d4c6cd3	0.04990847
19	0xbac7e7a3	-0.0015251528
20	0x3e4640e1	0.19360687
21	0x3dbd5f09	0.09246642
22	0x3c14f4be	0.009091554
23	0x3d510f06	0.051039718
24	0x3db7b0ed	0.08969293
25	0x3c2103b5	0.009827544
26	0x3e005941	0.12534048
27	0x3e085d43	0.13316827
28	0x3dda1b1a	0.106497005
29	0xbb04aef3	-0.002024588
30	0xbd624338	-0.055239886
31	0x3e34536a	0.17609945
32	0x3e4c07e8	0.19924891
33	0x3db6f18c	0.0893279
34	0x3e66790f	0.22507118
35	0x3d830a16	0.06398408
36	0x3d6fb2e8	0.058520228
37	0x3e5712d2	0.21003273
38	0xbe30f47f	-0.17280768
39	0x3dbf019d	0.093264796
40	0x3e03009e	0.12793204
41	0x3e10ecc1	0.14152814
42	0x3e0e7954	0.1391347
43	0x3caa8740	0.020816445
44	0x3e1964f6	0.1497992
45	0x3d14e996	0.036355577
46	0xba8f5b98	-0.0010937331
47	0x3e15f47a	0.14644042
48	0x3dfd52ef	0.12369334
49	0x3d205cc0	0.039150953
50	0x3e4c6af8	0.1996268
51	0x3e52b653	0.20577364
52	0x3e4a45d1	0.19753195
53	0x3e094f6c	0.13409203
54	0x3e0e5708	0.13900387
55	0x3d527a72	0.051386304
56	0x3b3cf485	0.0028832268
57	0xbdb3dc53	-0.08782258
58	0x3c788d9f	0.015170484
59	0x3d6e9788	0.05824998
60	0x3e072b1e	0.13200042
61	0x3e6fbecb	0.23412625
62	0x3d634f64	0.055495635
63	0xbd8801c6	-0.06640963
64	0x3e0ae65d	0.13564439
65	0x3c268c80	0.010165334
66	0x3e29c224	0.16577965
67	0x3e6727e5	0.22573812
68	0xba170593	-0.00057610235
69	0xbd31126d	-0.043230463
70	0x3cb691f8	0.0222864
71	0x3e2c10da	0.16803303
72	0x3e39b46a	0.18135229
73	0x3da50ae5	0.080587186
74	0x3ee19f1c	0.44066703
75	0x3e32620b	0.17420213
76	0x3edcbf3a	0.43114644
77	0x3e0e32f0	0.13886619
78	0x3e434656	0.190698
79	0x3cc22ddc	0.023703508
80	0x3dc95a81	0.098317154
81	0x3e54babc	0.20774359
82	0x3c8d8671	0.01727602
83	0x3e6236cf	0.2209122
84	0x3d2f45e6	0.04279127
85	0xbd96e9cb	-0.07368811
86	0x3e3bce8c	0.1834051
87	0xbd7ae9cb	-0.06125812
88	0xbdceb4bc	-0.10093066
89	0x3c7e4559	0.015519463
90	0x3db84490	0.08997452
91	0x3e53d893	0.20688085
92	0x3e54493e	0.20731065
93	0xbd00af87	-0.031417396
94	0xbd42db8d	-0.04757266
95	0x3dc23ca2	0.09484221
96	0x3ba24fcc	0.00495336
97	0x3e0472ae	0.12934372
98	0x3d350819	0.044197176
99	0xbd04e343	-0.032443296
100	0x3e32780e	0.1742861
101	0x3e48db0f	0.19614814
102	0xbdc33dbd	-0.0953326
103	0x3e2fa63a	0.17153254
104	0x3da6eec4	0.0815101
105	0x3e51d48c	0.20491236
106	0x3e6517ce	0.22372362
107	0x3d3eb7f5	0.046562154
108	0x3e3179f3	0.17331676
109	0x3defdd01	0.11712075
110	0x3e5b75a5	0.21431597
111	0x3e7d246b	0.24720924
112	0x3d84e872	0.06489648
113	0x3e1082dc	0.14112419
114	0xbc241dd0	-0.0100168735
115	0x3e6f662d	0.2337882
116	0x3db53193	0.08847346
117	0xbddfdc9f	-0.10930752
118	0x3c8711c9	0.016487973
119	0x3e38a3e1	0.18031265
120	0x3dffd538	0.1249184
121	0x3d9b169f	0.07572674
122	0x3d07a2b9	0.03311417
123	0x3d8af86b	0.06785663
124	0x3d107ffb	0.0352783
125	0x3e7f385b	0.24923842
126	0x3df4f9c6	0.11961703
127	0x3d637d8c	0.055539653
128	0x3d92299d	0.07136843
129	0x3da217b9	0.07914681
130	0x3e7170a3	0.23578124
131	0x3e22ecc2	0.15910628
132	0x3de01a31	0.109424956
133	0xbdc77bfe	-0.097404465
134	0x3d7ef74b	0.062247556
135	0xbe3d42e2	-0.18482545
136	0x3df6b707	0.120466284
137	0x3e2fe2d3	0.1717637
138	0x3e273b8b	0.16331308
139	0xbe01d1a5	-0.1267763
140	0xbe0ea5a2	-0.13930371
141	0xbcff4ff6	-0.031166058
142	0xbdff7fa2	-0.12475516
143	0xbd87967e	-0.06620501
144	0xbd84e0f0	-0.06488216
145	0x3e2d3c95	0.16917641
146	0x3df7df7c	0.12103173
147	0xbe0f6ab9	-0.14005555
148	0xbc3a3644	-0.011365477
149	0xbdcdd4ad	-0.1005033
150	0x3e42a524	0.19008309
151	0xbc64acfe	-0.01395726
152	0x3dc648f6	0.09681885
153	0xbe60a317	-0.21937214
154	0xbe5e69d8	-0.21720064
155	0x3ddca847	0.10774284
156	0x3e27fbb3	0.1640461
157	0xbd2b2e89	-0.041792426
158	0xbc4f875c	-0.0126665495
159	0xbe04616c	-0.12927788
160	0x3e474acd	0.19462128
161	0xbc7409a5	-0.014894878
162	0x3e3b0802	0.18264773
163	0xbdb0e581	-0.086375244
164	0x3e24a4bd	0.16078468
165	0x3d64a19b	0.05581818
166	0x3bb441d2	0.0055010105
167	0x3d5f97f3	0.05458827
168	0xbdb19468	-0.08670884
169	0xbdcf0237	-0.10107844
170	0x3e61c42f	0.22047494
171	0xbd240a5f	-0.040048953
172	0x3e593743	0.21212487
173	0x3e5258c8	0.2054168
174	0x3d4b856b	0.049687784
175	0x3c3f8e16	0.011691591
176	0xbde2d299	-0.110753246
177	0x3bf73877	0.007544573
178	0x3e2639d8	0.16233003
179	0x3dfaa6c1	0.12238837
180	0xbe212d86	-0.15740022
181	0xbd04127b	-0.032244187
182	0xbe3b9876	-0.18319878
183	0x3e092ad3	0.13395242
184	0x3e2d2152	0.16907242
185	0x3c82c926	0.015965056
186	0x3e396537	0.18105017
187	0xbd699fb6	-0.057037078
188	0xbcbe661b	-0.023242047
189	0xbe0bdc05	-0.1365815
190	0xbdbcddd5	-0.092219986
191	0xbdeada09	-0.11467368
192	0xbf06f0b2	-0.5271102
193	0x3e9ff0f0	0.31238508
194	0x3e695153	0.22784929
195	0x3e817afb	0.2528914
196	0x3d62917e	0.055314533
197	0x3e7fd0f5	0.24982055
198	0x3ebf26e2	0.37334353
199	0xbe771452	-0.24128845
200	0x3e232207	0.15930949
201	0x3ea6a543	0.3254796
202	0x3ed1ce29	0.409776
203	0x3ef9df06	0.48802966
204	0x3eb96d6e	0.362163
205	0x3db7c9d3	0.08974042
206	0x3ed9482b	0.42437872
207	0x3e801ed8	0.25023532
208	0x3e3f39ca	0.18674389
209	0x3e186926	0.14883861
210	0x3ed2cba1	0.41170982
211	0x3e838244	0.25685322
212	0x3e312e0f	0.17302726
213	0x3e2eb353	0.17060594
214	0xbf26c107	-0.65138286
215	0x3e2ead4a	0.17058292
216	0x3ea82889	0.32843426
217	0x3e819fbf	0.2531719
218	0x3e37bcbb	0.17943089
219	0x3dbc385a	0.09190436
220	0x3e7b268a	0.2452642
221	0xbf2fa603	-0.6861269
222	0x3e5b84cb	0.21437375
223	0x3e9a3a55	0.3012263
224	0x3e2df2bb	0.16987126
225	0x3ea46a30	0.32112265
226	0x3e4ea78f	0.20181106
227	0xbaa4fdff	-0.0012587904
228	0x3db936e0	0.0904367
229	0x3ddcefd3	0.1078793
230	0x3dcd899f	0.10036015
231	0xbf407ba5	-0.75188667
232	0x3eafde8a	0.3434947
233	0x3ea7bd54	0.32761633
234	0x3ebeaebd	0.3724269
235	0x3ee3f62b	0.4452375
236	0x3e5492a6	0.20759067
237	0x3eceb77c	0.40374362
238	0x3ec97132	0.39344174
239	0xbf271152	-0.65260804
240	0x3ec4d165	0.38441005
241	0xbf0d58d3	-0.5521366
242	0xbf199e0c	-0.60006785
243	0x3ea11026	0.31457633
244	0x3e639bd2	0.2222741
245	0x3ea567e5	0.32305828
246	0x3d996e27	0.07491713
247	0x3ed37ffe	0.41308588
248	0x3e765b2e	0.2405822
249	0x3e07f274	0.13276082
250	0x3dbc3ed0	0.09191668
251	0x3e6ce477	0.23134027
252	0x3ea81b82	0.32833487
253	0x3e8c69ce	0.27424473
254	0x3e8855b5	0.2662789
255	0x3e983c62	0.29733568

fc.weight f4 [1, 64]
0	0x428f5da2	71.68288
1	0x42963934	75.111725
2	0x42957c8f	74.74328
3	0x42956fdc	74.718475
4	0x429573fc	74.72653
5	0xc295c78b	-74.88973
6	0x42959530	74.79138
7	0xc28651ff	-67.16015
8	0x42957aa4	74.73953
9	0x4295a4a9	74.8216
10	0x3faf6d62	1.3705256
11	0xc295954f	-74.79162
12	0xc1a898e8	-21.074661
13	0x4295f8f2	74.98622
14	0xc2956f48	-74.71735
15	0xc2957510	-74.72864
16	0xc29581a1	-74.75318
17	0x42957349	74.72517
18	0x42955803	74.6719
19	0xc2959195	-74.78434
20	0xc29585f0	-74.7616
21	0xc2977fd9	-75.7497
22	0x428aacc6	69.33745
23	0x42961b55	75.05338
24	0x4295b2f4	74.84952
25	0xc29572de	-74.72435
26	0xc2958b9e	-74.77269
27	0x4295b78e	74.858505
28	0x42957e73	74.74697
29	0xc282092a	-65.0179
30	0xc2959c4b	-74.80526
31	0xc2959387	-74.78814
32	0x42955e0a	74.68367
33	0x42958f99	74.780464
34	0x42954b5a	74.64717
35	0xc297e83f	-75.953606
36	0x42956719	74.70136
37	0x42955210	74.66028
38	0x4295dd76	74.93254
39	0xc28fc4f9	-71.88471
40	0xc2954e69	-74.653145
41	0xc2957855	-74.73502
42	0x4295953d	74.79148
43	0xc29583ea	-74.757645
44	0x42955831	74.67225
45	0x428dbe93	70.872215
46	0x42958461	74.75855
47	0xc28b126e	-69.535995
48	0xc295a2ef	-74.81823
49	0xc2801fec	-64.06235
50	0x429286e0	73.26343
51	0x42958170	74.75281
52	0xc2957f9a	-74.74922
53	0xc295c135	-74.87736
54	0xc2954d9f	-74.6516
55	0x429573ca	74.72615
56	0x42956e5a	74.71553
57	0x4295b4da	74.853226
58	0x42956210	74.69153
59	0x4295dda1	74.93287
60	0x4295866e	74.76256
61	0xc295607d	-74.68845
62	0xc29591b9	-74.784615
63	0xc2957241	-74.72315
