LSTM_MODEL/TCS_WS100_model.pt (torch, 89420 bytes, 5 tensors)

lstm.weight_ih_l0 f4 [256, 19]
0.213515 0.13794526 -0.058360323 0.11019094 -0.12072249 0.11198081 -0.016727716 0.13325395
0.16744666 0.20332402 -0.002446039 0.21820688 0.1554548 0.09506181 0.16513965 0.20538214
0.08013298 0.13149562 0.21768576 0.15158366 0.0044983635 -0.124178246 -0.062358096 0.09674464
0.03498891 -0.081679374 0.17495763 0.0026940857 0.21630885 0.052528847 0.15037178 0.072703496
0.074239194 0.10172469 0.047594458 0.21690202 0.02695138 0.008585877 0.060539115 0.05560759
0.007867798 0.022526994 -0.041849867 0.09234589 -0.0022959113 0.15918553 0.032375954 0.09311695
0.1876233 0.119342305 0.20879698 0.16613097 0.042984813 0.22505432 0.019152913 0.013573282
0.12389523 -0.002306449 0.05330846 0.09760374 0.026092976 0.036699444 0.045083925 0.10977201
0.09751232 0.19753832 0.03896222 0.08156569 0.023337055 0.09648187 0.10655256 0.23121029
0.22357272 0.13177042 0.21510634 0.22916809 0.21749923 0.13352552 0.078113794 -0.046303436
-0.025044575 -0.06276047 -0.09149997 0.16309929 0.23540588 0.10148992 0.07168584 0.00022175089
0.09222201 0.009933799 0.06424663 0.14013028 0.14656849 0.122787476 0.04176883 -0.015869148
-0.014894142 -0.06805976 0.114196 -0.009368673 -0.070757166 0.015958235 0.08100891 -0.02867939
-0.03663183 0.20982032 0.034820616 0.07865818 -0.007831577 0.11895431 -0.030724896 -0.003042226
-0.039318103 0.16471137 0.00053883786 0.025728798 -0.013759747 -0.04164788 -0.009019464 0.027711213
0.05144085 0.06984709 0.1551987 0.21601178 0.14560741 0.041814465 0.15289053 0.13264461
0.12367665 -0.005693534 0.20559354 0.107998885 0.025627516 0.058645397 0.009018228 -0.004815921
-0.030847013 0.06462063 0.0552537 0.12068911 0.0012299926 0.0022975903 0.1604655 0.13858882
-0.004938477 0.021262983 0.12616242 -0.022736501 0.03072766 0.066037595 0.084816225 0.093439005
0.04540707 0.20600893 -0.09241253 0.037982702 -0.027527511 0.07905482 -0.0022280663 0.101796985
0.09701903 0.23540902 0.12249315 0.12289831 0.051376704 0.0820332 0.07866463 0.19339877
0.21869022 0.08176973 0.0478236 0.0011482836 0.11773973 0.01367262 0.050874904 -0.051273465
0.051099002 -0.0685208 0.23710881 0.040238973 0.046942208 0.10627033 0.100135 0.23589309
0.15248492 0.010310171 0.16910139 0.065532655 0.053465337 0.035236422 0.048794515 0.07713689
0.11550604 0.023766354 -0.041466087 -0.05558759 -0.0573657 0.026811838 0.10856172 0.17309949
0.14037298 0.112919845 0.2205352 0.16735166 0.18759415 0.27248406 0.07493336 0.10780807
0.07722933 0.07264747 0.18197276 0.07890284 -0.05426079 0.085468516 -0.11799705 -0.0905792
0.016856205 0.16147323 0.0902258 0.008579609 0.016021172 0.06935245 0.11320398 0.15835527
0.0002036919 0.061325297 0.2340893 0.06816136 0.2147987 0.117504105 0.0074371397 0.057675317
0.018016845 -0.029176846 0.065127775 0.21375954 0.011790168 0.025718534 0.2240677 0.17006597
0.19538853 0.0007657791 0.23629531 0.13309467 0.13848224 0.1771967 0.11325251 0.17122394
0.2178561 0.08071515 -0.01867026 -0.05031073 0.089008346 0.1206463 0.13466513 0.22227563
00000000: ada3 5a3e 8641 0d3e 3c0b 6fbd caab e13d
00000010: 5a3d f7bd 3256 e53d 9008 89bc b973 083e
00000020: 2377 2b3e 2c34 503e ba4d 20bb a071 5f3e
00000030: 8b2f 1f3e c4af c23d 5e1a 293e b24f 523e
00000040: c31c a43d caa6 063e 04e9 5e3e bf38 1b3e
00000050: 0267 933b 2a51 febd 346b 7fbd 0e22 c63d
00000060: 8850 0f3d 8447 a7bd 1828 333e 428f 303b
00000070: 1180 5d3e 7d28 573d 0ffb 193e 92e5 943d
00000080: b80a 983d 0955 d03d 68f2 423d 901b 5e3e
00000090: 24c9 dc3c c7ab 0c3c ddf7 773d c9c4 633d
000000a0: f0e7 003c 888a b83c c46a 2bbd d81f bd3d
000000b0: 0077 16bb 8801 233e a69c 043d 19b4 be3d
000000c0: 5320 403e bd69 f43d e0ce 553e 3d1e 2a3e
000000d0: d810 303d a474 663e 92e6 9c3c 7962 5e3c
000000e0: c8bc fd3d cb27 17bb f959 5a3d 78e4 c73d
000000f0: f0c0 d53c 2852 163d eca9 383d 26d0 e03d
00000100: 8ab4 c73d 7c47 4a3e d996 1f3d ea0b a73d
00000110: 5a2d bf3c 4998 c53d 3b38 da3d 64c2 6c3e
00000120: 3ff0 643e d3ee 063e d644 5c3e 0aab 6a3e
00000130: 1eb8 5e3e eaba 083e 20fa 9f3d aca8 3dbd
00000140: 482a cdbc 9088 80bd 5664 bbbd 8003 273e
00000150: 3d0e 713e f2d9 cf3d 07d0 923d cd85 6839
00000160: e5de bc3d 5fc1 223c bd93 833d 507e 0f3e
00000170: 0d16 163e 0078 fb3d cb15 2b3d 0400 82bc
00000180: 8f06 74bc ea62 8bbd 98df e93d 107f 19bc
00000190: 22e9 90bd d8ba 823c 00e8 a53d 0af1 eabc
000001a0: 420b 16bd 23db 563e 10a0 0e3d 8a17 a13d
000001b0: 0450 00bc 519e f33d c7b2 fbbc 1560 47bb
000001c0: 050c 21bd 19aa 283e cc40 0d3a 33c5 d23c
000001d0: 9070 61bc f896 2abd 60c6 13bc a002 e33c
000001e0: a4b3 523d fe0b 8f3d 68ec 1e3e 3132 5d3e
000001f0: 1c1a 153e a545 2b3d 568f 1c3e fdd3 073e
00000200: 2f4a fd3d d390 babb 1d87 523e 852e dd3d
00000210: ccf0 d13c 2836 703d 31c1 133c e0ce 9dbb
00000220: e0b2 fcbc d257 843d b451 623d da2b f73d
00000230: b437 a13a 2b93 163b 1151 243e 3aea 0d3e
00000240: f3d2 a1bb b52f ae3c b930 013e e641 babc
00000250: 93b8 fb3c b83e 873d 21b4 ad3d f35c bf3d
00000260: c4fc 393d 01f4 523e c842 bdbd c093 1b3d
00000270: 6081 e1bc 7ee7 a13d c004 12bb f07a d03d
00000280: eab1 c63d 100f 713e b0dd fa3d 1cb2 fb3d
00000290: 6170 523d 0601 a83d ec1a a13d 540a 463e
000002a0: 54f0 5f3e e376 a73d aee2 433d 0182 963a
000002b0: 8721 f13d 2003 603c 3462 503d 2004 52bd
000002c0: 304d 513d a254 8cbd a7cc 723e 9fd1 243d
000002d0: 7946 403d 42a4 d93d 9413 cd3d f58d 713e
000002e0: 0225 1c3e feeb 283c ea28 2d3e fc35 863d
000002f0: 78fe 5a3d 1154 103d c2dc 473d f2f9 9d3d
00000300: 6e8e ec3d a8b1 c23c 58d8 29bd d0af 63bd
00000310: 4cf8 6abd 80a4 db3c 9b55 de3d fe40 313e
00000320: efbd 0f3e 8542 e73d fbd3 613e 3c5e 2b3e
00000330: ae18 403e 0883 8b3e a976 993d 7aca dc3d
00000340: 692a 9e3d 32c8 943d 1157 3a3e d097 a13d
00000350: 9040 5ebd 1e0a af3d 70a8 f1bd 9681 b9bd
00000360: 0616 8a3c 3d59 253e 4ec8 b83d 7d91 0c3c
00000370: d53e 833c a808 8e3d 7dd7 e73d e227 223e
00000380: 2196 5539 3c30 7b3d 1bb5 6f3e 2f98 8b3d
00000390: 31f4 5b3e fea5 f03d 40b3 f33b f43c 6c3d
000003a0: 1098 933c 4804 efbc b661 853d c8e3 5a3e
000003b0: 8c2b 413c adaf d23c 0172 653e c625 2e3e
000003c0: ee13 483e 91be 483a 66f7 713e f849 083e
000003d0: 4ace 0d3e 0d73 353e eff0 e73d 5455 2f3e
000003e0: ab15 5f3e fc4d a53d 60f2 98bc a012 4ebd
000003f0: 024a b63d 6815 f73d a8e5 093e 399c 633e

lstm.weight_hh_l0 f4 [256, 64]
0.0038593463 -0.20367742 -0.057245214 0.12593137 0.17455353 0.040151365 0.16007264 -0.047745954
-0.0785837 0.21621585 -0.033934865 0.09115996 -0.13530688 0.08127823 -0.05246355 0.15647595
0.082630716 -0.17043625 0.0016535867 0.034389533 0.09970987 -0.14793286 0.18071775 0.09223155
-0.18835612 0.053901006 0.11853101 0.17416486 0.0584222 -0.014978828 -0.11953693 -0.060788758
-0.084733434 0.10249709 0.024603453 -0.14686106 0.11874448 0.06011568 0.11416939 0.037041973
0.040682543 -0.21460204 -0.07421455 0.088991016 -0.20045425 0.12689322 0.039067153 0.112095974
0.0076693557 -0.16515693 0.22842568 -0.05541813 0.15874547 0.15801728 0.03494401 -0.20723723
-0.0118978545 -0.012541077 -0.032509625 -0.16068906 0.21684168 0.18202959 0.165719 -0.1650652
0.00078680564 -0.14741048 0.0017275034 0.028186146 0.16673797 0.0026199212 0.07203929 0.016622026
-0.10205942 0.12221485 0.015036094 0.10953101 -0.12921417 0.20262998 -0.20646587 0.11402792
0.2162062 0.028237028 -0.061958916 0.046075698 0.14399546 -0.103696786 0.19681281 -0.04611051
-0.16533557 -0.023405615 0.17806572 0.19584806 0.21773279 0.013066832 -0.00693403 -0.011491108
-0.19111007 0.095774725 0.0057812035 0.00084722653 0.07509442 -0.049505472 0.1338756 0.0379082
-0.033452824 0.025209298 -0.09678442 0.1329585 -0.06945462 0.10264854 -0.006151182 0.027795868
0.13389377 -0.111266196 0.12575947 -0.0051631443 0.104134075 0.18429759 0.029046904 -0.031299062
-0.1484786 0.02994018 -0.05388423 -0.11179907 0.025897177 0.17698713 0.0037660976 -0.0380267
0.0008258775 -0.0036282272 -0.11850626 -0.011615139 0.20735846 -0.1694497 0.11612437 -0.03419509
-0.18584834 0.020357179 0.07451513 0.08554511 -0.11195972 0.100416034 -0.026209705 0.12945293
0.023325866 -0.13514039 -0.058559153 0.105880424 0.025196195 -0.030245785 0.1616011 -0.05041832
-0.22529835 -0.07154393 0.1489943 0.08346065 0.009606598 -0.039387003 -0.047563203 0.048999023
-0.14143273 0.014944867 0.17931941 -0.055677455 0.084805004 0.028551802 0.14392154 -0.07794845
0.023352403 -0.21933737 -0.15143941 0.19026421 -0.061102048 -0.009331147 0.120458774 0.004729708
0.1975506 0.0017982753 0.05831724 -0.13025296 0.15152681 0.18359089 0.06256861 -0.22310956
-0.103689805 0.11987802 -0.07116831 -0.18268691 0.018888624 0.101285405 0.20408665 0.008039414
-0.06518501 -0.20723441 -0.082962856 0.06630564 0.10198271 0.033188365 0.12535773 -0.13968234
-0.002984521 0.15874483 0.012630308 -0.009758218 -0.11685368 0.11156936 -0.05303043 0.030367538
0.09529415 -0.10030392 0.010698242 0.12529011 0.153693 -0.08208037 0.051901594 -0.047850624
-0.16195704 0.05764487 0.0013623697 0.07062719 0.13777617 0.032485947 -0.16997658 0.14741893
-0.00985449 0.13679627 0.108994104 -0.0059858533 0.17356946 -0.012022892 0.09759147 -0.14326069
-0.12441537 -0.16087279 0.0052784537 -0.02472022 -0.004267052 0.062387973 0.14723375 -0.012591175
0.09735919 -0.17924014 0.17239504 -0.14128928 0.036914084 0.07032091 0.06808405 -0.087297164
-0.052290596 0.12580772 -0.11891523 0.0034858035 0.14138514 0.11176392 0.062241893 -0.17510803
00000000: 16ed 7c3b d090 50be f579 6abd 27f4 003e
00000010: 29be 323e c275 243d 15ea 233e 4391 43bd
00000020: 7ef0 a0bd b067 5d3e 49ff 0abd 13b2 ba3d
00000030: e38d 0abe 3375 a63d 05e4 56bd 3b3b 203e
00000040: 4b3a a93d d786 2ebe 2abd d83a 0adc 0c3d
00000050: b034 cc3d b67b 17be 130e 393e e5e3 bc3d
00000060: 6de0 40be 4dc7 5c3d 63c0 f23d 4658 323e
00000070: 1e4c 6f3d c269 75bc c7cf f4bd a2fd 78bd
00000080: b988 adbd ffe9 d13d 2e8d c93c bf62 16be
00000090: 4e30 f33d dc3b 763d a4d1 e93d 53b9 173d
000000a0: bda2 263d a3c0 5bbe ccfd 97bd ec40 b63d
000000b0: e143 4dbe 4cf0 013e e104 203d 9392 e53d
000000c0: 384f fb3b e61e 29be 6ce8 693e 1ffe 62bd
000000d0: 2c8e 223e 48cf 213e 7321 0f3d ff35 54be
000000e0: 38ef 42bc 1779 4dbc d028 05bd ac8b 24be
000000f0: bf0b 5e3e f765 3a3e 3eb2 293e da06 29be
00000100: a241 4e3a c6f2 16be 656d e23a a2e6 e63c
00000110: 5cbd 2a3e fcb2 2b3b 5689 933d ea2a 883c
00000120: 8704 d1bd c74b fa3d f359 763c cb51 e03d
00000130: b850 04be 3c7e 4f3e ca6b 53be 7887 e93d
00000140: 2865 5d3e 5751 e73c a2c8 7dbd dfb9 3c3d
00000150: 8c73 133e fb5e d4bd 4c89 493e 60de 3cbd
00000160: ba4d 29be 22bd bfbc dc56 363e 658c 483e
00000170: 58f5 5e3e 4416 563c dc36 e3bb 3345 3cbc
00000180: 5cb2 43be 8a25 c43d 4070 bd3b 6918 5e3a
00000190: 1acb 993d 40c6 4abd af16 093e a145 1b3d
000001a0: d405 09bd bb83 ce3c e936 c6bd 4626 083e
000001b0: 393e 8ebd 6639 d23d db8f c9bb 29b4 e33c
000001c0: 731b 093e 88df e3bd 17c7 003e 982f a9bb
000001d0: 3f44 d53d 82b8 3c3e c6f3 ed3c 7233 00bd
000001e0: c60a 18be 1c45 f53c b6b5 5cbd e9f6 e4bd
000001f0: 5126 d43c 1d3c 353e a2d0 763b e3c1 1bbd
00000200: b37f 583a 8dc7 6dbb 69b3 f2bd 6d4d 3ebc
00000210: c755 543e 3984 2dbe 9dd2 ed3d 2710 0cbd
00000220: 074f 3ebe 19c4 a63c 639b 983d 4632 af3d
00000230: 234b e5bd eca6 cd3d bcb5 d6bc 4f8f 043e
00000240: e315 bf3c 3e62 0abe b9db 6fbd d6d7 d83d
00000250: 4068 ce3c 02c6 f7bc c27a 253e 7183 4ebd
00000260: 9cb4 66be a085 92bd f691 183e 6bed aa3d
00000270: fe64 1d3c 4454 21bd a2d1 42bd 33b3 483d
00000280: bed3 10be 51db 743c 829f 373e 0b0e 64bd
00000290: 3fae ad3d 78e5 e93c 2b60 133e 70a3 9fbd
000002a0: 8a4d bf3c fa99 60be ef12 1bbe 9fd4 423e
000002b0: 2446 7abd abe1 18bc 17b3 f63d abfb 9a3b
000002c0: b44a 4a3e 1bb4 eb3a 0fde 6e3d 0861 05be
000002d0: d829 1b3e 40ff 3b3e f923 803d d576 64be
000002e0: 525b d4bd 9b82 f53d b1c0 91bd 4712 3bbe
000002f0: 51bc 9a3c b96e cf3d 17fc 503e bfb7 033c
00000300: b87f 85bd 4235 54be 6ee8 a9bd 40cb 873d
00000310: 50dc d03d 86f0 073d c75d 003e e308 0fbe
00000320: f497 43bb 018e 223e 5aef 4e3c efe0 1fbc
00000330: fb50 efbd 7a7e e43d 7036 59bd 58c5 f83c
00000340: 9429 c33d 246c cdbd ae47 2f3c 0d4c 003e
00000350: b361 1d3e c119 a8bd c496 543d 04ff 43bd
00000360: 11d8 25be 071d 6c3d 8b91 b23a fda4 903d
00000370: 3215 0d3e fc0f 053d 570e 2ebe fdf4 163e
00000380: ba74 21bc 5214 0c3e 4d38 df3d fa24 c4bb
00000390: 31bc 313e aafb 44bc 09de c73d eeb2 12be
000003a0: 7ccd febd d6bb 24be e1f6 ac3b 0f82 cabc
000003b0: a0d2 8bbb 888a 7f3d 72c4 163e 374b 4ebc
000003c0: 4164 c73d ba8a 37be 5388 303e 23ae 10be
000003d0: 3933 173d 6904 903d a76f 8b3d dbc8 b2bd
000003e0: aa2e 56bd bdd3 003e d489 f3bd 1472 643b
000003f0: 44c7 103e 7be4 e43d 5bf1 7e3d 854f 33be

lstm.bias_ih_l0 f4 [256]
0.0017153884 0.19761488 0.08297896 0.1337497 0.21940869 0.07784232 0.16802031 0.016608562
0.11344436 0.05975343 0.0592365 0.13695516 0.19547187 0.14292401 0.08336216 -0.033530377
0.23023221 0.030798052 0.16428377 0.21082245 0.18680304 0.15866154 0.16126826 0.094137825
0.056787275 0.3577667 0.21619467 -0.027711492 0.061682474 0.13407417 0.13616282 0.015209241
0.062960215 0.15701061 0.14707541 0.03368682 0.017144127 0.31456506 0.24385521 0.029295553
0.17971921 0.24064848 0.04696152 0.10431357 0.0007582858 0.1274214 0.13320175 0.1950976
0.17961669 0.2196931 -0.030403735 0.19062227 0.01687613 -0.009208642 0.13519505 0.23154317
0.15425529 0.02212486 0.1119869 -0.004104937 -0.077733174 0.1006335 0.03295783 0.1233345
0.12684043 0.19001223 0.0641521 0.16993804 0.00813303 0.038050935 0.091447406 0.026873326
0.22972903 0.19870031 0.24391864 0.21074098 0.19722465 0.24340618 0.056034375 0.15324695
0.0481283 0.07130963 0.17976925 0.18152937 0.20270719 0.16200085 0.14530721 0.030958112
0.10667083 0.5041165 0.14149104 0.05300148 0.09741456 0.13246782 0.19837967 0.15767649
0.11846635 0.049375825 0.035682436 0.16769548 -0.010109265 0.20588815 0.25355914 0.20661359
0.131169 0.03494734 0.23291753 0.18514352 -0.0038969154 0.17888169 0.04793439 -0.015262383
0.04286141 0.15907393 0.0586 0.18006402 0.035140987 0.06390338 0.012120593 0.2152517
-0.01059271 0.03346468 0.07227565 0.18107231 0.04754269 0.15505476 0.17882438 -0.00021464743
-0.19508374 -0.22898379 -0.21280298 0.022340402 0.2388485 -0.047841456 0.12810743 -0.06275735
-0.16682354 0.1330018 0.106909834 0.1325496 -0.20889273 0.22094356 -0.22097541 -0.043493453
0.08663075 -0.087710835 0.20591933 0.19179775 0.21890682 -0.20708849 0.111769825 -0.048125695
-0.24087295 -0.04303724 0.08988437 0.04648568 0.20879054 -0.07739519 -0.14356643 -0.00807937
-0.031159589 0.013449653 0.21825962 -0.23853019 0.07740012 0.1781916 0.104235 -0.091946386
-0.0800298 -0.10733407 -0.12859851 0.16508354 -0.12703192 0.09854593 0.16900945 0.08338426
0.21356285 -0.12112695 0.13896298 -0.028822372 0.1495917 0.08842637 0.024999345 -0.13439353
-0.24208464 0.17524222 -0.10904838 -0.09867089 0.11481795 0.16094133 0.16802965 -0.19068302
0.08546773 0.23440795 0.15886343 0.24401483 0.27871555 0.23842485 0.084303565 0.05503613
0.06794724 0.16969778 0.20061043 0.23522405 0.22271201 0.15638314 0.12837529 0.1551035
0.15215659 0.069285214 0.057116117 0.074766986 0.23561281 0.19123085 0.17426653 0.14452063
0.22035462 0.44325712 0.0994675 0.16092952 0.068360314 0.09935929 0.07259112 0.11013224
0.043720443 0.112420805 0.15376528 0.19326566 0.15717657 0.3597161 0.40952274 0.0371345
0.095065825 0.10158952 0.2170711 0.04859609 0.10963319 0.041899513 0.15721552 0.04415875
0.19800495 0.23445584 0.051570825 0.23299888 0.22475 0.11120773 0.28604105 0.16289099
0.1807893 0.28982848 0.28220338 0.19447125 -0.0466689 0.06074098 0.11748518 0.17662428
00000000: e2d6 e03a 8e5b 4a3e dff0 a93d aef5 083e
00000010: acac 603e cb6b 9f3d 840d 2c3e ae0e 883c
00000020: 8455 e83d 03c0 743d f9a1 723d f93d 0c3e
00000030: c729 483e ac5a 123e c8b9 aa3d 2657 09bd
00000040: fec1 6b3e 324c fc3c 013a 283e d7e1 573e
00000050: 4c49 3f3e 2c78 223e 8223 253e 55cb c03d
00000060: c699 683d 322d b73e 2362 5d3e 3603 e3bc
00000070: c3a6 7c3d bd4a 093e 446e 0b3e 2e30 793c
00000080: 49f1 803d 64c7 203e f09a 163e 31fb 093d
00000090: d771 8c3c ac0e a13e 2eb5 793e 3afd ef3c
000000a0: 5008 383e 8e6c 763e b95a 403d 5aa2 d53d
000000b0: b3c7 463a c17a 023e 0a66 083e aac7 473e
000000c0: 70ed 373e 3af7 603e 4111 f9bc 7c32 433e
000000d0: cf3f 8a3c d8df 16bc 9270 0a3e a719 6d3e
000000e0: 19f5 1d3e 323f b53c 6359 e53d b582 86bb
000000f0: 9232 9fbd f018 ce3d cafe 063d cc96 fc3d
00000100: 75e2 013e 9192 423e 2d62 833d 3d04 2e3e
00000110: 6640 053c 4cdb 1b3d c748 bb3d 7325 dc3c
00000120: 163e 6b3e 1878 4b3e cfc5 793e 7ccc 573e
00000130: 42f5 493e 783f 793e 4d84 653d c5ec 1c3e
00000140: 2e22 453d c90a 923d 6e15 383e d6e2 393e
00000150: 7992 4f3e 8de3 253e 6acb 143e de9b fd3c
00000160: 3c76 da3d c70d 013f 07e3 103e 1418 593d
00000170: 4981 c73d a5a5 073e 0a24 4b3e f275 213e
00000180: 7c9e f23d 4e3e 4a3d bf27 123d 5db8 2b3e
00000190: 55a1 25bc 58d4 523e 81d2 813e 8392 533e
000001a0: 2b51 063e f124 0f3d ef81 6e3e 4396 3d3e
000001b0: 6463 7fbb c32c 373e da56 443d 130f 7abc
000001c0: 728f 2f3d 47e4 223e 8e06 703d b462 383e
000001d0: ffef 0f3d c6df 823d 7495 463c f16a 5c3e
000001e0: 0c8d 2dbc 4312 093d 4205 943d 056b 393e
000001f0: 20bc 423d adc6 1e3e bd1d 373e fb12 61b9
00000200: 08c4 47be ba7a 6abe 06e9 59be 3803 b73c
00000210: b494 743e 67f5 43bd 982e 033e ed86 80bd
00000220: cad3 2abe a031 083e 8bf3 da3d 15bb 073e
00000230: fae7 55be 073f 623e 6147 62be 3126 32bd
00000240: 766b b13d bda1 b3bd 84dc 523e a166 443e
00000250: 1c29 603e 010f 54be 94e7 e43d 731f 45bd
00000260: 66a7 76be d147 30bd 4c15 b83d c567 3e3d
00000270: 30cd 553e 5f81 9ebd 1403 13be 555f 04bc
00000280: 6542 ffbc ef5b 5c3c 737f 5f3e 4241 74be
00000290: f483 9e3d dc77 363e 2979 d53d 634e bcbd
000002a0: aae6 a3bd f7d1 dbbd 54af 03be a90b 293e
000002b0: a814 02be 73d2 c93d d010 2d3e 5ec5 aa3d
000002c0: 38b0 5a3e 6811 f8bd 504c 0e3e e51c ecbc
000002d0: 912e 193e e218 b53d 6dcb cc3c 759e 09be
000002e0: 09e5 77be b272 333e c254 dfbd f713 cabd
000002f0: ac25 eb3d cecd 243e f70f 2c3e 6942 43be
00000300: b509 af3d a308 703e 18ad 223e 06df 793e
00000310: ceb3 8e3e a525 743e 59a7 ac3d 916d 613d
00000320: ec27 8b3d 41c5 2d3e d26c 4d3e 93de 703e
00000330: 9e0e 643e e722 203e d074 033e 74d3 1e3e
00000340: f0ce 1b3e 68e5 8d3d 97f2 693d 6f1f 993d
00000350: 7c44 713e 05d2 433e ed72 323e 37fd 133e
00000360: a4a4 613e 99f2 e23e 9eb5 cb3d b5ca 243e
00000370: 7e00 8c3d e27c cb3d a7aa 943d 038d e13d
00000380: 3514 333d e13c e63d a574 1d3e 6fe7 453e
00000390: e5f2 203e b52c b83e f7ac d13e 581a 183d
000003a0: dfb1 c23d 2b0e d03d e347 5e3e b20c 473d
000003b0: 5e87 e03d d39e 2b3d 1bfd 203e cedf 343d
000003c0: cfc1 4a3e 3115 703e ee3b 533d 4297 6e3e
000003d0: dd24 663e e1c0 e33d f973 923e e5cc 263e
000003e0: d520 393e 6664 943e f67c 903e 7923 473e
000003f0: e327 3fbd 89cb 783d 129c f03d ffdc 343e

lstm.bias_hh_l0 f4 [256]
0.015223974 0.1283251 0.03378405 0.14895628 0.08769 0.15002222 0.015997674 0.07769287
0.19586295 0.10145057 0.03274117 0.03131291 0.05034514 0.07905754 0.05606136 0.20246837
0.012654046 0.13828318 0.02257532 -0.029430069 0.054820403 0.06745711 0.21555412 -0.0018286639
0.22313604 0.43828332 0.11463403 0.14592421 0.006861756 0.1454546 -0.021186372 0.1919155
0.120732725 -0.034220282 0.11872206 0.07891643 0.06733532 0.13240005 0.44284174 0.074133925
0.088727795 0.16134936 0.002750844 0.029523324 -0.031173293 0.022686169 0.061652236 0.18206
0.19885199 0.2268208 0.08766414 0.090539835 0.1104658 0.0539614 0.13277106 0.08722324
-0.009593697 0.17219584 0.07082952 0.026123764 0.02114301 -0.0150503265 0.09810215 0.06539619
0.081100374 0.069823116 0.051446106 0.22999091 0.049492687 0.1571472 0.19709983 0.115291566
0.0070468853 0.097339004 0.2212784 0.030725857 0.17559674 0.06166997 0.105846 0.0049272883
0.18727355 -0.024089403 0.18467924 0.08886982 0.21602555 0.044276793 0.1969758 0.02811997
0.07656398 0.3312431 0.08291206 0.090745404 0.06890259 0.0877386 0.004403734 -0.055061206
0.025444996 0.040147293 0.119363405 0.030451534 -0.01444833 0.2245612 0.3245875 0.03151762
0.053534724 0.07377852 0.025558067 0.11828434 0.141732 0.15279089 0.18457384 0.12447745
0.19522004 0.14132711 0.018086853 0.11496898 0.08870845 0.061936736 0.039050277 -0.0053088907
0.036656063 0.080803186 0.10720713 0.21959397 -0.10899657 -0.024081135 0.22105704 0.17436197
-0.24797744 -0.19497827 -0.13169567 0.24115263 0.18929498 -0.007576195 0.15495199 -0.18512137
-0.21279006 0.16472572 0.007398128 0.1544261 -0.16004114 0.16667254 -0.15868397 0.05427642
0.161316 -0.19014953 0.03528008 0.12375877 0.14562643 -0.047551095 0.17680398 0.011043908
-0.21095835 0.04310092 0.15833561 0.13916627 0.077593125 -0.015995627 -0.18786052 0.11429503
-0.18161583 0.19713426 0.17558923 -0.2393291 0.07348857 0.018444696 -0.0138622 0.0035293908
-0.19425657 -0.084055886 -0.18485668 0.060961254 -0.016670045 0.07690978 0.16438302 0.19628428
0.16667747 -0.147735 0.13450149 0.00971396 0.06957376 0.2065482 0.1934059 -0.20355305
-0.091406256 0.14333557 -0.2449006 -0.10796228 0.13098076 0.043633632 0.06654454 -0.11518606
0.08272249 0.27122626 0.17537838 0.15936324 0.30407873 0.15775123 0.11470299 0.15994227
0.16341901 0.1625373 0.064785615 0.087820925 0.14136188 0.10634787 0.1738881 0.17109197
0.072448 0.24079314 0.26199886 0.07490366 0.26607615 0.21212623 0.17079821 0.035849527
0.093336836 0.39270037 0.27745616 0.20436595 0.24608167 0.22462183 0.20389454 0.17399305
0.19976753 0.07083045 0.07934849 0.07036629 0.14989762 0.35605335 0.41155386 0.07631654
0.13080926 0.2802452 0.2798376 0.19084725 0.07042084 0.2490759 0.10408643 0.17571022
0.2993557 0.08501332 0.27657473 0.21261342 0.16180359 0.19078653 0.14944424 0.06813152
0.08671797 0.14002922 0.09866297 0.26662076 0.08597984 0.15408592 0.28549525 0.11800701
00000000: fa6d 793c a867 033e 2561 0a3d ff87 183e
00000010: d196 b33d 6d9f 193e 8e0d 833c 701d 9f3d
00000020: 4c90 483e 51c5 cf3d 9b1b 063d f741 003d
00000030: b536 4e3d ebe8 a13d 99a0 653d de53 4f3e
00000040: ea52 4f3c 1b9a 0d3e e1ef b83c 5417 f1bc
00000050: 5c8b 603d f426 8a3d 38ba 5c3e c7af efba
00000060: c67d 643e ac66 e03e 3fc5 ea3d 286d 153e
00000070: 95d8 e03b 0df2 143e 0b8f adbc 7f85 443e
00000080: b842 f73d 912a 0cbd 8d24 f33d f09e a13d
00000090: 1ae7 893d e193 073e 27bc e23e 87d3 973d
000000a0: ebb6 b53d c438 253e 8147 343b e6da f13c
000000b0: 225f ffbc 58d8 b93c 0e87 7c3d f06d 3a3e
000000c0: db9f 4b3e b643 683e 4289 b33d f36c b93d
000000d0: e53b e23d a106 5d3d 23f5 073e 19a2 b23d
000000e0: e22e 1dbc 1b54 303e 110f 913d 8101 d63c
000000f0: 1b34 ad3c a595 76bc c8e9 c83d 70ee 853d
00000100: f417 a63d 6cff 8e3d 27b9 523d bd82 6b3e
00000110: d8b8 4a3d 32eb 203e 8ad4 493e fc1d ec3d
00000120: 8fe9 e63b ac59 c73d ce96 623e cbb4 fb3c
00000130: a2cf 333e a799 7c3d cac5 d83d 1775 a13b
00000140: a3c4 3f3e 2457 c5bc 8e1c 3d3e 6101 b63d
00000150: cd35 5d3e 955b 353d 06b4 493e da5b e63c
00000160: 93cd 9c3d b298 a93e cccd a93d bad8 b93d
00000170: cd1c 8d3d 4cb0 b33d 334d 903b dc87 61bd
00000180: 0672 d03c 7d71 243d cd74 f43d 7f75 f93c
00000190: b0b8 6cbc 5ff3 653e 5530 a63e 9f18 013d
000001a0: 3a47 5b3d 3119 973d 275f d13c 0f3f f23d
000001b0: 3222 113e 3775 1c3e ed00 3d3e 09ee fe3d
000001c0: c3e7 473e 0eb8 103e e12a 943c db74 eb3d
000001d0: c7ac b53d 60b1 7d3d 2ff3 1f3d 34f6 adbb
000001e0: ab24 163d 247c a53d 698f db3d 3edd 603e
000001f0: 9839 dfbd cd45 c5bc c75c 623e f28b 323e
00000200: cced 7dbe 62a8 47be 3bdb 06be b7f0 763e
00000210: 8bd6 413e bb41 f8bb bcab 1e3e 7590 3dbe
00000220: a3e5 59be dcad 283e ff6b f23b e021 1e3e
00000230: d3e1 23be 35ac 2a3e 0d7e 22be f450 5e3d
00000240: 0630 253e 8fb6 42be d881 103d 3d75 fd3d
00000250: 181f 153e f0c4 42bd 1a0c 353e 82f1 343c
00000260: 7705 58be 978a 303d bb22 223e 9a81 0e3e
00000270: 25e9 9e3d 4309 83bc 825e 40be 8313 ea3d
00000280: 80f9 39be 90dd 493e aacd 333e b012 75be
00000290: 2d81 963d 5519 973c 481e 63bc 5a4d 673b
000002a0: 32eb 46be 7e25 acbd 124b 3dbe 82b2 793d
000002b0: 9e8f 88bc e082 9d3d 0654 283e bffe 483e
000002c0: 80ad 2a3e d847 17be c2ba 093e 4d27 1f3c
000002d0: b07c 8e3d 5f81 533e 320c 463e 3670 50be
000002e0: 3433 bbbd 8fc6 123e 39c7 7abe 541b ddbd
000002f0: d21f 063e 2eb9 323d 8148 883d abe6 ebbd
00000300: 696a a93d 2bde 8a3e 6496 333e 1e30 233e
00000310: 35b0 9b3e 8a89 213e 67e9 ea3d e8c7 233e
00000320: 5057 273e 2e70 263e 52ae 843d 75db b33d
00000330: 2bc1 103e e9cc d93d b90f 323e bc32 2f3e
00000340: 9e5f 943d 7a92 763e b724 863e 1767 993d
00000350: 223b 883e 9e37 593e bae5 2e3e f4d6 123d
00000360: 6227 bf3d 0610 c93e bc0e 8e3e 4f45 513e
00000370: d5fc 7b3e 4403 663e bbc9 503e 3c2b 323e
00000380: dc8f 4c3e 8e0f 913d 7681 a23d 341c 903d
00000390: c37e 193e a04c b63e 30b7 d23e d94b 9c3d
000003a0: ddf2 053e 4d7c 8f3e e046 8f3e 766d 433e
000003b0: cd38 903d c10d 7f3e 442b d53d 61ed 333e
000003c0: 2645 993e 771b ae3d 349b 8d3e 55b7 593e
000003d0: d7af 253e 8b5d 433e e907 193e 8a88 8b3d
000003e0: 3199 b13d d263 0f3e d00f ca3d 8482 883e
000003f0: 3316 b03d b3c8 1d3e 6f2c 923e a9ad f13d

fc.weight f4 [1, 64]
-63.957176 -63.824055 -63.90735 63.980724 63.915993 -64.023796 63.9669 -63.93885
-63.96529 63.876675 64.55019 63.908096 -63.892155 63.968216 -63.910458 63.979237
63.998013 -63.934925 63.91981 63.876087 63.97071 -63.965717 63.928333 -64.04293
-63.984554 -48.438946 63.9562 63.85081 63.88855 -63.957405 -63.884422 64.01848
-63.903442 63.976955 63.872402 -63.86582 63.97981 65.10396 58.11191 -63.97265
-63.969864 -63.972374 -63.94361 63.934414 -63.90896 63.889698 63.8679 63.938297
63.938488 -63.974716 63.888477 -64.78644 63.95745 63.926067 63.88752 -63.995586
-63.924038 63.950455 -63.89697 -63.890728 63.85754 63.906322 63.95352 -63.96593
00000000: 26d4 7fc2 d54b 7fc2 20a1 7fc2 43ec 7f42
00000010: faa9 7f42 2f0c 80c2 1bde 7f42 62c1 7fc2
00000020: 75dc 7fc2 b781 7f42 b319 8142 e4a1 7f42
00000030: 9191 7fc2 74df 7f42 4fa4 7fc2 bdea 7f42
00000040: f7fd 7f42 5dbd 7fc2 e3ad 7f42 1d81 7f42
00000050: 02e2 7f42 e5dc 7fc2 9db6 7f42 fb15 80c2
00000060: 2ff0 7fc2 7bc1 41c2 26d3 7f42 3b67 7f42
00000070: e08d 7f42 62d4 7fc2 a689 7fc2 7609 8042
00000080: 209d 7fc2 67e8 7f42 577d 7f42 9a76 7fc2
00000090: 53eb 7f42 3a35 8242 9972 6842 fee3 7fc2
000000a0: 24e1 7fc2 b6e3 7fc2 42c6 7fc2 d7bc 7f42
000000b0: c6a2 7fc2 0d8f 7f42 bb78 7f42 d1c0 7f42
000000c0: 03c1 7f42 1ce6 7fc2 cd8d 7f42 a892 81c2
000000d0: 6ed4 7f42 4bb4 7f42 d28c 7f42 7bfb 7fc2
000000e0: 37b2 7fc2 44cd 7f42 7f96 7fc2 1b90 7fc2
000000f0: 1f6e 7f42 13a0 7f42 68d0 7f42 1ddd 7fc2
