LSTM_MODEL/TCS_model.pt (torch, 89378 bytes, 5 tensors)

lstm.weight_ih_l0 f4 [256, 19]
00000000: 37f9 523c 7b30 483e a059 cdbc b8e1 c2bc
00000010: deb9 813d 7802 833d de44 84bd 2321 453d
00000020: 5bb1 1fbd 77ef 0ebc f35e 443e a506 693d
00000030: 686a 973b 50bf c63d 5c19 503e c875 6c3e
00000040: 2e80 be3c 70bd d03d ae47 ba3c cab0 df3c
00000050: 01f0 213e 6cf3 f33d 2ee8 b8bd 48a9 0c3d
00000060: bc67 9b3d cc51 c33d 60a8 363e 51a2 2f3d
00000070: a1b0 8b3d b9e4 453e e619 f53c b7a9 963c
00000080: a08c 373e f083 143e 2758 423e ceef 0b3e
00000090: 3d84 533e 44a6 18bc a6bd 093e 7c3e 063d
000000a0: 88a4 f9bd 0070 fe3d c0ca e6bd 1cfe f1bd
000000b0: 9af4 f93d 570e a83d 8ef8 dd3d c681 533c
000000c0: 5449 0b3e c935 de3d fec8 403e 5c0d 0a3e
000000d0: 2b5c 203e 23a1 9ebc 9c45 e2bc 88b9 b43d
000000e0: 6823 c03d 7a78 b43d 09c9 c83d f6bf 81bd
000000f0: f8d1 b2bd 72c7 aebd 64cb 0e3d 64c2 86bd
00000100: 30b1 a83d 0ef7 433e 187f ee3d a3fc 013e
00000110: 147e 2d3e c073 253e 34f8 013e 88f1 6b3e
00000120: c36c 283d ffd3 573e 109a 673e 9297 2b3e
00000130: 4d08 023d a350 643d 00d3 e2bb bad8 d9bd
00000140: 8458 4bbd 7c2e 173d 60f0 d1bb ac88 d03d
00000150: 4bc7 253e d5f0 4c3e a955 3e3e 460d 69ba
00000160: 5fa4 da3d e833 c53c e5d7 ec3d dd08 273d
00000170: df19 453e 9c02 2e3e a3d2 9bbc a25d e53d
00000180: 0d6a 983c 705a 11bc 38d5 e43d 7ac9 f8bd
00000190: 9090 663d 8609 d9bd 379c a3bd fc3d 163e
000001a0: bcb4 5a3d ed7e 2f3e 6d96 00bd e2a5 103d
000001b0: c786 a4bc b7db 2a3e ba5f 223e 4f75 153e
000001c0: 4acd 313c fac1 2d3e 90d9 583d 0882 5e3e
000001d0: 90fe 803d 94fa 15bd d093 d1bd 70af 0c3c
000001e0: 204b cabc 7617 733c bb27 5c3e 3d09 653e
000001f0: 636c 583e 93fb 963d 1700 4a3e 976c a53d
00000200: cceb 773e d63f db3d b56d 3d3d b7f8 4c3e
00000210: c6f2 113e 3d59 2b3e 9bc9 1f3d 1067 053c
00000220: 3002 3bbd b04c 713d 98a8 88bc 7674 93bd
00000230: 69cf 833d 0e4c e53b 795f 373d 460a 533e
00000240: f0ee 093e f4cc c43c 9e0b 593e abea 4c3d
00000250: ccdb 093e 7aae 0e3e 486c 443e ad5f 513e
00000260: 2bd5 893d 9d37 de3d 8c06 903d dca0 6a3d
00000270: e0c2 f7bb 98eb d9bd b453 cabd 5c3a 333c
00000280: 1d0e 73bd d27d 0a3e b03f 1b3e 9752 ae3d
00000290: a152 f73d 1b3e 6a3e 363e b93d 0c8c e13d
000002a0: 0005 763c 16a4 503e 528f 9c3c 2860 713d
000002b0: 1807 203e c8a2 8f3d e0d2 6a3d 1006 52bd
000002c0: 80d0 f23a 40d7 8dbb 723b b33d 5358 113e
000002d0: 7d77 56bc 83dc 2a3e d4fc 9fb5 301f 683e
000002e0: f63f 5a3e 4ca2 0e3e e430 663d 287f 0c3e
000002f0: a050 953d 367c e4ba e9cc e93d 5973 663e
00000300: ec61 753d 003a 4e3b 601d 703d e2c8 9c3d
00000310: 2874 1d3d 96c1 9d3d eb0e f03c d776 41bb
00000320: 18b5 c43d 75e2 b33d db81 c63d 46df 583e
00000330: 1964 0e3d 217f 3e3d 686e 3e3e b312 0a3e
00000340: ac05 133e 3c3c 3a3d 5ec4 99bc 00c8 fab9
00000350: c297 f0bd e0d9 743c 06c7 edbd de35 8ebd
00000360: cf1c ea3b 72ca 303d 8754 303e 218a fa3d
00000370: 86e6 9abc 336e fe3d eff2 f03b 6649 303e
00000380: f92e 003e ad5d 5e3e 0516 443e 6eb3 563e
00000390: eaa1 bcbe 155d 0bbf 000d 05bb 50d5 9dbc
000003a0: 8e1c c1bd 189d e63c 8ca4 21bd bf70 1abf
000003b0: 39c6 75be 94d6 a8be 373f b3be 82ba b9be
000003c0: c483 d4be 1e49 abbe 1401 0bbf c710 b3be
000003d0: 2d3a 03bf 1c9c c7be ff0f 01bf bd39 6e3d
000003e0: 319b 493e 00e0 96bd 1a9f bdbd d2a6 dbbd
000003f0: 5c78 25bd 48a4 00bd a637 4c3d ed97 783d
0.0128768 0.19549744 -0.02506715 -0.023789272 0.063342795 0.06396955 -0.06458448 0.048127305
-0.0389875 -0.008724085 0.19176845 0.056891102 0.004620839 0.09704459 0.20322174 0.23091805
0.02325448 0.10192382 0.022739258 0.02730598 0.1581421 0.119116634 -0.0902866 0.034341127
0.07588145 0.09537086 0.17837667 0.042879406 0.06820799 0.19325532 0.029919576 0.018391473
0.17924738 0.14503455 0.1897894 0.13665697 0.20655914 -0.009316985 0.13451251 0.032774433
-0.12189585 0.12423706 -0.1126914 -0.11816046 0.12204857 0.0820586 0.10838424 0.012909358
0.13602191 0.108501025 0.18826672 0.13481659 0.1566016 -0.019363945 -0.027621083 0.0882445
0.09381753 0.088120416 0.098039694 -0.06335442 -0.087314546 -0.08534135 0.034861937 -0.06580046
0.08236921 0.19137213 0.11645335 0.1269403 0.16942626 0.16157436 0.12692338 0.23041356
0.04111935 0.21076964 0.22617364 0.16757038 0.031746197 0.055740964 -0.006922126 -0.106370404
-0.049644962 0.036909565 -0.0064068288 0.10182318 0.16189305 0.20013745 0.18587364 -0.00088902225
0.106758825 0.024072602 0.11564616 0.040779937 0.1924815 0.16993183 -0.019021338 0.111995
0.018605256 -0.00887166 0.11173481 -0.121478036 0.05629021 -0.105975196 -0.0798878 0.14672083
0.053395018 0.17138262 -0.031393457 0.03531445 -0.020083798 0.16685377 0.1585683 0.14595531
0.010852167 0.16968527 0.05294186 0.2172929 0.06298554 -0.036615923 -0.10233271 0.008586749
-0.024694026 0.0148371365 0.21499531 0.22366805 0.21135096 0.07372203 0.19726597 0.080773525
0.24211043 0.10705535 0.046247203 0.20016752 0.14252767 0.1673326 0.039010625 0.008142248
-0.045656383 0.058911026 -0.016681954 -0.071999475 0.06436045 0.006997592 0.044768784 0.20609388
0.13470054 0.02402351 0.21195838 0.050028484 0.13462752 0.13933745 0.19181931 0.20446654
0.06730112 0.10850451 0.07032499 0.057282314 -0.0075610727 -0.10640639 -0.09879246 0.010939207
-0.05933963 0.13524559 0.15161014 0.085118465 0.12076307 0.22875254 0.09045069 0.1101304
0.0150158405 0.20375094 0.01911131 0.058929592 0.15627706 0.0701347 0.057330012 -0.051275313
0.0018525273 -0.0043286383 0.08751573 0.1419385 -0.013090012 0.16685681 -1.1920006e-06 0.22668147
0.21313462 0.13929099 0.05619897 0.13720381 0.072907686 -0.0017432037 0.11416037 0.22504939
0.05990784 0.0031467676 0.058621764 0.07655503 0.038440853 0.07702939 0.029303988 -0.0029520297
0.096048534 0.087834276 0.09692737 0.21178922 0.03476343 0.04650796 0.18596804 0.13483696
0.14357632 0.0454676 -0.018770393 -0.00047832727 -0.117476955 0.014944524 -0.11610226 -0.06943868
0.0071445475 0.043161817 0.17219745 0.12233377 -0.01890875 0.124233626 0.0073531787 0.172155
0.12517919 0.21715422 0.19149025 0.20966884 -0.3684228 -0.54438907 -0.0020301938 -0.019266754
-0.094292745 0.02815108 -0.039463565 -0.60328287 -0.24001397 -0.3297621 -0.35009167 -0.36275107
-0.4150678 -0.3345422 -0.5429852 -0.34973738 -0.51260644 -0.3898629 -0.50415033 0.058160532
0.19688107 -0.07366943 -0.09258862 -0.10725178 -0.040397987 -0.03140667 0.049857758 0.060691763

lstm.weight_hh_l0 f4 [256, 64]
00000000: 1dfc 86bd 5285 23bd 2842 6c3d 8002 5cbd
00000010: 9e44 b2bd c3d8 75bd 6181 093e 9746 4dbe
00000020: 0296 38be 3cb0 7dbd 6219 a0bb 95b1 53be
00000030: d009 9abd 0114 8b3c 49b5 ae3d 10e6 503e
00000040: 268c 2cbd 05fb 803d 52fc a43d 1fae d13b
00000050: e0a9 19be 6c80 023c 9106 9fbd 60f3 193e
00000060: 831f 36be 460e 0fbe d80a 5c3c d402 3f3d
00000070: 9680 0f3e b973 393e a3cf 093e 9347 54bd
00000080: 25f3 3b3d a54f 07bd eba5 f03d 3444 03bc
00000090: c675 de3d f912 a83d cf3b 133e 7cdc e13d
000000a0: b757 e33b 8e06 30be 0e7a 57be a78a adbd
000000b0: 64ed ee3d dd40 33be bb8c e3bc 79e7 7fba
000000c0: 15dc 333d 8e55 ddbd 8137 303e 7449 e73d
000000d0: 0ba9 d33d e1d7 41be fb11 943d 2cfe 5abd
000000e0: 323a 53be 1b0c fabd d8cb 243d f716 513c
000000f0: 1c44 eebd cca8 243e 4127 f33d 639d 10be
00000100: fb49 06bd f56a 963c e88e 543d 2996 fabd
00000110: 6d5a 3ebd 1910 87be e056 0a3e e8f7 4abe
00000120: 088b afbd 3eac 32be 68e1 14bd 1fc2 b0bd
00000130: dab9 c83c 9673 8fbd b5f4 b8bc 12d3 d73d
00000140: cd5a 983b b5c6 b43d e851 fa3c a814 40be
00000150: d6a0 e6bc 1f4a 73be 2bc9 d2bb 56da aa3d
00000160: a822 21be 693a 90b9 9bdb 55be 4d77 33be
00000170: d7a9 123e e692 9b3d 98d2 7c3e e945 8bbc
00000180: eddc 08be ea80 2cbe c5f5 4e3e f034 57be
00000190: 4a9f 9d3d 2096 f43d 3df8 db3d e5ce 293e
000001a0: 3b70 b53d 7d28 e3bd b1b4 3dbe 12e0 f3bc
000001b0: a584 793e b8c1 eebd 1656 703e 31cc 6abd
000001c0: 5508 95bc 44a6 bbbd d0c7 d7bc 090c e93d
000001d0: c4bc 653d 23f5 43be cd8a 323e 2ba5 11be
000001e0: e4c8 b0bd d11e dd3c 5ea2 3cbe 792a 5ebd
000001f0: e922 33bd 4424 ef3d 4aff 1e3e b18d 05bd
00000200: 50f2 82bd c8f7 453d 028c 2d3e d370 abbd
00000210: ba27 32bb 083d c8bc 0d36 a93d 64a4 a6bc
00000220: 3230 c8bc 2975 aebd f339 dcbd d238 56b6
00000230: a96e 3fbd e9bd 3fbe c259 ef3d 32fe e33b
00000240: 7d97 313d ee2a 8e3d f4ff f03c 53e2 55be
00000250: 4eb6 afbd f504 34be 66b7 9b39 4045 a3ba
00000260: ecc6 07be 1e6a 4a3c 3df5 cfbd eea9 4cbe
00000270: 4db3 1e3e 9abf 643e bd80 793e ca1e 38be
00000280: cd81 97bd bcfc 32be 4fa3 953d b1f4 f4bd
00000290: 8262 3a3d 1a2f d23d f9cc 3e3c 1e2f ae3d
000002a0: 1457 123e 5fdb 08be 2f65 f8bd 0957 ac3c
000002b0: 611e db3c 30f7 c6bd 960d 183e 53e8 42be
000002c0: 4fe3 2e3e d7bd 78be 9d48 453e 8b63 043e
000002d0: c492 b83d 798e 3dbd 500b c93d aa29 bfbd
000002e0: d7e9 74bd b4e1 57be 4004 2d3b e236 7cbe
000002f0: eccd 31be c274 923d e199 093e 2997 b3bd
00000300: 43d0 bcbd 4aed 953d 01a8 1a3d 5183 43bd
00000310: 2c93 15be 5c43 27bd 5536 463e 46c9 ccbd
00000320: e2f4 f5bd b1d4 22be cb85 5eba 98cf ccbd
00000330: 4b0a adbd d775 68bd 2d2b 0d3e ca86 303e
00000340: 402c 61bd 3142 273d 9da8 833d 8583 8ebc
00000350: 0b42 5b3c 8c35 dbbc 857d f9bc a3d6 023d
00000360: 0525 99bd d61a 57be e7e3 62bd 3d7f 8c3d
00000370: 2ae3 d93d 4bce 3ebc 1d3d e83d e260 41be
00000380: 0f2f 353d 662e 1f3d c03d 943d ab74 34be
00000390: e3ae 1a3e 89b4 073d ead9 ac3d 6c59 273e
000003a0: 3ffc 2a3e ead4 acbd 17e9 d7bd 46b6 f4bd
000003b0: 79b1 743d dac0 cdbd 37be 623d bb37 42bd
000003c0: e9c0 2b3e 9fdd a7bd 7c84 e43c eb42 44bc
000003d0: eadd 5b3e 01dd d4bd 8dd8 1d3d 6c48 093d
000003e0: 0c2f 8dbd bbc9 5a3c 4eab a33c d95c 25be
000003f0: a574 b0ba 40e9 0a3e 1cca 5c3e cbe8 c3bd
-0.065910555 -0.039922066 0.05768028 -0.05371332 -0.08704494 -0.060021173 0.1342826 -0.20046459
-0.18025973 -0.06193565 -0.0048858384 -0.20673211 -0.07521403 0.016977312 0.08530671 0.20400262
-0.042125843 0.06297878 0.08055939 0.0063989307 -0.15006208 0.0079651885 -0.07764924 0.15034246
-0.17785458 -0.13970289 0.01343032 0.046633556 0.14013895 0.18110551 0.13458113 -0.05182607
0.045886178 -0.03303494 0.11750396 -0.008011866 0.10862307 0.08206744 0.14378284 0.11028382
0.0069379467 -0.1719 -0.21042654 -0.084737115 0.116663724 -0.17505212 -0.027777066 -0.000976197
0.04391106 -0.10807334 0.17208673 0.11293307 0.10334977 -0.18930008 0.07229992 -0.053465053
-0.20627668 -0.1220934 0.040233463 0.012761823 -0.116340846 0.16080016 0.118727215 -0.14122538
-0.032785397 0.018361548 0.0518941 -0.12235672 -0.046472955 -0.2637947 0.13509703 -0.19821131
-0.0857144 -0.17448518 -0.036347777 -0.08630776 0.024502683 -0.07004468 -0.022577623 0.10538305
0.004649496 0.08826963 0.030556634 -0.1875788 -0.028152864 -0.23758744 -0.0064326725 0.083424255
-0.15735877 -0.0002750934 -0.20884554 -0.17525978 0.14322601 0.07596378 0.2468971 -0.01700111
-0.13365526 -0.16846052 0.20210941 -0.21016288 0.076963976 0.119426966 0.10740707 0.1658283
0.08859297 -0.11091707 -0.1852596 -0.029769931 0.24367006 -0.11658043 0.23470339 -0.05732364
-0.01819245 -0.09162572 -0.026340395 0.11379249 0.056088224 -0.19136481 0.17435761 -0.14223163
-0.08632067 0.026992233 -0.18421313 -0.054239724 -0.043734465 0.11676839 0.15527073 -0.03260583
-0.06393874 0.048332006 0.1694794 -0.08371129 -0.0027184323 -0.024443164 0.082622625 -0.02034206
-0.024437044 -0.0851844 -0.107532404 -3.1921559e-06 -0.046736393 -0.18724789 0.11687042 0.0069577927
0.04335736 0.06941782 0.029418923 -0.20887117 -0.08579694 -0.17580016 0.00029700546 -0.0012456551
-0.13259476 0.012354402 -0.10154197 -0.19986698 0.15498085 0.22338715 0.24365516 -0.17980495
-0.073978044 -0.17479223 0.07306539 -0.11960734 0.0455041 0.1026289 0.011645549 0.08505081
0.1429103 -0.13364933 -0.12128674 0.021037595 0.026747884 -0.09715116 0.14848933 -0.19033937
0.17078899 -0.24291168 0.19265981 0.12928598 0.09012368 -0.04627845 0.09816611 -0.09334119
-0.05979332 -0.21082193 0.0026400238 -0.24630311 -0.17363709 0.07151176 0.13437606 -0.08769066
-0.0921941 0.0732065 0.037757877 -0.047732655 -0.14606923 -0.040835723 0.19356664 -0.09999327
-0.12009598 -0.15901448 -0.00084885646 -0.10000533 -0.08449229 -0.056753006 0.13786002 0.17238918
-0.05497384 0.04083461 0.06428645 -0.017396698 0.013382445 -0.026758932 -0.03045536 0.031942975
-0.07477764 -0.21006331 -0.055393126 0.06860206 0.10639031 -0.011645864 0.113397814 -0.18884614
0.04423433 0.03886261 0.072383404 -0.1762263 0.15105776 0.033131156 0.08440001 0.16342705
0.16697787 -0.08439048 -0.10542505 -0.119488284 0.059739564 -0.10046549 0.055357184 -0.04741643
0.16772808 -0.08196568 0.027895205 -0.011978845 0.21471372 -0.10393716 0.038536597 0.033516333
-0.06893739 0.01335376 0.019979145 -0.161487 -0.0013462497 0.1356554 0.21561474 -0.09565886

lstm.bias_ih_l0 f4 [256]
00000000: 9148 96bc 1fb1 5f3d 8632 853d e085 243d
00000010: 6d30 89bc 1c58 03bd 8d81 893d 67e5 5d3e
00000020: fb4a 553e 1981 2b3e 2140 1b3e d469 eb3d
00000030: a89a d6be cb66 143e d286 143e 17af 05bd
00000040: baff d23e c0f9 493e 223d 2c3e adee aa3d
00000050: d06a fa3d 03aa ab3d 19bc 51bd eeda d13d
00000060: 7aae bc3c c51e 473c b23a 933d 4880 233e
00000070: 93bd 663e 8793 fe3d 7993 083d 86c3 223e
00000080: bd3c 11bd 587d 4a3d a651 a33d e5e1 083e
00000090: 9b56 683e c073 053e 71a7 283e 0e3d 653c
000000a0: 3dba 7e3c 2c43 2c3d d10c 9a3d 4698 023d
000000b0: 1c2f 853d d63f d03d 7fa8 0ebd 50ea 313e
000000c0: af6a b43d 1195 103e 66f4 5c3e 9d5b 59bc
000000d0: d2f0 233d 633c 223e 2832 4c3e 8479 b03d
000000e0: 8330 393d dbc9 4f3e 861a 18bd 1ea8 4cbd
000000f0: 977f 8fbc 0290 873c 2b34 743d 3104 ea3d
00000100: b853 413b 688b 8cbc 11e7 ffbb fb40 4c3e
00000110: 0137 523e cd5c 323e 6aab 6a3d 2501 603e
00000120: 58a2 36bc 1c96 4b3e 81a8 363e 1085 cc3d
00000130: e0a2 c0be 69e0 043e 7964 383e 0dbf 403e
00000140: 230c 663e bfe7 1c3e d1ed 373e 26ad 143e
00000150: ef53 e13d 7740 223e 0e90 2a3e 6569 4d3e
00000160: e4ed 483e 85c4 253e c17a b53d 3863 87bd
00000170: 6973 c23d d8b5 213e eeb2 433e cdd5 643e
00000180: 6774 243e a030 823d 311e 983d f5ac cd3d
00000190: a95f 4e3d 5585 543d 1a20 013e 2b07 953d
000001a0: 554f 123d 4ce7 353e 53c4 2c3e 2939 503e
000001b0: 15ba 573e 8b0d 443e f69a 2b3e 4c6d 0b3d
000001c0: 4737 213e 8a21 123e a845 043e ccb1 f23d
000001d0: 5006 9d3d cea6 2f3e 748d f03d cc4c 3b3d
000001e0: 300c d03d 43e2 5b3e 06e2 103e 7415 2d3e
000001f0: 2171 ebbb 7832 a93d 952e 213e ed41 243e
00000200: 9fba 43be 05a6 6e3c cc3a a13c ba59 57be
00000210: 02d1 16bd e028 03bd 12b3 d63d 743f 15be
00000220: d00e 53be 7275 3bbe 2a76 16be 9fdf 5cbe
00000230: d927 973e 293f 24be 03f3 be3d 8c66 8e3d
00000240: 45e3 f53d 71a9 3e3e 33d7 a53c 8e4b cdbd
00000250: a7b8 1bbe bf56 9abd 9238 36be c376 393e
00000260: efcf 3f3b ec8c 28be 87bb c5bd 6a6a 83bd
00000270: ca1c e03d 656c 4a3d 175a d63d 40d9 ddbd
00000280: 4775 143d 4740 62be a5a1 da3d 2b0c 19be
00000290: 835a 4b3e 78d5 6a3e 2fae 4f3e ac7f 1d3e
000002a0: b08b 423d 1010 5cbe 7eac 70bd 9e66 39be
000002b0: 3293 d13b e222 49be d06b 0d3e 174c eb3c
000002c0: c732 3b3e 00b1 43bd d60b 603d 3437 ea3d
000002d0: 07f1 2f3d 8202 69be d379 653e 5a3d 66be
000002e0: dc6f 4abe cb3b 39be cb03 973c 77d0 3dbe
000002f0: 3609 d7bd 9381 8f3d 8616 f63d a6b1 55be
00000300: 8360 a23d b36e 703e 514a de3d 5490 973e
00000310: 98c5 e53d f03a 3f3e 43af 0c3e d480 e33d
00000320: bd48 873e 6980 373e 8b29 783e 7885 843e
00000330: e70c f9be 90d0 043e 6e70 003e 10a3 f63d
00000340: 857c f73e 04f4 333e 1169 053e c705 6c3e
00000350: 203c 843e c2d2 883e b1d1 6b3e 03cb c53d
00000360: 84eb 013e 22da 823e b17e 5e3e 28b6 bb3d
00000370: 8073 923e 2b2c dd3d d4a7 953e c8c9 7f3e
00000380: 0020 7c3e 9c44 803d 7c70 253e 9e08 573e
00000390: b028 dc3d beda 423e eb65 853e b0ac 983e
000003a0: e959 f03d 106c ba3d 9e3f 103e 5b27 bf3d
000003b0: 0b40 4a3e fd33 8b3e 9514 f13d 9995 2d3e
000003c0: a39f 4d3e 566d 833e b692 763e f496 8c3e
000003d0: 24e9 d03d ea37 313e f379 243e 6858 7f3e
000003e0: 17fb 9b3e ad18 743e 8279 dc3d 2e9a 8b3e
000003f0: 63c0 2c3e 4aca d33d c3e6 873d d975 4a3e
-0.01834515 0.054612275 0.06503777 0.040166736 -0.016746724 -0.03206645 0.06714163 0.21669541
0.20829384 0.16748466 0.15161182 0.114947945 -0.41914868 0.14492337 0.14504555 -0.03263768
0.4121073 0.19724178 0.16820195 0.08346305 0.12227404 0.083820365 -0.051204775 0.10246836
0.023032416 0.012153332 0.071889296 0.15966904 0.22533254 0.12430482 0.033343766 0.15894899
-0.035458315 0.049435943 0.079745576 0.13367422 0.22689287 0.13032436 0.16470124 0.013991607
0.015547332 0.042056248 0.07521976 0.0318835 0.06503126 0.10168426 -0.03482866 0.1737454
0.08809411 0.14119364 0.21577606 -0.013266471 0.040024586 0.15843348 0.19941008 0.08616927
0.04521228 0.20291846 -0.03713467 -0.049965017 -0.017516894 0.01654816 0.059620064 0.11426581
0.0029499363 -0.017156318 -0.0078095277 0.19946663 0.20528795 0.17418213 0.05729238 0.21875437
-0.011147104 0.19881481 0.17837717 0.09986317 -0.37624264 0.1297623 0.18007077 0.1882288
0.22465567 0.15322779 0.17961814 0.14519176 0.11002337 0.15844904 0.16656515 0.20059736
0.19621998 0.16188248 0.08861304 -0.06610721 0.09494669 0.15792024 0.19111225 0.22347184
0.16060029 0.06356931 0.074276336 0.100427546 0.050384197 0.051884968 0.12609902 0.07276758
0.03572019 0.17764014 0.16871767 0.20334305 0.21067078 0.19145791 0.16758332 0.03403978
0.15743743 0.14270607 0.12917197 0.11850318 0.0766722 0.17153475 0.1174573 0.045727536
0.101585746 0.21473031 0.14148721 0.16902715 -0.007185117 0.08261579 0.15740426 0.16040774
-0.19114159 0.014565949 0.019681357 -0.21030322 -0.03682042 -0.032021403 0.10483374 -0.14574987
-0.2061112 -0.1830652 -0.14693514 -0.2156968 0.2952259 -0.16039719 0.093236946 0.06953153
0.12006239 0.18619324 0.020244217 -0.100241765 -0.15207158 -0.07536077 -0.17795017 0.1811171
0.0029268225 -0.16460007 -0.096549086 -0.06416781 0.10942991 0.04941978 0.10466402 -0.10832453
0.036244657 -0.22094832 0.106753625 -0.14946048 0.19858746 0.22932994 0.2028129 0.15380734
0.047496498 -0.21490502 -0.05875825 -0.18105552 0.006395721 -0.19642213 0.13810658 0.028722806
0.18281089 -0.047776222 0.054698788 0.114363104 0.04295447 -0.22754863 0.22409754 -0.22484341
-0.19769233 -0.18089215 0.018434426 -0.18536554 -0.10499804 0.07007136 0.12016015 -0.20868549
0.079285644 0.23479728 0.108540185 0.296023 0.11219329 0.18674827 0.13738732 0.111085564
0.26422682 0.17920078 0.24234597 0.2588308 -0.48642656 0.12970185 0.12542889 0.120428205
0.48337188 0.17573553 0.13028361 0.23049079 0.25827122 0.26723295 0.2302921 0.09657862
0.12687498 0.25557047 0.21728016 0.09165603 0.28603745 0.1079944 0.29229605 0.24979317
0.24621582 0.06263086 0.1615619 0.20999381 0.10749948 0.19028756 0.2605432 0.2981925
0.11735899 0.091026425 0.14086768 0.09333678 0.19750993 0.271881 0.11771504 0.16951598
0.20080428 0.25669354 0.24079403 0.27458918 0.10200718 0.17306486 0.16062145 0.24936068
0.30465004 0.23837538 0.10765363 0.27266067 0.16870265 0.10341318 0.06635811 0.19771518

lstm.bias_hh_l0 f4 [256]
00000000: 9196 d13d a16f 8a3c 84eb 493e 68e3 923d
00000010: 86f6 99bc 514b 083c 7375 b83d b492 a53d
00000020: 980e cc3d 1cfa 2f3d e7ce 4abc 1205 0d3a
00000030: ae54 0abf d21e 05bd 5e88 293e b4bd 9a3d
00000040: 2d36 cd3e b96e 523e 8bce ae3d 9a1e 8a3d
00000050: 1b57 663d f297 023c 84f1 ba3d 9326 d43c
00000060: 2b3a 5f3d c786 453e b9c5 baba 4eff bc3d
00000070: f216 933d dec5 323e f429 b63c 914f 353a
00000080: 5cc8 063e a053 503d a7cf 083e 5740 1d3e
00000090: 46bc ac3d 2de9 483e c4ae 523e 1944 623d
000000a0: 7523 7ebc 74cf 5f3e 9579 503e abd1 3bba
000000b0: 8a12 6a3d e866 883d 7352 5a3b 3a4c 983c
000000c0: 5081 0f3d e47e dd3d 4dc9 ac3d 5b5f 323e
000000d0: cb85 b13c b53f f63c 83a7 053e f314 d1bc
000000e0: 8a70 973d 22ae a43d 3756 aeba 8050 bc3d
000000f0: 040b 113e 6553 b73c 5dfe fdbb 4284 963d
00000100: df79 a9bb 41ca 193e 0dc5 cc3d 1b07 d73c
00000110: 9271 453e 0648 aabc 93ba 4b3d 68fc af3d
00000120: 3627 283e 137f 1c3d d7ff 4d3d 4782 d83d
00000130: c026 dbbe cb32 513e 8bc3 e43d 9281 313e
00000140: 04ed 9a3e 0b82 923d c31c 86bb 2c91 253d
00000150: 657b 1ebd 3a12 3b3e c16e 193e 855d 4a3e
00000160: 6163 573e 1298 063e 93e0 023d cb3b f43d
00000170: b41f f63b f694 c9bc cae6 be3c 0a3d 5a3d
00000180: 34c3 993a 3e40 9b3d 9ac9 003c 5d40 493e
00000190: 7093 593e 8f35 df3c b299 483e 5089 e53d
000001a0: 472a d33b c2e3 413e aae3 3c3d bb3f ec3d
000001b0: d3ed 893c 2228 4f3e f1bc 2a3e 51ad 093e
000001c0: b4cb fd3d b5f4 ea3d 779b 403e a6eb 1b3d
000001d0: 95d6 043d a745 723e 464b 0c3e ca2f c63d
000001e0: e81a 5fba 0f02 c03d 58be 43bc 9649 7a3d
000001f0: b496 563e 1d5f f73d 7c14 743d 39a0 883c
00000200: 2050 a2bc 03e8 573d 23d5 0a3e de1b 09bd
00000210: 8f32 d2bd 2626 4a3d 8fc5 083e 510a 20be
00000220: c8a7 25be f9d9 5dbe d14c 48bd 24c7 0bbe
00000230: cafa a13e c99e 4fbe 04fc 373e c017 0e3e
00000240: d7ea d43d 61e4 323e f89a fd3d fc80 50be
00000250: 6ba0 d43c d24d 57be b2ba 18be c53a 6a3e
00000260: c9da 6fbe 592a 95bd 9513 64be 8dc7 033d
00000270: d894 d53d 0fc5 ea3d 8238 af3d 8b82 5ebe
00000280: 9889 b3b8 a3d0 60bd 214a 0c3e b028 30be
00000290: 560b 2a3d cd7d 553e 15ea 483d 588a 183e
000002a0: d8d3 d23d 9fc2 8fbc 0101 ebbd 5540 47be
000002b0: 6036 ef3d 92e4 4abe de84 4dbc 74f2 e6bd
000002c0: 8621 5b3e 9a4a e0bd 08a6 4c3e aaba 4d3e
000002d0: 118e afba af4e 0fbd 39c4 f23d 5fe5 043b
000002e0: 8e9c 54be 4162 16bd 743c edbc 7340 75bd
000002f0: 126b 43be d0fb c33d 35dc 263e 5c1f b8bd
00000300: 01fe 2f3e 4066 ab3e 8b20 483e bced 333e
00000310: 0f80 8c3e 2051 843e 050d 533e 0eda 2c3e
00000320: c2d3 873e e5e3 4e3e 8df3 613e dbbd 823d
00000330: 5b02 b8be ac78 833e e082 de3d 471e 593e
00000340: 378b 8e3e 1115 523e 71aa ed3d 27a4 863e
00000350: a060 583e 93c6 a03d b829 d33d e959 8f3e
00000360: 41da 963d 288e 9e3d 9fb8 ab3d 81b8 753e
00000370: 9218 cc3d b4a1 e53d 2bb8 bd3d db9b 5e3e
00000380: acf2 693e 6280 2f3e ecb7 c23d 664a ed3d
00000390: a950 203e 5a83 da3d 39c9 8f3e 37ad d53d
000003a0: 63cd 9b3e 1dda 0e3e ad7d 933e e89d 2d3e
000003b0: 171f 343e 8df5 9a3e 1e6a 433e 74a2 943e
000003c0: 5649 923e 6cdc 463e cc55 723e 9bae 0d3e
000003d0: da0c 123e 421d 803e d083 6a3e d5ac ae3d
000003e0: 33b7 713e 5761 9f3d a6da ac3d f9ea 883e
000003f0: ba3f cb3d 78f3 b73d b8ab 173e 3166 8c3e
0.102337964 0.016898932 0.19718748 0.071722806 -0.01879431 0.008318738 0.09006777 0.08084622
0.09963721 0.042963132 -0.012378431 0.00053794787 -0.5403546 -0.032500096 0.16555926 0.07555714
0.40080395 0.2055005 0.08535489 0.06744118 0.056235414 0.007970797 0.09128097 0.0258973
0.054498833 0.19289695 -0.00142496 0.09228383 0.07182111 0.17458293 0.022236802 0.00069164584
0.13162369 0.050861 0.13360463 0.15356575 0.08434348 0.196202 0.2057448 0.055240724
-0.015511383 0.21856481 0.2035888 -0.0007164727 0.057146586 0.06660253 0.0033313304 0.018591035
0.03503543 0.10815218 0.084368326 0.17419188 0.021670243 0.030059675 0.13052182 -0.025522685
0.07394512 0.08041026 -0.001330084 0.09195042 0.14164358 0.022378633 -0.0077512697 0.07349445
-0.005171999 0.1501856 0.09998522 0.026248505 0.19281605 -0.020786297 0.049738478 0.085930645
0.16421208 0.038207125 0.050292816 0.105717234 -0.42803 0.20429532 0.11170109 0.17334583
0.30258954 0.0715371 -0.004092784 0.04042165 -0.038691897 0.18268672 0.14983656 0.19762237
0.21034004 0.13143948 0.031952452 0.11925467 0.0075111035 -0.024607163 0.023303408 0.053280868
0.0011731149 0.075806126 0.007860566 0.19653459 0.21247649 0.027247218 0.1958988 0.11207831
0.006444249 0.18934539 0.046115555 0.11535593 0.016837036 0.20230153 0.16673638 0.13445021
0.12392369 0.114724554 0.18809305 0.03806653 0.032431204 0.23659383 0.1370059 0.09677084
-0.0008510784 0.09375393 -0.011947237 0.061105333 0.20955926 0.12078688 0.059589848 0.016677963
-0.019813597 0.052711498 0.13557868 -0.03347384 -0.102635495 0.049352787 0.13356613 -0.15628935
-0.16177285 -0.21665181 -0.048901383 -0.13650185 0.3163665 -0.20275415 0.1796723 0.13876247
0.10396355 0.17469932 0.123830736 -0.20361704 0.0259554 -0.2102578 -0.14914969 0.22873981
-0.23423304 -0.07283468 -0.22273095 0.03217273 0.1042878 0.11463367 0.085557 -0.21729486
-8.561014e-05 -0.05488647 0.13700153 -0.17203021 0.041514717 0.2084877 0.049051363 0.14896524
0.10294312 -0.017548857 -0.11474801 -0.19458134 0.11680293 -0.19813755 -0.012543885 -0.11276713
0.21399507 -0.10951729 0.19985211 0.20090738 -0.001339378 -0.034987148 0.11853833 0.0020278317
-0.20762846 -0.036714796 -0.02895949 -0.059875917 -0.19083813 0.09569514 0.1629494 -0.08990356
0.17186739 0.33476448 0.19543664 0.17571157 0.2744145 0.25843143 0.20610435 0.16880056
0.26528746 0.20204122 0.22065563 0.06383868 -0.35939297 0.25678003 0.10864806 0.21202956
0.27840587 0.20515849 0.11604775 0.26297113 0.2113061 0.07850375 0.103106916 0.27998284
0.073658474 0.07741958 0.08384823 0.23996164 0.09965624 0.11212483 0.09263643 0.21739142
0.22846478 0.17138818 0.095077366 0.11586456 0.1565577 0.106695846 0.28083208 0.10433429
0.30430135 0.13950391 0.2880682 0.16954768 0.17589985 0.30265465 0.19083449 0.29030192
0.28571576 0.19420022 0.23665541 0.13836138 0.14262715 0.25022322 0.22901845 0.08529059
0.23605041 0.07782238 0.084401414 0.2674177 0.09924264 0.08981985 0.14811599 0.27421716

fc.weight f4 [1, 64]
00000000: a638 81c2 157f 8142 8556 8142 df4b 81c2
00000010: 6940 81c2 4d79 81c2 0f5a 8142 6f5b 81c2
00000020: 9b5d 81c2 0e67 81c2 8843 81c2 ca58 81c2
00000030: dc85 8bbe d427 81c2 e53d 8142 533c 8142
00000040: 1ec5 5e42 2d55 8142 2b59 8142 2160 81c2
00000050: 5764 81c2 c949 81c2 bd53 81c2 8070 8142
00000060: 6462 81c2 4530 81c2 7f40 81c2 1658 81c2
00000070: 5c55 8142 6162 8142 5467 8142 f166 81c2
00000080: 2766 81c2 3574 81c2 fb4e 8142 ce2c 81c2
00000090: 7341 8142 497e 8142 0262 8142 6c67 8142
000000a0: 646d 8142 8064 81c2 615b 81c2 1c40 81c2
000000b0: d44e 8142 c75b 81c2 f26c 8142 fb3f 81c2
000000c0: 9d44 8142 9968 81c2 8f37 8142 946b 8142
000000d0: 0b4d 8142 4a5c 81c2 0b41 8142 0d69 81c2
000000e0: 966f 81c2 4741 81c2 2e79 81c2 5b42 81c2
000000f0: 6c56 81c2 2068 8142 b042 8142 483b 81c2
-64.61064 64.74821 64.66898 -64.648186 -64.6258 -64.736916 64.675896 -64.67858
-64.68282 -64.70128 -64.6319 -64.673416 -0.27250564 -64.57779 64.62089 64.61782
55.692497 64.66636 64.67416 -64.68775 -64.69598 -64.64411 -64.66355 64.71973
-64.69217 -64.59428 -64.62597 -64.67204 64.66672 64.69215 64.70181 -64.70106
-64.69952 -64.72697 64.65426 -64.58751 64.62783 64.74665 64.69142 64.701996
64.71365 -64.69629 -64.678474 -64.62521 64.65396 -64.67925 64.71278 -64.62496
64.63401 -64.70429 64.60851 64.71011 64.650475 -64.68025 64.62704 -64.70518
-64.71794 -64.627495 -64.73668 -64.6296 -64.66879 64.70337 64.63025 -64.61578
