LSTM_MODEL/WIPRO_SGD_Test_model.pt (torch, 89455 bytes, 5 tensors)

lstm.weight_ih_l0 f4 [256, 19]
00000000: 246e a1bd a8e8 b53d 8c0c 0cbd 7ac5 a6bd
00000010: 62d3 c2bd 1ae7 e3bd 2849 b33c a782 f3bd
00000020: c6fb a63d f058 823d 50ca 2ebd 975c 9cbd
00000030: f8d4 423d c249 7fbd 585d 863c 737c c9bd
00000040: 4c1c ae3d 13ab a83d 6069 ed3d 0577 9c3d
00000050: 6708 64bd d027 fcbc 3a8d 9f3d ac5d e6bd
00000060: 7089 eebc 0084 b4b9 f692 8f3d 5d16 af3c
00000070: 7c8c 8c3d fa8c 423e 6802 b2bb 07ea 3e3e
00000080: 6728 5a3e 816b 29bc f988 b73d 4f67 c13d
00000090: dd6d fe3d c7b3 193c 6ba3 373d 437e 0abd
000000a0: 50e4 c3bd 68eb 533d 18fd 1b3d 78c7 b6bd
000000b0: e4ff 5abd fc6a ba3d 2661 f3bc e022 fa3d
000000c0: 8cd8 c33d effb 893d 495b 2f3e 443e 2e3e
000000d0: 807c a5bc 73fa 8ebb c388 a9bb ecac 76bd
000000e0: 4468 693a 4cf8 48bd 8b79 53bd 6203 fbbd
000000f0: e2ef a83d 08e7 1e3d 2884 fdbc b808 cabd
00000100: 3864 fe3d 4d3f 453d 9329 8fbc de8a e03d
00000110: 378d 823d 734b 2e3e 5f2d 18bd 3b71 76bd
00000120: 15e4 983b 3fd4 193e edf1 96bd d45d 933d
00000130: 8071 153d fa2f c0bd 243d c13d f8b9 82bc
00000140: 248e d1bd f2d7 f5bd 00f2 763a abad 013e
00000150: e4f2 8f3d 586c 763c 3aa0 e53d 8ab0 a93d
00000160: c540 c4bd cf33 cf3d 6dbf fabc 4868 bcbb
00000170: 3622 2c3d 3a3b 13bd 8115 c13d aa89 7d3d
00000180: d76f bebd 0ccb 5e3d 3064 1fbd 9065 2b3d
00000190: a0a4 6ebc ec1f 893d f708 733c b548 5b3d
000001a0: f24b f83d 9591 c83d b6a1 0d3e 57c6 2dbd
000001b0: 511f c53d 6475 223d 4fb4 863d a300 9dbd
000001c0: 86e2 5cbd 4700 41bd d324 a4bd c523 483d
000001d0: f454 3ebd a26b 82bd 14c5 e8bd c881 d5bc
000001e0: 984d 0b3d 34c6 e2bd eb1d 2f3d cbce 043d
000001f0: c044 0b3e 232b 123e 7f50 48b9 92eb 223c
00000200: 53c6 823c eb84 173e 2a4a d43d 6e24 60bd
00000210: f03b 0d3e 53fb 223d 3eb1 99bc 108e 92bd
00000220: e831 0a3d 601c d4bd 144e d13d 08c0 ebbd
00000230: 71ab b2bd 9523 8e3d a89b 26bd d30c 1dbd
00000240: e70e 2c3d 8112 143e c642 a8bc 3907 9fbc
00000250: 1c1f 24bd df09 50bd 1ee7 4ebd 29e3 68bc
00000260: 57dc 0c3d bcde de3d 26c8 863d b8ff 4d3d
00000270: ae3c ad3d 703c 443d b8f1 1e3d d0cb 44bd
00000280: ce2c 0a3e cf24 f73d 66c2 ed3d 3166 133e
00000290: 00b2 c43d 6a96 4e3e 93a5 ae3d a0ee 133e
000002a0: 152b cb3d 7d1e 573e cde1 2f3e 77bf 29bd
000002b0: 5749 dd3c 442d 02bd 9ce5 7abd fa57 b03d
000002c0: 2e02 a03d 02fd e63d 44f4 f93d 67e4 bd3c
000002d0: dbad dd3c 17be 96bd 4a3f 8abd ec7c 083e
000002e0: a9c2 083d ca7b 873d a5ee 6dbd e70e bfbc
000002f0: 94a7 87bd 665f d53d 9fe5 5f3d ea14 a93d
00000300: 7458 8f3d ec29 c23d 8834 90bd fcbd 84bd
00000310: a606 b6bd df2e db3d 1683 e9bd 54e5 5c3c
00000320: 3855 d63d dc71 113e 2aae 68bd 8e37 153e
00000330: a3c3 803c 943f 893d 1514 1bbd ee37 833d
00000340: d4aa 20bd fddd a73d 4a62 e63d ae16 dbbd
00000350: 38a2 f63d c8a0 c13c a4cc e0bd 00c5 73bc
00000360: 1dcd 9abd 2330 113d 4eaf 8d3a b68e 703d
00000370: be9e 0f3e 6982 aebd 18d6 183d 0e52 abbd
00000380: fe09 0e3e 2ecd 613c 7eba 4e3d c6df 99bd
00000390: 3c21 9a3f ec92 b63c feb3 e03d c0d8 bb3c
000003a0: 1e47 8fbd c0d4 fc3d 44bd 39bd 49ea c5bd
000003b0: 88aa 0ebd bebe 36bf d63a ad3f 46a9 973f
000003c0: 602f 893f 7e1a a03f b427 9e3f 6de4 a23f
000003d0: 5d43 993f 0c04 223e 69de bd3e 32fc c9bd
000003e0: 8928 0bbd c0b3 1cbc 605c 243c 1884 bcbd
000003f0: 4612 d63d b882 f33d 9ec5 0cbe 0157 67bd
-0.07882336 0.08882266 -0.034191653 -0.081431344 -0.09512974 -0.111280635 0.02188547 -0.11890154
0.08153491 0.0636462 -0.04267341 -0.076348476 0.047566384 -0.0623262 0.016401932 -0.0983819
0.08501491 0.08235755 0.11592364 0.07639889 -0.055672076 -0.030780703 0.07790609 -0.11248335
-0.02911827 -0.00034430623 0.070104524 0.021372968 0.06862733 0.18999091 -0.0054324158 0.18643962
0.21304475 -0.010340572 0.08961672 0.09443533 0.124232985 0.009381241 0.044833582 -0.03381182
-0.095650315 0.051738173 0.038083166 -0.089247644 -0.053466693 0.09102437 -0.02970941 0.12213683
0.095627874 0.06737506 0.17124666 0.1701594 -0.020200968 -0.004363352 -0.005173774 -0.060223505
0.00089037814 -0.04906492 -0.051629584 -0.122565046 0.08248879 0.038794547 -0.030946806 -0.09864944
0.12421459 0.04815607 -0.017475879 0.10963987 0.06374591 0.17020969 -0.037152644 -0.06016658
0.0046658614 0.15022372 -0.073703624 0.07195631 0.036485195 -0.09384151 0.0943549 -0.015957817
-0.10232189 -0.12004079 0.0009420216 0.12663905 0.070287496 0.01504048 0.112122014 0.08285625
-0.09582666 0.101173036 -0.030608857 -0.005749736 0.042024814 -0.035945155 0.0942793 0.061898865
-0.092986755 0.05439286 -0.038913906 0.041844904 -0.014565617 0.06695542 0.01483368 0.053536136
0.121238604 0.097933926 0.13831219 -0.04242548 0.09625114 0.039662734 0.0657736 -0.07666137
-0.053926967 -0.047119405 -0.08014836 0.048862237 -0.046467736 -0.063681856 -0.11365715 -0.026062861
0.034009546 -0.110729605 0.04275314 0.032423776 0.13600445 0.14274268 -0.00019103473 0.00994386
0.015963709 0.14796798 0.10365708 -0.054722242 0.13792396 0.039790463 -0.018761273 -0.071560025
0.033739 -0.103569746 0.1021997 -0.115112364 -0.08724106 0.069403805 -0.04067579 -0.03834231
0.0420064 0.14460184 -0.020539653 -0.019412624 -0.04006873 -0.050790664 -0.05051338 -0.014214315
0.03438982 0.10882327 0.06581144 0.0502927 0.08458839 0.0479092 0.03880474 -0.048045933
0.13493654 0.120675676 0.11609344 0.14394452 0.09604263 0.20174566 0.085276745 0.14446497
0.099203266 0.21007724 0.1717598 -0.04144236 0.02701251 -0.03178145 -0.06125413 0.0861053
0.07812916 0.11278726 0.12204793 0.0231802 0.02706044 -0.073604755 -0.06750353 0.13328904
0.033388767 0.06615408 -0.058088917 -0.023322536 -0.0662376 0.104185864 0.054662343 0.08255942
0.06999293 0.09480652 -0.070412695 -0.06481549 -0.08887987 0.10702299 -0.11401956 0.01348241
0.10465473 0.1420359 -0.05680672 0.14571974 0.015718287 0.0670158 -0.03786095 0.06407152
-0.039225414 0.08196638 0.11249216 -0.10697685 0.120426595 0.023636237 -0.10976532 -0.014878511
-0.075586535 0.035446297 0.0010809691 0.05872985 0.14025399 -0.085209675 0.03731355 -0.0836526
0.13870999 0.013781829 0.05047082 -0.075133845 1.2041392 0.022286855 0.10971831 0.022930503
-0.069959864 0.12345266 -0.045346513 -0.09663827 -0.0348306 -0.713848 1.353358 1.1848533
1.0717583 1.2508085 1.2355866 1.272596 1.1973683 0.15821856 0.37083748 -0.098625556
-0.033974204 -0.00956434 0.01003179 -0.092048824 0.10452704 0.11890167 -0.1374726 -0.056479458

lstm.weight_hh_l0 f4 [256, 64]
00000000: a911 2fbd a8e5 3cbd b895 323c 59b2 083d
00000010: cd7c 2dbd 8663 a4bd 73e1 01bd c788 563d
00000020: 11f3 973b 60e9 053d a145 7e3d 3695 b3bc
00000030: 0464 eabb 39dc 60bc 07fa b83d 1340 71bd
00000040: a8dd 99bd 6cea b4bd d324 ba3a 6cb9 c43b
00000050: 6a26 00bc 273c f5bd 269b 3d3d f124 82bd
00000060: 3b77 37bc 4d5f b03d d4d9 acbd 1f4e fc3d
00000070: f9b2 df3d d014 8e3d b4e8 e8bc b1bc bbbd
00000080: fd43 b6bc 0fee b9ba 567f 1a3e e1f9 053d
00000090: e036 14ba f412 d8bc 5e39 82bc ec8c 8f3d
000000a0: 9e63 943d 9e1b 9bbb 2cc4 11be 8561 313c
000000b0: e9bf bcbc d80d 483d 6d6b f63b 057a 953d
000000c0: f6d5 f83d e3c5 133e 9a4b 1ebe d595 b13c
000000d0: 88f1 b8bd 94b6 073d e4c7 483d 7035 803d
000000e0: 45bd ae3d c84a 2e3d 5313 883d c51f 503c
000000f0: 8559 c93c 1260 c23c ea7c eebd f1cf bf3d
00000100: 6185 31be 065b ef3d 6869 043e fee8 c4bd
00000110: 43c7 48bd 95c4 edbd 18a6 843d b9d2 2c3e
00000120: 83fb 75be 3a56 b5bd 1043 873d 1366 2e3d
00000130: 8656 bfbd d947 c33c 6c61 343d 774c 493e
00000140: 24fe 243e d54e 1abd 28e0 52bd 5a1b 85bd
00000150: e02c e1bd ee4d 3dbe 37b5 9e3d 99e7 6a3e
00000160: 336c df3d fb3c 3fbc 39b8 683e 32f8 213e
00000170: 4900 393e e5f4 3a3e ec61 913d 8e5f 5cbe
00000180: 8294 76be 8d82 8c3c db39 c03d 9485 5f3e
00000190: 436b 32be a9ee e83d e9bd 52be e115 003e
000001a0: 754b a93d 60ac 8e3c 21a2 ae3d 6d6e 213e
000001b0: 12c8 c6bc 1f71 3d3e 2034 533d fa73 6fbe
000001c0: f023 a03d d76c 143e 851e acbd 5b52 1b3e
000001d0: 2a66 25be 42e7 20be ceca d53d be48 1ebe
000001e0: 04e1 6b3d 3ce2 c73d 376e 163d 925c 493e
000001f0: c121 283e dbda 27be a16a 5abe 76f6 3dbe
00000200: 2bc0 1bbe fb78 063d f184 8ebc e5ca 423d
00000210: fae0 563c 3cb9 76bc 4b43 293e a399 3abd
00000220: 3a22 5f3d 681d 26be 0410 f83d f500 273e
00000230: 4933 ef36 2099 023e dd73 0fbd 3868 b03c
00000240: d128 0e3e f75a 4bbd 7ec3 f6bd d348 9fbd
00000250: d0a3 07be 62d3 753d f256 163e 9a7f 2dbd
00000260: 98f6 89bd b9ee f0bd 617a 343d 40c5 763c
00000270: 43c6 8abd 2635 5f3c 1e37 e03d 9ea5 8c3d
00000280: 48d7 57bc 835a aa3c 21b1 a03c 8ffe 393e
00000290: 95e1 a0bd 87c4 50bd dcb9 02bd 807a ef3c
000002a0: dbf2 0cbc 92ca a83d 9189 54bd 3fa0 c73d
000002b0: b3f9 80bb 7c03 be3d 75fe c63d e9f0 0bbe
000002c0: d11e f13d 762e af3d ce84 12be 8b79 1a3e
000002d0: 0fe4 21be f91d 02be 0ef5 033e bf95 4ebd
000002e0: 52e8 0c3d 9bbd f6bc 6c87 5d3d e07b b23d
000002f0: 5066 cf3c 48e7 133b 60eb e236 5e74 8fbd
00000300: 3bfc f0bc d18b ee3d f8c7 40bd dac4 0abd
00000310: 14c8 5e3d a4df d23c d29c e93d d0c0 0d3e
00000320: 7216 42bd 8b8d c03d 5f4b 12bd e7ec aabd
00000330: 47b9 9a3c 7723 b2bd c57f aa3d 8b2d 6f3d
00000340: 9655 d9bd 9d09 9dbc 6363 c4bb 68fa 823d
00000350: 589e 023c a5c3 1abd c14c d83d cefb ebbd
00000360: ffaa 4fbc c398 bcbd 0941 a93d ed44 093e
00000370: 7426 153d d7d6 8f3d 2e57 27bd 6844 393d
00000380: dacb d6bd 3eb9 a03d bc47 a1bb a898 93bd
00000390: d4f5 14be a5df cf3d 53ad 9dbd 06de f83b
000003a0: 24d2 99bc 73ad bdbd c1b6 c7bd 6f18 e63c
000003b0: 9060 053e bc08 063e 9330 b1bd 7f17 9b3d
000003c0: 353e 71bd beda 79bd f387 f3bd f251 283d
000003d0: 456f 4fbb 3854 ddbd f377 bbbd 800b 193d
000003e0: 740a afbb 256d 1d3e ae48 f6bd ea19 bbbc
000003f0: 7f9c a93d a7ad 1d3d d3e1 cdbd 3903 563d
-0.04274145 -0.046117455 0.010899954 0.03337321 -0.042355347 -0.08026795 -0.031709146 0.052376535
0.00463713 0.032693267 0.062078122 -0.021921735 -0.007153036 -0.01372438 0.09032064 -0.058898997
-0.07512981 -0.08833775 0.0014201648 0.0060035493 -0.007821659 -0.11974364 0.04629054 -0.06354702
-0.01119786 0.08611927 -0.08439985 0.12319588 0.10922808 0.069375634 -0.028431274 -0.091668494
-0.022249216 -0.0014185327 0.15087637 0.032709006 -0.0005653929 -0.026376225 -0.015896495 0.070093006
0.07245563 -0.004733517 -0.1423499 0.010826473 -0.023040729 0.048841327 0.0075201304 0.07298664
0.12150185 0.14430957 -0.15458527 0.02167789 -0.090304434 0.033133104 0.049018756 0.062601924
0.08532194 0.042551786 0.06644311 0.012702887 0.024578819 0.02372745 -0.11644919 0.093658336
-0.17336036 0.11687283 0.12930834 -0.09614752 -0.049018156 -0.11609761 0.06476992 0.1687726
-0.24021725 -0.08854337 0.06604588 0.042577814 -0.09342675 0.02383797 0.04403822 0.19658075
0.16112572 -0.037672836 -0.051483303 -0.064993575 -0.10994887 -0.18486759 0.07749408 0.2293991
0.10909309 -0.011672254 0.22726525 0.15817335 0.18066515 0.18257482 0.07098755 -0.21520826
-0.24080089 0.017152095 0.09386035 0.218283 -0.1742373 0.11373646 -0.20580257 0.12508346
0.082663454 0.01741618 0.085270174 0.1576478 -0.024265323 0.18500184 0.051563382 -0.23384085
0.078193545 0.14494644 -0.08404259 0.15168135 -0.16152254 -0.15713218 0.104390725 -0.15457436
0.05758764 0.09759948 0.036726203 0.19664219 0.16419126 -0.1639208 -0.21329738 -0.18551049
-0.15210025 0.03283022 -0.017397376 0.047556777 0.013115162 -0.015058812 0.16529576 -0.045556676
0.054476 -0.16222155 0.1211243 0.16308959 7.1287254e-06 0.12753725 -0.035022605 0.02153407
0.13882758 -0.049647298 -0.12049006 -0.07777562 -0.13246083 0.060016043 0.14681605 -0.04235802
-0.06736487 -0.11764283 0.044062022 0.0150616765 -0.06776097 0.013623511 0.10948013 0.068675265
-0.013173886 0.020795112 0.019615712 0.18163513 -0.07855526 -0.050968673 -0.03191553 0.029233217
-0.008602823 0.08241762 -0.051889006 0.097473614 -0.0039360165 0.09278008 0.097165026 -0.13666119
0.11773456 0.085537836 -0.14308473 0.15085427 -0.15809654 -0.12706746 0.1288645 -0.050435778
0.034401245 -0.030119708 0.054084226 0.087150335 0.025317341 0.0022568274 6.762726e-06 -0.07004617
-0.029417148 0.116477616 -0.047065705 -0.03387914 0.054390028 0.025741406 0.11406864 0.13843083
-0.047384687 0.09401997 -0.03571641 -0.08345967 0.018887175 -0.08698171 0.08325151 0.058393043
-0.10612027 -0.019169623 -0.005993293 0.063954175 0.007972322 -0.037784237 0.10561515 -0.11522637
-0.012675046 -0.092088245 0.082643576 0.134052 0.036413625 0.07023399 -0.040854625 0.045231253
-0.104881 0.07847832 -0.0049218815 -0.07206851 -0.14546901 0.10150079 -0.076990746 0.0075948266
-0.01877696 -0.092615984 -0.097516544 0.028087823 0.13025117 0.1308927 -0.08651843 0.07572841
-0.058897216 -0.060999624 -0.11891165 0.041093774 -0.0031652015 -0.10807079 -0.09153738 0.037364483
-0.0053418223 0.15373667 -0.12025581 -0.022839505 0.082818024 0.038495686 -0.10052838 0.052249167

lstm.bias_ih_l0 f4 [256]
00000000: 6ee4 b63d d8bc 683e fbea 23bd e029 44bd
00000010: 0e63 82bc b070 7cbc a7ef 21bd 6c22 233e
00000020: ace8 7d3e 520d 3e3d 92c9 d9bc 6ddb 033e
00000030: fba5 15be b07d 50bd a4dd 063e dbcf 3f3d
00000040: f8f6 f63d d682 01bd 80af 373d 10af 793e
00000050: 35ce 823d e4a4 433d 3edf b5ba 4a66 a43d
00000060: 531c 75bd 3a30 1b3e 68e1 033e a1fc 953d
00000070: 5e5b fc3c cf16 513e 3689 993e 01b4 90bd
00000080: 2f2b d93d c80b 49be 42d7 6abc f735 153e
00000090: 5b96 143d 1081 383e 0a38 893d bff7 223e
000000a0: 5aa2 ba3c f5fb 643e dadb dfbd f22c 153d
000000b0: 3af4 aa3c 00fa 943d 85bd 4b3d 7199 c03d
000000c0: 1802 553e 1ccb c1bd f4f5 263e e507 1b3e
000000d0: fb62 0dbe 04dc 71bb fa9d 613e b394 e1bd
000000e0: 3379 943d afed 26bc 948e d03d 320c e33b
000000f0: 9f50 a33d b100 263e b742 823e 4a0b 343d
00000100: 8fd9 513c a99e 073e e08a de3c 3ac2 2f3e
00000110: 5be4 563e 9c5e dc3d e287 823d a2a5 343e
00000120: f2ce 6d3d 7699 413e b981 13bc 332a 38bd
00000130: f62f 8d3c d2df 84bd 5842 213e d439 0c3e
00000140: 1a1d 7d3e d4b7 1dbe 8f58 643d 3035 3a3e
00000150: 9b09 4a3e afec 053c 767c 923d 5ff4 13bd
00000160: 7b66 1fbd 126a 263e 47b9 2b3e 27f8 f53d
00000170: 7bfe 203e eafd 6d3e d249 283e 469b 893d
00000180: d2ff 153e dce2 b63b 2611 07bc be8f fd3d
00000190: 7196 043e 65a8 793d 0b97 e1bd 4388 d43c
000001a0: 69bf 93bd 32d4 473e 2641 63bd 6bda 063e
000001b0: 03be 123e 1abc f23d ddb1 9c3d c0dd cf3d
000001c0: 342e 4e3d 5602 e7bc 1651 2a3e ef70 203d
000001d0: 7838 723d 57fa 243e 3682 813e 5f7c e23d
000001e0: 6286 043e bd8c dc3d 1ef2 233e 276e fe3d
000001f0: a9a0 ff3d 42c1 373d 7aca 033e b7ce 4abd
00000200: 1a9a 503c d3bb 373e 0026 553e 884b eebd
00000210: 1cd1 c7bd e916 013d a699 703e 68f3 d83d
00000220: 25c0 4bbe 671e 1abe 880e 8b3e d8c0 8f3d
00000230: 313c 94be a794 843d 15f5 c63d 5b5f e83d
00000240: 8a43 0d3e 4144 b8bc 5556 20be b3f3 9abe
00000250: ff03 8dbe 6003 26be 1248 a83c 88ba 7ebd
00000260: 298f febc d049 30be f6df 853e d0e6 bf3e
00000270: 19f6 d63b 6349 3b3e ccd8 523e 4b4e 0bbe
00000280: 09e1 33be 04f8 a2bd 8a1a f33d ff6a d6bc
00000290: 673d 38be 9221 413e 5d15 ccbd 4639 993d
000002a0: 66ef c33b 7215 4f3e 3d5e 27bc 9282 17bc
000002b0: 4463 80bd 6817 933e 4146 c43d fe10 aa3c
000002c0: 87bc 123e 7287 4c3d fd61 1cbe e37b adbb
000002d0: b35e 30be 18b2 93be d788 943e 8f59 c13d
000002e0: 6d2e 183e 019c 883e cc26 f23d 4179 babc
000002f0: 9709 7d3e fb76 27be 9215 bcbd 70fd 38bd
00000300: 10c3 2a3e 52c3 283e 51d0 483e 7285 4f3e
00000310: 1d5d a13e 600c fc3c 3600 aa3d c7c1 833e
00000320: 6e70 473e a534 5f3e fb31 bd3d df47 5a3d
00000330: 585a e23d 8bd5 943e 725e a13d 4a6e 993d
00000340: 5afe bbbb 9fd7 593e 6654 5d3e 4613 893e
00000350: 4412 59ba 557a eb3d c059 0a3d e0f4 b43d
00000360: 8464 563d 0526 4f3e 2f3c de3d 959e 973e
00000370: cb38 953d aadd 553e c0d8 7b3e 56ba 8a3e
00000380: ede7 2f3d 6e09 113e ef28 543e 8200 8f3e
00000390: 8820 3a3e 924d 6e3e 4456 893e a30c 3f3e
000003a0: a68a 823d c197 033e 77c2 823e 46a4 c73d
000003b0: ca09 563d a440 bc3d a3ff 1d3e 5ae2 913d
000003c0: d330 483e 7286 ad3d 1710 57be 8b19 843e
000003d0: 96cb 053e f693 743e 21e5 353e 098e b03d
000003e0: 44ff 183e fc47 8c3e fd74 093e 1eab ab3d
000003f0: 2798 2e3e 5410 773e c355 223e 02a7 6f3d
0.08930288 0.22728288 -0.040019017 -0.047891498 -0.015916374 -0.015407726 -0.03953519 0.159311
0.24795789 0.046399422 -0.026585374 0.12876673 -0.14614098 -0.050901115 0.13170487 0.046829086
0.12058824 -0.031618915 0.044845104 0.24383187 0.06386987 0.047764674 -0.0013875735 0.080273226
-0.059841465 0.15155116 0.12878954 0.07323576 0.030805286 0.20418857 0.29987496 -0.07065583
0.1060394 -0.196334 -0.014333548 0.14571367 0.036276203 0.18017983 0.06700142 0.1591482
0.022782493 0.22361739 -0.10930605 0.036419816 0.02086841 0.07274246 0.049741287 0.094042666
0.2080158 -0.09462568 0.16304761 0.1513973 -0.1380729 -0.0036904821 0.2203292 -0.1101469
0.072496794 -0.010188504 0.101834446 0.006928944 0.07974362 0.16211201 0.25441524 0.04395608
0.012808218 0.13244118 0.02716583 0.17163935 0.20985548 0.10760233 0.06373574 0.17641309
0.058058687 0.18906197 -0.009003096 -0.04496212 0.017234784 -0.06488003 0.15747964 0.13693935
0.24718133 -0.15402156 0.05574852 0.18184352 0.19730227 0.008174106 0.07152645 -0.036121722
-0.038916092 0.162514 0.16769896 0.12010222 0.15722077 0.23241392 0.1643441 0.06719069
0.14648369 0.005581243 -0.008243835 0.12380932 0.12948014 0.06095161 -0.11015137 0.02594388
-0.07214243 0.1951454 -0.055482052 0.13169257 0.14330296 0.11852284 0.07651112 0.10149717
0.05033703 -0.028199356 0.16632494 0.039170202 0.059135884 0.16111122 0.25294656 0.11058878
0.12941888 0.10769031 0.16010329 0.12423354 0.12481815 0.04486204 0.12870207 -0.049513545
0.012732053 0.17942743 0.20815277 -0.116355 -0.09756681 0.03151599 0.23496112 0.10593301
-0.19897516 -0.1505066 0.27159524 0.07019204 -0.28952172 0.06473666 0.097147144 0.113463126
0.13795295 -0.022493483 -0.15657933 -0.30264053 -0.2754211 -0.16212225 0.020542178 -0.06218961
-0.031074123 -0.17215657 0.2614743 0.37480783 0.006560099 0.18289714 0.20590514 -0.13604085
-0.17566313 -0.079574615 0.11870296 -0.026174067 -0.17992173 0.18860462 -0.09965012 0.07481627
0.0059794663 0.20223024 -0.010215339 -0.009247439 -0.062689334 0.28728795 0.09583712 0.020760056
0.1432973 0.04993386 -0.15271755 -0.0052943095 -0.17223625 -0.28846812 0.2901065 0.0944091
0.1486146 0.26681522 0.11823806 -0.022762896 0.2471069 -0.16353981 -0.09183802 -0.04516357
0.16675973 0.16480759 0.19610716 0.20265749 0.31516352 0.03076762 0.083008215 0.25733778
0.19476482 0.21797426 0.09238049 0.053291198 0.11052388 0.2906917 0.07879342 0.07491739
-0.005737108 0.21273659 0.21614227 0.26772517 -0.0008280615 0.11497942 0.033777 0.08835769
0.052341953 0.20229347 0.10851323 0.29613176 0.07286223 0.2088534 0.24594402 0.27095288
0.04294579 0.14163753 0.2071874 0.27930075 0.18176472 0.23271778 0.26823628 0.18657164
0.06374101 0.12850858 0.2553899 0.097481295 0.05225543 0.09192017 0.15429549 0.07123251
0.19549875 0.08472909 -0.21002232 0.25800738 0.13065943 0.23884568 0.17763187 0.08620841
0.14941126 0.2739867 0.13423534 0.083822474 0.17050229 0.24127322 0.15853028 0.05850888

lstm.bias_hh_l0 f4 [256]
00000000: 8bbf 663c 0cdf 913e 9318 0a3e d0b1 acbc
00000010: 839b de3d b463 8bbd 2899 87bc 375e ab3d
00000020: bb2c 8f3e fa4b ea3c 40f7 adbc 7b7e 963c
00000030: cde0 41be 7408 52be c5b4 063e 70c9 90bd
00000040: ab15 71ba bc6c 06be ceea fc3d 95d8 5e3e
00000050: 3fd8 323e f4a7 933d 9f10 9dbd 73d9 093e
00000060: 0e56 59bd eaa1 a5bd fc69 823d 60e9 d43d
00000070: c1ba 823c 9f29 673e b3b1 803e bad5 b1bc
00000080: e564 963e 2b06 47be 45a4 5b3e cbb4 8a3d
00000090: 7c26 e93d fb5e 713d ac6f af3d 1a3d 783e
000000a0: 8286 83bd 8eff 813e 6de3 34be fc45 40bd
000000b0: a88e 033e d905 053e 9dec 0e3e 4163 e43d
000000c0: 0c55 373d 9a7e 1cbe b8d2 013e bdd9 3e3c
000000d0: 28ff 5fbd 0694 95bc 4074 713e 125f 033e
000000e0: eea0 0f3d e08a e0bc b481 fc3d aee8 e33d
000000f0: 4a28 973d c6c0 113e 680e a53d 18ba 0d3d
00000100: ec88 93bc ea11 d33c 0a47 2c3d 80ff 2b3e
00000110: a4f1 df3d b020 1c3e f766 213e e0cb 163d
00000120: 71b5 493e b5bc 42bd 60dd 493e 87b7 013e
00000130: f086 0fbe 8c7c d43c 8594 213e a6a7 813d
00000140: fe9e ad3d 302d 3bbe 8747 193e 398a e33c
00000150: ded5 343d c6ca fe3d 37ed ad3d 769f 813d
00000160: 8929 a93d 60d0 493d 7cd3 cd3d 8e91 5d3e
00000170: 3079 3fbc 8599 36bc 4e51 363d 69ea a93d
00000180: 8bec 953d 3631 1abc 89d6 5d3e e08d 21bd
00000190: b3a5 473e e5c5 0a3e f0c7 07be 9aac fd3d
000001a0: ad87 80bd de3a 273e 6214 3d3d 51c3 843d
000001b0: 9f5e db3d d683 f23d d263 293d 0232 2a3d
000001c0: ee72 aa3d db6a 2f3d a052 303d 164e 263e
000001d0: a180 3dbe c161 fa3d 78dd 053e 3d0d 863d
000001e0: 635b 453e 0880 613e d927 913d b151 91bd
000001f0: f2e1 473e d176 72bc c7d7 483e 23b8 dc3d
00000200: 61c5 01be 1b6d 213e 75bf 393e 0bc8 1a3d
00000210: d598 e3bd 1b6f 103d 26f4 4e3e 1699 573e
00000220: baf4 19be 9619 27be 3420 4b3e d3bd 193e
00000230: c46a ffbd db09 1dbc c08c ae3d 79d7 f73d
00000240: 69dd f93d 951a 03be eba1 07be 39e6 c2bd
00000250: 47ee 41be 4424 5cbe 9086 943d 012f 803d
00000260: 5e50 163c 8d5b c9bd 8741 6a3e da28 c43e
00000270: 3a99 8fbd ded1 a8bc e9e8 843e aebf 003d
00000280: 2ef2 0cbe 30b3 02bd 994e 023e cb18 a23d
00000290: c88b 06be bb9f 093e 2d46 98be 7f94 623e
000002a0: f232 7cbb b236 003e 7316 473d 3a14 1cbe
000002b0: ff48 f9bd ee92 bb3d e423 293e 2999 be3c
000002c0: 8972 103e f6ec 933d 5cdd 29be bcad 023e
000002d0: df08 55bd 965b 57be 12aa 453e 0d44 5dbd
000002e0: 95c3 9f3d ba56 713e 4e01 093e be99 db3c
000002f0: 59fa 8d3e ce6e 2dbe 580f 6cbe 2875 38be
00000300: 9168 463e 5b2b 213e 7b5e 8b3e 72d9 183e
00000310: eb9a f73d 8332 863d b52c e33c 02a8 3d3e
00000320: 00c0 7f3e c545 823d 4ef0 0f3e e959 463e
00000330: f387 863d 0f28 763e 5599 773e a37c 283d
00000340: 3c76 e23c 0925 973e c86f 093d f094 2b3e
00000350: 306f e6bc 6ef9 d33c 760d 0b3e 183a 7b3c
00000360: 128f e43d 3ff7 563e 188d 753e 2d48 7a3e
00000370: c6a3 1b3e 5d7c ff3d dfb4 a93e 3313 623e
00000380: ba21 093e c5df 343e 97c5 853e 7417 613e
00000390: 31ee 423e 81c8 8c3e 011d 6e3e a255 8d3d
000003a0: 3aa5 3a3b e51e 7f3e 5093 3e3e 48af 4a3e
000003b0: ceac 713e 20fe 283e 6516 173e 1171 593e
000003c0: 8cb5 7a3e 7d11 6c3e af8e eabd a079 4a3e
000003d0: dcfc 973e 3486 4b3e faf2 9c3e de45 72bb
000003e0: a79d 633e efbf a93e 4c3f 893d 3ca3 2fbc
000003f0: 6736 703e cbcf 723e 23db 8d3e 97a6 7c3e
0.014083753 0.28490484 0.13485937 -0.021080881 0.10869505 -0.06806126 -0.016552523 0.083675794
0.27963814 0.028600682 -0.021236062 0.018370857 -0.18933411 -0.20511037 0.13154896 -0.07069671
-0.0009196649 -0.13127416 0.12349473 0.21762307 0.17465304 0.07209769 -0.07669186 0.13461857
-0.053060584 -0.08087523 0.06367871 0.10396075 0.015958192 0.22574471 0.25135574 -0.021708358
0.2937385 -0.19435947 0.21449383 0.06772765 0.113842934 0.05892847 0.085662216 0.24242058
-0.0642214 0.25390285 -0.17664881 -0.046941742 0.12847388 0.12990512 0.13957448 0.11151744
0.04475884 -0.1528267 0.12678039 0.011648593 -0.054686695 -0.01825906 0.23579502 0.12829235
0.035065584 -0.02740997 0.123294264 0.111283645 0.073807314 0.14233693 0.080593884 0.0346013
-0.018009625 0.025765378 0.042059936 0.16796684 0.10934761 0.15246844 0.15761934 0.036815524
0.1969812 -0.047543246 0.19713354 0.12667666 -0.14016318 0.025938295 0.15779312 0.063308045
0.08477591 -0.18278956 0.14968692 0.02777587 0.044149272 0.1244102 0.08492511 0.06329243
0.08259875 0.049270988 0.10050103 0.21637556 -0.011686608 -0.011145 0.044511132 0.08296663
0.073205076 -0.009411147 0.2166387 -0.039441943 0.19496803 0.13552053 -0.13259864 0.12386437
-0.06275878 0.1633105 0.046162017 0.06482566 0.10711407 0.11841552 0.04135496 0.041551597
0.08322702 0.042826515 0.043047547 0.16240725 -0.185061 0.12225676 0.13072765 0.06545494
0.19273143 0.22021496 0.070876785 -0.070956595 0.19519785 -0.014798836 0.19613563 0.10777309
-0.1267295 0.15764277 0.18139441 0.037788432 -0.11113135 0.03526221 0.20210323 0.21054491
-0.15034762 -0.16318354 0.19836503 0.15013818 -0.12471536 -0.009584869 0.0852294 0.12101645
0.12200434 -0.12803109 -0.1324536 -0.09516568 -0.18938552 -0.21498209 0.07252228 0.06258965
0.0091744345 -0.09831915 0.22876559 0.38312417 -0.070116475 -0.020607885 0.25958946 0.0314328
-0.13764259 -0.031909168 0.12725295 0.07914885 -0.1313926 0.13439839 -0.2974104 0.2212696
-0.0038482514 0.12520865 0.048605394 -0.15242091 -0.12172126 0.09158884 0.16517597 0.023266392
0.14106192 0.07222931 -0.16588348 0.12761587 -0.052010413 -0.21031031 0.19303158 -0.054019976
0.07800976 0.2356824 0.13379404 0.026806708 0.27730063 -0.169368 -0.23052728 -0.18013442
0.19375826 0.15739195 0.2722052 0.14926699 0.12090095 0.06552603 0.027731279 0.18521121
0.24975586 0.06360964 0.14056513 0.19370236 0.06568899 0.24038719 0.24179585 0.041134488
0.02764427 0.29520443 0.03355387 0.16756034 -0.02812919 0.025875773 0.13579354 0.015333675
0.11160101 0.20992754 0.23979604 0.24441595 0.15199193 0.12474892 0.33145806 0.22077636
0.13391772 0.17663486 0.26127312 0.21981603 0.19036175 0.27496722 0.23253252 0.06901099
0.002847983 0.24914129 0.18610883 0.19793427 0.23601076 0.16503191 0.14754637 0.21234538
0.24483317 0.23053546 -0.11452996 0.19772959 0.29685104 0.19875413 0.30654126 -0.0036967914
0.22228108 0.33154246 0.06701526 -0.01072007 0.23458253 0.23712079 0.2770625 0.24672924

fc.weight f4 [1, 64]
00000000: 454a 06c2 763e 0942 033b 0642 d4b4 07c2
00000010: 71f9 07c2 e22b 06c2 9324 0842 97ee 0942
00000020: 861c 09c2 74b4 06c2 50a4 0842 3c51 0642
00000030: 4aa3 e1c1 ebd9 ea41 7dfb f941 250c 0842
00000040: cfd3 0642 350b f6c1 febb 05c2 9a7b 08c2
00000050: 462d 05c2 e84f 07c2 339e 0642 6c98 0042
00000060: b480 0342 16f9 06c2 294d 0a42 2cda 0a42
00000070: 3f86 0242 f29d 0642 170e 0a42 ff11 06c2
00000080: cd0d 07c2 0888 ebc1 3892 0842 4411 0842
00000090: b9db 09c2 9c8e 0842 ed83 05c2 071e 0742
000000a0: 0b56 0442 a4aa 0442 329a e2c1 da04 fc41
000000b0: 456f 05c2 753d 0742 c669 0742 c4d3 03c2
000000c0: 4da2 0842 7e2b f941 b056 03c2 c1c3 0742
000000d0: 47bc f4c1 f78e 09c2 5332 0842 202e 04c2
000000e0: 209b 0642 29cb 0942 d2f4 0542 4472 0042
000000f0: 2649 0942 4afa 06c2 25c7 07c2 42dd 04c2
-33.57253 34.310997 33.55763 -33.92659 -33.993595 -33.542854 34.035717 34.482998
-34.277855 -33.676224 34.16046 33.57933 -28.204731 29.356405 31.247797 34.01186
33.706844 -30.755472 -33.433586 -34.120705 -33.294212 -33.828033 33.65449 32.14885
32.875687 -33.743248 34.57535 34.71306 32.6311 33.654243 34.51376 -33.517574
-33.763477 -29.441422 34.14279 34.01686 -34.464573 34.139267 -33.378834 33.779324
33.084026 33.16664 -28.32529 31.502369 -33.35866 33.810017 33.853294 -32.956802
34.158497 31.146236 -32.834656 33.941166 -30.591932 -34.389614 34.049145 -33.045044
33.65149 34.4484 33.489082 32.111588 34.321434 -33.744423 -33.944477 -33.216072
