LSTM_MODEL/WIPRO_model.pt (torch, 89392 bytes, 5 tensors)

lstm.weight_ih_l0 f4 [256, 19]
0.4017587 0.6767483 0.08355598 -0.05967182 -0.06748311 0.040997595 -0.06958434 1.3636724
-0.8124056 0.7274916 0.75628316 0.5282164 0.3572441 0.56400216 0.34698507 0.36093444
0.4669066 1.1779692 1.1516086 2.2303102 2.2212937 -0.07659474 0.0101107955 -0.023337558
-0.0414699 -0.007566735 2.2940373 2.366615 1.9573344 2.4205785 2.1817997 1.8958551
2.0220544 1.9481883 2.1938035 2.1345708 2.1839159 2.4623668 2.1405146 1.2686895
0.08453596 -0.09059405 0.0083783865 -0.0889031 0.022189692 1.3609445 -0.06708547 0.43245703
2.7889862 2.0463922 2.1429658 2.2285535 2.1188731 1.9345653 2.0014622 0.747527
0.6896357 0.636076 1.4676781 -0.11488868 0.09517883 -0.075160444 0.1199906 0.039666668
1.6041503 0.23908997 1.7417448 0.6754388 0.57614285 0.696585 0.73592883 0.70171416
0.7759493 0.68120277 1.700939 1.806018 0.1981055 1.1725484 -0.015671462 -0.042103752
-0.015132308 -0.04437682 -0.1145633 0.54200584 0.4124928 0.68678737 0.019981744 0.06900722
0.24931279 0.04425674 0.16091196 0.16139248 0.15385142 0.74764967 1.1382492 0.6360318
1.2484618 0.11954363 -0.12226716 -0.090562806 -0.06366086 -0.003059268 0.2347781 0.3682592
2.8965032 0.3978977 0.57200676 0.512026 0.57790804 0.39460334 0.49412304 0.704628
1.1827043 0.9359486 -0.9604459 0.616493 -0.1147946 -0.095944986 0.043090418 -0.0944947
-0.10826281 -0.78421396 -0.14497912 1.2569603 -0.6965445 -1.0504552 -1.0767982 -0.9441103
-1.1107839 -0.8427958 -0.89559704 0.1418038 0.10590507 0.98704576 1.1209018 0.0168951
-0.047576264 -0.038667917 0.052519977 -0.068205655 1.0445644 0.8869926 1.219976 1.1768014
0.91052866 1.0143813 0.9150963 0.98670644 0.95167994 0.8051355 0.934919 0.8443474
0.99891716 1.6960278 -0.060031995 0.09366149 0.006348595 -0.0007556081 -0.08789709 0.84174144
0.9765341 0.8512638 1.484311 1.1887974 1.0249957 1.0690444 1.0833336 1.0054919
0.9982549 0.93634945 0.5454354 1.5277416 1.2165302 0.0130980015 -0.11987026 0.07158068
0.033068344 0.10070813 0.54808295 2.0734699 2.105432 1.3249818 1.7210933 1.4572084
1.4855844 1.6412542 1.656392 1.5002279 0.61576545 1.0902216 -1.6976082 0.47115096
0.05968961 0.110958576 -0.02226296 -0.05251208 -0.12473898 -0.47619265 -0.21583323 1.0800898
-1.5591935 -1.5143802 -1.1204059 -1.5598174 -1.5085769 -1.4571278 -1.591572 -0.23865083
-0.73657477 0.39190456 -0.16355671 -0.04567422 -0.04914233 0.022256255 0.11953424 -0.103377074
-0.37931758 2.8162959 -0.13388722 0.5859773 0.48089635 0.71060604 0.6064068 0.73971045
0.55608726 0.4121033 0.092471085 -0.29194945 1.3733302 1.8120314 -0.00838615 0.03199865
0.05761957 0.11146179 -0.022419587 1.5427434 0.7137298 1.0568551 1.50427 1.4441811
1.5507505 1.5922481 1.4814907 1.3725038 1.3456049 1.2927605 1.4717282 0.53857297
0.5807595 -0.102271944 0.020033285 0.03214179 0.044934303 -0.060472712 -0.060411982 1.4541522
00000000: 51b3 cd3e 603f 2d3f 661f ab3d 706a 74bd
00000010: 9634 8abd 18ed 273d 3c82 8ebd d18c ae3f
00000020: d0f9 4fbf e43c 3a3f c69b 413f 3139 073f
00000030: b3e8 b63e 7262 103f 07a8 b13e 66cc b83e
00000040: 620e ef3e b2c7 963f e967 933f 67bd 0e40
00000050: ad29 0e40 b4dd 9cbd c0a7 253c 682e bfbc
00000060: 58dc 29bd 60f2 f7bb 82d1 1240 9f76 1740
00000070: ef89 fa3f c2ea 1a40 9ba2 0b40 61ab f23f
00000080: 5769 0140 3c5e f93f 4767 0c40 cf9c 0840
00000090: 47c5 0b40 6b97 1d40 31fe 0840 6b64 a23f
000000a0: 3021 ad3d 6089 b9bd 8045 093c d412 b6bd
000000b0: 28c7 b53c 6e33 ae3f 1b64 89bd 026b dd3e
000000c0: c07e 3240 17f8 0240 5a26 0940 9fa0 0e40
000000d0: 9e9b 0740 d69f f73f f517 0040 ee5d 3f3f
000000e0: f78b 303f e0d5 223f e0dc bb3f c24a ebbd
000000f0: 1eed c23d b8ed 99bd a2bd f53d 8479 223d
00000100: cc54 cd3f 00d4 743e 7ef1 de3f 8fe9 2c3f
00000110: 197e 133f 6553 323f d565 3c3f 8aa3 333f
00000120: 9da4 463f 4e63 2e3f 5fb8 d93f 992b e73f
00000130: 2bdc 4a3e 1116 963f 7061 80bc fc74 2cbd
00000140: 80ed 77bc 78c4 35bd 2aa0 eabd e5c0 0a3f
00000150: 4232 d33e 4cd1 2f3f c1b0 a33c a853 8d3d
00000160: da4b 7f3e 8e46 353d 1bc6 243e 1244 253e
00000170: 3a8b 1d3e f865 3f3f 26b2 913f fbd2 223f
00000180: 99cd 9f3f 4ad3 f43d 3467 fabd fe78 b9bd
00000190: a060 82bd 007e 48bb ac69 703e 788c bc3e
000001a0: 4f60 3940 3fb9 cb3e 096f 123f 2314 033f
000001b0: c8f1 133f 7309 ca3e b2fd fc3e 8062 343f
000001c0: db62 973f 549a 6f3f c8df 75bf 7cd2 1d3f
000001d0: 6e19 ebbd ce7e c4bd 947f 303d 7086 c1bd
000001e0: e4b8 ddbd 3fc2 48bf 6875 14be 13e4 a03f
000001f0: be50 32bf 5175 86bf 86d4 89bf 36b1 71bf
00000200: 2b2e 8ebf 77c1 57bf d945 65bf 0435 113e
00000210: c2e4 d83d 08af 7c3f b679 8f3f 9867 8a3c
00000220: 54df 42bd 4062 1ebd 301f 573d 68af 8bbd
00000230: 49b4 853f f211 633f 2c28 9c3f 6ea1 963f
00000240: 6818 693f 3fd7 813f c043 6a3f cb98 7c3f
00000250: 4ca1 733f 5c1d 4e3f da56 6f3f 2727 583f
00000260: 09b9 7f3f 7017 d93f 1ce4 75bd 98d1 bf3d
00000270: e007 d03b 0014 46ba 6403 b4bd 5e7c 573f
00000280: 24fe 793f 6dec 593f e7fd bd3f 832a 983f
00000290: 0f33 833f 72d6 883f adaa 8a3f f5b3 803f
000002a0: a28d 7f3f 99b4 6f3f a8a1 0b3f 098d c33f
000002b0: 43b7 9b3f 0099 563c 8a7e f5bd e498 923d
000002c0: ac72 073d 1040 ce3d 2a4f 0c3f bbb3 0440
000002d0: 66bf 0640 0199 a93f c94c dc3f ce85 ba3f
000002e0: a127 be3f 9e14 d23f a704 d43f 7807 c03f
000002f0: cea2 1d3f 628c 8b3f 3a4b d9bf b33a f13e
00000300: 187d 743d 403e e33d d060 b6bc e816 57bd
00000310: 2677 ffbd 86cf f3be 6303 5dbe 6240 8a3f
00000320: a793 c7bf 36d7 c1bf 7669 8fbf 19a8 c7bf
00000330: 0c19 c1bf 2a83 babf a2b8 cbbf e260 74be
00000340: 2a90 3cbf b7a7 c83e 697b 27be e414 3bbd
00000350: 7849 49bd c052 b63c 5ece f43d 5cb7 d3bd
00000360: ea35 c2be 313e 3440 bb19 09be 9c02 163f
00000370: 0c38 f63e 47ea 353f 7a3d 1b3f aa5d 3d3f
00000380: bc5b 0e3f 34ff d23e 7b61 bd3d 667a 95be
00000390: 49c9 af3f a5f0 e73f 1066 09bc 0411 033d
000003a0: 8002 6c3d 1446 e43d 48a9 b7bc 9e78 c53f
000003b0: ffb6 363f 0747 873f eb8b c03f edda b83f
000003c0: fe7e c63f c9ce cb3f 7da1 bd3f 34ae af3f
000003d0: c83c ac3f 2d79 a53f 9761 bc3f ebdf 093f
000003e0: a8ac 143f f473 d1bd d81c a43c 1ca7 033d
000003f0: 080d 383d 3cb2 77bd 8e72 77bd a921 ba3f

lstm.weight_hh_l0 f4 [256, 64]
0.92054677 1.1785675 0.4087109 -1.191104 1.2441534 0.55725026 0.26873508 0.46276447
0.42740643 0.6992846 0.3219318 -0.6718865 -1.2407382 0.32704306 0.8623649 -0.0650768
-0.7773745 1.3284427 1.2746717 1.2588456 -1.4923822 0.7052965 -0.9609995 -0.07051066
-0.9429207 -0.31599438 0.3371387 1.12829 0.2043799 -0.022932377 -1.0669404 -0.036360078
-0.55172384 -1.1580466 -1.1475675 0.83842474 -1.2240392 1.1401345 -1.1627587 -1.0326185
0.13972083 1.2407643 -0.43863046 -1.1469532 0.8955274 -0.1084273 1.3447514 -0.18395358
-1.1377449 1.083978 0.11015692 0.26999864 -0.2749009 -0.5205814 -1.322904 -0.37768835
-0.7405504 1.0954707 -0.27309313 -0.9070046 -1.1378853 0.5393417 1.1555169 -1.452892
0.34666374 0.30561873 -0.07088707 -0.53751963 0.28346276 0.43936098 0.33138335 -0.4624409
-0.38936764 -0.03724205 0.2525914 -0.32796305 -0.34115458 0.4975491 -0.28392005 -0.040085033
-0.15046021 0.39942643 0.38914785 0.3210096 -0.22686136 0.25749785 -0.26273385 0.18468961
-0.28620195 0.31937757 0.29700187 0.29454875 0.26658863 0.51972854 -0.34173363 0.3044108
0.24780518 -0.4061866 -0.053184066 0.42422792 -0.22451974 0.43176588 -0.48398167 -0.427517
0.063035324 0.39366046 -0.58632845 0.050694052 0.34792867 -0.01598696 0.3128321 -0.43926176
-0.31660417 0.14600952 -0.2368705 0.4964244 -0.34537506 0.23103292 -0.3478042 -0.3665095
-0.33513206 0.41608015 5.4849745e-05 0.8259808 -0.23493978 0.20375113 -0.35651273 -0.253517
0.594288 0.40571308 -0.5839704 -0.5329045 0.525652 0.21701089 0.2728448 0.9275847
1.2132318 0.34364095 0.4970052 -0.3324277 -0.33720833 -0.163267 -0.5642393 -0.002252836
-0.518268 0.3642975 0.7994957 0.53057414 -0.28211078 0.6155588 -0.54907995 0.052551646
-0.409063 -0.45000055 0.2938059 0.40080547 -0.38665795 0.44718385 -0.19289225 -0.07103551
-1.2541294 -0.5840612 -0.35837644 0.5678104 -0.49748343 0.48310786 -0.63324773 -0.44665372
0.11544968 0.3815772 -0.3262812 -0.5053298 0.4975593 -0.40582597 0.5128697 -0.41405714
-0.5581929 0.5331483 0.64765006 0.08221636 -0.17950203 -0.3879834 -0.38031274 -0.0062250863
-0.3881499 0.52506363 -1.1974298 -0.4511456 0.32472685 0.5951975 -0.11792509 -0.39149138
0.41479936 0.3665442 -0.2792276 -0.9711414 0.48606563 -0.009849896 0.53175986 1.2153891
0.8721015 -0.34085977 0.7445857 -0.07924914 -0.5781066 1.1564157 -0.8913111 -0.04418466
-0.53907645 0.49016643 0.22252709 0.042341378 -0.9519862 0.80964285 -0.28120318 -0.5460306
-1.6389303 -0.376939 0.965681 0.33474717 -0.45819673 1.1375242 -0.024559451 0.61605597
-0.77377635 -0.340957 -0.25865394 0.46592313 -0.23625286 0.41308194 -0.41626087 -0.38928574
0.51392305 0.33618802 -0.80093193 -0.56530917 0.4342651 -0.80993485 0.9864133 -0.8507259
-0.42768005 0.42970654 0.07893566 1.1624556 -0.81147474 -1.0795456 -0.60663056 -0.9913276
-0.58156115 0.49899063 -0.4793776 -0.5354886 -0.14029227 0.8144807 0.8447797 -1.073867
00000000: f4a8 6b3f 4ddb 963f 8e42 d13e 1976 98bf
00000010: 6b40 9f3f f4a7 0e3f a597 893e 77ef ec3e
00000020: 04d5 da3e 5104 333f 3fd4 a43e c100 2cbf
00000030: 82d0 9ebf 3072 a73e f2c3 5c3f fc46 85bd
00000040: 0402 47bf 690a aa3f 7128 a33f da21 a13f
00000050: 6106 bfbf 508e 343f 1004 76bf e567 90bd
00000060: 4063 71bf 04ca a1be 729d ac3e cf6b 903f
00000070: f748 513e aedc bbbc 8191 88bf 4eee 14bd
00000080: c63d 0dbf df3a 94bf 7ee3 92bf 01a3 563f
00000090: 51ad 9cbf edef 913f 47d5 94bf d82c 84bf
000000a0: fa12 0f3e 5dd1 9e3f 2c94 e0be 5dcf 92bf
000000b0: 4941 653f 220f debd d020 ac3f 545e 3cbe
000000c0: a0a1 91bf cbbf 8a3f f499 e13d 433d 8a3e
000000d0: d0bf 8cbe d344 05bf eb54 a9bf 5e60 c1be
000000e0: b694 3dbf 6238 8c3f ddd2 8bbe 7431 68bf
000000f0: 3aa6 91bf 4c12 0a3f fae7 933f 5df8 b9bf
00000100: e97d b13e 0f7a 9c3e 3d2d 91bd e39a 09bf
00000110: 0822 913e ecf3 e03e 14ab a93e 0ec5 ecbe
00000120: 325b c7be 1f8b 18bd a953 813e c6ea a7be
00000130: d0ab aebe c1be fe3e f85d 91be 3430 24bd
00000140: 3e12 1abe 9f81 cc3e 633e c73e 5f5b a43e
00000150: 584e 68be c2d6 833e 0d85 86be 461f 3d3e
00000160: 1089 92be 7585 a33e a110 983e 18cf 963e
00000170: 4e7e 883e ee0c 053f b6f7 aebe bbdb 9b3e
00000180: a4c0 7d3e b1f7 cfbe 89d7 59bd 6734 d93e
00000190: 81e8 65be 6b10 dd3e 72cc f7be 82e3 dabe
000001a0: aa18 813d dd8d c93e 9f19 16bf 91a4 4f3d
000001b0: b523 b23e 16f7 82bc 872b a03e ebe6 e0be
000001c0: f119 a2be 8583 153e 2e8e 72be 572b fe3e
000001d0: 00d5 b0be e593 6c3e 6413 b2be 22a7 bbbe
000001e0: 6e96 abbe 7508 d53e 770e 6638 7a73 533f
000001f0: 0e94 70be 23a4 503e d688 b6be fbcc 81be
00000200: 4223 183f a0b9 cf3e 167f 15bf 6e6c 08bf
00000210: 2191 063f 1a38 5e3e 50b2 8b3e 3176 6d3f
00000220: 2e4b 9b3f b5f1 af3e 7777 fe3e f733 aabe
00000230: 92a6 acbe 772f 27be fd71 10bf 51a4 13bb
00000240: 36ad 04bf 3485 ba3e c0ab 4c3f b5d3 073f
00000250: d370 90be 4395 1d3f 8190 0cbf 6540 573d
00000260: b570 d1be 7966 e6be ba6d 963e 6036 cd3e
00000270: 08f8 c5be 48f5 e43e 8c85 45be 117b 91bd
00000280: 5087 a0bf 0985 15bf 1e7d b7be 065c 113f
00000290: 26b6 febe ea59 f73e 861c 22bf ccaf e4be
000002a0: e270 ec3d 165e c33e 540e a7be 4b5d 01bf
000002b0: 18c0 fe3e 6cc8 cfbe 6e4b 033f 4cff d3be
000002c0: bbe5 0ebf 687c 083f 65cc 253f 0d61 a83d
000002d0: 61cf 37be c3a5 c6be 5ab8 c2be cffb cbbb
000002e0: 95bb c6be 926a 063f 6145 99bf 8efc e6be
000002f0: 9942 a63e dd5e 183f b682 f1bd 8f71 c8be
00000300: 9560 d43e aeab bb3e ecf6 8ebe b99c 78bf
00000310: 98dd f83e 7561 21bc 6a21 083f df91 9b3f
00000320: 0b42 5f3f 2c85 aebe 2b9d 3e3f 604d a2bd
00000330: cbfe 13bf 6e05 943f f72c 64bf f9fa 34bd
00000340: ea00 0abf 18f7 fa3e 24de 633e 276e 2d3d
00000350: 5eb5 73bf c144 4f3f ddf9 8fbe a9c8 0bbf
00000360: 78c8 d1bf 26fe c0be df36 773f fb63 ab3e
00000370: c398 eabe 659a 913f e730 c9bc d8b5 1d3f
00000380: 3516 46bf ea91 aebe 4a6e 84be 7a8d ee3e
00000390: 45ec 71be 7a7f d33e 2520 d5be 7650 c7be
000003a0: 7690 033f d620 ac3e e009 4dbf 1ab8 10bf
000003b0: ff57 de3e e457 4fbf 9585 7c3f 2cc9 59bf
000003c0: e1f8 dabe 7f02 dc3e 05a9 a13d 58cb 943f
000003d0: cfbc 4fbf 8d2e 8abf 244c 1bbf a5c7 7dbf
000003e0: 31e1 14bf b37b ff3e fb70 f5be c815 09bf
000003f0: c7a8 0fbe cf81 503f 7b43 583f 7974 89bf

lstm.bias_ih_l0 f4 [256]
1.0905629 2.2318394 0.8819189 1.676508 0.88107747 0.7362963 -0.2637395 0.64751637
0.9721994 0.7057284 0.007160823 -0.121200085 1.4986262 0.12007508 1.4916718 -1.0771197
0.8554555 1.3102168 1.8252077 0.37943757 1.4220911 0.35690263 1.556718 -0.5773952
-0.26501423 0.2864673 -0.59076655 2.0596557 -1.2841347 -0.6249121 1.38575 1.3711863
0.7030547 2.6572516 0.40680745 1.8648045 1.1080226 1.7688937 1.0095716 -0.45894215
-1.6351084 1.7017772 0.9485697 1.2070266 1.8916305 -0.25640774 2.093851 -0.83152264
0.80251586 -0.030885572 0.2970969 0.59715444 -1.0200325 0.61440337 1.839266 -0.5325173
0.8154691 1.4982094 -0.65290123 0.16983956 -1.0790128 0.3408462 1.0072025 1.4968545
0.7394119 0.30963236 -0.5255814 0.16617893 0.7260184 0.7120286 0.81759584 0.25708812
-0.48286524 0.90234685 1.0914907 0.51730335 0.06176402 0.5811481 -0.6074807 0.32872292
0.8275914 0.55505496 0.3120977 0.7246824 -0.6764449 -0.17936398 0.6125188 0.61016124
1.0403799 0.39072436 0.54110897 0.4080771 0.3016576 0.9559439 0.82414097 0.92466956
-0.60252917 0.5411912 -0.3193138 0.64731014 0.77419615 0.7579909 -0.37463507 -0.18443826
0.29764497 0.6899654 0.75287634 0.21631698 0.6339267 0.9927624 0.905146 0.756225
0.67962813 0.34062922 0.52526116 -0.3631532 0.055434745 -0.53908265 0.62310547 0.9757444
-0.7768305 0.7574034 -0.357363 1.0543813 0.55043733 0.94269794 0.47606322 0.7604901
1.2428327 2.0765944 1.3781724 -1.8625963 1.3144876 1.3711935 1.4122157 1.3433869
1.7035595 -0.96306217 1.197662 -0.0012670007 -1.4820535 0.5216331 0.67442524 -0.2942674
-1.1836619 1.6597351 1.566764 1.3420825 -1.3094982 1.4830608 0.23130094 0.9486171
-0.50545835 -0.90650797 0.5520261 1.4255309 0.7228704 0.82755893 -1.4525121 1.7670226
-1.102641 -1.8241558 -1.1055107 1.2453651 -0.8528074 1.5866963 -0.63652796 -0.4015118
-0.32756454 1.0539119 0.07876816 -1.1643102 1.3004152 -1.1878362 1.379673 -0.9772425
-0.9093463 1.0641687 1.2901833 0.65937805 0.8355113 -0.7118734 -1.1472943 -0.0014849283
-1.1969738 1.9310355 0.5462686 -0.46215132 0.009822759 0.97873557 0.51960385 0.53487366
-1.3836895 -0.27224335 0.24878052 2.5589914 1.3337846 -1.2606179 0.7007408 -0.04242927
0.16101398 -0.2710565 1.1173729 1.519326 1.4788985 -0.7650481 0.68605536 -1.2726191
1.0819119 1.45726 0.18892825 1.1418504 -0.13408484 1.3101354 1.1143326 -0.24910256
0.79779965 -1.0150999 -0.41400883 2.0804164 0.19978863 2.015592 -0.6758894 -0.7214599
-0.038796127 1.756375 0.7814123 -1.6993432 0.5300809 1.4615154 -1.545597 1.6974431
-1.1530764 -1.6347064 0.057036404 1.0519166 -1.8881135 0.8401582 -1.6299782 0.22301498
1.4586828 0.7118745 -0.13965599 -1.7552521 -0.39311445 0.5448188 -1.607807 -0.4348258
1.6742944 -1.0366426 -0.3057715 -1.2003603 0.05366691 2.6679716 -0.08999651 1.3294481
00000000: 9197 8b3f 75d6 0e40 70c5 613f d097 d63f
00000010: 4b8e 613f ea7d 3c3f dd08 87be a2c3 253f
00000020: 0fe2 783f 9eaa 343f 56a5 ea3b c037 f8bd
00000030: fcd2 bf3f ece9 f53d 1aef be3f 0fdf 89bf
00000040: 22ff 5a3f 2fb5 a73f 68a0 e93f a445 c23e
00000050: 1507 b63f f1bb b63e 8942 c73f 2cd0 13bf
00000060: f2af 87be d8ab 923e 7a3c 17bf 66d1 0340
00000070: 875e a4bf 3dfa 1fbf 4260 b13f 0883 af3f
00000080: 65fb 333f 6910 2a40 1149 d03e eab1 ee3f
00000090: afd3 8d3f 1c6b e23f a439 813f 77fa eabe
000000a0: 3b4b d1bf d6d3 d93f 77d5 723f d97f 9a3f
000000b0: f320 f23f e047 83be a801 0640 abde 54bf
000000c0: ae71 4d3f bd03 fdbc 161d 983e 1ddf 183f
000000d0: 6d90 82bf 8a49 1d3f 116d eb3f 0e53 08bf
000000e0: 95c2 503f 53c5 bf3f 8924 27bf 6cea 2d3e
000000f0: 171d 8abf 6583 ae3e 03ec 803f ee98 bf3f
00000100: 194a 3d3f 2288 9e3e 818c 06bf cf2a 2a3e
00000110: 58dc 393f 8247 363f f64d 513f 0ea1 833e
00000120: 1d3a f7be 3400 673f f8b5 8b3f fe6d 043f
00000130: 45fc 7c3d 1fc6 143f db83 1bbf 5f4e a83e
00000140: 08dd 533f 1518 0e3f 45cb 9f3e c984 393f
00000150: 7e2b 2dbf 31ab 37be 08ce 1c3f 8733 1c3f
00000160: 2b2b 853f 060d c83e 1e86 0a3f 7bef d03e
00000170: dd72 9a3e bdb8 743f e7fa 523f 25b7 6c3f
00000180: 5a3f 1abf 828b 0a3f 197d a3be 1eb6 253f
00000190: b831 463f b10b 423f 2bd0 bfbe 62dd 3cbe
000001a0: ec64 983e 93a1 303f 81bc 403f 3382 5d3e
000001b0: 0549 223f ad25 7e3f a6b7 673f f697 413f
000001c0: 1cfc 2d3f f466 ae3e 8477 063f 37ef b9be
000001d0: 8b0f 633d 5201 0abf d783 1f3f 63ca 793f
000001e0: 5dde 46bf 30e5 413f 48f8 b6be f7f5 863f
000001f0: 76e9 0c3f a754 713f 8fbe f33e 7baf 423f
00000200: 2415 9f3f ece6 0440 f467 b03f 8e69 eebf
00000210: 2141 a83f 4583 af3f 7cc3 b43f 1af4 ab3f
00000220: 3d0e da3f 3e8b 76bf fd4c 993f 7d11 a6ba
00000230: eeb3 bdbf bf89 053f 22a7 2c3f 37aa 96be
00000240: 3c82 97bf 3372 d43f b98b c83f 5cc9 ab3f
00000250: a39d a7bf f0d4 bd3f 27da 6c3e 92d8 723f
00000260: b865 01bf e810 68bf 9551 0d3f cc77 b63f
00000270: 090e 393f e7da 533f ebeb b9bf cc2d e23f
00000280: 5723 8dbf f07d e9bf 6081 8dbf 2068 9f3f
00000290: 9651 5abf dd18 cb3f 7ff3 22bf f492 cdbe
000002a0: 8ab6 a7be 96e6 863f 3351 a13d 1e08 95bf
000002b0: 0174 a63f 040b 98bf 2099 b03f 912c 7abf
000002c0: ebca 68bf ae36 883f ba24 a53f 00cd 283f
000002d0: 12e4 553f 563d 36bf 8ada 92bf eda1 c2ba
000002e0: 7036 99bf 2c2c f73f 42d8 0b3f 199f ecbe
000002f0: a3ef 203c 6a8e 7a3f c204 053f 7bed 083f
00000300: bd1c b1bf 7b63 8bbe 52c0 7e3e 84c6 2340
00000310: 74b9 aa3f ed5b a1bf c063 333f 50ca 2dbd
00000320: d9e0 243e ebc7 8abe 1306 8f3f 4679 c23f
00000330: 8c4c bd3f 31da 43bf 53a1 2f3f 2fe5 a2bf
00000340: 177c 8a3f 7f87 ba3f 6876 413e 2728 923f
00000350: 894d 09be 84b2 a73f 73a2 8e3f be14 7fbe
00000360: 993c 4c3f cbee 81bf f7f8 d3be 8b25 0540
00000370: 6495 4c3e 76ff 0040 1607 2dbf 99b1 38bf
00000380: b0e8 1ebd e5d0 e03f a30a 483f 1484 d9bf
00000390: 62b3 073f f012 bb3f 1fd6 c5bf d145 d93f
000003a0: 0298 93bf 0f3e d1bf 019f 693d 34a5 863f
000003b0: b4ad f1bf 9c14 573f 20a3 d0bf 0a5e 643e
000003c0: 1eb6 ba3f 683d 363f fb01 0fbe 1aac e0bf
000003d0: 4c46 c9be 3f79 0b3f 9fcc cdbf 7da1 debe
000003e0: 474f d63f b4b0 84bf 158e 9cbe 68a5 99bf
000003f0: d5d1 5b3d 0cc0 2a40 1750 b8bd 5b2b aa3f

lstm.bias_hh_l0 f4 [256]
1.1318189 2.081271 0.97004956 1.720473 0.9724325 0.939648 -0.033059325 0.8152296
1.047579 0.7158177 -0.05090673 -0.14368068 1.6238309 0.17633703 1.6215498 -1.0787257
0.86320716 1.3013265 1.7230633 0.27910763 1.3925008 0.46661395 1.5204343 -0.36168745
-0.31328276 0.28802803 -0.47017586 2.0366027 -1.318378 -0.7030308 1.4990717 1.5084859
0.64766854 2.6966193 0.5247047 1.7654786 1.1095842 1.9491885 0.9340081 -0.61687595
-1.5959523 1.69021 1.0300629 1.3421783 1.7333452 -0.37902564 1.8816855 -0.951924
0.99042606 0.08580085 0.41775736 0.6228219 -1.0896953 0.52860713 1.618799 -0.30186772
0.9704269 1.470596 -0.52935493 0.14901319 -1.0602471 0.34873566 0.85041004 1.3725349
0.741032 0.08893073 -0.4123344 0.14127655 0.6608136 0.9324469 0.79414463 0.37795553
-0.5192376 0.83290803 1.0775968 0.6081656 0.12780447 0.60980946 -0.682052 0.29087323
0.6515232 0.6463167 0.4772287 0.68295145 -0.64781636 -0.06784587 0.5882929 0.5277193
1.0395858 0.508178 0.71797174 0.28776634 0.4737326 0.9900905 0.7808062 0.9377884
-0.59580666 0.5673599 -0.40763962 0.7922178 0.6546436 0.67832816 -0.38847533 -0.13096146
0.19732228 0.78346676 0.91136384 0.2152916 0.770223 0.92416453 0.8649007 0.66954774
0.6377196 0.38903633 0.7283235 -0.34074694 0.012721688 -0.5829749 0.58414185 0.997932
-0.83236915 0.8299189 -0.36544046 1.0381165 0.64518154 0.88210464 0.3862592 0.78451777
1.3814303 1.9499322 1.2367446 -1.8709008 1.2618779 1.3932786 1.4033308 1.4069666
1.7535361 -0.8707407 1.1532855 -0.060436595 -1.2757723 0.590098 0.6743199 -0.259534
-1.2372956 1.5703248 1.449746 1.4701052 -1.1885244 1.6121546 0.27752322 0.92137045
-0.43008682 -1.0417571 0.6845685 1.3577238 0.6048863 0.8417078 -1.3461955 1.7355134
-1.1267865 -1.6627818 -1.1972636 1.1139369 -0.7868008 1.4131469 -0.7283019 -0.381328
-0.396766 1.1490902 -0.031900797 -1.122318 1.3374695 -1.3014227 1.3965874 -0.7843078
-0.90860313 0.91571355 1.1545548 0.6169819 0.8544473 -0.68658656 -1.0157835 -0.10413384
-1.2365934 1.745206 0.61737233 -0.45174253 -0.14850403 0.98432004 0.462755 0.38830626
-1.2701147 -0.32514152 0.25778663 2.521558 1.1598259 -1.2673299 0.71033627 0.11920791
0.26369223 -0.28235066 0.9619054 1.4133139 1.5808369 -0.81998336 0.63378674 -1.1973678
1.122646 1.4273337 0.20835382 1.2768724 -0.32522407 1.507625 0.914039 -0.23768625
0.74218315 -0.8921882 -0.2604755 1.9590241 0.052026305 1.8474498 -0.6784212 -0.57059675
0.088293865 1.8196363 0.69206405 -1.6247425 0.50301826 1.4413764 -1.6213045 1.5622699
-1.0193312 -1.6955637 -0.01943245 1.0221957 -1.9067203 0.8480586 -1.5247223 0.12752274
1.3574704 0.6892909 -0.31906047 -1.8691572 -0.6003212 0.4834857 -1.6098124 -0.6128061
1.692308 -1.2331331 -0.25238752 -1.0815086 0.042765632 2.7003632 0.10100671 1.5165647
00000000: 71df 903f 8b33 0540 2b55 783f 7638 dc3f
00000010: 56f1 783f c58c 703f 3769 07bd e3b2 503f
00000020: 1217 863f d43f 373f 9383 50bd 0721 13be
00000030: b1d9 cf3f b291 343e f28e cf3f af13 8abf
00000040: 25fb 5c3f de91 a63f 578d dc3f 32e7 8e3e
00000050: 773d b23f 06e8 ee3e 979d c23f 192f b9be
00000060: 9966 a0be 6978 933e e4ba f0be b357 0240
00000070: 9cc0 a8bf d4f9 33bf 95e1 bf3f 1116 c13f
00000080: 9bcd 253f 6995 2c40 0c53 063f 34fb e13f
00000090: db06 8e3f 027f f93f 281b 6f3f 95eb 1dbf
000000a0: 2a48 ccbf cd58 d83f 1ad9 833f 80cc ab3f
000000b0: 41de dd3f a60f c2be 12db f03f 4bb1 73bf
000000c0: 908c 7d3f 5bb8 af3d 4be4 d53e 4271 1f3f
000000d0: 237b 8bbf cc52 073f ce34 cf3f 688e 9abe
000000e0: e66d 783f 7d3c bc3f ce83 07bf ea96 183e
000000f0: 2db6 87bf 7b8d b23e 79b4 593f 39af af3f
00000100: 46b4 3d3f 5121 b63d 7f1d d3be cdaa 103e
00000110: 152b 293f d7b4 6e3f 104d 4b3f 6383 c13e
00000120: c1ec 04bf 7639 553f b1ee 893f beb0 1b3f
00000130: 2ddf 023e 791c 1c3f f69a 2ebf 56ed 943e
00000140: 39ca 263f 0375 253f 5257 f43e e8d5 2e3f
00000150: 4bd7 25bf c7f2 8abd 5d9a 163f 9d18 073f
00000160: 2611 853f f417 023f ffcc 373f 1c56 933e
00000170: 148d f23e 9276 7d3f eae2 473f e712 703f
00000180: c986 18bf 803e 113f 24b6 d0be c9ce 4a3f
00000190: b996 273f eaa6 2d3f 3de6 c6be c31a 06be
000001a0: da0e 4a3e 4791 483f 244f 693f 6775 5c3e
000001b0: 562d 453f 0c96 6c3f 226a 5d3f 7b67 2b3f
000001c0: 9741 233f c52f c73e 6973 3a3f 6276 aebe
000001d0: a06e 503c d83d 15bf 528a 153f 7978 7f3f
000001e0: 2516 55bf 9175 543f 031b bbbe 00e1 843f
000001f0: 9e2a 253f 9cd1 613f c4c3 c53e 28d6 483f
00000200: b5d2 b03f 6197 f93f a64d 9e3f ad79 efbf
00000210: 3785 a13f f456 b23f 58a0 b33f 7b17 b43f
00000220: df73 e03f dde8 5ebf dc9e 933f 5d8c 77bd
00000230: 824c a3bf aa10 173f 3ba0 2c3f a4e1 84be
00000240: b45f 9ebf 6700 c93f 4791 b93f 682c bc3f
00000250: 9121 98bf 155b ce3f 8617 8e3e efde 6b3f
00000260: 5734 dcbe 4c58 85bf e23f 2f3f e5c9 ad3f
00000270: d4d9 1a3f 2a7a 573f 2250 acbf 4e25 de3f
00000280: 8a3a 90bf 09d6 d4bf ef3f 99bf 7c95 8e3f
00000290: c76b 49bf ffe1 b43f fe71 3abf 6c3d c3be
000002a0: ea24 cbbe 6315 933f 69aa 02bd 1ea8 8fbf
000002b0: 3332 ab3f 0595 a6bf 60c3 b23f 65c8 48bf
000002c0: 379a 68bf 346c 6a3f 74c8 933f 87f2 1d3f
000002d0: 0fbd 5a3f 23c4 2fbf 3205 82bf 1f44 d5bd
000002e0: b148 9ebf e962 df3f 1d0c 1e3f cc4a e7be
000002f0: 7111 18be 66fc 7b3f 39ee ec3e 14d0 c63e
00000300: 1e93 a2bf f378 a6be 9cfc 833e 3561 2140
00000310: 2d75 943f de37 a2bf 99d8 353f 4723 f43d
00000320: ab02 873e 4490 90be 6f3f 763f 78e7 b43f
00000330: dd58 ca3f 6eea 51bf d93f 223f 5943 99bf
00000340: ddb2 8f3f dfb2 b63f b45a 553e 8e70 a33f
00000350: c583 a6be dbf9 c03f 76fe 693f 0664 73be
00000360: b7ff 3d3f 7266 64bf 0b5d 85be 4dc1 fa3f
00000370: 8919 553d 3c79 ec3f 03ad 2dbf a112 12bf
00000380: 6ad3 b43d d8e9 e83f 1c2b 313f 90f7 cfbf
00000390: cec5 003f 067f b83f e886 cfbf 76f8 c73f
000003a0: 7279 82bf 3b08 d9bf cd30 9fbc 4fd7 823f
000003b0: 690f f4bf 5e1a 593f 1a2a c3bf 5295 023e
000003c0: 97c1 ad3f 5e75 303f e55b a3be 8b40 efbf
000003d0: a6ae 19bf 708b f73e 550e cebf dce0 1cbf
000003e0: 8c9d d83f 4ed7 9dbf f038 81be e06e 8abf
000003f0: 042b 2f3d c0d2 2c40 9bdc ce3d cb1e c23f

fc.weight f4 [1, 64]
17.529293 16.827501 -14.074373 -21.89775 18.682598 -14.291735 -14.299967 13.57828
14.567418 14.098135 16.546144 -21.960516 -21.860636 8.593252 -13.640956 -17.214512
-17.597145 21.988548 19.42719 15.290115 -17.694626 21.836327 -19.00218 14.20362
-19.35818 -10.898492 11.358177 21.94664 -15.41264 22.004251 13.400942 -15.858894
-12.852822 -19.315083 -21.956991 15.805486 -21.26554 16.410683 -13.404284 -20.16588
16.50884 13.725739 -12.278215 -21.92479 16.072948 14.258142 16.178158 14.328341
-21.58429 19.504211 -10.430675 12.992574 -19.079668 -16.001186 -18.437994 -8.32274
-12.234068 15.295737 -14.68619 -21.842085 14.349505 21.902613 18.111454 -22.036432
00000000: fe3b 8c41 b99e 8641 a230 61c1 982e afc1
00000010: f675 9541 f2aa 64c1 aacc 64c1 a340 5941
00000020: 2514 6941 f691 6141 815e 8441 23af afc1
00000030: 95e2 aec1 f67d 0941 5b41 5ac1 52b7 89c1
00000040: f4c6 8cc1 8ce8 af41 e36a 9b41 50a4 7441
00000050: 988e 8dc1 ccb0 ae41 7704 98c1 0742 6341
00000060: 8ddd 9ac1 3960 2ec1 18bb 3541 b892 af41
00000070: 2c9a 76c1 b508 b041 426a 5641 08be 7dc1
00000080: 29a5 4dc1 4a85 9ac1 eba7 afc1 45e3 7c41
00000090: d31f aac1 1449 8341 f277 56c1 b953 a1c1
000000a0: 1b12 8441 a09c 5b41 9273 44c1 f865 afc1
000000b0: 6695 8041 5a21 6441 de6c 8141 e240 6541
000000c0: a0ac acc1 a008 9c41 0be4 26c1 95e1 4f41
000000d0: 29a3 98c1 6e02 80c1 0381 93c1 f129 05c1
000000e0: bebe 43c1 57bb 7441 a2fa 6ac1 97bc aec1
000000f0: 9397 6541 8d38 af41 42e4 9041 9d4a b0c1
